adult/Models/transformer_v4/0.8544_1/params.pt (torch_old, 51374 bytes, 55 tensors)

transformer_encoder.layers.0.self_attn.in_proj_weight f4 [96, 32]
0	0x3e2adbd8	0.16685426
1	0x3ebbe47f	0.36697766
2	0xbefc167d	-0.49235907
3	0x3e030c55	0.12797673
4	0xbceb2b11	-0.02870706
5	0x3e3cf55e	0.18452975
6	0x3c3b1460	0.011418432
7	0x3ed4b576	0.41544694
8	0xbd81461e	-0.06312202
9	0x3d3d0f92	0.046157427
10	0xbceb9ca2	-0.028761212
11	0x3c8e3aa5	0.017361948
12	0xbe649bef	-0.22325109
13	0xbc71cd24	-0.014758382
14	0x3eb5e977	0.35529682
15	0xbb187826	-0.0023264973
16	0x3c921d90	0.017836362
17	0xbe23372c	-0.15939015
18	0xbee44de8	-0.44590688
19	0x3e24d8bc	0.16098303
20	0xbe2ff77f	-0.17184256
21	0xbe28ee29	-0.16497101
22	0x3cfaf17d	0.030632729
23	0xbe874b50	-0.26424646
24	0x3d02e621	0.03195775
25	0x3e88c95a	0.2671612
26	0x3e8329ae	0.25617737
27	0xbddfbb57	-0.10924404
28	0xbc3186ce	-0.010835363
29	0x3e2d97f1	0.16952492
30	0x3e568745	0.20950039
31	0x3e83c1b2	0.25733715
32	0xbe170d17	-0.14751087
33	0xbe10c6aa	-0.14138284
34	0x3de1fade	0.11034177
35	0xbeaec2f5	-0.34133115
36	0xbe4e70cf	-0.2016022
37	0x3e38f19f	0.18060921
38	0x3e9030d5	0.28162256
39	0xbe843e70	-0.25828886
40	0x3e88c018	0.26709056
41	0x3e48101c	0.19537395
42	0x3f0656e0	0.5247631
43	0xbecfa6cc	-0.40556943
44	0xbe9e228b	-0.3088573
45	0x3ec78017	0.38964912
46	0x3e889629	0.26677063
47	0xbdd7da8d	-0.10539732
48	0xbe7358b9	-0.23764314
49	0xbdee5fd9	-0.11639375
50	0x3e0e1c5a	0.13878003
51	0x3ea86041	0.32885936
52	0xbdf1cbd4	-0.11806455
53	0x3eec0ec6	0.4610502
54	0x3e35b622	0.1774526
55	0x3d680348	0.056643754
56	0x3d6793a0	0.05653727
57	0xbea3f320	-0.32021427
58	0x3dea70b4	0.11447278
59	0x3ea07bd2	0.31344467
60	0x3d8cb084	0.06869605
61	0xbd63d05e	-0.055618636
62	0x3a9741d4	0.0011540004
63	0xbdbe9882	-0.09306432
64	0xbe2044ba	-0.15651217
65	0x3d6aee02	0.05735589
66	0x3d8d1e20	0.068905115
67	0xbcc11859	-0.02357118
68	0xbd468302	-0.048464783
69	0x3d8dc338	0.06922001
70	0x3ea53447	0.32266447
71	0xbea8613d	-0.32886687
72	0xbb534b15	-0.0032240797
73	0x3e9db312	0.30800682
74	0x3eb0a1e8	0.34498525
75	0xbec75f5b	-0.38939938
76	0xbe841eee	-0.25804847
77	0x3e01e7e3	0.12686114
78	0x3e1fadc5	0.15593632
79	0x3ccd75de	0.025080618
80	0xbe53d693	-0.20687322
81	0xbedc391a	-0.43012315
82	0xbd3a64b7	-0.045506205
83	0x3e834ff3	0.25646934
84	0xbe70ccb4	-0.23515588
85	0x3e0758a5	0.13217409
86	0x3e282fc4	0.16424471
87	0x3e9f9373	0.31167182
88	0xbcff1636	-0.03113852
89	0xbeada241	-0.33912852
90	0x3d1ab04b	0.037765782
91	0x3e946deb	0.2899011
92	0xbde1a8eb	-0.11018547
93	0xbea02a4b	-0.31282267
94	0xbdbbffaf	-0.09179627
95	0x3e8a8689	0.27055767
96	0x3e463dff	0.19359587
97	0xbdc22ebb	-0.094815694
98	0x3dde8a3e	0.10866211
99	0xbdaa4915	-0.083147205
100	0xbcdc4169	-0.026886659
101	0x3dbd154a	0.09232576
102	0x3ed2a86c	0.4114412
103	0x3e632b29	0.22184433
104	0xbd01acc2	-0.031658895
105	0xbddeec00	-0.10884857
106	0xbcfa21e0	-0.030533731
107	0xbe396663	-0.18105464
108	0xbe7284cc	-0.2368347
109	0x3e4dc62c	0.20095128
110	0x3de59e89	0.11211879
111	0x3d5a6f88	0.05332902
112	0x3d165e38	0.036710948
113	0xbf08d67b	-0.5345227
114	0xbe0338f0	-0.12814689
115	0x3e97a2b6	0.29616326
116	0xbeb13c5d	-0.34616366
117	0x3ec92cc4	0.39291966
118	0x3d95ce57	0.07314747
119	0x3dc8cb80	0.098044395
120	0xbe80eecf	-0.25182196
121	0x3dea2c4b	0.114342295
122	0x3e035718	0.12826192
123	0x3eeab84d	0.45843735
124	0x3d073c40	0.033016443
125	0xbe27dcc8	-0.16392815
126	0x3e6330b7	0.22186552
127	0xbe080089	-0.13281454
128	0xbcb299c5	-0.021801839
129	0x3e3707f8	0.17874134
130	0x3c6b4314	0.014359254
131	0x3e46308f	0.19354461
132	0x3da9233b	0.08258673
133	0x3e968a3b	0.29402336
134	0x3ec96a67	0.3933899
135	0x3ef211b9	0.47279146
136	0xbed589d3	-0.41706714
137	0xbd82f4f4	-0.06394377
138	0xbe54ceda	-0.20782033
139	0xbdcced38	-0.100061834
140	0xbeb3fd35	-0.3515412
141	0xbdc2d0bd	-0.0951247
142	0xbeb5f692	-0.3553968
143	0x3cca637b	0.02470564
144	0xbe9501ac	-0.29102838
145	0xbe3bcfac	-0.1834094
146	0x3e77780a	0.24166885
147	0x3ea03062	0.31286913
148	0xbe06d655	-0.13167699
149	0x3e951f55	0.29125467
150	0x3d7d7cc2	0.061886556
151	0x3e6bae1c	0.23015636
152	0xbcfc8acc	-0.030827902
153	0x3d3b50d1	0.04573137
154	0x3e31d4f4	0.17366391
155	0xbb457d47	-0.0030134486
156	0xbdb0270c	-0.086011976
157	0x3de0a9d6	0.10969894
158	0x3e96e768	0.29473424
159	0xbe50c13b	-0.20386212
160	0xbe43e0e7	-0.19128762
161	0xbde200d7	-0.110353164
162	0x3dac8ac7	0.08424907
163	0x3e0368b4	0.1283291
164	0x3e218cdb	0.15776388
165	0x3dcd2be7	0.10018139
166	0xbe80ee03	-0.2518159
167	0xbeb80c4e	-0.35946888
168	0xbe453694	-0.19259101
169	0x3e7bc53d	0.24586959
170	0xbcbe2846	-0.023212563
171	0xbdfa7336	-0.12229006
172	0x3e6ef7ce	0.23336717
173	0xbd9569d0	-0.07295573
174	0x3e86f9ca	0.2636245
175	0xbd7c5f53	-0.061614346
176	0xbcb7a976	-0.022419672
177	0x3e7ba7b1	0.24575688
178	0x3e360e7f	0.17778967
179	0x3e4d5be3	0.20054583
180	0x3d8fee21	0.07027841
181	0xbea61d03	-0.3244401
182	0x3e88622d	0.26637402
183	0x3e455175	0.19269355
184	0x3e210b3b	0.1572694
185	0xbe706714	-0.23476821
186	0xbda7fb7d	-0.082022645
187	0x3e19ef26	0.15032634
188	0x3df31b46	0.11870436
189	0x3ce093fc	0.027414314
190	0xbe31b948	-0.17355835
191	0x3eed3c53	0.46335086
192	0xbe219a7e	-0.1578159
193	0xbea3478b	-0.3189052
194	0x3e4d6e9d	0.20061727
195	0xbd72f36b	-0.059314173
196	0xbddde112	-0.108339444
197	0x3e7547ad	0.23953123
198	0x3e85d802	0.26141363
199	0xbe031149	-0.12799563
200	0xbd49c413	-0.049259257
201	0x3e6ed1cb	0.23322217
202	0xbe00fe17	-0.12596928
203	0xbc4d90a3	-0.012546691
204	0x3e829ac7	0.2550871
205	0x3e7a6eb7	0.24456297
206	0xbe443d0f	-0.19163917
207	0xbdd6bf75	-0.10485736
208	0x3d6e219c	0.05813752
209	0xbe57b43a	-0.21064845
210	0x3d414c9f	0.047192212
211	0xbe21087f	-0.15725897
212	0xbd098723	-0.033576142
213	0x3ee5612b	0.44800696
214	0x3e924167	0.28565523
215	0x3e2bff32	0.16796568
216	0xbe641051	-0.22271849
217	0xbc170db2	-0.009219574
218	0xbe3b5307	-0.18293391
219	0xbcbebfbf	-0.023284791
220	0xbd0a7413	-0.033802103
221	0xbea9ba45	-0.33149925
222	0xbeb4d7bf	-0.3532085
223	0x3db3e948	0.08784729
224	0xbe382a71	-0.1798494
225	0x3e2b506d	0.16729899
226	0x3e35f64a	0.17769733
227	0xbe5e6047	-0.21716414
228	0x3eb55e11	0.3542333
229	0xbdfa2da2	-0.12215735
230	0x3d5c7614	0.053823546
231	0xbd79ad20	-0.06095612
232	0xbe56a6eb	-0.20962112
233	0x3eac4e51	0.336535
234	0x3e06d906	0.13168725
235	0xbcd4a2de	-0.025956567
236	0xbe84e56b	-0.25956282
237	0x3dc3445a	0.095345214
238	0x3dbf8f2b	0.09353479
239	0x3e9c530d	0.30532113
240	0xbe60f249	-0.21967424
241	0x3e0aca8a	0.13553825
242	0x3e1aad97	0.15105282
243	0x3e4d8bdf	0.20072888
244	0x3e3e5eba	0.18590823
245	0xbe17917c	-0.14801592
246	0xbcda38b7	-0.026638372
247	0x3d080bd0	0.03321439
248	0xbdb75d2f	-0.0895332
249	0xbd3bd308	-0.045855552
250	0x3dc9dde8	0.098567784
251	0x3eb91c18	0.36154246
252	0x3e0b532b	0.13605945
253	0x3ca2c182	0.019867662
254	0x3eef5255	0.46742502
255	0x3ea248ec	0.3169626

transformer_encoder.layers.0.self_attn.in_proj_bias f4 [96]
0	0xbd86c2a8	-0.065800965
1	0x3d32fa0d	0.0436955
2	0x394c8198	0.00019503233
3	0xbced117e	-0.028939005
4	0xbe8cc025	-0.27490345
5	0x3d7f0dc3	0.062268984
6	0x3dafddd0	0.08587229
7	0x3d354344	0.044253603
8	0xbdec609e	-0.11541866
9	0x3d0af62f	0.033926185
10	0x3d1ed964	0.03878154
11	0xbd91e263	-0.07123258
12	0xbe096662	-0.13417962
13	0x3e488643	0.19582467
14	0xbda3c848	-0.07997185
15	0xbe25201f	-0.16125534
16	0x3dccdba2	0.10002829
17	0xbe7aff40	-0.24511433
18	0xbea4d53d	-0.32193938
19	0x3e34446e	0.17604229
20	0x3e110bbb	0.14164631
21	0x3d885247	0.06656318
22	0x3ccc8761	0.024966897
23	0x3d7c8500	0.061650276
24	0xbb9d2291	-0.0047953804
25	0x3e0d4b67	0.13798295
26	0xbdd96d43	-0.10616543
27	0xbe03e2d7	-0.12879501
28	0xbe010d76	-0.12602791
29	0xbcfa44fa	-0.030550469
30	0xbd4cd358	-0.05000624
31	0xbd2e6bd1	-0.04258329
32	0xbb2954df	-0.002583794
33	0x3b864c2d	0.0040984363
34	0xba82ece5	-0.0009988813
35	0x3b26afae	0.0025434303
36	0xbba685fa	-0.005081889
37	0xbc24ce3d	-0.010058937
38	0xbbf7869e	-0.0075538894
39	0x3c2d2a84	0.010569219
40	0xbb30bc01	-0.0026967528
41	0x3c32a9a6	0.010904705
42	0x3c39aaa6	0.01133219
43	0x3a1f2e1e	0.00060722406
44	0x3bc02b8b	0.0058645657
45	0x3bda3b74	0.0066599194
46	0x3b20e52c	0.002455066
47	0xbb1bb6a9	-0.0023759997
48	0x3c178310	0.009247556
49	0x3c272481	0.010201574
50	0x3d0e2f5b	0.03471313
51	0x3b375de1	0.002797954
52	0xbbb92317	-0.005649935
53	0xbc0ffb1d	-0.008787897
54	0x3aa6b10e	0.0012717561
55	0xbc62b92f	-0.0138380965
56	0x3c39923b	0.011326368
57	0x3c6d0549	0.014466592
58	0x3bbf5a28	0.005839605
59	0xbc44ecc3	-0.012019339
60	0xbc0410d2	-0.008060651
61	0xbbf4ba93	-0.0074685304
62	0xbb4df889	-0.0031428656
63	0xbc04e664	-0.00811157
64	0xbd8d1b96	-0.06890027
65	0x3b253b99	0.0025212525
66	0xbcb77e1a	-0.022398997
67	0xbe02ad18	-0.12761343
68	0xba452b2a	-0.00075213856
69	0x3cf31f9f	0.029678164
70	0x3c009eec	0.00785039
71	0x3cff3716	0.031154197
72	0xbc2dc2a4	-0.010605488
73	0xbd4a3e64	-0.049375907
74	0xbdd84e44	-0.10561803
75	0x3d84e2b7	0.06488555
76	0x3e03f9f4	0.12888318
77	0xbcbbc0b4	-0.022919036
78	0x3d1d7c69	0.038448725
79	0x3d99adc9	0.0750385
80	0x3cdbb226	0.026818346
81	0x3cabe17e	0.020981546
82	0x3c6da617	0.014504931
83	0xbd975494	-0.07389179
84	0x3bfdf986	0.007750693
85	0x3d768fec	0.06019585
86	0xbd993a9e	-0.074818835
87	0x3bed20d5	0.00723658
88	0x3c4a4a7c	0.01234686
89	0x3d8ff81e	0.070297465
90	0xbc73d7b6	-0.014882972
91	0xbd81f59e	-0.06345676
92	0xbd5f6617	-0.05454072
93	0xbc9192b7	-0.017770154
94	0x3c804834	0.01565943
95	0x3cb9f038	0.022697553

transformer_encoder.layers.0.self_attn.out_proj.weight f4 [32, 32]
0	0x3e6b46d0	0.22976232
1	0x3db85346	0.09000258
2	0xbe1b4600	-0.15163422
3	0xbd9df502	-0.07712747
4	0xbdab546d	-0.08365712
5	0xbd743614	-0.059621885
6	0xbd9f1eb6	-0.077695295
7	0x3bf5a506	0.007496479
8	0xbe9961cb	-0.29957423
9	0x3e30a7d9	0.17251529
10	0xbe2304b8	-0.15919769
11	0x3d984ac7	0.07436138
12	0xbd069656	-0.032858215
13	0x3e29ca74	0.16581136
14	0xbe6ee067	-0.2332779
15	0x3e071473	0.13191395
16	0xbebe9c5b	-0.37228665
17	0xbdcc4c50	-0.09975493
18	0xbc8a95eb	-0.01691719
19	0xbd504afc	-0.05085276
20	0xbe11de96	-0.14245066
21	0x3ec6dd6f	0.38840815
22	0xbd590b55	-0.052989323
23	0x3e326589	0.17421545
24	0x3e5ed604	0.21761328
25	0xbd1c1a9b	-0.03811131
26	0x3e089d6b	0.133413
27	0xbe968f7f	-0.29406354
28	0x3d9edee7	0.07757359
29	0xbcf0e58d	-0.029406333
30	0xbda456c2	-0.0802436
31	0xbe8eb525	-0.27872577
32	0xbcc46ede	-0.023978647
33	0x3e478674	0.19484884
34	0xbe0ef3f4	-0.13960248
35	0xbd8829fa	-0.066486314
36	0x3ba32a47	0.004979405
37	0x3d6f96dc	0.05849348
38	0xbec71bcd	-0.38888398
39	0x3d900b9c	0.07033464
40	0x3e2447e7	0.16043054
41	0x3d26ee16	0.0407544
42	0xbbcd6531	-0.0062681665
43	0xbe66460f	-0.22487663
44	0x3e53c549	0.20680727
45	0xbdbd9ec7	-0.092588
46	0x3e6c1049	0.23053087
47	0xbbaa7e66	-0.005203056
48	0x3ca072aa	0.019585926
49	0x3dcaf570	0.09910095
50	0x3e808d04	0.25107586
51	0xbe5a0cbc	-0.2129392
52	0xbd21e121	-0.03952134
53	0x3e267783	0.16256528
54	0x3c90d4bc	0.017679565
55	0xbe6949d3	-0.22782068
56	0xbdea98cf	-0.11454927
57	0x3e7b5015	0.24542268
58	0xbe58b9a0	-0.2116456
59	0xbde4920a	-0.11160667
60	0x3ef7cf31	0.48400262
61	0x3e62277f	0.22085379
62	0x3ea99dab	0.33128104
63	0x3d4433e3	0.047901046
64	0x3e319735	0.17342837
65	0xbea5030c	-0.32228887
66	0xbe8ac0b1	-0.27100137
67	0xbdab3ff2	-0.08361806
68	0xbe29442e	-0.16529915
69	0xbd02a069	-0.03189126
70	0xbd78172f	-0.060568985
71	0xbde4d716	-0.11173837
72	0xbdecc505	-0.11561016
73	0x3d1fb502	0.038990982
74	0x3dd3e7da	0.103469566
75	0xbd79f6cd	-0.061026383
76	0xbe7020ee	-0.23450062
77	0xbe446fe0	-0.19183302
78	0xbe97259a	-0.29520875
79	0x3e39b7e6	0.18136558
80	0x3e49a47d	0.19691654
81	0x3c51d10d	0.012806189
82	0x3e589f42	0.21154502
83	0xbd4a80f4	-0.049439386
84	0x3e78c4b8	0.24293792
85	0x3e05f30c	0.13080996
86	0xbdd47f1c	-0.10375807
87	0x3e05b674	0.13057882
88	0x3e9006f5	0.28130308
89	0x3e0ea54a	0.1393024
90	0xbe1a0330	-0.15040278
91	0x3e6af9a1	0.22946788
92	0x3dcf79bd	0.101306416
93	0xbe6bd446	-0.23030195
94	0xbe5aec48	-0.21379197
95	0xbe04b42d	-0.12959357
96	0xbe8a83ea	-0.27053767
97	0xbe34c545	-0.17653377
98	0xbe128754	-0.14309436
99	0x3e11f42e	0.14253303
100	0xbc5e380f	-0.01356317
101	0x3ea61022	0.32434183
102	0x3dd61201	0.10452653
103	0x3de589da	0.11207934
104	0xbd4108d2	-0.047127552
105	0xbe6cb84f	-0.23117183
106	0x3e206cb9	0.15666474
107	0x3ddbd70b	0.107343756
108	0xbe42620b	-0.18982713
109	0xbda35d85	-0.07976822
110	0xbd92d861	-0.07170177
111	0xbdbef0f2	-0.093233004
112	0xbe82f522	-0.25577646
113	0xbca57188	-0.020195737
114	0x3d2664a5	0.040623326
115	0xbe346728	-0.17617476
116	0x3dc614b3	0.09671917
117	0xbdabfcb6	-0.0839781
118	0xbe4b26a9	-0.19838966
119	0x3d439a20	0.047754407
120	0x3e91cf3c	0.2847842
121	0xbe191880	-0.14950752
122	0x3e66773f	0.22506426
123	0xbe5396c8	-0.20662987
124	0xbe3f3918	-0.18674123
125	0xbda9cca8	-0.08290988
126	0x3d12858e	0.0357719
127	0xbd9cd856	-0.0765845
128	0x3e87519d	0.26429453
129	0xbe096f75	-0.13421424
130	0xbe8f0ec9	-0.27940968
131	0x3d85b4c2	0.065286174
132	0xbd9a8ea1	-0.075467356
133	0xbdeab270	-0.114598155
134	0xbe97b7c3	-0.29632387
135	0x3dee8a45	0.116474666
136	0x3e076201	0.1322098
137	0x3d5eb3b3	0.054370593
138	0x3e591b0f	0.21201728
139	0x3d21a1d2	0.039460965
140	0xbb27ddc2	-0.0025614356
141	0xbe1982ea	-0.14991346
142	0x3d63bef1	0.055602018
143	0x3d85c975	0.065325655
144	0xbd205b48	-0.039149553
145	0xbca73a79	-0.020413624
146	0xbd1e3334	-0.03862305
147	0x3d5c1d87	0.053739097
148	0xbcf19ac1	-0.029492738
149	0xbcc80cdc	-0.024420194
150	0x3e8daec4	0.27672398
151	0x3e890902	0.26764685
152	0xbde77532	-0.1130165
153	0x3e254d61	0.16142799
154	0xbe49e18e	-0.19714949
155	0x3dfccee2	0.12344147
156	0x3dbd9802	0.09257509
157	0xbe8800c8	-0.26563096
158	0xbd8b2621	-0.06794382
159	0xbbbdea67	-0.005795765
160	0xbe92b579	-0.28654078
161	0xbdca85b4	-0.09888783
162	0xbdcd27bc	-0.10017344
163	0xbd9a9146	-0.0754724
164	0xbc3edb67	-0.011648989
165	0x3e1d70f6	0.15375122
166	0x3cc3a98d	0.023884559
167	0x3dfb1967	0.122607045
168	0xbdff3f98	-0.124633014
169	0xbd792c00	-0.060832977
170	0xbed86c36	-0.42270058
171	0x3e7a47c7	0.24441443
172	0xba0b9cb9	-0.00053257827
173	0xbc12527b	-0.008930798
174	0xbcd61709	-0.02613403
175	0xbd3c86b4	-0.0460269
176	0x3d20856c	0.03918974
177	0xbd2a1240	-0.04152131
178	0xbd2b5dc0	-0.041837454
179	0xbcb6b609	-0.022303598
180	0xbd43355d	-0.047658313
181	0xbdccec2f	-0.10005986
182	0xbced53dc	-0.028970651
183	0x3da5bcab	0.08092626
184	0x3e004037	0.12524496
185	0xbdfa1d95	-0.122126736
186	0xbd1e2bee	-0.038616113
187	0xbd70a74e	-0.058753304
188	0xbd3a3c77	-0.04546782
189	0x3da1af00	0.07894707
190	0xbcac307b	-0.021019211
191	0x3b9457ed	0.004527083
192	0x3bb0034d	0.0053714872
193	0x3e15326d	0.14570017
194	0xbe1fab8b	-0.15592782
195	0xbd78e455	-0.06076463
196	0x3ca11b4b	0.019666335
197	0x3c61e335	0.0137870805
198	0xbc968cd2	-0.018377695
199	0x3d71c003	0.059021007
200	0x3d56e19f	0.052461263
201	0xbe0cc6a9	-0.13747658
202	0xbe078878	-0.13235652
203	0x3dc6b1a8	0.09701854
204	0x3dca9888	0.09892374
205	0xbba117cf	-0.0049161683
206	0x3e022165	0.12708052
207	0xbcc2aeb6	-0.02376495
208	0x3e05cf54	0.1306737
209	0x3c81db00	0.015851498
210	0xbd29d2e1	-0.041460875
211	0xbd2b9159	-0.04188666
212	0x3de60a62	0.11232449
213	0x3cf2afaa	0.029624779
214	0x3d88b1a0	0.06674504
215	0xbcf29e2f	-0.029616443
216	0xbdfbd88a	-0.12297161
217	0x3e2cfbe9	0.16892971
218	0xbc6f3dab	-0.014602105
219	0xbe13f6c2	-0.144496
220	0xbe6720cd	-0.22571106
221	0xbdb03295	-0.08603398
222	0x3d9444d7	0.07239693
223	0x3cb1f13b	0.021721473
224	0xbdacc5de	-0.08436178
225	0xbd07a09f	-0.033112165
226	0x3d80e13a	0.062929586
227	0xbe7fa6d9	-0.24965991
228	0x3dca2a43	0.09871342
229	0x3d0bedb1	0.034162227
230	0xbe48b0d6	-0.19598708
231	0xbdff108c	-0.12454328
232	0xbc986b74	-0.018605925
233	0x3dccc3b9	0.09998269
234	0xbe980dd0	-0.29698038
235	0x3de2d338	0.11075443
236	0xbdbe227b	-0.092839204
237	0xbd6fb726	-0.058524273
238	0x3e3fc698	0.18728101
239	0x3d883f89	0.06652743
240	0x3b8043d6	0.0039143367
241	0x3d8798ed	0.06620965
242	0x3e81f03e	0.25378603
243	0xbc95bf76	-0.018279772
244	0xbd8dc821	-0.06922937
245	0x3d235d51	0.039883915
246	0xbe3e4f69	-0.1858498
247	0xbdb708a3	-0.08937194
248	0xbe2b6c46	-0.16740522
249	0xbe9849c4	-0.2974378
250	0xbd184ddd	-0.03718363
251	0xbe0cb820	-0.13742113
252	0x3e866f6e	0.2625689
253	0x3dcc2a1f	0.099689715
254	0x3df910e3	0.12161424
255	0xbde41a42	-0.11137821

transformer_encoder.layers.0.self_attn.out_proj.bias f4 [32]
0	0x3dc934b7	0.09824508
1	0x3eedd806	0.46453875
2	0xbe87f132	-0.26551205
3	0xbe481720	-0.19540071
4	0xbe2e2ac2	-0.17008498
5	0x3ddbbdf8	0.10729593
6	0x3d0dde83	0.03463603
7	0x3e3506cc	0.17678374
8	0xbe3e7ef4	-0.18603116
9	0x3e109e23	0.14122824
10	0xbbf47788	-0.0074605383
11	0x3c86d39f	0.01645833
12	0xbb768af7	-0.003761945
13	0x3d362df6	0.044477426
14	0xbd2381d2	-0.03991873
15	0xbde026d7	-0.10944908
16	0x3d99df46	0.07513289
17	0xbdb86d2a	-0.090051964
18	0xbd9064b8	-0.070504606
19	0xbd109675	-0.035299737
20	0xbe1977f5	-0.14987166
21	0xbdd71d09	-0.10503585
22	0xbe448751	-0.19192244
23	0xbddc9dbd	-0.10772274
24	0xbe110c51	-0.14164855
25	0x3df81ff9	0.12115473
26	0x3d69bf2e	0.05706709
27	0x3b0bc967	0.0021329762
28	0x3d895d7e	0.06707285
29	0xbc15f010	-0.009151474
30	0xbe63628d	-0.22205563
31	0xbd245ce7	-0.04012766

transformer_encoder.layers.0.linear1.weight f4 [64, 32]
0	0xbe52ec14	-0.20597869
1	0xbed4625c	-0.41481292
2	0x3e269f93	0.1627181
3	0x3f17145a	0.5901543
4	0x3d89dc31	0.06731451
5	0xbdbfb0d5	-0.093599
6	0x3d0403e5	0.032230277
7	0xbe9dd385	-0.3082544
8	0xbe8b253f	-0.27176854
9	0xbc88f1a1	-0.01671678
10	0x3e86bff5	0.26318327
11	0xbf0792ca	-0.5295836
12	0xbde26f86	-0.11056428
13	0xbc706d14	-0.014674444
14	0xbeb74131	-0.35791925
15	0x3e4cfe9c	0.20019001
16	0x3d9432dc	0.07236263
17	0xbd3f453c	-0.046696886
18	0x3e86896a	0.26276714
19	0x3ea2c0dd	0.31787768
20	0x3cc5a464	0.02412624
21	0xbe640810	-0.222687
22	0x3db77563	0.089579366
23	0x3ea5435f	0.32277963
24	0x3f0d6b24	0.5524161
25	0xbe1241a7	-0.14282857
26	0xbec19d05	-0.3781511
27	0xbe16ed2a	-0.14738908
28	0x3e5699a1	0.20957042
29	0xbdcd2c54	-0.100182205
30	0xbe6b03b0	-0.22950625
31	0x3e3b31db	0.18280737
32	0x3e69168e	0.2276251
33	0x3ce4677a	0.027881373
34	0x3f189fb2	0.59618676
35	0x3e240fa1	0.16021587
36	0x3edbc9d1	0.4292741
37	0xbe71664a	-0.23574176
38	0xbdf22220	-0.11822915
39	0xbe074ebe	-0.13213632
40	0xbe307468	-0.17231905
41	0xbd61648d	-0.055027533
42	0x3ea3ae4c	0.31968915
43	0xbe6abc46	-0.22923383
44	0x3ec615a9	0.386884
45	0xbe6305b1	-0.2217014
46	0x3e90aa37	0.28254864
47	0xbe44ad54	-0.19206744
48	0xbdafe347	-0.085882716
49	0x3ec469cc	0.38361967
50	0xbed10882	-0.40826803
51	0xbefebf9e	-0.49755567
52	0x3e98ef0f	0.29869887
53	0x3dfc1462	0.12308575
54	0xbe1e5fe4	-0.15466267
55	0xbdf41e1f	-0.11919808
56	0xbe746586	-0.23866853
57	0xbeebd681	-0.4606209
58	0xbbef49ce	-0.0073024994
59	0xbe2aadf6	-0.16667923
60	0xbe117831	-0.14206006
61	0x3e43c8b8	0.19119537
62	0xbef19982	-0.4718743
63	0xbea5c455	-0.32376352
64	0xbd94d187	-0.07266527
65	0x3e897fe6	0.2685539
66	0xbe60e6e5	-0.2196308
67	0xbea37e2e	-0.31932205
68	0x3ebb657e	0.3660087
69	0xbedf3942	-0.43598372
70	0xbea934e8	-0.33048177
71	0x3d4f2707	0.05057433
72	0x3e68863d	0.22707458
73	0xbe605741	-0.21908285
74	0x3d37dc57	0.044887867
75	0x3ea807c0	0.32818413
76	0x3e868e02	0.26280218
77	0x3ee95fe5	0.45580974
78	0x3ece50e7	0.402961
79	0x3edd01aa	0.43165332
80	0x3e0ed96a	0.13950124
81	0xbe4ed51b	-0.20198481
82	0xbeaf748c	-0.34268606
83	0xbe8f073a	-0.279352
84	0x3dfc56ef	0.12321269
85	0xbdc9211c	-0.09820768
86	0xbd9fcabc	-0.078023404
87	0xbd84cdd1	-0.06484569
88	0xbef5744c	-0.4794029
89	0xbeaa7b00	-0.33296967
90	0x3e886580	0.26639938
91	0x3e023f06	0.12719354
92	0x3d57f243	0.052721273
93	0x3f5a1153	0.85182685
94	0xbcead7b4	-0.028667308
95	0xbebf36eb	-0.37346587
96	0x3daa8509	0.08326156
97	0xbf13531a	-0.5754868
98	0xbe42d404	-0.1902619
99	0x3e391a4c	0.18076438
100	0x3e01c9d1	0.12674643
101	0x3da4a27a	0.080388024
102	0x3db66f99	0.08908004
103	0xbeb106b9	-0.3457544
104	0x3e93a742	0.28838545
105	0xbe8fc366	-0.28078765
106	0xbba366db	-0.0049866266
107	0x3e9a43a8	0.30129743
108	0xbe5a044f	-0.21290706
109	0x3ed48811	0.4151006
110	0x3f2a69f1	0.66567904
111	0xbe2e255d	-0.1700644
112	0x3e7c0c09	0.24613966
113	0x3c9e9c48	0.01936163
114	0x3eb0f944	0.34565175
115	0x3ebec202	0.3725739
116	0x3d891f71	0.0669545
117	0x3e8c6e32	0.27427822
118	0x3cb3aafc	0.021932118
119	0x3ca0b579	0.019617783
120	0x3e3e532e	0.18586418
121	0xbe9b57fd	-0.30340567
122	0xbdc0a666	-0.09406738
123	0x3e45340b	0.19258134
124	0xbe88c3ef	-0.26711985
125	0x3e3c89a1	0.18411876
126	0xbe1d0442	-0.15333655
127	0x3e0e7d1b	0.13914911
128	0x3d37c03d	0.044861067
129	0x3d40e5da	0.047094204
130	0x3e0a536b	0.13508384
131	0x3dd0acad	0.10189185
132	0x3ebd6a8f	0.3699536
133	0xbd481a64	-0.048853293
134	0xbd0f0645	-0.03491809
135	0x3e120d00	0.14262772
136	0xbe93e0ec	-0.2888254
137	0x3d1af2d3	0.03782923
138	0x3e73406c	0.23755044
139	0x3d403242	0.04692293
140	0x3e1be387	0.15223514
141	0x3d8db8b6	0.069199964
142	0x3e6a30c8	0.22870171
143	0xbe93c930	-0.2886443
144	0xbe84f946	-0.2597143
145	0xbe25f62d	-0.1620719
146	0xbef0ae25	-0.47007862
147	0xbf0121e1	-0.5044232
148	0xbc8e3e1f	-0.017363606
149	0x3e49865e	0.19680163
150	0xbe01ba3d	-0.126687
151	0xbe773f96	-0.2414535
152	0xbe15a721	-0.14614536
153	0xbef47928	-0.47748685
154	0xbd2e358e	-0.042531542
155	0x3db30630	0.087414145
156	0xbe47cc49	-0.19511522
157	0x3e95a3bf	0.2922649
158	0xbe17dc1c	-0.14830059
159	0xbf2163f5	-0.6304315
160	0xbea2c955	-0.3179423
161	0x3f0ebacf	0.557538
162	0xbe308a20	-0.1724019
163	0xbd9b2643	-0.07575657
164	0x3ec99b6a	0.39376384
165	0xbee3a3ed	-0.44461003
166	0xbc9c6064	-0.019088931
167	0x3e90a367	0.28249666
168	0xbd26cbf8	-0.040721864
169	0xbe27ff72	-0.16406038
170	0xbdcb71c1	-0.09933806
171	0x3e85c850	0.2612939
172	0xbc657255	-0.01400431
173	0x3e9b1c38	0.30294967
174	0x3eaa971e	0.33318418
175	0x3ef68335	0.48146978
176	0xbae6a745	-0.0017597458
177	0xbea4ef0d	-0.3221363
178	0xbee9546c	-0.4557222
179	0x3e0d9aed	0.13828631
180	0xbb133511	-0.002246205
181	0xbe5e81eb	-0.21729247
182	0x3ebb19a0	0.36542988
183	0xbe911e74	-0.28343546
184	0xbf3607f5	-0.7110589
185	0xbe8b72e0	-0.2723608
186	0x3e42aa11	0.19010188
187	0x3eef5dc0	0.46751213
188	0x3db9d6d2	0.09074177
189	0x3f836520	1.0265236
190	0x3dac641c	0.08417532
191	0xbdb977da	-0.09056063
192	0xbe0eefc3	-0.1395865
193	0xbebf7609	-0.3739474
194	0x3bc0f2e1	0.0058883284
195	0x3e1a321b	0.15058176
196	0x3c0ba7f4	0.00852393
197	0x3d693797	0.05693778
198	0xbcc8c3fe	-0.024507519
199	0x3e346bc4	0.17619234
200	0xbdb50c1e	-0.08840202
201	0xbbf29b73	-0.007403785
202	0xbdadc7f0	-0.08485401
203	0x3f0e0c69	0.55487686
204	0x3e3ea357	0.18616997
205	0x3e854db6	0.2603585
206	0x3d99cae7	0.07509404
207	0xbd2f80be	-0.042847387
208	0x3dd5904f	0.10427915
209	0x3c044b61	0.008074612
210	0xbdfe319f	-0.12411808
211	0x3cd2532e	0.025674429
212	0x3e909fba	0.28246862
213	0xbdd86aff	-0.10567283
214	0x3ef67d15	0.48142305
215	0xbda75648	-0.08170754
216	0xbd887cc5	-0.06664423
217	0xbcd3adf0	-0.025839776
218	0x3e0a82d3	0.13526468
219	0x3e0c4efd	0.13702007
220	0xbe850bb1	-0.25985482
221	0x3f2cdbe2	0.67523015
222	0xbef8b166	-0.48572844
223	0x3d8ae09f	0.06781124
224	0xbe0f66e1	-0.14004089
225	0x3cbbd6cb	0.02292957
226	0x3d4afa1b	0.049554925
227	0x3da4edc9	0.080531664
228	0xbe127f8f	-0.14306472
229	0xbc500e0b	-0.012698661
230	0xbe871a88	-0.2638743
231	0x3e6616d0	0.2246964
232	0xbe15b6f6	-0.14620575
233	0x3b259947	0.0025268362
234	0xbebe39cf	-0.3715348
235	0x3f011f64	0.50438523
236	0x3ed86205	0.42262283
237	0xbda0c8dd	-0.07850812
238	0xbeb80911	-0.35944417
239	0x3e5770b0	0.2103908
240	0xbce45e3d	-0.027876968
241	0x3cc7efdf	0.024406372
242	0xbd85e74e	-0.065382585
243	0xbe2552f7	-0.1614493
244	0xbbbdf948	-0.005797539
245	0x3e121a76	0.14267907
246	0x3e690209	0.22754683
247	0x3e3cd51b	0.18440668
248	0x3dd54df7	0.10415261
249	0x3da9d941	0.08293391
250	0xbda91b08	-0.08257109
251	0xbed26b5a	-0.41097528
252	0xbd952324	-0.07282093
253	0x3e62edc3	0.22161011
254	0x3ed57443	0.41690263
255	0xbe42d639	-0.19027032

transformer_encoder.layers.0.linear1.bias f4 [64]
0	0xbebbfef3	-0.36717948
1	0x3e8abfcb	0.2709945
2	0xbe100011	-0.14062525
3	0xbe6cf70a	-0.23141113
4	0xbdb8cbaa	-0.09023221
5	0x3e7ab817	0.24484287
6	0xbe60b579	-0.21944226
7	0xbecaf8c3	-0.39642915
8	0xbea8b853	-0.32953128
9	0xbdea784a	-0.114487246
10	0xbbaaf441	-0.0052171056
11	0xbe98b70f	-0.29827163
12	0xbe2f406b	-0.17114417
13	0x3c401345	0.011723344
14	0xbec56cd1	-0.38559583
15	0xbe6e0dd8	-0.23247468
16	0xbe917fa9	-0.2841771
17	0xbe9c63cd	-0.30544892
18	0xbcf874c8	-0.030329123
19	0xbe9c8905	-0.30573288
20	0xbdd28528	-0.10279304
21	0xbe23c923	-0.15994696
22	0xbec5d74d	-0.38640824
23	0xbe8f21b8	-0.27955413
24	0xbe02690c	-0.12735385
25	0x3bb5c19e	0.0055467626
26	0xbe6fdd26	-0.23424205
27	0x3cd3a570	0.025835723
28	0xbe334532	-0.17506865
29	0xbe49b545	-0.19698055
30	0x3b987e10	0.0046536997
31	0xbe47af0e	-0.19500372
32	0xbebe8274	-0.37208903
33	0x3dde8c80	0.10866642
34	0x3e5348be	0.20633218
35	0xbe9ba010	-0.30395555
36	0xbee616f4	-0.44939387
37	0xbda58ef1	-0.080839045
38	0xbe9dc1b4	-0.30811846
39	0xbd8efb01	-0.06981469
40	0xbe0880c6	-0.13330373
41	0x3d01a3bf	0.0316503
42	0xbed03a36	-0.4066941
43	0xbec17582	-0.37784964
44	0xbe0cab19	-0.13737144
45	0xbde8ff95	-0.113768734
46	0xbeafde84	-0.34349453
47	0xbed0a609	-0.40751675
48	0xbec4d154	-0.38440955
49	0xbe12b1de	-0.14325663
50	0xbe957e69	-0.29198006
51	0xbdbed4a8	-0.09317905
52	0xbe80a248	-0.2512381
53	0xbdc69426	-0.09696226
54	0x3e049f5d	0.12951417
55	0xbed23176	-0.4105336
56	0xbe239c38	-0.15977561
57	0x3e12ee32	0.14348677
58	0xbeffd3d9	-0.49966314
59	0xbe802949	-0.25031498
60	0xbe8bf283	-0.2733346
61	0xbd8e2a13	-0.06941619
62	0x3c2033de	0.009777991
63	0xbe23474c	-0.15945166

transformer_encoder.layers.0.linear2.weight f4 [32, 64]
0	0x3f8b81d0	1.0898991
1	0xbdb7175f	-0.089400046
2	0x3eda338e	0.42617458
3	0xbe09a87e	-0.13443181
4	0x3e244890	0.16043305
5	0x3eebd194	0.46058333
6	0x3e88db21	0.26729682
7	0xbe8f9506	-0.28043383
8	0xbe668c97	-0.22514568
9	0x3ee80a9a	0.45320588
10	0xbeebf4eb	-0.46085295
11	0x3f130eee	0.57444656
12	0xbe370b25	-0.17875345
13	0xbd39cd54	-0.04536183
14	0xbe8d7537	-0.2762849
15	0xbc1697f0	-0.009191498
16	0x3eb0d89c	0.3454026
17	0xbc1d802c	-0.009613078
18	0x3e4aa70d	0.19790287
19	0xbe6c57c0	-0.23080349
20	0xbc9160e1	-0.01774639
21	0x3de6d7a0	0.11271596
22	0xbcd3d909	-0.025860326
23	0xbdbce027	-0.09222441
24	0x3ec26548	0.37967896
25	0xbdce1ee8	-0.10064489
26	0x3e55a272	0.20862749
27	0xbe492b6c	-0.1964547
28	0x3dd4e38e	0.10394965
29	0xbe640fa8	-0.22271597
30	0x3e2d7e46	0.169427
31	0x3e813fbb	0.25243935
32	0xbe826847	-0.25470182
33	0x3e9f15ac	0.31071222
34	0x3f195db0	0.5990858
35	0x3ea1745c	0.31534088
36	0x3e49a526	0.19691905
37	0x3edfe57b	0.43729767
38	0xbd94dc7a	-0.07268615
39	0xbf0b81ed	-0.54495126
40	0xbd93984a	-0.07206781
41	0x3f16a4ae	0.5884503
42	0x3f139ea2	0.5766393
43	0x3e554c1d	0.20829816
44	0x3e1e2976	0.15445504
45	0xbefd4c9c	-0.4947251
46	0xbece950c	-0.4034809
47	0x3e01a165	0.12659223
48	0x3f9226e0	1.1418114
49	0x3e9dc474	0.30813944
50	0x3cab2612	0.020892177
51	0x3f00a3c4	0.50249887
52	0x3f82d7da	1.0222123
53	0xbec47f6e	-0.3837847
54	0xbed72603	-0.42021188
55	0xbeb4b238	-0.3529222
56	0x3e85e623	0.26152143
57	0xbe7f2e87	-0.24920093
58	0x3e216d36	0.15764317
59	0x3e7c68fe	0.24649426
60	0xbd67ba37	-0.056574073
61	0xbe956145	-0.29175773
62	0x3dc3c50b	0.09559067
63	0x3e9aa9ac	0.30207574
64	0x3eaa9ee0	0.33324337
65	0xbca82005	-0.02052308
66	0x3f0e7b1f	0.5565662
67	0x3d1136e3	0.035452735
68	0x3eacf61d	0.3378152
69	0x3e9cc6dd	0.3062047
70	0x3e716c95	0.23576577
71	0xbef9d73f	-0.48797032
72	0xbd20872a	-0.039191402
73	0x3e9d69b1	0.307447
74	0xbead9eb1	-0.33910134
75	0x3e816028	0.25268674
76	0x3f359e9d	0.7094515
77	0x3e2319a2	0.15927747
78	0x3e7f5674	0.24935323
79	0x3ddf1351	0.10892356
80	0x3e37d30c	0.17951602
81	0xbdd54ddd	-0.10415242
82	0x3ac753c9	0.0015207465
83	0x3d579ada	0.052637912
84	0x3e916d9d	0.2840394
85	0x3ea02f97	0.31286308
86	0xbcae9583	-0.021311527
87	0x3eb337f5	0.3500363
88	0x3da43319	0.080175586
89	0xbe632c20	-0.22184801
90	0xbe343bf7	-0.17601
91	0xbe846e83	-0.25865564
92	0x3ed264d7	0.4109256
93	0x3e4a01f7	0.19727312
94	0x3e7034c9	0.23457636
95	0x3e13792f	0.14401697
96	0xbdd2a8d7	-0.1028611
97	0x3ec4d878	0.38446403
98	0x3e0ed477	0.13948236
99	0xbe588a08	-0.21146405
100	0xbe28394f	-0.16428111
101	0x3ee1764c	0.44035566
102	0xbdbbb179	-0.091647096
103	0x3cc56504	0.02409602
104	0x3f022943	0.5084421
105	0x3ea9bc6f	0.33151576
106	0x3ebc2620	0.36747837
107	0xbe72d9e7	-0.23715936
108	0x3ce43038	0.027855024
109	0xbc1c14fb	-0.0095264865
110	0xbdabe187	-0.08392625
111	0x3e9ba9e0	0.30403042
112	0x3f2c6d80	0.67354584
113	0x3de6e653	0.112743996
114	0x3f2f114a	0.68385756
115	0x3e11ee6c	0.14251107
116	0x3e844a4e	0.2583794
117	0xbc22d827	-0.00993923
118	0xbeee490f	-0.46540114
119	0xbe323bee	-0.17405674
120	0x3d55abe9	0.0521659
121	0xbe93a9b2	-0.28840405
122	0xbe73ef63	-0.23821788
123	0x3ed11fd9	0.4084461
124	0x3e35ccba	0.17753878
125	0xbe539533	-0.20662384
126	0x3c96634c	0.018357895
127	0x3eaf3e63	0.34227285
128	0xbdba82ef	-0.09107005
129	0xbdec1398	-0.11527175
130	0x3ab27259	0.00136144
131	0x3db72efb	0.08944508
132	0xbdbc33f7	-0.09189599
133	0xbb75286c	-0.0037408127
134	0xbd9f0586	-0.077647254
135	0x3c6e9d2d	0.014563841
136	0xbd798a91	-0.060923163
137	0x3d3cc445	0.046085615
138	0x3e44de4e	0.19225428
139	0xbe01d337	-0.12678228
140	0x3c8fd6fa	0.017558564
141	0xbc1dd6d8	-0.009633742
142	0x3efdeb8d	0.49593773
143	0x3eb79720	0.35857487
144	0x3d6db3da	0.058032848
145	0xbe801d74	-0.2502247
146	0xbe2b0ee3	-0.16704898
147	0x3a4c7b13	0.0007800322
148	0x3ed8425b	0.42238125
149	0x3ea21763	0.31658468
150	0xbe3640cd	-0.17798157
151	0xbe19672a	-0.1498076
152	0xbc0e6d21	-0.008693011
153	0x3eed196e	0.46308464
154	0x3ea4d117	0.32190773
155	0x3ec5e620	0.38652134
156	0x3d8cf15e	0.06881975
157	0x3cda8f59	0.026679682
158	0x3cce4e2a	0.025183756
159	0xbdad0e5e	-0.08450006
160	0x3daaa0ce	0.08331452
161	0xbd8ba634	-0.0681881
162	0x3e2d77d1	0.16940238
163	0x3d03784f	0.032097157
164	0x3c3ce1b6	0.011528423
165	0x3d695792	0.05696828
166	0x3e90d002	0.28283697
167	0xbe72f6a2	-0.23726895
168	0x3710f7b7	8.640744e-06
169	0x3d83d378	0.06436819
170	0xbd4e7bbd	-0.050410975
171	0xbe2dda1c	-0.16977733
172	0xbd2ac071	-0.041687433
173	0xbded4174	-0.1158475
174	0x3db2ce5e	0.08730768
175	0xbe514ee4	-0.2044025
176	0xbe3bc27c	-0.18335909
177	0x3ea09d2e	0.3136992
178	0xbd885a22	-0.066578165
179	0xbe1e958b	-0.15486734
180	0xbe8d5353	-0.27602634
181	0xbd63d9ed	-0.055627752
182	0xbdf4b34c	-0.11948261
183	0x3cbc3971	0.022976609
184	0xbdd4febc	-0.10400149
185	0x3ec48148	0.38379884
186	0xbe00a903	-0.12564473
187	0x3cc9a6a9	0.024615603
188	0x3e50ec4d	0.20402642
189	0x3ef0db83	0.47042474
190	0xbe6d35c0	-0.23165035
191	0xbd5e9b8d	-0.054347564
192	0x3e1aca4a	0.1511623
193	0xbe3c2112	-0.1837199
194	0x3d77691e	0.060402982
195	0x3d6ddc60	0.058071494
196	0xbe6908b9	-0.22757234
197	0x3c878916	0.01654486
198	0x3d93cf25	0.07217244
199	0x3eb937cc	0.36175382
200	0x3d47fd46	0.048825525
201	0x3e585189	0.21124853
202	0x3d071135	0.032975394
203	0x3ef59034	0.4796158
204	0x3cdb3f39	0.026763545
205	0xbee06bd1	-0.43832257
206	0xbddf5941	-0.10905696
207	0x3e86d7d5	0.26336542
208	0xbd71c67f	-0.05902719
209	0x3dbe8c6d	0.09304128
210	0x3cd4ade5	0.025961826
211	0x3e8ef468	0.27920842
212	0x3d955cd0	0.07293093
213	0x3e9c8c25	0.30575672
214	0x3e54786c	0.20749062
215	0x3d9a7eab	0.07543691
216	0x3e8056cc	0.2506622
217	0x3d970e01	0.07375718
218	0x3e852e09	0.26011685
219	0x3ef94974	0.48688853
220	0x3f392d0c	0.7233436
221	0x3eab22fe	0.33425134
222	0xbd59197c	-0.05300282
223	0x3e54ee5c	0.20794052
224	0x3e9fbed5	0.3120028
225	0x3e67001c	0.22558635
226	0x3e73ec08	0.23820508
227	0x3e11e4f7	0.142475
228	0x3e686d16	0.22697863
229	0x3ea5dcb0	0.32394934
230	0x3eac9abe	0.3371181
231	0x3e8fdb84	0.28097165
232	0x3e516f23	0.20452552
233	0x3e67aed6	0.22625288
234	0x3d9979dd	0.07493947
235	0x3df9f2f4	0.12204543
236	0xbdc80846	-0.09767203
237	0x3ceb048b	0.02868869
238	0x3e5e0405	0.21681221
239	0xbe024ada	-0.12723866
240	0x3f386c1e	0.72039974
241	0x3eb555f3	0.35417137
242	0xbf20ec50	-0.62860584
243	0x3e93649c	0.28787696
244	0xbe885772	-0.26629215
245	0xbbf68b84	-0.007523956
246	0x3d9909c3	0.07472565
247	0x3dc65d02	0.096857086
248	0xbe20876a	-0.15676656
249	0x3e2fbf13	0.17162733
250	0xbeccf909	-0.4003375
251	0x3efae89d	0.49005595
252	0x3c45eb78	0.012080066
253	0x3db76c56	0.0895621
254	0xbecfc0d1	-0.40576795
255	0x3de95236	0.113926336

transformer_encoder.layers.0.linear2.bias f4 [32]
0	0x3e6782dc	0.22608513
1	0x3eb963b7	0.3620889
2	0x3dfc7e30	0.12328756
3	0xbeb2e3dc	-0.34939468
4	0x3e1807c3	0.14846711
5	0xb99267a8	-0.0002792452
6	0xbe05021e	-0.12989089
7	0xbd051bdc	-0.032497272
8	0xbefb5165	-0.49085537
9	0x3ed1d5f4	0.40983546
10	0x3d58b454	0.05290635
11	0x3d11191a	0.03542433
12	0xbb652ce5	-0.0034969386
13	0xbcf2078b	-0.029544612
14	0x3c6d217a	0.0144733135
15	0xbe6d2091	-0.23156954
16	0xbe096fad	-0.13421507
17	0x3ce27ddf	0.02764791
18	0xbd1555ab	-0.036458652
19	0xbdbe15f2	-0.092815295
20	0xbddbfd65	-0.107416905
21	0xbe6bf8eb	-0.23044173
22	0xbe322183	-0.17395596
23	0xbb980898	-0.0046396963
24	0xbf3f34a2	-0.74689686
25	0xbddbe8d5	-0.107377686
26	0x3e7b19e0	0.2452159
27	0xbd43b938	-0.04778406
28	0xbcc146aa	-0.023593266
29	0x3e2ae8f4	0.16690427
30	0x3dc641cc	0.096805185
31	0xbd864f61	-0.06558109

transformer_encoder.layers.0.norm1.weight f4 [32]
0	0x3f9c71ce	1.222223
1	0x3f677887	0.90418285
2	0x3ef199e7	0.4718773
3	0x3f5196b7	0.818706
4	0x3f6677eb	0.9002673
5	0x3fb98ddb	1.4496416
6	0x3fc9371e	1.5719945
7	0x3f26a8e5	0.6510146
8	0x3f3fe9f0	0.74966335
9	0x3f6a2e36	0.9147676
10	0x3ff4bf14	1.9120812
11	0x3f96cb30	1.1780758
12	0x3f3fcb21	0.74919325
13	0x3f06a289	0.5259176
14	0x3f815739	1.0104743
15	0x3f8bed97	1.0931882
16	0x3f0fa5bb	0.5611226
17	0x3f8dcd75	1.1078326
18	0x3f0da919	0.5533615
19	0x3f78fd28	0.97261286
20	0x3f3a3842	0.7274209
21	0x3f0c5c67	0.54828495
22	0x3fb60162	1.4219172
23	0x3f5b8baa	0.85759985
24	0x3f385eee	0.7201985
25	0x3f53ae63	0.8268797
26	0x3fc8568f	1.5651416
27	0x3f93aaa0	1.1536446
28	0x3f1800a5	0.59375983
29	0x3f739656	0.9515127
30	0x3f1b71c2	0.60720456
31	0x3f6eb6d8	0.9324775

transformer_encoder.layers.0.norm1.bias f4 [32]
0	0x3e43109f	0.19049309
1	0x3f64955b	0.892904
2	0xbee0c1e2	-0.4389792
3	0xbf1841d6	-0.5947546
4	0xbf0ccae0	-0.5499706
5	0x3e83fdd2	0.25779587
6	0x3eed8fac	0.46398675
7	0x3edff35f	0.43740365
8	0xbd020c78	-0.031750172
9	0x3da2f53a	0.079569295
10	0xbe320b74	-0.17387182
11	0x3f0075b9	0.5017963
12	0xbd88999f	-0.06669926
13	0x3d3e31df	0.04643428
14	0xbe6f62a4	-0.23377472
15	0xbe69a95c	-0.22818512
16	0x3ecac0c6	0.396002
17	0xbeb19d2b	-0.34690222
18	0xbe40d5bc	-0.18831533
19	0x3d56243f	0.05228066
20	0xbe91a412	-0.28445488
21	0xbe64e714	-0.22353774
22	0xbed4b2b4	-0.4154259
23	0xbec3d848	-0.38250947
24	0xbeefe82f	-0.4685683
25	0x3ee4a0bd	0.44653884
26	0x3e91196b	0.28339705
27	0x3e3596d8	0.17733324
28	0x3dc39c7d	0.09551332
29	0x3eb1125d	0.34584323
30	0x3e50bd12	0.20384625
31	0xbe43fb5d	-0.19138856

transformer_encoder.layers.0.norm2.weight f4 [32]
0	0xbc8e4b4d	-0.01736989
1	0x3e52330e	0.20527288
2	0x3eba3d66	0.36374968
3	0xbcfa9642	-0.030589227
4	0x3e889e61	0.26683334
5	0x3c864969	0.016392427
6	0x3f06f014	0.5271008
7	0x3e814eee	0.2525553
8	0x3d3608fb	0.04444216
9	0x3e5080a8	0.20361578
10	0x3f875fea	1.0576146
11	0x3f66d340	0.9016609
12	0x3f3d4c0e	0.73944175
13	0x3f4c5933	0.7982361
14	0x3f380255	0.7187856
15	0x3e4000dc	0.18750328
16	0x3e9b5abe	0.30342668
17	0x3f3b42ff	0.731491
18	0x3f07234c	0.52788234
19	0x3edbcbd7	0.42928955
20	0x3f1b8b6d	0.6075962
21	0xbd37d39d	-0.044879545
22	0x3cab1394	0.020883359
23	0x3eedd4ab	0.46451315
24	0xbb058ab7	-0.002037687
25	0x3e9d9c80	0.30783463
26	0x3ea2053a	0.31644613
27	0x3eb4b04f	0.35290763
28	0x3ec59890	0.38592958
29	0x3e91815e	0.28419012
30	0x3eb94352	0.36184174
31	0x3ee7a742	0.45244795

transformer_encoder.layers.0.norm2.bias f4 [32]
0	0x3c65f828	0.014036216
1	0xbe5869fc	-0.2113418
2	0x3bacb40c	0.0052704867
3	0x3c100c46	0.008791989
4	0x3c21c420	0.00987342
5	0x3c0297ac	0.007970732
6	0xbe934db9	-0.28770235
7	0xbd7841fb	-0.0606098
8	0x3d73719b	0.059434514
9	0xbf09fffb	-0.5390622
10	0xbd8247e4	-0.06361368
11	0xbe4da441	-0.20082189
12	0x3e301900	0.17197037
13	0xbe1f8176	-0.15576729
14	0xbd2c9623	-0.04213537
15	0x3d87e258	0.066349685
16	0xbd9efa08	-0.077625334
17	0x3e267cef	0.16258596
18	0xbc7ae068	-0.015312292
19	0x3af27cd2	0.0018500334
20	0xbc0ce1bc	-0.008598741
21	0xbd86c491	-0.06580461
22	0x3c09c50e	0.008408798
23	0x3bfb903c	0.007677106
24	0xb9e99fdc	-0.00044560328
25	0xbd37a048	-0.04483059
26	0xbe82a9fb	-0.2552031
27	0xbde7151e	-0.11283325
28	0xbce5165e	-0.027964767
29	0xbd378658	-0.044805855
30	0xbcef706f	-0.029228417
31	0xbcf5fc9d	-0.030027682

embedding.0.bias f4 [32]
0	0x3d43bbba	0.047786452
1	0xbf8e6ee9	-1.1127597
2	0xbf8b34b5	-1.087546
3	0xbfa8bf7e	-1.3183439
4	0x3e272b7c	0.16325182
5	0xbf4767d6	-0.77892816
6	0xbf05aaaa	-0.5221354
7	0xbe4a6da1	-0.19768383
8	0x3e98d53b	0.29850182
9	0x3f594678	0.8487315
10	0x3ec1d4d9	0.37857702
11	0x3fcdc0e8	1.6074495
12	0x3f280735	0.65636
13	0x3eea6178	0.45777488
14	0x3f9107a0	1.1330452
15	0xbeee62c8	-0.4655974
16	0x3f85cde3	1.0453457
17	0xbd5f3682	-0.054495342
18	0x3d953f9b	0.072875224
19	0xbf8c96b4	-1.0983491
20	0x3e591976	0.21201119
21	0xbeb2038f	-0.3476834
22	0x3e99c3b3	0.3003212
23	0xbf1c3e89	-0.6103292
24	0x3fb67f75	1.4257647
25	0xbdb8720b	-0.09006127
26	0x3e9d6fa5	0.3074924
27	0x3faffa4d	1.3748261
28	0x3de51af3	0.11186781
29	0x3f9495d7	1.1608227
30	0xbd3d43d9	-0.046207283
31	0xbf5075cd	-0.8142975

embedding.0.weight_g f4 [32, 1]
0	0x3eeefb73	0.46676216
1	0x3e12733d	0.14301772
2	0x3eaea70d	0.34111825
3	0x3f2c9a4a	0.67422926
4	0x3f26ef28	0.65208673
5	0x3daef8e8	0.08543569
6	0x3ed14a4c	0.40876997
7	0xbe8deeb5	-0.27721182
8	0x3e5efcec	0.2177617
9	0x3e189a93	0.14902715
10	0x3d30a328	0.043124348
11	0x3e8aeed2	0.2713533
12	0x3eb65a5d	0.35615817
13	0x3e23fbe0	0.16014051
14	0x3f142b30	0.578784
15	0x3eee7eed	0.46581212
16	0x3e2f25e0	0.17104292
17	0x3d0e8f5a	0.03480468
18	0x3ee5dcdc	0.44895065
19	0x3ea77322	0.32705027
20	0x3f16ee07	0.5895695
21	0x3f114721	0.5674916
22	0x3f21358f	0.6297235
23	0x3f86e06f	1.0537242
24	0x3f159266	0.5842651
25	0x3e704c95	0.23466714
26	0x3eeee417	0.46658394
27	0x3d70fa47	0.058832433
28	0x3e9214bd	0.28531447
29	0x3f729c91	0.9477015
30	0x3f289fe7	0.6586899
31	0x3de6b3ed	0.11264787

embedding.0.weight_v f4 [32, 1]
0	0x3eabdd09	0.33567074
1	0xbe46075b	-0.19338743
2	0xbf31aba1	-0.6940251
3	0x3f5e7219	0.8689285
4	0xbf612bca	-0.8795744
5	0xbe800000	-0.25
6	0xbf30f348	-0.6912122
7	0xbd7789c6	-0.060434125
8	0x3edc6e52	0.43052918
9	0xbe9c61c6	-0.30543345
10	0x3ea6c251	0.32570127
11	0xbe260e17	-0.16216312
12	0x3ed016ad	0.406423
13	0xbe32c6c7	-0.1745864
14	0xbf000000	-0.5
15	0xbf370b21	-0.71501356
16	0x3eb3370d	0.35002938
17	0x3e2a631b	0.16639368
18	0xbf0c11e9	-0.5471483
19	0xbe9c3943	-0.30512437
20	0xbf56e17f	-0.8393783
21	0xbf350d53	-0.70723456
22	0xbf778a74	-0.9669564
23	0x3f7af4dc	0.98029876
24	0xbf331f22	-0.6996938
25	0x3ed741c3	0.4204236
26	0xbf57b567	-0.84261173
27	0x3e71ba16	0.23606142
28	0x3ef978d9	0.48725012
29	0xbf69d553	-0.9134113
30	0xbf6fea6c	-0.93717074
31	0x3e2573c7	0.16157447

embedding.1.bias f4 [32]
0	0x3ed2870b	0.41118655
1	0xbd86b58a	-0.065775946
2	0xbc53927d	-0.0129133435
3	0xbf57bccd	-0.8427246
4	0x3e817a30	0.25288534
5	0x3d4b01ee	0.049562387
6	0xbe313621	-0.17305805
7	0x3d893941	0.067003734
8	0x3f8f335b	1.1187547
9	0xbe455bcb	-0.19273297
10	0x3e26b23e	0.16278931
11	0xbfb1c879	-1.3889304
12	0xbebdbdc6	-0.37058848
13	0xbf45ea0e	-0.77310264
14	0xbe855f7a	-0.26049405
15	0xbef32676	-0.4749028
16	0xbf4f40ee	-0.8095845
17	0xbec6f84b	-0.38861308
18	0x3ed01052	0.4063745
19	0x3f5e7054	0.8689015
20	0x3f08eec3	0.5348932
21	0x3cdf22f7	0.027238352
22	0xbed39210	-0.41322374
23	0x3f347e2d	0.7050503
24	0x3f6ec5ea	0.9327074
25	0x3f192a84	0.598305
26	0xbe10848d	-0.14113064
27	0xbee522a0	-0.4475298
28	0x3e93cd38	0.28867507
29	0xbe515bb4	-0.20445138
30	0xbd0358bb	-0.03206704
31	0x3dd22e5e	0.1026275

embedding.1.weight_g f4 [32, 1]
0	0xbdab39df	-0.083606474
1	0x3e52bf98	0.205809
2	0x3eda18b0	0.4259696
3	0x3f12ff6a	0.5742098
4	0x3efad643	0.48991594
5	0x3e3bddb5	0.18346293
6	0x3dc808c9	0.09767301
7	0x3e2cb820	0.16867113
8	0x3ecb04a9	0.39651993
9	0x3e52478d	0.20535107
10	0x3ed6e5ba	0.41972142
11	0x3f256090	0.6460047
12	0x3f00a3f2	0.5025016
13	0x3e65f8a5	0.22458132
14	0x3ee230d6	0.44177884
15	0x3e903162	0.28162676
16	0x3e340481	0.17579843
17	0x3eaaa194	0.333264
18	0x3de999ca	0.11406286
19	0x3dc870d0	0.09787142
20	0xbce82be4	-0.028341241
21	0x3d87352a	0.06601937
22	0x3da5860f	0.0808221
23	0x3e9f63b1	0.31130746
24	0x3f2f98f2	0.6859275
25	0xbca3f058	-0.020012066
26	0xbd6f0cad	-0.058361698
27	0x3f8a3969	1.079877
28	0x3e1601b6	0.1464909
29	0xbd28337e	-0.04106473
30	0xbce1ad98	-0.027548596
31	0x3c550fd8	0.013004266

embedding.1.weight_v f4 [32, 1]
0	0x3d40754d	0.046986867
1	0x3efe318e	0.49647182
2	0x3eb3cd42	0.35117537
3	0xbf2345dd	-0.6377848
4	0x3ef1a1c8	0.47193742
5	0x3f17b3e6	0.5925888
6	0x3f102bd0	0.5631685
7	0x3e15b848	0.14621079
8	0x3f012519	0.5044723
9	0xbebf5bda	-0.37374765
10	0x3f43a083	0.76416796
11	0x3f544c5a	0.82929003
12	0x3f4a1bd5	0.7894872
13	0x3e26309f	0.16229485
14	0x3f39a55d	0.7251795
15	0x3e2c6f7a	0.168394
16	0x3e60b764	0.21944958
17	0xbf424141	-0.7588082
18	0x3eb6c046	0.35693568
19	0x3ede6b0e	0.4344105
20	0xbda0bf57	-0.07848995
21	0x3f000000	0.5
22	0x3f332252	0.69974244
23	0xbf05ecff	-0.5231475
24	0xbf5a1aa3	-0.85196894
25	0x3e6a54d0	0.22883916
26	0x3d5fb2dc	0.054613933
27	0x3f6678f1	0.9002829
28	0xbea4be7b	-0.32176575
29	0x3de40fd9	0.11135835
30	0xbd830fcd	-0.06399498
31	0x3d24f606	0.04027369

embedding.2.bias f4 [32]
0	0xbef7e2d9	-0.4841526
1	0x3cb62445	0.022234092
2	0xbe6eda91	-0.23325564
3	0x3dd328ea	0.10310538
4	0xbecb3af1	-0.39693406
5	0x3e9871e4	0.29774392
6	0x3e19feef	0.15038656
7	0xbeb0cb61	-0.34530166
8	0x3ec0e769	0.37676552
9	0xbee2561b	-0.44206318
10	0x3e3ee353	0.18641405
11	0xbe1773fa	-0.14790335
12	0x3de6aac8	0.11263043
13	0xbf12cb71	-0.57341677
14	0xbf8c346c	-1.0953498
15	0xbf131f13	-0.5746929
16	0x3efb75f1	0.4911342
17	0xbf56cbce	-0.8390473
18	0x3f86d329	1.0533191
19	0x3ec5707f	0.3856239
20	0xbf013a8a	-0.5047995
21	0x3f4a7304	0.7908175
22	0xbf10b8a8	-0.56531763
23	0xbeff1b41	-0.4982548
24	0xbe3d0911	-0.1846049
25	0x3e26972d	0.16268606
26	0xbd8c7e56	-0.06860034
27	0xbf976c03	-1.1829838
28	0x3f686454	0.9077809
29	0xbf68b24d	-0.90897065
30	0xbeeb68a6	-0.45978278
31	0xbe74f311	-0.23920847

embedding.2.weight_g f4 [32, 1]
0	0x3ef35b45	0.4753057
1	0x3c05cd50	0.008166626
2	0x3eae0360	0.3398695
3	0x3f59c5d1	0.8506747
4	0x3f836c4f	1.0267428
5	0x3f8c1c5e	1.0946157
6	0xbd01c594	-0.031682566
7	0x3ec414ad	0.38297024
8	0x3ee067b7	0.43829128
9	0xbd042913	-0.032265734
10	0x3ea01601	0.31266788
11	0x3e5f0ed5	0.21783002
12	0x3e6f63ad	0.23377867
13	0x3e8b7e94	0.2724501
14	0xbdb2f5f0	-0.08738315
15	0x3f77e32f	0.9683103
16	0x3edb2854	0.42804205
17	0x3e65f4cd	0.22456665
18	0x3f800826	1.0002487
19	0x3f00a4ab	0.50251263
20	0x3ed4fafb	0.41597733
21	0xbc8a377f	-0.016872166
22	0x3e330ae9	0.1748463
23	0x3f3f9b18	0.7484603
24	0x3e0f8083	0.14013867
25	0x3f2d1478	0.6760936
26	0x3f73e159	0.9526573
27	0x3fa7efb1	1.3120023
28	0x3ea853aa	0.3287633
29	0x3f097fda	0.5371071
30	0x3b977e24	0.0046231914
31	0x3f13ea16	0.5777906

embedding.2.weight_v f4 [32, 1]
0	0x3ed03a64	0.4066955
1	0x3ead31a9	0.3382695
2	0xbeec602f	-0.46167132
3	0xbf5986fc	-0.84971595
4	0x3f3d83a9	0.7402902
5	0xbf62d092	-0.88599503
6	0x3e45a0cb	0.19299619
7	0x3ef256db	0.4733189
8	0xbddf35d0	-0.10898936
9	0xbf02085b	-0.50794
10	0x3f1ebe20	0.6200886
11	0x3e386cbc	0.18010229
12	0x3e2fc953	0.17166643
13	0x3e577451	0.21040465
14	0xbe74470c	-0.23855227
15	0x3f783843	0.9696085
16	0x3f201427	0.6253075
17	0x3d9b4073	0.07580652
18	0xbf5e2029	-0.8676782
19	0xbee0690f	-0.43830153
20	0x3f0665a8	0.52498865
21	0xbcf30c1d	-0.029668862
22	0xbeaf388a	-0.34222823
23	0x3f3749a5	0.7159675
24	0x3d8469e4	0.064655095
25	0xbefbca24	-0.4917766
26	0xbf79ee47	-0.9762921
27	0x3f65cb3a	0.89763224
28	0xbec4e400	-0.384552
29	0x3f013987	0.50478405
30	0xbe33ea6a	-0.1756989
31	0x3f5c3cdb	0.8603036

embedding.3.bias f4 [32]
0	0x3f2d2761	0.6763821
1	0x3f03ff4e	0.5156144
2	0xbe4da675	-0.2008303
3	0x3f160e3f	0.5861549
4	0x3e1fed44	0.15617853
5	0x3f947621	1.159855
6	0x3f9766c9	1.1828243
7	0xbfbf19be	-1.4929731
8	0xbdb00682	-0.08594991
9	0xbf409124	-0.75221467
10	0xbf161c40	-0.58636856
11	0xbf8b9b12	-1.0906699
12	0x3eed0f9c	0.46300972
13	0xbe9c0aa2	-0.30476862
14	0x3f1e28ad	0.61780816
15	0x3db975d7	0.09055679
16	0x3fae6298	1.3623838
17	0xbea5fd58	-0.32419848
18	0xbff7dac1	-1.9363633
19	0xbf98f637	-1.1950139
20	0xbf1e38be	-0.6180533
21	0x3f8fdc08	1.1239023
22	0x3ec411f6	0.38294953
23	0x3e97024c	0.2949394
24	0xbf0dcb47	-0.553883
25	0x3f936bd3	1.151728
26	0xbf8dc0f0	-1.1074505
27	0x3ea8e6ba	0.3298853
28	0x3e2c1373	0.16804294
29	0xbf837a30	-1.0271664
30	0xbf94c864	-1.1623654
31	0x3f510929	0.816546

embedding.3.weight_g f4 [32, 1]
0	0x3f96fb39	1.1795417
1	0x3f38e862	0.7222959
2	0x3ea8500f	0.3287358
3	0x3f15e885	0.5855792
4	0x3e22dcbb	0.15904514
5	0x3edf9793	0.4367033
6	0x3f08c19d	0.5342043
7	0xbd947e3d	-0.072506405
8	0x3f0cbad8	0.549726
9	0x3f51478f	0.81749815
10	0x3e3bb933	0.18332367
11	0x3ecace70	0.39610624
12	0x3f2e5e13	0.68112296
13	0x3e5f6090	0.2181418
14	0xbd4b749f	-0.049671765
15	0x3e89b928	0.26899076
16	0xbdc03bf4	-0.09386435
17	0x3e6cb1e7	0.2311474
18	0xbd359756	-0.04433378
19	0x3ef1b34f	0.47207114
20	0x3ebcb42a	0.36856204
21	0x3f7d9c83	0.9906694
22	0x3d59e1ed	0.053193975
23	0x3f000284	0.5000384
24	0x3e10ac20	0.1412816
25	0x3e254ec7	0.16143332
26	0x3f261c41	0.6488686
27	0x3e0f71b4	0.14008218
28	0x3f4dce06	0.8039249
29	0x3eba4f5d	0.36388674
30	0x3eae5bf0	0.34054518
31	0x3f27e036	0.65576494

embedding.3.weight_v f4 [32, 1]
0	0xbf75024a	-0.9570662
1	0x3f448fd3	0.7678196
2	0x3f1616c7	0.58628505
3	0x3ef7ddbd	0.4841136
4	0xbdf27bc3	-0.11840012
5	0xbf3c1007	-0.73461956
6	0xbf178246	-0.59183156
7	0xbe3858a6	-0.18002567
8	0x3f57f5c1	0.84359366
9	0x3f2e3b2f	0.68059057
10	0xbdb839e8	-0.0899542
11	0x3eb42185	0.35181823
12	0x3f74aa8f	0.9557275
13	0x3f169f33	0.5883667
14	0x3cb5f181	0.022209885
15	0xbeb2f9c6	-0.34956187
16	0xbe4f5aa1	-0.20249416
17	0x3edc6435	0.43045202
18	0xbdde7428	-0.10861999
19	0x3f51c74d	0.81944734
20	0xbf1b0b34	-0.6056397
21	0xbf6734bd	-0.9031485
22	0x3ec2e3b7	0.38064358
23	0x3f05f0a8	0.5232034
24	0x3e060d43	0.13090996
25	0x3e16cb05	0.14725883
26	0xbf800000	-1.0
27	0xbe3020a1	-0.17199947
28	0xbf6cbd9a	-0.9247681
29	0x3ebd9cbe	0.37033647
30	0x3e85d088	0.2613566
31	0x3f359180	0.7092514

embedding.4.bias f4 [32]
0	0xbeb07bf3	-0.34469566
1	0x3f6aeda2	0.9176885
2	0xbf3bed3a	-0.73408854
3	0x3f4eaf40	0.8073616
4	0x3f46ce0d	0.7765816
5	0x3eabc372	0.3354755
6	0xbee811a4	-0.4532596
7	0xbe658936	-0.22415623
8	0xbe8070a6	-0.25085944
9	0x3f4645f3	0.77450484
10	0xbc28add4	-0.01029535
11	0xbbeeee55	-0.007291595
12	0xbe1415c8	-0.14461434
13	0xbe863b6c	-0.2621721
14	0x3e375563	0.17903666
15	0xbf12d00f	-0.5734872
16	0xbece2f65	-0.40270534
17	0xbf973b88	-1.1815042
18	0x3ec36a41	0.38167003
19	0x3ee8f604	0.45500195
20	0xbf2e30cc	-0.6804321
21	0x3e14c5c3	0.14528565
22	0xbf377510	-0.71663
23	0xbed5c483	-0.4175149
24	0x3f1fde20	0.6244831
25	0x3dc25fb0	0.09490907
26	0x3f5c33c4	0.8601649
27	0x3e943151	0.28943875
28	0x3f6248df	0.8839244
29	0x3cbea2fa	0.023271073
30	0x3e615b56	0.22007498
31	0x3e0d46dc	0.13796562

embedding.4.weight_g f4 [32, 1]
0	0x3f3c78cc	0.7362182
1	0x3f33bed9	0.70213085
2	0x3ecdf565	0.40226284
3	0x3f5cf8bc	0.8631704
4	0x3f898f34	1.0746827
5	0x3f099807	0.537476
6	0x3e86edf7	0.26353428
7	0xbe93f8b7	-0.28900692
8	0x3f0c0c22	0.54706013
9	0x3e68a00c	0.22717303
10	0x3f1e4b31	0.61833483
11	0x3e1b8d19	0.15190543
12	0x3ef2cef5	0.4742352
13	0x3ead21ca	0.33814842
14	0x3f2d099c	0.6759279
15	0x3f4c8747	0.79893917
16	0x3e872d22	0.2640162
17	0x3e09be7c	0.1345157
18	0x3e2af60b	0.1669542
19	0x3e8d08ca	0.27545768
20	0x3e43ee5c	0.19133896
21	0xbdcf2133	-0.10113754
22	0x3e0bf5da	0.13668004
23	0x3f1f6c9f	0.6227512
24	0x3e875a25	0.26435962
25	0xbe2df723	-0.16988806
26	0x3ed5adba	0.41734105
27	0x3ee6ab19	0.45052412
28	0x3ef6c3c1	0.48196223
29	0x3f31e489	0.6948934
30	0x3f1d157b	0.613609
31	0xbd6b0ef2	-0.0573873

embedding.4.weight_v f4 [32, 1]
0	0x3f3881ca	0.7207304
1	0xbf5b981a	-0.85778964
2	0xbf394232	-0.7236663
3	0xbf4f2603	-0.80917376
4	0xbf55397a	-0.8329083
5	0x3f02f5ec	0.51156497
6	0x3d1bcc10	0.038036406
7	0xbdc59b15	-0.0964872
8	0x3e9b86b5	0.3037621
9	0x3f16e160	0.58937645
10	0xbf79e95f	-0.9762172
11	0xbdfaf855	-0.12254397
12	0x3eea70f3	0.45789298
13	0xbf17070d	-0.58995134
14	0x3f37f07b	0.7185132
15	0x3f6d1a72	0.9261848
16	0x3ebfefa5	0.37487522
17	0x3e3c58a4	0.18393189
18	0xbe35dea0	-0.17760706
19	0x3e8fe478	0.28103995
20	0x3f25db3d	0.64787656
21	0xbecf4b2b	-0.40487036
22	0x3e18978a	0.14901558
23	0x3ef7649e	0.48318952
24	0xbe3b5295	-0.18293221
25	0x3d353691	0.04424149
26	0xbf1b13aa	-0.6057688
27	0xbebcae94	-0.36851943
28	0xbf099454	-0.53741956
29	0xbf187ac1	-0.5956231
30	0xbf13135a	-0.57451403
31	0x3e368a4c	0.17826194

embedding.5.bias f4 [32]
0	0x3dea61b9	0.1144442
1	0x3f87c661	1.0607415
2	0xbe8b6537	-0.27225658
3	0x3e309e75	0.17247947
4	0xbeb946d6	-0.36186856
5	0xbf068964	-0.5255339
6	0x3f0988ae	0.5372418
7	0x3d9a79ee	0.075427875
8	0x3db53ab5	0.08849088
9	0x3f80eb1f	1.0071753
10	0x3ea9422f	0.33058307
11	0xbdbbe60f	-0.091747396
12	0x3ee7b869	0.4525788
13	0x3e97f438	0.29678512
14	0xbdb0383d	-0.086044766
15	0xbf443b1d	-0.766527
16	0xbfa66d59	-1.300212
17	0xbd947ae1	-0.0725
18	0xbf24ce93	-0.6437771
19	0x3d37b07b	0.04484604
20	0xbf2dd54e	-0.679036
21	0xbcd4f1ff	-0.025994299
22	0xbf4219fb	-0.75820893
23	0xbf424bc3	-0.75896853
24	0x3f149104	0.58033776
25	0x3e2ded2f	0.1698501
26	0xbdd361aa	-0.10321362
27	0x3f1ecfa7	0.620356
28	0x3f8f85a2	1.1212656
29	0xbf8fe535	-1.1241823
30	0xbf3b240d	-0.73101884
31	0x3e60e07a	0.21960631

embedding.5.weight_g f4 [32, 1]
0	0x3eb125d9	0.34599188
1	0x3f2ec866	0.68274534
2	0x3ebc8557	0.3682048
3	0x3f0f4807	0.5596928
4	0x3eb5e741	0.35527995
5	0x3f82414d	1.0176178
6	0x3f455afb	0.7709195
7	0x3f4d72c0	0.8025322
8	0xbe74f1ab	-0.23920314
9	0x3f447937	0.7674746
10	0x3f0cf4d6	0.5506109
11	0x3e8476e0	0.25871944
12	0x3eba3d1a	0.36374742
13	0x3f17a8e5	0.5924209
14	0x3f610fbb	0.8791463
15	0x3e92d538	0.28678298
16	0x3f2a196e	0.6644505
17	0x3f63e5cb	0.8902251
18	0x3da6a166	0.08136253
19	0x3f29d453	0.66339606
20	0x3dc8015e	0.09765886
21	0x3eeb3f73	0.45946845
22	0x3f1df809	0.61706597
23	0x3f8ef129	1.1167346
24	0x3e667d88	0.22508824
25	0xbdf16108	-0.11786085
26	0x3e9bac36	0.30404824
27	0x3f5a4b8d	0.8527153
28	0x3ed09eaf	0.40746066
29	0x3f22e41e	0.6362933
30	0x3f837a7e	1.0271757
31	0x3df5df95	0.120055355

embedding.5.weight_v f4 [32, 1]
0	0xbf26a6fe	-0.6509856
1	0x3f335531	0.70051867
2	0x3e30d472	0.17268541
3	0x3f0dfff2	0.55468667
4	0xbedff9e7	-0.43745348
5	0xbf1a700e	-0.6032723
6	0x3f3bccb1	0.7335921
7	0x3f2a0a70	0.66422176
8	0x3d18ffb3	0.03735323
9	0x3f07fe65	0.5312255
10	0xbf2247db	-0.6339089
11	0xbf34626d	-0.70462686
12	0xbe85409f	-0.26025864
13	0x3ebfcd50	0.37461329
14	0x3f78641a	0.9702774
15	0xbe8bf2ff	-0.2733383
16	0x3f5da07b	0.86573
17	0xbf71eda2	-0.94503224
18	0x3d96e315	0.07367531
19	0x3f615a3d	0.8802832
20	0x3d200136	0.039063655
21	0x3f049b1d	0.51799184
22	0x3f79b770	0.9754553
23	0x3f7c7213	0.98611563
24	0xbecc0d0f	-0.39853713
25	0x3e00b3e9	0.1256863
26	0xbf50531d	-0.8137682
27	0x3f0f3f71	0.5595618
28	0xbe800000	-0.25
29	0xbf42ea3d	-0.7613867
30	0x3f22c8ed	0.6358784
31	0xbd27ddab	-0.040982883
