adult/Models/mixture_v1/0.8462_1/params.pt (torch_old, 22367 bytes, 60 tensors)

attention_mechanism.in_proj_weight f4 [24, 8]
-0.16335692 0.41273856 -0.10290562 -0.0334049 -0.4968217 -0.42138043 0.32235745 0.044473205
0.5203609 -0.59187436 0.29955533 -0.07577943 -0.057873547 0.66605633 0.38880125 -0.54215705
-0.5666496 0.46172422 -0.19573297 0.13439253 0.22697596 -0.23574042 -0.35506365 0.20407677
0.12227563 0.43945867 -0.4504411 -0.14036143 0.29491875 -0.7598314 -0.12250045 0.26577213
0.51667655 -0.16431528 0.4098929 0.62976545 -0.022438815 0.49220875 0.3863838 -0.11357475
-0.26421365 0.1509263 0.37341398 -0.567149 -0.72575665 -0.7663294 -0.43092108 0.3811654
-0.37318128 0.14125268 -0.28132987 -0.21923755 0.64132345 -0.33745173 0.18591511 -0.12334475
0.73657125 -0.31892478 -0.12094218 0.07050927 0.008253727 0.43268508 -0.17795226 -0.42561018
-0.33398274 -0.1835742 -0.11613478 -0.03418128 0.12049644 0.17325997 0.33634827 -0.4857974
0.46011338 0.6341374 -0.16480102 0.17356394 -0.23807032 0.01956192 -0.032396797 0.28470385
-0.056029394 -0.59802383 -0.18736541 -0.08137782 -0.13086985 -9.77255e-06 0.56082404 0.31995773
-0.25298384 -0.24478325 -0.002438792 -0.0012127217 0.69309986 -0.09780232 0.7012297 -0.0130771175
0.7185607 0.7825513 0.27894205 -0.19499569 -0.623883 0.43444777 -0.11012789 0.44698828
0.20018864 -0.44006857 -0.79973876 0.7025203 0.20119742 -0.35534298 -0.48748633 -0.58683246
-0.16892621 -0.5315728 0.509391 -0.08607993 0.16486795 -0.13518757 0.2599382 0.2874712
-0.1514148 0.810104 -0.08316316 -0.16219535 -0.15687533 -0.7569746 0.14549284 -0.17168285
-0.13333774 -0.17950276 -0.3390817 -0.3416236 -0.32270554 0.4945278 -0.017783564 -0.18429145
-0.019335734 0.4036295 -0.22090499 0.19722039 -0.27938375 -0.3935626 0.29605263 0.19474162
0.40916148 0.19188417 0.1293254 0.22010379 -0.8295168 0.23711622 -0.32304454 0.25490206
-0.2668656 -0.35925078 0.2389495 0.17114949 0.14139289 0.1393488 -0.4985369 0.04146529
0.32128593 0.5295692 -0.05967725 0.07409413 0.46539637 0.3106677 0.13134627 -0.2730871
0.094212234 0.14375971 -0.20436248 0.2433838 -0.479727 0.28243187 -0.059213515 0.30029908
-0.25815728 -0.19991358 0.3629121 0.17259215 0.6667894 0.20362179 -0.14291045 -0.16211627
-0.35517353 0.07823168 0.23514877 0.043821264 -0.28659728 0.18038823 0.37402543 -0.026879298
00000000: 0947 27be 7852 d33e 2fc0 d2bd 94d3 08bd
00000010: 6a5f febe 2dbf d7be 090c a53e 8929 363d
00000020: 5f36 053f 1485 17bf 515f 993e 3f32 9bbd
00000030: d00c 6dbd ab82 2a3f f510 c73e ceca 0abf
00000040: f30f 11bf 1e67 ec3e 396e 48be 329e 093e
00000050: 636c 683e f065 71be e7ca b5be 80f9 503e
00000060: a56b fa3d ba00 e13e 37a0 e6be e8ba 0fbe
00000070: 97ff 963e 5084 42bf 84e1 fabd 4913 883e
00000080: ea44 043f 4442 28be 7bdd d13e 4f38 213f
00000090: 9bd1 b7bc c902 fc3e 19d4 c53e e199 e8bd
000000a0: 0347 87be 6d8c 1a3e 1e30 bf3e ad30 11bf
000000b0: 30cb 39bf 2a2e 44bf b0a1 dcbe 1c28 c33e
000000c0: 9e11 bfbe 8ba4 103e 780a 90be cf7f 60be
000000d0: c62d 243f 79c6 acbe 8860 3e3e 2c9c fcbd
000000e0: ef8f 3c3f 1c4a a3be 89b0 f7bd 2a67 903d
000000f0: a43a 073c e688 dd3e 1e39 36be 94e9 d9be
00000100: c9ff aabe e0fa 3bbe 12d8 edbd ab01 0cbd
00000110: d6c6 f63d 106b 313e d735 ac3e 70ba f8be
00000120: fb93 eb3e d456 223f 99c1 28be bfba 313e
00000130: b5c8 73be 5240 a03c 81b2 04bd b4c4 913e
00000140: 147f 65bd 1718 19bf b8dc 3fbe 6aa9 a6bd
00000150: bf02 06be c8f4 23b7 2a92 0f3f 80d1 a33e
00000160: 1987 81be 76a8 7abe 24d4 1fbb 30f4 9eba
00000170: fe6e 313f 954c c8bd ca83 333f 6841 56bc
00000180: 98f3 373f 4855 483f 7ed1 8e3e f3ac 47be
00000190: ccb6 1fbf f06f de3e bb8a e1bd a6db e43e
000001a0: 40fe 4c3e ab50 e1be aebb 4cbf 5fd8 333f
000001b0: b206 4e3e 84ef b5be cf97 f9be a73a 16bf
000001c0: fefa 2cbe 2815 08bf 7367 023f ad4a b0bd
000001d0: 25d3 283e 9c6e 0abe 9f16 853e 6d2f 933e
000001e0: 7b0c 1bbe fa62 4f3f 7251 aabd 8a16 26be
000001f0: eda3 20be 16c9 41bf 13fc 143e a1cd 2fbe
00000200: b089 08be 92cf 37be 1e9c adbe 4ae9 aebe
00000210: a939 a5be bf32 fd3e d6ae 91bc e6b6 3cbe
00000220: f965 9ebc 87a8 ce3e eb34 62be 24f4 493e
00000230: 630b 8fbe 0981 c9be 3694 973e 596a 473e
00000240: 9d7d d13e 497d 443e e16d 043e e362 613e
00000250: 375b 54bf 98ce 723e 1866 a5be 8682 823e
00000260: 9ca2 88be b8ef b7be 2daf 743e d041 2f3e
00000270: 4cc9 103e 74b1 0e3e 3b40 ffbe 82d7 293d
00000280: 977f a43e d991 073f 2270 74bd aabe 973d
00000290: 6f48 ee3e d60f 9f3e a37f 063e 13d2 8bbe
000002a0: 58f2 c03d bf35 133e 6644 51be 9a39 793e
000002b0: c79e f5be e99a 903e df89 72bd cdc0 993e
000002c0: 312d 84be 25b6 4cbe 9dcf b93e ffbb 303e
000002d0: b6b2 2a3f 3b82 503e 1e57 12be cf01 26be
000002e0: 4ed9 b5be ee37 a03d d7ca 703e ed7d 333d
000002f0: e1bc 92be b1b7 383e 4380 bf3e f931 dcbc

attention_mechanism.in_proj_bias f4 [24]
-0.25426677 0.16449101 -0.2022017 -0.23622029 0.009760004 0.10104559 -0.043378618 -0.23279274
0.014384757 0.010220598 -0.012377176 0.0070253294 -0.0066130604 -0.0031866534 0.0069747344 0.011393882
2.0563638 0.9137262 -0.786924 0.6000334 1.3366553 -1.5847605 -1.8281564 -1.2365384
00000000: 412f 82be 5570 283e f60d 4fbe bbe3 71be
00000010: 6ce8 1f3c fef0 ce3d c7ad 31bd 3861 6ebe
00000020: 0bae 6b3c 4c74 273c a4c9 4abc bc34 e63b
00000030: 5fb2 d8bb 2cd7 50bb 508c e43b 68ad 3a3c
00000040: 779b 0340 f6e9 693f da73 49bf ca9b 193f
00000050: 8517 ab3f 6fd9 cabf 0701 eabf e446 9ebf

attention_mechanism.out_proj.weight f4 [8, 8]
0.06717945 -0.2181371 -0.07080551 -0.2048699 0.2817254 0.030487176 -0.43050757 0.20448314
0.24504958 -0.12328952 -0.05520122 0.07161971 -0.1626471 0.06381054 0.15360053 -0.24878159
-0.14371839 -0.22511843 -0.3609536 0.1608342 0.048410036 -0.12973477 0.15500872 0.09088427
0.36518937 0.011129329 -0.4830088 -0.14074068 0.1977591 -0.219131 0.094754845 -0.06266195
0.19819254 -0.08590635 0.3767057 0.21632177 -0.27150562 -0.33206815 -0.27491367 -0.41106883
-0.54347926 0.36627534 0.32112113 -0.14918289 -0.0073663327 0.19302614 0.28225216 0.2801088
0.32015315 0.49646267 -0.17126948 -0.047129802 0.26228362 -0.34397697 -0.47623673 0.08193798
0.4715537 0.19607301 0.31413096 0.14646795 0.12784883 -0.13612168 -0.14830433 -0.16300744
00000000: 6195 893d 555f 5fbe 7b02 91bd 6ac9 51be
00000010: 503e 903e 3ec0 f93c 7d6b dcbe 0764 513e
00000020: 47ee 7a3e 377f fcbd ad1a 62bd 5bad 923d
00000030: f68c 26be 1aaf 823d 7549 1d3e 9ac0 7ebe
00000040: ea2a 13be 7285 66be e9ce b8be b8b1 243e
00000050: 9a49 463d 31d9 04be 9bba 1e3e 8821 ba3d
00000060: 1afa ba3e ca57 363c ee4c f7be 531e 10be
00000070: 5d81 4a3e e063 60be d40e c23d e954 80bd
00000080: fcf2 4a3e abef afbd 92df c03e 7483 5d3e
00000090: c902 8bbe d604 aabe 7cc1 8cbe 9d77 d2be
000000a0: 7521 0bbf 7188 bb3e fd69 a43e 66c3 18be
000000b0: 4761 f1bb a5a8 453e 5b83 903e 6c6a 8f3e
000000c0: 1deb a33e 5b30 fe3e 4461 2fbe 2e0b 41bd
000000d0: 0a4a 863e c01d b0be 4dd5 f3be 1acf a73d
000000e0: 7d6f f13e 5dc7 483e c6d5 a03e b2fb 153e
000000f0: ceea 023e 7b63 0bbe 17dd 17be 6ceb 26be

attention_mechanism.out_proj.bias f4 [8]
-0.019836206 -0.011869844 0.0101195425 -0.0010555411 -0.004478225 0.022053177 0.01386899 3.965494e-05
00000000: 8a7f a2bc bc79 42bc 70cc 253c 155a 8aba
00000010: 13be 92bb dda8 b43c c33a 633c 2b53 2638

embedding.0.bias f4 [8]
-0.28907967 0.19070068 -0.37902138 0.6549695 -0.20564713 0.77037555 0.28892413 -0.46424973
00000000: 4002 94be 0a47 433e 170f c2be 15ac 273f
00000010: 2995 52be 5537 453f dded 933e 24b2 edbe

embedding.0.weight_g f4 [8, 1]
0.093809396 0.95722723 0.81308675 0.73289144 1.1049343 0.14941674 0.30684695 0.41634884
00000000: 241f c03d d80c 753f 7426 503f c69e 3b3f
00000010: 7d6e 8d3f b400 193e 0b1b 9d3e ad2b d53e

embedding.0.weight_v f4 [8, 1]
0.13263194 1.0332245 0.8323374 -0.67244345 -0.7004498 -0.20076148 0.3922623 -0.6320948
00000000: abd0 073e b340 843f 1014 553f 4125 2cbf
00000010: ae50 33bf 6b94 4dbe 9bd6 c83e f7d0 21bf

embedding.1.bias f4 [8]
0.1345298 -0.75707066 -1.4252659 0.50141513 0.08746484 -1.2618397 -0.96107346 0.060619265
00000000: 2ec2 093e 62cf 41bf 1d6f b6bf be5c 003f
00000010: c420 b33d f783 a1bf e908 76bf e84b 783d

embedding.1.weight_g f4 [8, 1]
0.85170996 0.75523734 0.10687978 0.8714964 0.07375186 0.6795548 0.646536 0.9873345
00000000: aa09 5a3f 3c57 413f c9e3 da3d 631a 5f3f
00000010: 370b 973d 4ef7 2d3f 6283 253f f4c1 7c3f

embedding.1.weight_v f4 [8, 1]
-0.78407687 -0.67733324 -0.13994646 0.72605145 -0.23968661 0.938528 0.72742975 -0.90718096
00000000: 43b9 48bf b665 2dbf 204e 0fbe 82de 393f
00000010: 6870 75be 5f43 703f d638 3a3f 033d 68bf

embedding.2.bias f4 [8]
-0.008513371 0.22071917 -0.26625523 -1.5561715 -0.010437094 0.51108444 1.2576004 0.23241414
00000000: ab7b 0bbc 3504 623e 9b52 88be a130 c7bf
00000010: 5800 2bbc 6ed6 023f 0df9 a03f f9fd 6d3e

embedding.2.weight_g f4 [8, 1]
-0.068238 1.2935952 0.65693796 0.7207196 0.4454796 1.1625285 0.36276928 0.86892784
00000000: 5dc0 8bbd 8794 a53f 162d 283f 1481 383f
00000010: e715 e43e bccd 943f e5bc b93e 0e72 5e3f

embedding.2.weight_v f4 [8, 1]
-0.24109603 0.8015493 -0.3243798 0.969483 -0.2945349 0.941506 0.36679196 -0.7525529
00000000: e1e1 76be 5632 4d3f 1c15 a6be 0a30 783f
00000010: 47cd 96be 8a06 713f 28cc bb3e 4fa7 40bf

embedding.3.bias f4 [8]
0.343388 0.48929504 1.0307283 -0.7389811 0.97296613 0.22859211 0.19913894 0.91810775
00000000: 8dd0 af3e e184 fa3e e8ee 833f de2d 3dbf
00000010: 4f14 793f 0d14 6a3e 14eb 4b3e 1c09 6b3f

embedding.3.weight_g f4 [8, 1]
1.0644444 0.48371992 0.15957351 -0.024371535 0.6316167 0.08106583 1.0419586 0.9680293
00000000: b73f 883f 23aa f73e 3d67 233e d0a6 c7bc
00000010: a2b1 213f d805 a63d e65e 853f c5d0 773f

embedding.3.weight_v f4 [8, 1]
-0.9728023 0.46469802 0.07158899 0.037878808 0.5831295 0.18423131 0.8665482 0.7825013
00000000: 9209 79bf e6ec ed3e 409d 923d cf26 1b3d
00000010: fa47 153f 22a7 3c3e 1ad6 5d3f 0152 483f

embedding.4.bias f4 [8]
1.2370149 0.66500294 -0.4255622 0.89009094 0.2060672 0.78027385 1.1326756 -0.531202
00000000: 8156 9e3f a23d 2a3f 4ae3 d9be 00dd 633f
00000010: 4803 533e 07c0 473f 84fb 903f dbfc 07bf

embedding.4.weight_g f4 [8, 1]
1.2737086 1.1754209 0.20562339 0.6090522 0.34334442 0.82590103 0.53119266 0.10364425
00000000: e208 a33f 3174 963f f08e 523e d8ea 1b3f
00000010: d7ca af3e 406e 533f 3efc 073f 7043 d43d

embedding.4.weight_v f4 [8, 1]
0.8779633 -0.8076135 0.39101985 -0.5410202 -0.26713902 0.21678118 -0.3859296 -0.42571697
00000000: 34c2 603f c2bf 4ebf c133 c83e 4d80 0abf
00000010: 72c6 88be e3fb 5d3e 9198 c5be 93f7 d9be

embedding.5.bias f4 [8]
-0.8897796 -1.1836778 -0.60127276 0.33868986 0.67465276 0.3902671 0.29251686 -0.90965104
00000000: 99c8 63bf c182 97bf 03ed 19bf c268 ad3e
00000010: 0bb6 2c3f 17d1 c73e c5c4 953e e4de 68bf

embedding.5.weight_g f4 [8, 1]
-0.036591277 1.553772 0.7350225 0.03125447 1.7048752 0.28145397 0.25181738 0.9408107
00000000: bce0 15bd 00e2 c63f 6f2a 3c3f b004 003d
00000010: 5a39 da3f bc1a 903e 35ee 803e f8d8 703f

embedding.5.weight_v f4 [8, 1]
-0.0057836 -0.9057963 -0.43360955 -0.0668 0.8899922 0.5610178 -0.1740751 -0.15871304
00000000: 5a84 bdbb 44e2 67bf 1202 debe 70ce 88bd
00000010: 87d6 633f dd9e 0f3f be40 32be ac85 22be

embedding.6.bias f4 [8]
-0.8652623 -0.03100869 1.1082914 -0.332875 0.61763185 -0.23937312 0.69963545 -0.16577105
00000000: d581 5dbf f005 febc 7edc 8d3f 986e aabe
00000010: 1f1d 1e3f 3a1e 75be 4f1b 333f e3bf 29be

embedding.6.weight_g f4 [8, 1]
0.06499701 -0.17527169 0.44052184 0.5085478 -0.08772305 0.6299838 -0.33152995 0.94287205
00000000: 271d 853d 6c7a 33be 148c e13e 3030 023f
00000010: 24a8 b3bd 9e46 213f 4bbe a9be 1060 713f

embedding.6.weight_v f4 [8, 1]
-0.17631687 0.09742853 0.5234786 0.280984 -0.27964258 0.34130368 -0.049415063 -0.731936
00000000: 698c 34be 9c88 c73d b202 063f 23dd 8f3e
00000010: 502d 8fbe 5bbf ae3e 7367 4abd 2860 3bbf

embedding.7.bias f4 [8]
-0.6657744 1.109826 0.7560609 -0.6888959 -0.34414908 0.08547637 -0.717238 1.0719633
00000000: 3170 2abf c70e 8e3f 358d 413f 7b5b 30bf
00000010: 4f34 b0be 3c0e af3d e99c 37bf 1836 893f

embedding.7.weight_g f4 [8, 1]
0.34923434 0.22748074 0.4743033 0.72575486 -0.0819226 0.09212689 0.06552495 0.7895797
00000000: d8ce b23e b6f0 683e e2d7 f23e 12cb 393f
00000010: 09c7 a7bd 06ad bc3d f231 863d e521 4a3f

embedding.7.weight_v f4 [8, 1]
-0.43560353 0.32016426 0.47774753 -0.75750184 -0.118625335 0.181289 0.19548006 1.020884
00000000: 6d07 dfbe 92ec a33e 539b f43e a4eb 41bf
00000010: d7f1 f2bd d3a3 393e ed2b 483e 54ac 823f

embedding.8.bias f4 [8]
0.35588896 -0.41498435 0.6380714 -0.76418954 -0.49643117 0.6737631 -0.7124322 0.6477378
00000000: 1437 b63e d478 d4be a658 233f eda1 43bf
00000010: 3a2c febe bd7b 2c3f f561 36bf 25d2 253f

embedding.8.weight_g f4 [8, 1]
0.8715969 0.88281107 -0.19160981 0.7910418 0.6315694 -0.40966195 1.2220242 -0.24455054
00000000: f920 5f3f e8ff 613f 5d35 44be b781 4a3f
00000010: 88ae 213f 36bf d1be 4a6b 9c3f 756b 7abe

embedding.8.weight_v f4 [8, 1]
-0.3933579 0.3834852 0.19398291 -0.39042914 -0.9366066 0.11057816 -0.8215713 -0.21633758
00000000: 3566 c9be 2c58 c43e 75a3 463e 54e6 c7be
00000010: 73c5 6fbf cd76 e23d 7f52 52bf 9987 5dbe

embedding.9.bias f4 [8]
0.83282036 -0.1844832 0.3075409 0.5855057 -0.6249045 0.12254303 -0.46554753 0.13330346
00000000: b733 553f 2ae9 3cbe 0076 9d3e b4e3 153f
00000010: bef9 1fbf d7f7 fa3d 3f5c eebe b480 083e

embedding.9.weight_g f4 [8, 1]
0.48312914 0.022413455 1.2824572 0.55399376 1.2555571 0.59164125 0.105316445 0.9695214
00000000: b45c f73e 6c9c b73c 8f27 a43f 89d2 0d3f
00000010: 18b6 a03f cd75 173f 26b0 d73d 8e32 783f

embedding.9.weight_v f4 [8, 1]
-0.21137522 -0.17872873 0.9541344 -0.11589336 -0.8005624 -0.41197652 0.31245884 0.6817476
00000000: bf72 58be aa04 37be 2742 743f 7f59 edbd
00000010: a8f1 4cbf 96ee d2be 9bfa 9f3e 0387 2e3f

embedding.10.bias f4 [8]
0.33917525 -0.038774274 0.80094004 0.50252825 -0.7678024 -0.63209367 -0.8260462 -0.95877105
00000000: 61a8 ad3e c6d1 1ebd 680a 4d3f b1a5 003f
00000010: b38e 44bf e4d0 21bf c477 53bf 0572 75bf

embedding.10.weight_g f4 [8, 1]
-0.0007556422 0.57243496 0.9559541 0.06746441 1.3487498 0.9450351 0.28432414 1.8166261
00000000: 4a16 46ba 198b 123f 68b9 743f c82a 8a3d
00000010: d5a3 ac3f d2ed 713f ef92 913e 3487 e83f

embedding.10.weight_v f4 [8, 1]
0.9725557 0.8322257 -0.60262376 0.50164795 1.013536 -0.28145793 0.30773532 -0.824315
00000000: 69f9 783f be0c 553f 8d45 1abf 006c 003f
00000010: 8cbb 813f 411b 90be 7c8f 9d3e 4f06 53bf

embedding.11.bias f4 [8]
0.85028553 -0.7624787 0.57108057 -0.72834086 -1.2758667 0.025315415 -0.5248569 0.29896036
00000000: 50ac 593f ce31 43bf 5632 123f 8c74 3abf
00000010: 9a4f a3bf 4662 cf3c 065d 06bf 5511 993e

embedding.11.weight_g f4 [8, 1]
2.7098508 2.199561 -0.8929004 2.4604938 -0.060088288 2.1062891 -1.1031166 2.6866665
00000000: 326e 2d40 9cc5 0c40 1f95 64bf bb78 1d40
00000010: 231f 76bd 71cd 0640 ed32 8dbf 58f2 2b40

embedding.11.weight_v f4 [8, 1]
-0.916525 0.4750981 0.6636186 -0.6179685 0.7001489 -0.3318456 0.30188563 0.83496773
00000000: 62a1 6abf 0f40 f33e e9e2 293f 2f33 1ebf
00000010: f53c 333f abe7 a9be c190 9a3e 72c0 553f

embedding.12.bias f4 [8]
-0.52447194 0.13438505 0.03042165 0.42564183 0.5171856 0.21863577 0.798203 -0.3995511
00000000: cb43 06bf 3c9c 093e d336 f93c baed d93e
00000010: 4766 043f 0ee2 5f3e 0857 4c3f f691 ccbe

embedding.12.weight_g f4 [8, 1]
0.044557042 0.634227 0.61796904 0.99115694 0.91832215 0.73125184 0.4460847 0.9248499
00000000: 7281 363d b35c 223f 3833 1e3f 76bc 7d3f
00000010: 2917 6b3f 5233 3b3f 3765 e43e f7c2 6c3f

embedding.12.weight_v f4 [8, 1]
0.09944184 0.5637167 0.5139466 -0.9178884 -0.8670847 -0.6381146 0.5232405 0.9358043
00000000: 2aa8 cb3d bd4f 103f 0192 033f bcfa 6abf
00000010: 43f9 5dbf 7a5b 23bf 17f3 053f df90 6f3f

embedding.13.bias f4 [8]
0.1693776 -0.04499662 -0.26690474 -0.035414424 -0.586036 -0.4780713 -0.36823094 -0.098558895
00000000: 5271 2d3e 604e 38bd bda7 88be b70e 11bd
00000010: 7506 16bf c3c5 f4be c488 bcbe 3fd9 c9bd

embedding.13.weight_g f4 [8, 1]
1.0520985 -0.080652736 1.1798713 0.63057613 0.862421 0.806472 0.3167559 0.18421267
00000000: 2aab 863f 432d a5bd 0606 973f 706d 213f
00000010: 9fc7 5c3f f374 4e3f d42d a23e 3fa2 3c3e

embedding.13.weight_v f4 [8, 1]
0.9393624 -0.03125 -0.9293398 0.5366569 0.65118754 0.66258365 0.17353465 0.33740988
00000000: 0e7a 703f 0000 00bd 37e9 6dbf 5962 093f
00000010: 3ab4 263f 159f 293f 11b3 313e fdc0 ac3e

representation.0.weight f4 [16, 112]
-0.110665575 0.039723568 -0.06279725 0.015861766 0.026539242 0.06611199 -0.11585463 0.05266806
-0.069621496 0.102936275 0.063212186 -0.011617872 0.20600156 -0.07750575 0.03601037 -0.060191292
-0.016280526 0.26249745 0.09971821 0.39751738 0.08227007 -0.46791852 0.22582746 0.43706882
0.013526159 0.08055736 -0.046658628 -0.15713535 -0.0002943086 0.05854935 0.16443661 -0.11864003
0.023772385 0.015943162 0.07547768 0.10459752 -0.11849139 0.059530344 -0.0060608136 -0.067458846
-0.05529989 -0.10328985 -0.017704768 0.04660924 0.049288277 -0.011693884 0.10863339 0.05570342
0.0173371 0.06088329 0.17924553 0.1087927 -0.095292106 -0.14615723 0.24962562 -0.020447098
-0.047624193 -0.047191083 -0.066812865 0.069834284 0.25849923 0.034174938 -0.10504267 -0.1335279
-0.07116962 0.034935497 -0.04072821 -0.028531125 0.33868277 -0.12686376 -0.091830805 -0.094712645
0.08478785 0.1053473 0.08160053 -0.1620804 0.034674305 0.10201311 -0.036173806 -0.104006365
0.103002496 0.03889284 -0.17631356 0.038549017 0.10013966 -0.10219165 0.14562903 0.058273338
0.003745424 -0.13716954 -0.18619497 -0.98587245 0.49607494 0.3890723 -0.12757522 -0.07854935
0.0695607 -0.278595 -0.09673678 -0.24645407 0.00521636 0.21402876 -0.11304901 -0.19235526
0.0478987 -0.094134554 -0.17462425 -0.16706485 0.20012128 0.07446274 0.086277075 0.050245162
0.03746164 0.006361532 0.105306394 0.11435794 0.008198339 -0.010601253 0.14214386 0.08012124
-0.05804234 0.026586762 0.04094937 0.13945207 -0.13336398 0.06497603 0.05532169 0.022699654
-0.042398002 -0.29820964 -0.037173893 -0.35431388 -0.043284714 0.23589519 -0.33096388 -0.18603843
-0.1723722 0.027469702 -0.030231658 -0.057075854 0.062291607 0.014241492 -0.12099754 -0.02765544
0.08501639 0.063909404 0.028899802 0.038228177 0.008890819 0.09848012 -0.04668497 -0.030022388
-0.11987764 0.1579064 0.15092772 -0.046880174 -0.1040087 0.14845018 -0.1016418 -0.08166051
-0.20406063 0.034153115 0.14395185 0.15145756 0.15555538 -0.057339463 -0.19742388 -0.04503111
0.008092016 0.12228516 0.13525653 0.04506478 -0.09473399 -0.07572418 0.11975011 -0.06522746
-0.013380319 -0.046709575 -0.005985008 0.12412842 -0.41199073 0.0159671 0.042263214 0.14555675
0.11847557 -0.11303987 -0.15315986 0.19518264 0.015780056 -0.11067127 0.098953374 0.15261118
-0.035156388 -0.12353824 0.216055 -0.19040963 -0.22042772 0.22290897 -0.086694315 -0.32965636
-0.030850504 0.2775638 0.33986148 0.9647408 -0.4626982 -0.48380068 -0.01201176 0.079136536
-0.14453144 0.11761705 0.021693207 0.07073347 -0.020629726 -0.08020051 -0.12313716 0.06442137
-0.24622324 0.100504324 0.12967332 0.012114164 0.00016885142 0.102465935 -0.19472967 -0.20816675
-0.03386026 -0.1025349 0.037311144 0.025548702 0.0565265 0.027526869 0.09666432 0.046069056
0.02465782 -0.00010231193 0.105761304 -0.024204452 -0.113798656 0.0015035281 -0.078118004 0.021578025
-0.17544061 -0.084599525 0.09534083 -0.16911727 0.050713837 0.12535696 -0.20760599 -0.15037557
0.017131465 0.09043105 -0.0037393218 0.12075865 -0.022554427 -0.0826511 -0.014037216 0.12952158
00000000: a2a4 e2bd 2eb5 223d d89b 80bd 89f0 813c
00000010: d368 d93c b965 873d 3145 edbd 77ba 573d
00000020: b795 8ebd 41d0 d23d 6475 813d e358 3ebc
00000030: 13f2 523e 56bb 9ebd 9c7f 133d 258b 76bd
00000040: bd5e 85bc 1166 863e 1039 cc3d 6687 cb3e
00000050: 367d a83d 0493 efbe 503f 673e 7cc7 df3e
00000060: d39c 5d3c 42fb a43d 1e1d 3fbd 17e8 20be
00000070: 6e4d 9ab9 71d1 6f3d 1262 283e 8bf9 f2bd
00000080: 4ebe c23c 3c9b 823c 0b94 9a3d 3937 d63d
00000090: 9dab f2bd 17d6 733d ca99 c6bb dd27 8abd
000000a0: 2382 62bd a189 d3bd 9709 91bc 55e9 3e3d
000000b0: 81e2 493d b497 3fbc 2f7b de3d 4529 643d
000000c0: 8906 8e3c c260 793d 248c 373e b5ce de3d
000000d0: 8228 c3bd 3eaa 15be dc9d 7f3e ac80 a7bc
000000e0: 9611 43bd 704b 41bd 2fd5 88bd 4705 8f3d
000000f0: 035a 843e 05fb 0b3d 9d20 d7bd 8abb 08be
00000100: 61c1 91bd 8618 0f3d a0d2 26bd 1bba e9bc
00000110: d467 ad3e 93e8 01be ca11 bcbd b4f8 c1bd
00000120: 41a5 ad3d 53c0 d73d 2e1e a73d 68f8 25be
00000130: a506 0e3d 40ec d03d fc2a 14bd 4a01 d5bd
00000140: f9f2 d23d 194e 1f3d 8b8b 34be 93e5 1d3d
00000150: 0616 cd3d db49 d1bd c71f 153e 06b0 6e3d
00000160: ca75 753b 2c76 0cbe e5a9 3ebe 2362 7cbf
00000170: 89fd fd3e 7c34 c73e 14a3 02be 7bde a0bd
00000180: d775 8e3d 01a4 8ebe ef1d c6bd 755e 7cbe
00000190: 00ee aa3b 5b2a 5b3e 3d86 e7bd c7f8 44be
000001a0: 6d31 443d 9ec9 c0bd b3d0 32be 0c13 2bbe
000001b0: 98ec 4c3e ec7f 983d 09b2 b03d dfcd 4d3d
000001c0: 6071 193d 6674 d03b e1aa d73d 7f34 ea3d
000001d0: 5352 063c e1b0 2dbc 298e 113e 9b16 a43d
000001e0: cebd 6dbd 7bcc d93c 87ba 273d 86cc 0e3e
000001f0: 9190 08be 2712 853d ff98 623d a0f4 b93c
00000200: 87a9 2dbd efae 98be a743 18bd a168 b5be
00000210: 504b 31bd 828e 713e 1974 a9be dc80 3ebe
00000220: 5782 30be 2408 e13c 62a8 f7bc 5fc8 69bd
00000230: 7c25 7f3d 2655 693c 8fcd f7bd a98d e2bc
00000240: 131d ae3d efe2 823d 47bf ec3c 2695 1c3d
00000250: ccaa 113c f2af c93d bd38 3fbd 83f1 f5bc
00000260: 6882 f5bd 37b2 213e cc8c 1a3e 6d05 40bd
00000270: 8302 d5bd 5303 183e 9329 d0bd a03d a7bd
00000280: 45f5 50be 23e4 0b3d 1d68 133e b117 1b3e
00000290: e949 1f3e c9dc 6abd 7c29 4abe 8b72 38bd
000002a0: 6094 043c a470 fa3d b080 0a3e d995 383d
000002b0: e503 c2bd 4715 9bbd 8c3f f53d f995 85bd
000002c0: 2039 5bbc 8a52 3fbd e31d c4bb 0b37 fe3d
000002d0: 73f0 d2be 70cd 823c 311c 2d3d d40c 153e
000002e0: 52a3 f23d 7381 e7bd f0d5 1cbe f5dd 473e
000002f0: 2d45 813c 9ea7 e2bd 11a8 ca3d 1b46 1c3e
00000300: 2500 10bd 9e01 fdbd 863d 5d3e befa 42be
00000310: ceb7 61be 4042 643e ca8c b1bd b8c8 a8be
00000320: 32ba fcbc d81c 8e3e 5302 ae3e 41f9 763f
00000330: c7e6 ecbe b9b4 f7be f9cc 44bc 5612 a23d
00000340: 0d00 14be 35e1 f03d f4b5 b13c b6dc 903d
00000350: acff a8bc 2a40 a4bd 562f fcbd 5aef 833d
00000360: f221 7cbe 36d5 cd3d 15c9 043e 7d7a 463c
00000370: b50d 3139 a9d9 d13d 3767 47be aa29 55be
00000380: 0eb1 0abd d1fd d1bd 92d3 183d 834b d13c
00000390: 5588 673d 0780 e13c f1f7 c53d e8b2 3c3d
000003a0: 32ff c93c 4d90 d6b8 6299 d83d 6a48 c6bc
000003b0: 450f e9bd 0812 c53a 55fc 9fbd 66c4 b03c
000003c0: b4a6 33be 8442 adbd 0e42 c33d 142d 2dbe
000003d0: 50b9 4f3d 935d 003e aa96 54be 0efc 19be
000003e0: 4957 8c3c ea33 b93d 690f 75bb 5050 f73d
000003f0: 10c4 b8bc fb44 a9bd 5afc 65bc 4ea1 043e

representation.0.bias f4 [16]
0.01331091 0.076826185 -0.029842008 -0.04200684 0.07163386 0.0857918 -0.009569971 -0.0037871995
0.07198222 -0.019840723 0.101091966 -0.06906663 0.008635622 0.07709695 -0.09642214 -0.01106649
00000000: 0116 5a3c 0c57 9d3d 3a77 f4bc 5d0f 2cbd
00000010: c6b4 923d 9cb3 af3d 5ecb 1cbc aa32 78bb
00000020: 6a6b 933d 0389 a2bc 4e09 cf3d ce72 8dbd
00000030: 6d7c 0d3c 01e5 9d3d f978 c5bd 3950 35bc

representation.1.weight f4 [16]
1.0030041 0.9629041 1.1077266 0.7640661 0.94684213 0.99531716 0.77857506 0.83920467
0.832343 0.6935485 0.8647803 0.9004873 0.9702606 0.826486 0.8001377 0.8608226
00000000: 7062 803f e280 763f fcc9 8d3f d699 433f
00000010: 3f64 723f 1bcd 7e3f b250 473f 1ed6 563f
00000020: 6e14 553f 658c 313f 3e62 5d3f 5686 663f
00000030: 0063 783f 9694 533f d3d5 4c3f df5e 5c3f

representation.1.bias f4 [16]
0.4679213 -0.48599446 -0.18087058 0.46879023 -0.3351397 -0.38132507 0.6577531 0.47236583
-0.5897354 0.613345 0.4766296 -0.4923344 0.41666543 0.609295 0.5835486 -0.6166856
00000000: 6193 ef3e 44d4 f8be 2336 39be 4605 f03e
00000010: 6e97 abbe 0a3d c3be 8262 283f efd9 f13e
00000020: e6f8 16bf 2e04 1d3f cc08 f43e 4113 fcbe
00000030: 2c55 d53e c2fa 1b3f 7163 153f 1cdf 1dbf

representation.1.running_mean f4 [16]
-4.957048 6.715179 3.2751472 2.4147477 -5.2075906 -6.136274 -6.3744493 3.3873127
-2.2181592 -0.49723256 5.043997 -4.780075 3.5651495 0.7110944 -1.2377856 2.474005
00000000: 23a0 9ec0 bfe2 d640 039c 5140 3a8b 1a40
00000010: 95a4 a6c0 5b5c c4c0 7dfb cbc0 bbc9 5840
00000020: 52f6 0dc0 4495 febe 6c68 a140 60f6 98c0
00000030: 692b 6440 480a 363f c26f 9ebf 1956 1e40

representation.1.running_var f4 [16]
15.547265 16.563385 12.996452 15.762405 17.017927 19.076319 17.223028 32.186935
34.434177 29.28923 19.817106 30.579996 22.018427 16.637535 34.393085 17.93282
00000000: 99c1 7841 d081 8441 78f1 4f41 d032 7c41
00000010: b724 8841 4d9c 9841 c3c8 8941 6cbf 0042
00000020: 99bc 0942 5850 ea41 6f89 9e41 d5a3 f441
00000030: bd25 b041 ac19 8541 8592 0942 6a76 8f41

model_weighting.0.weight f4 [4, 14]
0.16734596 0.33971083 -0.36112875 0.03813952 0.32866216 0.06583557 0.019694041 -0.11160789
-0.09374602 0.0634246 -0.08304137 0.29582596 -0.17415756 0.2590669 -0.04725156 0.061448775
-0.3021707 -0.18046342 0.045033466 0.23222384 0.24269158 -0.1399868 -0.16291529 -0.18031435
-0.009705353 0.036588077 0.2758593 -0.03880416 0.12939739 -0.26041493 -0.08039732 -0.44407123
0.08800926 -0.36899546 -0.09284019 0.24711607 -0.2702566 0.22959292 -0.030367076 0.112908386
-0.17620108 -0.43260995 -0.09232112 0.2065306 -0.0042636553 0.4768656 0.08777142 0.30622405
-0.37876138 -0.26043925 0.24884616 0.28067198 0.08349341 -0.4229481 0.13583355 0.42599994
00000000: bd5c 2b3e 94ee ad3e dee5 b8be 2f38 1c3d
00000010: 6846 a83e cdd4 863d 6655 a13c ad92 e4bd
00000020: eafd bfbd c2e4 813d 9811 aabd 8076 973e
00000030: 5c56 32be 6ba4 843e da8a 41bd b6b1 7b3d
00000040: 1eb6 9abe 67cb 38be 0375 383d 16cc 6d3e
00000050: 2484 783e b358 0fbe 44d3 26be 53a4 38be
00000060: 3303 1fbc 61dd 153d 6e3d 8d3e 1cf1 1ebd
00000070: c080 043e 1b55 85be 5aa7 a4bd 4e5d e3be
00000080: 333e b43d f9ec bcbe ff22 bebd ff0b 7d3e
00000090: 135f 8abe 681a 6b3e 60c4 f8bc 833c e73d
000000a0: 0e6e 34be 0d7f ddbe db12 bdbd c27c 533e
000000b0: 22b6 8bbb ba27 f43e 81c1 b33d 66c9 9c3e
000000c0: 03ed c1be 4b58 85be 87d1 7e3e 3db4 8f3e
000000d0: 98fe aa3d a78c d8be f317 0b3e aa1c da3e

model_weighting.0.bias f4 [4]
0.07729882 0.23664306 -0.16671741 0.1615036
00000000: d84e 9e3d 8f52 723e f8b7 2abe 3361 253e

models.0.weight f4 [1, 16]
0.0016946796 -0.03050381 0.27165085 0.06293768 0.2739166 0.39107847 0.1893225 -0.35546917
0.17554843 0.19108076 -0.2542211 0.25285676 -0.39683276 -0.13163292 -0.035379693 -0.044325665
00000000: 0320 de3a 20e3 f9bc d215 8b3e 78e5 803d
00000010: cc3e 8c3e 703b c83e c2dd 413e 0e00 b6be
00000020: f8c2 333e adaa 433e 4529 82be 7176 813e
00000030: aa2d cbbe c8ca 06be 4cea 10bd d48e 35bd

models.1.weight f4 [1, 16]
-0.07529575 0.19251618 0.17433684 -0.00908867 -0.08341844 0.15380122 -0.14631288 -0.07982649
-0.04646805 -0.13798623 -0.15847957 0.21717146 -0.089171164 0.23574983 -0.04262588 -0.029705055
00000000: a834 9abd f622 453e 5b85 323e a5e8 14bc
00000010: 49d7 aabd 117e 1d3e 0bd3 15be 127c a3bd
00000020: 4855 3ebd 434c 0dbe 7848 22be 3262 5e3e
00000030: 5f9f b6bd 6768 713e 7a98 2ebd 0458 f3bc

models.2.weight f4 [1, 16]
-0.3211005 0.21648422 0.23152609 -0.4860945 0.4430752 0.078940414 0.3854367 0.101270154
0.009121599 -0.24774864 -0.24330789 -0.20396072 0.3943971 -0.14066361 0.07656667 0.28475523
00000000: 4967 a4be 0aae 5d3e 2d15 6d3e 61e1 f8be
00000010: c1da e23e 83ab a13d f657 c53e ba66 cf3d
00000020: c272 153c d2b1 7dbe b425 79be 14db 50be
00000030: 6bee c93e 1f0a 10be fcce 9c3d 70cb 913e

models.3.weight f4 [1, 16]
-0.21038345 0.16927435 0.028669009 -0.12583686 0.09896157 0.12049749 -0.325262 -0.26812762
0.31370592 -0.2922145 -0.21875304 0.2816853 -0.2394213 -0.26139414 -0.3143937 0.28935972
00000000: c26e 57be 4156 2d3e 45db ea3c 61db 00be
00000010: 5dac ca3d 63c7 f63d be88 a6be 0648 89be
00000020: 109e a03e 249d 95be cc00 60be 0e39 903e
00000030: db2a 75be 74d5 85be 36f8 a0be f526 943e

aggregator.weight f4 [14, 14]
0.121598475 -0.04848035 -0.46945092 -0.10961514 0.2567296 -0.18024749 -0.25397903 0.026466077
0.1581261 0.016420709 -0.00093803124 -0.10711626 -0.18630165 -0.2329875 -0.24749956 0.11805597
-0.16631453 -0.07852016 -0.24609768 -0.50203055 -0.7492927 -0.23657034 -0.13518445 -0.34309995
-0.5486527 -0.084048815 -0.39907098 -0.51188624 0.1936409 -0.08249505 0.43739522 -0.1345926
-0.16795512 0.066961266 0.611027 -0.3385312 0.1264759 0.44760448 0.3901061 0.038019158
0.41387573 0.29256004 -0.33986372 0.16200724 0.723723 -0.08044443 -0.41671315 0.15723976
-0.1816605 -0.04820931 -0.13953164 -0.30488136 -0.022130178 0.072385706 0.017894208 0.116662376
-0.17959623 -0.20944461 -0.4388215 0.18325116 -0.29928893 -0.20950769 -0.28849873 0.14039059
0.1214613 -0.26129648 -0.21261822 -0.21313693 -0.54657954 -0.13486211 -0.41026255 -0.1099506
0.65886784 -0.2966006 -0.33436865 0.2773807 -0.31133354 0.15262005 -0.26221845 -0.4687268
-0.135777 -0.15516272 -0.29884833 -0.1718713 -0.1124286 0.30488217 -0.6615251 0.4477364
0.1463738 -0.06997796 -0.34628627 0.09762495 -0.26457304 -0.32731757 -0.015563403 -0.053153127
-0.32694453 -0.43421844 0.15004659 -0.22951487 -0.4246686 0.0130979875 0.19850694 -0.2630632
0.4736181 -0.26715302 0.1564424 0.28798306 0.55308837 0.4395505 0.3869168 0.045793794
-0.09405585 -0.100861475 0.7241091 -0.013238028 0.20653094 0.33423087 0.46368128 -0.11389542
-0.12769026 -0.070853576 -0.16463116 -0.055219155 0.4548087 0.25389788 -0.25051224 0.073180415
0.37765726 -0.21367887 -0.20705539 0.39762896 0.30746713 -0.31039742 0.12699294 0.25065446
0.32285735 0.5256088 0.57425934 0.26211426 -0.11884408 -0.1419162 0.5253686 -0.3429087
0.05081055 0.28142 0.060895447 0.23316698 -0.26549745 0.3509591 0.15199293 0.10823221
0.012018032 0.09753344 -0.050258078 -0.12782322 -0.8199952 -0.022943588 -0.012479085 -0.17881785
-0.40959978 0.16129068 -0.12721069 -0.41745993 0.09210144 -0.49674326 -0.6796709 0.0037225175
0.041507937 -0.18314058 0.7234715 -0.19631852 -0.118273124 0.22424616 0.15941419 -0.108339235
-0.30222473 -0.1437571 0.110029005 -0.14934492 -0.025131613 0.09012285 -0.17509079 0.13708532
0.36330935 -0.10176601 -0.37440863 -0.07409661 -0.19714363 0.08031453 -0.5116738 -0.20124744
-0.50506747 -0.4360437 -0.11764523 -0.4483522
00000000: 9f08 f93d 5593 46bd df5b f0be e77d e0bd
00000010: 1072 833e cc92 38be 8a09 82be 63cf d83c
00000020: cfeb 213e b984 863c 36e6 75ba c55f dbbd
00000030: dcc5 3ebe 4694 6ebe 8670 7dbe 54c7 f13d
00000040: 5b4e 2abe 2dcf a0bd 0801 7cbe 1385 00bf
00000050: a5d1 3fbf 7f3f 72be cb6d 0abe ccaa afbe
00000060: 8174 0cbf c921 acbd 0853 ccbe fa0a 03bf
00000070: cd49 463e 2af3 a8bd 44f2 df3e a4d2 09be
00000080: 6dfc 2bbe fd22 893d 446c 1c3f f653 adbe
00000090: e682 013e 6a2c e53e fdbb c73e fab9 1b3d
000000a0: 85e7 d33e 6eca 953e 9e02 aebe 3ae5 253e
000000b0: e945 393f 0dc0 a4bd 6d5b d5be 7603 213e
000000c0: 3605 3abe 2077 45bd 62e1 0ebe 6919 9cbe
000000d0: 594a b5bc f53e 943d e096 923c afec ee3d
000000e0: 13e8 37be a678 56be 36ad e0be 31a6 3b3e
000000f0: 663c 99be 2f89 56be 1bb6 93be 8dc2 0f3e
00000100: b4c0 f83d a7c8 85be 97b8 59be 9140 5abe
00000110: a3ec 0bbf 4b19 0abe ef0d d2be c82d e1bd
00000120: 90ab 283f 09dc 97be 5e32 abbe d804 8e3e
00000130: 1c67 9fbe 6e48 1c3e 7f41 86be f6fc efbe
00000140: 2009 0bbe fae2 1ebe a602 99be 08ff 2fbe
00000150: f740 e6bd 8419 9c3e b559 29bf b53d e53e
00000160: 03e3 153e 9b50 8fbd 6f4c b1be 97ef c73d
00000170: 1e76 87be 2b96 a7be a5fd 7ebc 18b7 59bd
00000180: 4665 a7be e151 debe d0a5 193e f205 6bbe
00000190: 2a6e d9be f198 563c 6745 4b3e 38b0 86be
000001a0: 127e f23e 48c8 88be 7032 203e 8472 933e
000001b0: 3397 0d3f c30c e13e f519 c63e 4692 3b3d
000001c0: 5aa0 c0bd 7690 cebd 375f 393f 50e4 58bc
000001d0: d97c 533e 4f20 ab3e a267 ed3e 0142 e9bd
000001e0: 3cc1 02be ae1b 91bd 1295 28be 7b2d 62bd
000001f0: b0dc e83e e7fe 813e 2443 80be 9ddf 953d
00000200: 4b5c c13e a2ce 5abe 5406 54be 0696 cb3e
00000210: 556c 9d3e 69ec 9ebe 700a 023e c855 803e
00000220: 8f4d a53e 4c8e 063f a902 133f d733 863e
00000230: 8664 f3bd 7b52 11be 8e7e 063f bb91 afbe
00000240: b91e 503d 4816 903e 816d 793d 53c3 6e3e
00000250: 48ef 87be e9b0 b33e 09a4 1b3e d9a8 dd3d
00000260: 48e7 443c 9dbf c73d 6adb 4dbd 17e4 02be
00000270: 35eb 51bf 31f4 bbbc 1375 4cbc 071c 37be
00000280: 10b7 d1be 6229 253e 8543 02be 4fbd d5be
00000290: ae9f bc3d 2255 febe e9fe 2dbf 7bf5 733b
000002a0: 3a04 2a3d 3489 3bbe 6e35 393f b907 49be
000002b0: 2e39 f2bd c9a0 653e 793d 233e f6e0 ddbd
000002c0: 33bd 9abe 1035 13be e356 e13d e0ed 18be
000002d0: d0e0 cdbc 5492 b83d 004b 33be 1860 0c3e
000002e0: af03 ba3e b36a d0bd 7db2 bfbe f7bf 97bd
000002f0: 05e0 49be f27b a43d 0efd 02bf cf13 4ebe
00000300: 1a4c 01bf 1f41 dfbe fbef f0bd 6b8e e5be

aggregator.bias f4 [14]
0.021745516 0.22653404 0.07825819 -0.027130902 0.19536419 -0.07520619 -0.074858144 0.14948295
0.10818138 0.063107006 -0.13049142 0.12778763 0.12076701 -0.016423084
00000000: a723 b23c 8af8 673e d445 a03d a041 debc
00000010: 8d0d 483e b405 9abd 3a4f 99bd 0f12 193e
00000020: 338e dd3d 3f3e 813d 8b9f 05be c3da 023e
00000030: b254 f73d b489 86bc
