bank/Models/nn/0.9008_1/params.pt (torch_old, 19434 bytes, 7 tensors)

linears.0.weight f4 [64, 19]
-0.14266568 -0.03146376 -0.051434457 -0.061800405 0.08902468 0.031787664 0.15091012 -0.14052165
-0.11421035 0.08872114 -0.053344782 0.12186636 -0.09113576 0.14342938 0.05489289 0.090779044
0.036042742 0.09559126 0.27390227 -0.14251794 0.20833176 -0.08369673 0.024148813 -0.14761315
0.061847493 -0.12345504 0.06208183 -0.13468316 0.16806242 0.2166459 0.100193106 -0.12246765
0.00093419576 -0.08746819 0.06953614 -0.12557153 0.26804996 0.054232318 0.056586828 0.035412855
0.13099717 0.19458812 -0.04234691 -0.1717178 0.15028934 -0.11792882 -0.060302783 -0.09103527
0.17655137 0.32327133 0.035476476 -0.2039703 0.28045973 0.042063266 -0.2671301 0.09323217
-0.051322762 -0.061432414 -0.1973925 -0.19136171 -0.16052684 -0.06873812 0.089307725 -0.2059033
-0.08701263 0.044785853 0.06319465 -0.0030017567 -0.16194493 -0.011787216 0.07405515 -0.19778445
-0.13678652 0.04230398 0.019357724 0.17881146 0.056581598 0.12938179 -0.11302713 -0.040387657
-0.010974181 -0.03266022 0.01884831 0.10319752 -0.104830705 -0.12324687 -0.089102365 0.23027088
0.15393446 -0.12274086 0.21517341 -0.23186634 0.09394356 0.15595904 0.3306365 -0.25201118
0.15309577 0.10754552 0.18961729 0.12576139 -0.027986377 -0.039937768 0.003084366 0.02382912
-0.25862882 -0.038335048 -0.1387782 -0.11845684 -0.059711266 -0.015780494 0.067525275 0.1547067
-0.013385085 0.006570579 0.05784556 0.024593078 0.20703489 0.0757899 0.011204479 -0.14846672
0.13530271 0.049600568 0.044073008 -0.10941958 -0.06649402 0.22269626 0.06923719 -0.13868254
-0.13224958 0.039002407 -0.21277164 0.1637134 0.22378688 0.08406826 -0.05992746 -0.024139127
0.19236495 -0.14267941 -0.11782825 0.2061292 0.20366117 0.15489435 0.06723809 -0.13402101
0.3347849 -0.051241133 0.0798125 0.28939927 -0.116104856 -0.23291945 -0.06995948 0.038974505
0.03818004 0.23321116 0.041086193 -0.08317038 -0.015845252 -0.017035844 0.06822789 0.10086558
-0.12703243 0.14815244 0.19063625 -0.100537166 -0.1789467 0.24149103 -0.19221616 0.2930765
0.15270504 -0.083685674 -0.18278125 0.0049992544 -0.17350413 -0.030125218 0.27631205 -0.030046914
-0.1501798 0.24998164 0.113993704 0.15086861 -0.17552151 -0.30924374 0.119052395 0.23288661
-0.106001996 0.27433562 -0.0105887335 -0.36123475 -0.1069087 0.15898517 -0.17230658 -0.15174715
0.012541247 -0.011389085 0.17677443 -0.08470064 0.14949638 -0.12835783 -0.07947958 0.16794838
0.02071715 0.33293414 -0.1343426 -0.13699588 -0.15635681 0.14724842 0.09665686 0.082354054
0.28130463 -0.08813061 -0.14433096 0.23831445 0.033501618 0.18862975 0.15105055 0.16862105
-0.067969896 -0.03819327 0.15206656 0.123539515 0.15066455 0.23949927 -0.15771271 0.13502578
0.03214024 0.15897232 0.38934523 0.4123046 -0.0076424 0.061069734 -0.1764646 0.0006967532
0.07445196 -0.048987255 0.24338984 -0.08975747 -0.1862732 -0.085096344 -0.013811366 -0.10887695
0.18831897 0.13391618 -0.09682811 0.06135036 -0.15901937 0.106442474 0.02813792 -0.0064138407
0.049691904 -0.043570824 0.24794587 -0.08807623 0.03002714 0.2824283 0.06507588 -0.08828263
00000000: f416 12be 25e0 00bd f0ac 52bd 6c22 7dbd
00000010: 9252 b63d c833 023d 2f88 1a3e e8e4 0fbe
00000020: 1ee7 e9bd 6eb3 b53d 0f80 5abd 1295 f93d
00000030: 63a5 babd 27df 123e 5ed7 603d 5dea b93d
00000040: 8ea1 133d 5ac5 c33d eb3c 8c3e 39f0 11be
00000050: ec54 553e 3169 abbd bbd3 c53c e727 17be
00000060: cc53 7d3d ffd5 fcbd 8449 7e3d 62ea 09be
00000070: 8e18 2c3e 6cd8 5d3e 0b32 cd3d 52d0 fabd
00000080: d1e4 743a 8622 b3bd f768 8e3d d395 00be
00000090: d83d 893e b522 5e3d 97c7 673d 120d 113d
000000a0: 1f24 063e 1c42 473e f473 2dbd cad6 2fbe
000000b0: 73e5 193e aa84 f1bd 0d00 77bd b370 babd
000000c0: e2c9 343e d283 a53e c84f 113d 97dd 50be
000000d0: 6b98 8f3e 884a 2c3d 47c5 88be 82f0 be3d
000000e0: d137 52bd 8ea0 7bbd 4221 4abe 53f4 43be
000000f0: 2661 24be 92c6 8cbd f8e6 b63d 51d8 52be
00000100: ae33 b2bd 5f71 373d 326c 813d 1fb9 44bb
00000110: e4d4 25be 2b1f 41bc 3aaa 973d 0288 4abe
00000120: c411 0cbe f046 2d3d 1794 9e3c 5a1a 373e
00000130: 1bc2 673d a97c 043e c57a e7bd 876d 25bd
00000140: 0dcd 33bc b9c6 05bd c567 9a3c 3959 d33d
00000150: 7bb1 d6bd db68 fcbd 4d7b b6bd 21cc 6b3e
00000160: ffa0 1d3e 8f5f fbbd 6b56 5c3e 5f6e 6dbe
00000170: 7b65 c03d bab3 1f3e 3049 a93e 9c07 81be
00000180: 23c5 1c3e d340 dc3d 092b 423e 98c7 003e
00000190: b043 e5bc c995 23bd 1323 4a3b 4935 c33c
000001a0: ff6a 84be 3605 1dbd df1b 0ebe 8099 f2bd
000001b0: cd93 74bd 1846 81bc b14a 8a3d 6f6b 1e3e
000001c0: 1e4d 5bbc 034e d73b 77ef 6c3d 6c77 c93c
000001d0: f400 543e bc37 9b3d fe92 373c a907 18be
000001e0: cb8c 0a3e f729 4b3d e685 343d 5f17 e0bd
000001f0: 042e 88bd 7d0a 643e 3acc 8d3d cc02 0ebe
00000200: 6f6c 07be fdc0 1f3d cfe0 59be 7ca4 273e
00000210: 6328 653e fb2b ac3d 7f76 75bd 6bbf c5bc
00000220: 51fb 443e 8d1a 12be f04f f1bd 8813 533e
00000230: 8e8c 503e a09c 1e3e 20b4 893d ce3c 09be
00000240: ed68 ab3e 39e2 51bd bc74 a33d 242c 943e
00000250: 62c8 edbd 7082 6ebe ea46 8fbd bba3 1f3d
00000260: ac62 1c3d e8ce 6e3e ff49 283d 3b55 aabd
00000270: e7cd 81bc c18e 8bbc 10bb 8b3d 9d92 ce3d
00000280: ca14 02be 46b5 173e 2636 433e 6ee6 cdbd
00000290: ce3d 37be 6d49 773e 50d4 44be 1f0e 963e
000002a0: b65e 1c3e 6563 abbd 022b 3bbe c9d0 a33b
000002b0: 11ab 31be 29c9 f6bc c678 8d3e f224 f6bc
000002c0: bcc8 19be 30fb 7f3e 8875 e93d 4d7d 1a3e
000002d0: e9bb 33be 3255 9ebe bed1 f33d d479 6e3e
000002e0: 9317 d9bd b875 8c3e 5e7c 2dbc c3f3 b8be
000002f0: f3f2 dabd 02cd 223e 2371 30be 9b63 1bbe
00000300: cd79 4d3c 4999 3abc 5b04 353e 8777 adbd
00000310: 9415 193e 3c70 03be 31c6 a2bd a9fa 2b3e
00000320: 03b7 a93c 5876 aa3e 1b91 09be a648 0cbe
00000330: 001c 20be 4ac8 163e 08f4 c53d 3ea9 a83d
00000340: 2907 903e d27d b4bd 7fcb 13be b408 743e
00000350: fe38 093d 2828 413e ffac 1a3e ffaa 2c3e
00000360: cd33 8bbd 8c70 1cbd 56b7 1b3e 4902 fd3d
00000370: cf47 1a3e 4c3f 753e 717f 21be 3344 0a3e
00000380: 7ca5 033d a4c9 223e 4258 c73e 9719 d33e
00000390: 196d fabb 4224 7a3d 23b3 34be 51a6 363a
000003a0: 457a 983d dca6 48bd 303b 793e c4d2 b7bd
000003b0: 67be 3ebe fe46 aebd 1149 62bc e1fa debd
000003c0: b0d6 403e 5321 093e d14d c6bd 844a 7b3d
000003d0: f9d5 22be 83fe d93d 7f81 e63c 322b d2bb
000003e0: bd89 4b3d 5277 32bd 86e5 7d3e 4f61 b4bd
000003f0: 7afb f53c 719a 903e 8146 853d 86cd b4bd

linears.0.bias f4 [64]
0.1980561 -0.18123192 -0.15736845 -0.06978624 0.24057034 -0.0363483 0.08910273 0.1137189
0.22771786 -0.07249412 0.039229266 -0.043015745 0.024889283 -0.11752876 -0.21873592 0.13624834
-0.17679802 0.18791641 0.15282181 0.11061252 0.09490873 -0.19079904 -0.11605935 -0.09083321
-0.22683477 0.22702159 0.035405748 0.2290112 -0.043780275 -0.10784573 -0.14174251 -0.026703117
-0.117480375 0.042123854 0.1590497 0.17768408 -0.032318998 -0.15184146 -0.13746549 0.09982173
0.07001167 0.042989988 -0.20806234 0.1432065 0.20336501 0.016054679 -0.03050789 -0.21329686
0.0512107 0.053975705 0.09841263 0.06181038 0.19558366 0.14362784 0.101691194 -0.12331843
-0.107335195 0.10871222 -0.16809338 0.047106653 0.06274676 -0.051228564 0.025275692 -0.05549447
00000000: 38cf 4a3e dc94 39be 3225 21be 17ec 8ebd
00000010: 1258 763e f4e1 14bd 7e7b b63d 74e5 e83d
00000020: df2e 693e cc77 94bd deae 203d 4731 30bd
00000030: 9ce4 cb3c ebb2 f0bd 4ffc 5fbe af84 0b3e
00000040: 8a0a 35be 296d 403e 527d 1c3e d188 e23d
00000050: 825f c23d d360 43be 86b0 edbd c306 babd
00000060: 6047 68be 5978 683e 9e05 113d e981 6a3e
00000070: f252 33bd 39de dcbd f324 11be 7fc0 dabc
00000080: 8d99 f0bd 108a 2c3d eddd 223e d1f2 353e
00000090: ed60 04bd 547c 1bbe c1c3 0cbe 566f cc3d
000000a0: 4762 8f3d 4516 303d 4b0e 55be baa4 123e
000000b0: eb3e 503e 1a85 833c afeb f9bc 7e6a 5abe
000000c0: 50c2 513d a115 5d3d 908c c93d e22c 7d3d
000000d0: 1547 483e 2d13 133e 7943 d03d 5f8e fcbd
000000e0: 8ed2 dbbd 83a4 de3d ac20 2cbe e8f2 403d
000000f0: 6081 803d 0bd5 51bd f80e cf3c 2b4e 63bd

linears.1.weight f4 [32, 64]
0.16571209 -0.038209923 0.1369509 0.1098882 0.019719006 0.0194216 -0.016323118 0.09895751
0.02283456 0.055904355 0.09035466 -0.034217536 0.047789317 0.13303766 -0.12776639 0.075038575
0.05960897 0.19493723 -0.019960769 0.04754918 -0.023390036 -0.018298173 -0.036360268 0.16181295
0.12753291 0.15847006 0.075336084 0.122674204 0.011277885 -0.024201484 0.12200099 -0.029996887
0.07917251 -0.09707379 0.052158564 -0.04633078 -0.16971068 -0.11814992 0.09221265 0.020328362
-0.020026911 0.04678318 -0.04542114 0.1593287 0.18475333 -0.06395501 -0.11025101 -0.05759545
0.031228622 0.028155545 0.13815126 -0.10867055 0.08201501 0.13076794 0.07859181 0.13191192
0.11802381 0.10025079 0.058175683 -0.10219038 0.034679577 0.12621322 0.105538204 0.030268354
0.14352098 0.103459865 -0.053451724 0.017733335 0.11263316 0.040471777 0.060042262 0.034730725
-0.040416513 0.014725085 -0.072250955 0.115140036 0.044910524 0.08375905 -0.07367931 -0.028255824
0.044159733 -0.017123485 -0.031386446 0.09615441 -0.026462026 0.09776272 -0.12202659 0.121710815
-0.06310213 0.110489 0.116777174 -0.018921519 0.06124565 -0.03163805 -0.06534717 -0.07231942
0.05744253 -0.016425299 0.04119768 -0.09200198 -0.11546243 -0.08891798 -0.06802186 0.042777024
-0.023154411 0.10712322 -0.06908247 0.16701964 -0.07956813 -0.11340351 0.13153587 -0.08717018
0.002057482 -0.0012533197 -0.01238789 0.013462839 -0.10300346 0.12679738 -0.10626236 0.055435847
-0.10495973 -0.045961488 0.07117282 -0.0717803 -0.020163694 -0.10601918 -0.093708195 0.03643983
-0.069785394 0.018751333 -0.034254014 -0.016265653 -0.086774744 -0.07214793 -0.0030455498 0.020574328
0.031577036 0.0012544547 0.07636277 -0.12410244 -0.06258516 -0.0075677796 -0.03407952 0.08639004
-0.108259514 -0.10341866 -0.05662575 0.022829665 -0.032990925 -0.071139425 -0.0981935 0.15037417
0.0003415247 -0.0921186 -0.123907275 -0.029541723 -0.07353713 -0.07601913 -0.0153091345 -0.12385006
0.00050823885 0.029963974 0.0021379427 -0.0029803144 -0.05184005 0.028703447 -0.087222725 0.068022326
0.03718933 -0.011689954 -0.12152415 -0.028829051 0.045570653 -0.028310217 0.04804145 -0.04635673
0.13389105 0.14995797 -0.045351792 -0.07368872 -0.021933569 -0.15198055 0.050136086 -0.0009247436
0.048168093 0.08453377 -0.077188306 0.0072801206 0.14423472 -0.04326765 0.107954115 0.1135486
0.03400422 -0.11493694 0.086004496 0.060950086 0.010129273 0.05429804 0.04888593 0.11828521
0.020756235 0.07647423 -0.11748099 0.15756157 0.18892634 0.07676386 -0.019325348 -0.039530817
0.03945409 0.14441516 0.024298694 -0.07405658 0.058240857 -0.048692003 0.045613967 0.123793624
-0.04553597 0.20580547 0.003909406 -0.0013785883 0.11308556 0.14364374 0.18029608 -0.08061874
-0.06480928 -0.12832531 0.1425066 0.07314663 -0.13494886 0.035843324 0.00063413696 -0.034118075
0.0836622 -0.053357996 -0.07990741 0.1062355 0.0836511 -0.1315742 -0.016084528 -0.010019824
-0.026385793 -0.017727794 0.028584447 -0.1572988 -0.058362324 0.094649255 0.048917834 0.010250109
0.030108577 0.11181716 -0.04532216 -0.045540918 0.074043564 0.14809719 0.05322913 0.07979498
00000000: 6eb0 293e 0282 1cbd db3c 0c3e 110d e13d
00000010: c189 a13c 0c1a 9f3c 0fb8 85bc 3caa ca3d
00000020: 8b0f bb3c f7fb 643d dd0b b93d b027 0cbd
00000030: bbbe 433d 063b 083e 31d5 02be d3ad 993d
00000040: 8928 743d a09d 473e c484 a3bc eec2 423d
00000050: 769c bfbc 0de6 95bc 81ee 14bd 4bb2 253e
00000060: fd97 023e fa45 223e ce49 9a3d 9d3c fb3d
00000070: e1c6 383c 3142 c6bc a8db f93d 08bc f5bc
00000080: 3225 a23d a0ce c6bd 38a4 553d 58c5 3dbd
00000090: a3c8 2dbe 96f8 f1bd fcd9 bc3d aa87 a63c
000000a0: 7a0f a4bc b89f 3f3d 840b 3abd 1027 233e
000000b0: fa2f 3d3e d8fa 82bd 48cb e1bd 35e9 6bbd
000000c0: 2bd3 ff3c 75a6 e63c 8677 0d3e aa8e debd
000000d0: 7cf7 a73d 08e8 053e bef4 a03d eb13 073e
000000e0: 78b6 f13d 4950 cd3d a049 6e3d 3149 d1bd
000000f0: 2c0c 0e3d 0a3e 013e 6a24 d83d 57f5 f73c
00000100: 2af7 123e c4e2 d33d 32f0 5abd 8045 913c
00000110: 37ac e63d bcc5 253d e0ee 753d ce41 0e3d
00000120: c98b 25bd 7c41 713c 4ff8 93bd 8ace eb3d
00000130: 19f4 373d dd89 ab3d 2ee5 96bd c278 e7bc
00000140: d6e0 343d 8d46 8cbc 138f 00bd 9aec c43d
00000150: e4c6 d8bc d237 c83d 14e9 f9bd 8543 f93d
00000160: b13b 81bd 0f48 e23d df28 ef3d 4d01 9bbc
00000170: b8dc 7a3d e696 01bd bdd4 85bd 341c 94bd
00000180: dc48 6b3d 598e 86bc e6be 283d 896b bcbd
00000190: 9177 ecbd a11a b6bd 0c4f 8bbd f636 2f3d
000001a0: 52ae bdbc 6b63 db3d 1c7b 8dbd 3207 2b3e
000001b0: 9ef4 a2bd 1940 e8bd 57b1 063e 4886 b2bd
000001c0: d2d6 063b 6e46 a4ba 94f6 4abc 3d93 5c3c
000001d0: 7af3 d2bd 2cd7 013e 15a0 d9bd b310 633d
000001e0: 20f5 d6bd 1d42 3cbd 0ec3 913d 8d01 93bd
000001f0: 552e a5bc 9520 d9bd 15ea bfbd ee41 153d
00000200: a5eb 8ebd 659c 993c f04d 0cbd 8c3f 85bc
00000210: f5b6 b1bd 4bc2 93bd d997 47bb 7e8b a83c
00000220: ec56 013d 846c a43a 1564 9c3d 6c29 febd
00000230: a62c 80bd 23fb f7bb f796 0bbd 43ed b03d
00000240: 2ab7 ddbd 2acd d3bd 67f0 67bd 4705 bb3c
00000250: 7e21 07bd 8cb1 91bd ac19 c9bd b0fb 193e
00000260: ab0e b339 ada8 bcbd 19c3 fdbd 7c01 f2bc
00000270: a39a 96bd ebaf 9bbd 2ad3 7abc 1aa5 fdbd
00000280: 553b 053a 0277 f53c ba1c 0c3b 6151 43bb
00000290: 3b56 54bd 7e23 eb3c d4a1 b2bd 4a4f 8b3d
000002a0: d753 183d 3987 3fbc a7e1 f8bd e72a ecbc
000002b0: 4ba8 3a3d d4ea e7bc 1dc7 443d 8ee0 3dbd
000002c0: bc1a 093e 958e 193e cdc2 39bd 1dea 96bd
000002d0: 07ae b3bc caa0 1bbe 7f5b 4d3d 7e6a 72ba
000002e0: e84b 453d 0b20 ad3d e714 9ebd 148e ee3b
000002f0: 44b2 133e 6b39 31bd 0c17 dd3d 2b8c e83d
00000300: 0248 0b3d 0f64 ebbd 2023 b03d cca6 793d
00000310: 40f5 253c 9f67 5e3d 9d3c 483d 843f f23d
00000320: fb08 aa3c 859e 9c3d e099 f0bd d257 213e
00000330: e875 413e 5f36 9d3d 3150 9ebc 11eb 21bd
00000340: 9d9a 213d 91e1 133e 0e0e c73c faaa 97bd
00000350: f78d 6e3d 4471 47bd b6d5 3a3d 8387 fd3d
00000360: ed83 3abd abbe 523e 791a 803b bfb1 b4ba
00000370: 6799 e73d 5817 133e 899f 383e 701b a5bd
00000380: baba 84bd b667 03be 40ed 113e e6cd 953d
00000390: 0930 0abe 73d0 123d 363c 263a 65bf 0bbd
000003a0: 1657 ab3d ea8d 5abd 7fa6 a3bd ff91 d93d
000003b0: 4551 ab3d 63bb 06be b3c3 83bc 302a 24bc
000003c0: 0527 d8bc e139 91bc ee29 ea3c f012 21be
000003d0: 550d 6fbd 78d7 c13d 115e 483d 13f0 273c
000003e0: 43a6 f63c 6500 e53d bba3 39bd 1d89 3abd
000003f0: 27a4 973d caa6 173e ca06 5a3d 8d6b a33d

linears.1.bias f4 [32]
0.06278397 -0.110784546 -0.081846304 0.034728214 0.089034766 -0.09709498 -0.015927833 -0.10911019
-0.13630435 0.025623431 0.00049604935 0.06994003 0.06738759 -0.088536695 -0.035530895 -0.018523056
-0.05409084 0.14450583 0.14128077 -0.1089703 -0.06920477 -0.04628713 -0.03734325 0.037330482
-0.10770697 0.055990297 -0.056403592 0.13122079 -0.046291463 0.041353833 0.14547573 -0.042439517
00000000: e294 803d 02e3 e2bd 099f a7bd 2c3f 0e3d
00000010: dc57 b63d bcd9 c6bd 167b 82bc 2a75 dfbd
00000020: 5e93 0bbe 3be8 d13c 4f09 023a b83c 8f3d
00000030: 8102 8a3d ba52 b5bd d888 11bd aabd 97bc
00000040: 5b8e 5dbd 56f9 133e e8ab 103e d22b dfbd
00000050: 3bbb 8dbd 9397 3dbd 3cf5 18bd d9e7 183d
00000060: 7995 dcbd 1556 653d 7407 67bd be5e 063e
00000070: 1e9c 3dbd a362 293d 97f7 143e 0fd5 2dbd

linears.2.weight f4 [32, 32]
0.053085487 0.19325389 0.054521915 -0.086720675 0.006241173 -0.1276052 -0.10327959 -0.1166419
0.09515234 0.143092 -0.025742726 0.16733532 -0.085740626 0.06564116 -0.20071399 0.12553096
-0.14444348 0.14269793 0.039182704 -0.0915566 0.21084145 0.06893888 -0.13163902 0.070419796
-0.08498753 -0.19001402 0.018463433 -0.011101436 -0.083830975 0.16688432 0.0747489 -0.12250778
0.12124291 0.14036585 0.17740089 0.008620033 0.0314346 0.04136543 -0.04568802 0.09032244
-0.06835261 0.11925045 0.16203651 0.07712047 0.13153464 -0.14115795 -0.019230139 -0.13782534
-0.04692818 -0.002781474 0.21333298 0.00018161557 0.18765678 0.13866389 -0.0015711486 0.12623699
0.18494421 -0.18584995 -0.13635698 0.012051719 0.11152113 0.05148157 0.18350223 -0.09083332
0.013559636 -0.14585395 0.14570239 -0.13213836 0.01719356 -0.13589102 0.120191805 -0.11577686
-0.14057682 -0.116827756 -0.020746965 -0.1423254 0.018527493 -0.05733344 0.07143797 0.06262937
0.010255978 -0.120606855 0.07459762 0.10099693 -0.003107493 -0.032078467 -0.026381254 -0.042705555
-0.16529967 0.026495624 0.1377939 0.042658586 0.057077836 0.14232898 0.102545306 0.003681977
0.14058506 0.15145515 0.065900065 -0.020085717 -0.028521787 -0.029190095 0.04168537 -0.13943219
-0.14386076 -0.004183619 0.024887614 0.11422569 0.14500234 -0.1802324 -0.08289554 -0.12626518
0.0007399422 -0.122250505 -0.12571561 0.050279286 0.15329164 -0.14375995 -0.15904091 0.021140851
0.17912503 -0.13885465 0.17743604 0.15756004 -0.06299559 0.06962591 0.12262953 -0.22341537
0.05460927 0.017135741 -0.040545788 -0.19531001 -0.07169722 -0.14931747 0.055532813 0.004679799
-0.10831002 0.12668686 -0.091784604 0.13700378 0.13644399 0.21960808 0.1598983 0.12219743
0.027063066 0.063272715 0.11290015 -0.23837323 -0.165153 0.008971111 -0.040337503 -0.03031103
-0.10337435 0.12638567 -0.10561742 0.24071167 0.104721576 0.029519409 0.06068396 0.0483954
-0.020811765 0.078693934 0.15285456 -0.04598571 -0.09651473 -0.014737806 0.13556713 0.008293346
-0.18400203 0.0036753188 -0.03847666 0.118018456 0.15987912 0.18031202 -0.044909973 0.073614344
0.06973755 0.011047341 -0.10640926 -0.13466074 -0.05543351 -0.015053096 0.09755306 -0.12595135
0.095309265 0.2735729 -0.12649338 -0.06930615 0.041811496 -0.12393794 0.030911716 -0.07232966
-0.050521992 0.1605656 0.12088526 -0.0052298186 -0.0037163796 0.117979124 -0.13496411 0.13095696
0.045796677 -0.1793993 0.05919858 0.0092050955 -0.16975482 -0.1022493 0.006950052 -0.0022096161
0.036808133 0.104863696 0.105601996 0.02634933 -0.027257731 -0.035962053 0.16175373 -0.022092715
-0.15038973 -0.10914364 -0.20741926 -0.13465267 0.14633834 -0.17848124 -0.08305783 -0.17664766
0.07919736 -0.07276881 0.16652694 0.09971133 -0.074294545 -0.074653134 -0.03946515 -0.04619482
-0.16312695 -0.002671697 -0.13949794 -0.12900954 0.036039263 0.08232704 -0.18035878 0.019729525
0.13774781 0.046793602 -0.15172291 -0.18657325 -0.038502336 0.10357409 -0.013094619 -0.18647532
0.15273927 -0.13142993 0.04520633 -0.12568153 0.015577325 -0.057281237 -0.041022804 -0.047720842
00000000: 2b70 593d 59e4 453e 5f52 5f3d 9c9a b1bd
00000010: c182 cc3b f0aa 02be 4084 d3bd f3e1 eebd
00000020: 3bdf c23d b686 123e 69e2 d2bc f359 2b3e
00000030: c898 afbd df6e 863d f887 4dbe 308b 003e
00000040: fee8 13be 681f 123e 0b7e 203d 0782 bbbd
00000050: d2e6 573e d42f 8d3d 61cc 06be 4138 903d
00000060: f10d aebd 0993 42be a040 973c cce2 35bc
00000070: 93af abbd b9e3 2a3e f415 993d 5ce5 fabd
00000080: 344e f83d 11bc 0f3e 94a8 353e 0a3b 0d3c
00000090: 91c1 003d cc6e 293d 5c23 3bbd f9fa b83d
000000a0: 74fc 8bbd 9439 f43d e6ec 253e 56f1 9d3d
000000b0: 04b1 063e b68b 10be 8688 9dbc 1622 0dbe
000000c0: c337 40bd 6449 36bb f673 5a3e 0f70 3e39
000000d0: 1929 403e e8fd 0d3e 00ef cdba 4544 013e
000000e0: 0462 3d3e 734f 3ebe 2aa1 0bbe 9374 453c
000000f0: 3165 e43d 57de 523d 02e8 3b3e d206 babd
00000100: 3c29 5e3c bd5a 15be 0233 153e 474f 07be
00000110: 82d9 8c3c 0427 0bbe 1f27 f63d 6b1c edbd
00000120: 5ff3 0fbe 6443 efbd 8af5 a9bc c0bd 11be
00000130: f8c6 973c 78d6 6abd 124e 923d d443 803d
00000140: b108 283c ba00 f7bd a3c6 983d 7ad7 ce3d
00000150: 15a7 4bbb b664 03bd 801d d8bc 05ec 2ebd
00000160: 5144 29be 5a0d d93c d819 0d3e c5ba 2e3d
00000170: 73ca 693d b0be 113e 4603 d23d 534d 713b
00000180: 88f5 0f3e 0f17 1b3e 9df6 863d cd8a a4bc
00000190: 86a6 e9bc 1120 efbc 47be 2a3d 50c7 0ebe
000001a0: 3c50 13be bd16 89bb 1ce1 cb3c 29ef e93d
000001b0: 7e7b 143e d88e 38be 23c5 a9bd a94b 01be
000001c0: aef8 413a 795e fabd 98bb 00be a7f1 4d3d
000001d0: 7cf8 1c3e cf35 13be 9fdb 22be 942f ad3c
000001e0: 8d6c 373e ea2f 0ebe cbb1 353e 6b57 213e
000001f0: d503 81bd 0798 8e3d 3125 fb3d 00c7 64be
00000200: f8ad 5f3d 4160 8c3c 5713 26bd 59ff 47be
00000210: fed5 92bd aee6 18be 6076 633d 0059 993b
00000220: a5d1 ddbd 33ba 013e 91f9 bbbd b84a 0c3e
00000230: f9b7 0b3e f1e0 603e 61bc 233e a542 fa3d
00000240: 5db3 dd3c 2095 813d 3238 e73d 1d18 74be
00000250: de1d 29be 91fb 123c f038 25bd d64e f8bc
00000260: eeb5 d3bd 3f6b 013e f24d d8bd 1f7d 763e
00000270: 4478 d63d b0d2 f13c be8f 783d 413a 463d
00000280: 6f7d aabc 492a a13d e885 1c3e 835b 3cbd
00000290: 84a9 c5bd d776 71bc 1cd2 0a3e d0e0 073c
000002a0: 076b 3cbe 9edd 703b b499 1dbd a9b3 f13d
000002b0: 5ab7 233e b7a3 383e 85f3 37bd 1ec3 963d
000002c0: 90d2 8e3d e8ff 343c 19ed d9bd 81e4 09be
000002d0: 400e 63bd 43a1 76bc e6c9 c73d 64f9 00be
000002e0: 8131 c33d bf11 8c3e 7b87 01be 62f0 8dbd
000002f0: 8842 2b3d 2dd3 fdbd 913a fd3c 9321 94bd
00000300: 26f0 4ebd 4f6b 243e b192 f73d e65e abbb
00000310: 818e 73bb 0a9f f13d 0834 0abe 9519 063e
00000320: 4c95 3b3d 73b4 37be 367a 723d f8d0 163c
00000330: 35d4 2dbe 1568 d1bd 43bd e33b 35cf 10bb
00000340: 20c4 163d c7c2 d63d dc45 d83d 8dda d73c
00000350: 9b4b dfbc f24c 13bd c5a2 253e c8fb b4bc
00000360: c4ff 19be b386 dfbd b765 54be 64e2 09be
00000370: b8d9 153e c9c3 36be 391a aabd 20e3 34be
00000380: 3a32 a23d d007 95bd 0a86 2a3e 7435 cc3d
00000390: bd27 98bd bee3 98bd 36a6 21bd c836 3dbd
000003a0: c00a 27be a317 2fbb 8cd8 0ebe 141b 04be
000003b0: e89d 133d 149b a83d f9af 38be d09f a13c
000003c0: c30d 0d3e a6aa 3f3d 405d 1bbe 0f0d 3fbe
000003d0: a0b4 1dbd a71e d43d d08a 56bc 63f3 3ebe
000003e0: af67 1c3e 9195 06be 462a 393d a9b2 00be
000003f0: 0938 7f3c bb9f 6abd 8707 28bd ee76 43bd

linears.2.bias f4 [32]
-0.010994079 0.07468585 -0.11186145 -0.06731917 -0.044837795 0.21117301 0.108168475 -0.12849408
-0.10900232 0.03840426 -0.016998762 -0.0015457062 0.048573516 -0.096404806 0.064796306 0.035553697
-0.11220028 -0.18444033 0.12495482 -0.10231244 -0.052584283 0.1182156 -0.08699986 -0.096697085
-0.084853895 0.14119022 0.08184337 0.04649335 0.11057264 0.03656395 -0.025077103 -0.033726968
00000000: 8220 34bc e5f4 983d 9e17 e5bd a2de 89bd
00000010: d6a7 37bd bd3d 583e 6f87 dd3d f493 03be
00000020: 9c3c dfbd c94d 1d3d fd40 8bbc 4b99 caba
00000030: 06f5 463d e26f c5bd edb3 843d c1a0 113d
00000040: 43c9 e5bd eddd 3cbe 50e8 ff3d 2f89 d1bd
00000050: 9e62 57bd 051b f23d fc2c b2bd 1f09 c6bd
00000060: e1c7 adbd 2b94 103e 7f9d a73d d06f 3e3d
00000070: e973 e23d 15c4 153d 7f6e cdbc 4a25 0abd

output.weight f4 [1, 32]
-0.14585447 -0.10449756 0.0015836846 -0.021972317 0.096870735 0.12103855 0.11717467 0.14934379
-0.012417862 0.050096765 -0.16492085 0.09230686 -0.083186954 -0.16566439 -0.14030184 -0.17311281
-0.08385385 0.070975855 -0.16925864 -0.050935708 -0.044919975 0.11313558 -0.088946216 0.0770026
-0.1317727 0.21480563 -0.2067611 -0.14617051 0.15153843 0.015029913 0.18717676 0.07738751
00000000: e05a 15be d102 d6bd a393 cf3a 4aff b3bc
00000010: 2a64 c63d 0fe3 f73d 46f9 ef3d 94ed 183e
00000020: 4a74 4bbc 4432 4d3d 03e1 28be 610b bd3d
00000030: ec5d aabd eda3 29be 49ab 0fbe 7c44 31be
00000040: 91bb abbd ca5b 913d 2352 2dbe f6a1 50bd
00000050: 02fe 37bd a1b3 e73d 6f29 b6bd 8ab3 9d3d
00000060: 6cef 06be 02f6 5b3e 2fb9 53be b9ad 15be
00000070: e42c 1b3e 0640 763c 44ab 3f3e 587d 9e3d
