bank/Models/nn/0.9008_2/params.pt (torch_old, 19434 bytes, 7 tensors)

linears.0.weight f4 [64, 19]
000000 d3 09 8e 3d 9c 77 d3 bd dc fe d8 3c 77 79 77 bb
       0.069354676 -0.10325548 0.026488714 -0.0037761608
000010 52 a1 45 3e 0b 4a 70 3d cc 31 d9 3d da 30 f4 bc
       0.1929982 0.058664363 0.10605201 -0.02980845
000020 52 df 23 3e 40 c8 9d 3d 49 4d d0 3d b0 c1 5e 3e
       0.16003159 0.0770421 0.10170991 0.21753573
000030 4c f9 98 3e a8 04 8f be 18 35 af 3e 17 b1 ef bd
       0.29877698 -0.2793324 0.34220195 -0.11703699
000040 21 61 1a be 44 b8 15 3e 17 3d 4a 3d 56 d1 b4 bc
       -0.15076114 0.14621073 0.049374666 -0.022072475
000050 3d d1 6e 3d ed 45 09 bd 17 5e 99 3e 44 e6 fa bd
       0.058305014 -0.033513952 0.29954597 -0.12250951
000060 8d 38 e7 3d 9c e4 32 3d 4a e5 db bd 33 ac 29 be
       0.11290083 0.04367505 -0.10737093 -0.16569595
000070 87 5b a7 3d ab 92 f7 3d 36 63 4e bd 5e 6f 03 3e
       0.08171754 0.120885216 -0.050387584 0.12835452
000080 7b 68 60 be dc 56 be 3e 3b 58 5b 3e 01 eb 13 3c
       -0.21914856 0.37175643 0.21420376 0.009028197
000090 b7 0d c3 3e 2d 55 dc 3d 4a c2 54 3d 04 82 53 3e
       0.380964 0.107584335 0.0519431 0.20655066
0000a0 ae 1d 35 bd 79 30 7a 3d b5 28 95 3d a3 d4 03 3e
       -0.044217758 0.061081383 0.07283155 0.12874083
0000b0 5f b9 94 3e 66 2e f7 3b b3 6d fd bd 07 1a ad bd
       0.29047677 0.007543373 -0.12374439 -0.0845223
0000c0 b3 22 7c 3d 81 a4 e1 3d 43 9d 91 3e c0 12 96 be
       0.06155653 0.11017705 0.28440294 -0.2931118
0000d0 74 75 b0 3e 09 8f 12 be a3 b1 a6 bd cb d6 59 3d
       0.3446461 -0.14312376 -0.0813935 0.05318336
0000e0 43 75 c6 3e 88 02 f1 3d da 55 2a be b4 70 f0 3d
       0.3876134 0.11768061 -0.16634312 0.117402464
0000f0 81 37 1b 3d 78 9a 90 3c 90 66 aa 3d 78 0d d6 3d
       0.03789473 0.017651781 0.083203435 0.10451788
000100 d3 ff 83 be 82 32 64 be 87 a0 5a be 73 c4 d9 bd
       -0.25781116 -0.22284892 -0.21350299 -0.10633173
000110 ca b3 43 3e 09 a5 2d be b5 02 af bd 55 c7 19 3e
       0.19111553 -0.16957487 -0.08545438 0.15017445
000120 59 74 de bd e3 b2 24 3e c8 11 50 3e b5 da 07 be
       -0.10862035 0.16083865 0.20319283 -0.13267024
000130 2b fc 5c bd 51 c6 75 bd 85 67 54 3e 34 bf 54 3e
       -0.053951424 -0.060003582 0.20742615 0.20776063
000140 c5 81 0b be 53 71 ec bb dc 91 42 bd 5c e9 5e bd
       -0.13623722 -0.0072156577 -0.047502384 -0.054421768
000150 cf e8 f5 bd 89 6f 64 be b5 d0 03 3e c3 02 c9 3e
       -0.12007295 -0.22308172 0.12872584 0.3925992
000160 7c ec 45 3d 73 b9 4f be 80 db f3 3d 5b d0 8d 3d
       0.048321232 -0.20285587 0.11907101 0.06924506
000170 86 70 d4 3d 33 0e 71 3e 50 fe c2 3e 98 c8 1c 3e
       0.10373025 0.23540573 0.3808465 0.15310895
000180 91 8e 45 bd b8 0f 80 bd b1 a7 4f 3e 59 57 df bd
       -0.048231665 -0.06252998 0.20278813 -0.10905332
000190 c0 6f a5 3c 86 59 1e 3e d9 d7 86 bd f9 85 e6 bd
       0.020194888 0.15463838 -0.065841384 -0.11256022
0001a0 18 9e 90 3d 16 19 d0 bc bc 43 a9 3e b5 85 0f 3e
       0.07061404 -0.025402587 0.3305949 0.14015849
0001b0 21 28 b9 be 05 ed 26 3e 1f 3c 3e 3e 5e c0 88 3d
       -0.36163428 0.16301353 0.18577622 0.06677316
0001c0 ce 79 c9 3e b9 48 96 3e 88 d8 1a 3d 93 7f 4b bd
       0.39350742 0.29352358 0.037804157 -0.04968221
0001d0 73 37 26 3e 3e 6b 7f bd 5e a3 03 3e f4 5b 4f 3e
       0.1623209 -0.062358133 0.12855288 0.20249921
0001e0 2b 6e 3d 3e 41 8b 41 3e cb cb dd bd ee fe f5 3d
       0.18499057 0.18900777 -0.10829886 0.120115146
0001f0 96 df b6 bd 5d 09 66 be 87 83 97 be ef cb 31 3d
       -0.089293644 -0.2246451 -0.29592535 0.043407377
000200 02 77 bd bd f2 66 ab 3e c3 5a 2c 3e d1 ca 88 be
       -0.092512146 0.3347698 0.16831498 -0.26717237
000210 31 c9 a5 bb 48 79 77 bc 07 58 3c be 77 8e 0d 3e
       -0.0050593843 -0.015104599 -0.18392955 0.13823877
000220 e9 11 90 3d d7 27 91 3b 6c af 2d 3e d7 cf da bd
       0.07034666 0.004429798 0.1696145 -0.106841736
000230 b6 5c 7e 3d fd e0 12 bd 2c c7 29 be 8c fb e4 3d
       0.062100135 -0.035859097 -0.16579884 0.11180791
000240 dc 73 84 3e 0c c9 2b bb 99 d8 6f be 12 44 03 3e
       0.25869644 -0.0026212363 -0.23422469 0.12818936
000250 9f 3c 52 be b7 21 9b be 79 52 f4 bd 14 52 72 3e
       -0.20530938 -0.3029916 -0.11929793 0.23664123
000260 66 53 56 3d 5b 18 3e bd 75 1f b6 ba b6 78 03 3d
       0.05232563 -0.046409946 -0.0013894873 0.03209754
000270 a0 e9 fd bd b2 f9 d1 bd 14 e6 05 be 3d 4d cb bc
       -0.12398076 -0.10252704 -0.13076049 -0.024817104
000280 4e 42 ce 3d ff 0c 02 3e ff 45 17 be 05 3a d8 3e
       0.1007124 0.1270027 -0.14772795 0.42231765
000290 05 0d c4 3e b9 22 86 be 6e f5 bd 3e fa 1c 5b be
       0.38291183 -0.26198366 0.3710131 -0.21397772
0002a0 b3 37 50 3d cc f0 99 3d 69 ef 72 3e cf 6e 2e bd
       0.05083437 0.075166315 0.2372414 -0.042586144
0002b0 66 48 b4 3d e4 4a 19 3d 7e 74 ea 3d 09 f7 1a 3e
       0.088028714 0.037424937 0.11448 0.15133299
0002c0 7c dd 0f 3e dc 6f 81 3e fd 99 cb 3b 41 a8 01 3e
       0.14049333 0.25280654 0.006213425 0.1266184
0002d0 a9 74 81 3d 8e 86 71 be f5 88 0f 3e 60 46 7a bd
       0.06321079 -0.23586485 0.14017089 -0.06110227
0002e0 3a 65 0c 3e 34 91 94 3e b2 92 c7 bd 07 6d 79 be
       0.1371049 0.2901703 -0.09744777 -0.24357997
0002f0 88 87 09 3e f0 45 82 3e ea 15 93 3d 53 fc 2a bc
       0.13430607 0.25443983 0.07181914 -0.010436135
000300 93 80 94 bd 41 f9 3c bd e8 7e a4 3c c0 b7 66 3e
       -0.07251086 -0.046136145 0.020080045 0.22531033
000310 1c b9 5a 3d f9 d4 27 3a 3c 5a 06 be e0 1d 1d be
       0.05339919 0.000640228 -0.13120359 -0.15343428
000320 b2 81 3c 3e de 0b 26 3e a9 45 ce 3d 8e 07 d3 bc
       0.1840885 0.16215464 0.1007188 -0.025760438
000330 34 22 3c 3e a5 bf 80 3e d6 1f 00 bc 46 f7 ec 3d
       0.18372422 0.25146213 -0.00782009 0.11570601
000340 7f ca 94 3d 83 a6 c7 3b 81 eb ea bc 18 0c a0 bd
       0.072651856 0.006092848 -0.02867675 -0.07814807
000350 0e df 4e 3e c5 97 cb bd 88 c8 07 3e 3f 4c 9f 3d
       0.20202276 -0.09941057 0.1326009 0.07778215
000360 29 9a 0d 3d e8 15 be 3d 5b a4 dc bc cd 37 f9 bd
       0.034570847 0.09281522 -0.02693384 -0.12168846
000370 e1 b4 2f 3e 98 b9 a1 3e cb ec 70 be 91 ea 2d 3e
       0.17158844 0.3158691 -0.2352783 0.16984011
000380 4e 6a ed 3d a4 80 4a be 4a b1 cf 3d b8 b5 dd 3e
       0.11592542 -0.19775635 0.10141237 0.43302703
000390 29 dd 53 be 52 8c 2d 3e 4f 41 69 be cf 1e 72 3c
       -0.20689835 0.16948059 -0.2277882 0.014777853
0003a0 f0 f3 e5 bd 0c 28 af bb 94 e5 aa bd 05 9a 12 3e
       -0.11228168 -0.00534535 -0.0834457 0.14316566
0003b0 23 5b 1c 3e f9 e3 61 be 2c 2e 32 be db 1f ce 3c
       0.15269141 -0.22059621 -0.17400426 0.025161674
0003c0 f5 07 83 3c 8e 41 ba 3d 5b ae 0c 3d 6e 7c 1a bc
       0.015995005 0.09094535 0.034345966 -0.00942908
0003d0 63 1f 4e 3c 06 7a c8 3d 30 6c 99 3e 4b d5 24 be
       0.012580725 0.09788899 0.29965353 -0.1609699
0003e0 af 37 26 3e 7b ba 1d 3e 75 75 5e 3e ca d2 bd 3c
       0.16232179 0.15403168 0.21724494 0.023171801
0003f0 0e d7 bb bd ca 58 f2 bd cf ab 9c bd b4 ac f0 3c
       -0.09171878 -0.118333414 -0.076499574 0.029379226

linears.0.bias f4 [64]
000000 8c f7 1e be 5b 4e 60 3e 4c 46 de bd f1 03 08 be
       -0.15524119 0.2190489 -0.10853252 -0.13282754
000010 e3 fe b2 bc 41 23 0f 3e 3d b8 19 3d 39 90 30 3d
       -0.021850055 0.13978292 0.03752922 0.04310629
000020 b3 4f cb bd 80 4e 51 be 2c f1 bb 3d 11 c2 94 3e
       -0.09927311 -0.20440102 0.09176859 0.2905431
000030 a6 f0 0d be ce cf 15 be 0f 20 c0 3c b0 78 cc bc
       -0.13861331 -0.14630052 0.023452787 -0.024959892
000040 eb 96 5f be 97 85 fb 3d 89 34 c2 3d cc 6f dc bd
       -0.21834914 0.122813396 0.094826765 -0.10763511
000050 c3 77 73 3d 8b d0 64 3e b8 53 8a bc 9c 69 56 be
       0.059440386 0.22345178 -0.016885623 -0.20938724
000060 17 22 df bd a3 ff 3a 3b 64 13 c0 bd 80 5c fa bd
       -0.10895174 0.002853372 -0.093786985 -0.12224674
000070 ba 37 3e be 5c 77 5c bc db 34 cb 3d df 8a 1c 3e
       -0.18575945 -0.013456192 0.09922191 0.1528735
000080 90 1d 3e be a0 54 76 3e 50 19 cb bd e7 5b bd bd
       -0.18565965 0.2405572 -0.09916937 -0.092460446
000090 63 0d f7 3c ba 69 08 be 38 a7 1e bc 30 b3 35 3e
       0.03015775 -0.13321581 -0.009683423 0.17744136
0000a0 86 0b 51 3d 46 2d 86 3b 11 91 b5 bc 5b 67 af 3d
       0.05103638 0.0040947525 -0.0221639 0.08564635
0000b0 cb c5 25 3e a3 96 c8 3d 49 36 8f bd 9f 5a 2f 3d
       0.16188733 0.09794357 -0.06992776 0.042811032
0000c0 c8 f8 85 3e 53 d9 e8 bd 20 25 79 bd a9 05 6c 3e
       0.26166368 -0.11369576 -0.06082642 0.23049034
0000d0 f5 1a 10 be 03 f8 3a 3e 28 9f 3d 3e c7 47 38 3e
       -0.14072783 0.18258671 0.18517745 0.17996131
0000e0 07 e1 49 3d ff b6 8a 3e 4b 81 05 3d 08 88 15 3e
       0.04928687 0.2709274 0.032594007 0.14602673
0000f0 d9 27 49 be d9 0e fd bd 8a 3a ed 3c 29 de 05 3e
       -0.19644107 -0.123563476 0.028958578 0.13073029

linears.1.weight f4 [32, 64]
000000 52 a8 87 3d 15 e0 1c 3e ae 22 42 bd 26 d1 2f 3e
       0.066239014 0.15319856 -0.047396354 0.17169628
000010 bb b8 27 3d 5c 5b 08 3e c8 43 cd bd e8 8d 97 3b
       0.040947657 0.13316101 -0.10022694 0.004625071
000020 c7 38 16 3e 5b db 0d bd 4f 7d 2b 3e 3a b3 80 3c
       0.14670096 -0.03463302 0.1674702 0.015710462
000030 40 2e 99 bc c2 c5 fb bd d1 74 b9 3d d5 6b e1 3c
       -0.018698812 -0.12293579 0.09055484 0.027517239
000040 81 07 98 3c c4 07 d5 bd bf 9f fb 3d 28 3e 80 3d
       0.018558266 -0.10401872 0.122863285 0.06261855
000050 dc de 73 3c 6d e0 e1 3d c1 79 ec bd 9e 71 26 bd
       0.014884677 0.11029134 -0.1154666 -0.040635698
000060 8c 52 e8 3d fd 42 88 bd 96 88 a3 3d cf f9 03 3e
       0.113438696 -0.06653402 0.07985036 0.12888263
000070 a1 f0 13 bd 08 d4 83 3d e2 94 9d bd e3 c9 65 3e
       -0.036118153 0.06436926 -0.07694413 0.22440295
000080 30 72 89 bc 7a ff 5e 3d e5 8c 16 3d 2e 10 97 3d
       -0.016778082 0.05444286 0.03675546 0.07376133
000090 0d f7 24 be 6c ca a4 3d 32 24 36 3d d3 36 97 3b
       -0.16109867 0.080464214 0.044468112 0.00461469
0000a0 6f 13 2a bc 5e f6 12 be cf 73 b8 bd 48 8a 52 bd
       -0.01038061 -0.14351794 -0.09006464 -0.051401407
0000b0 d5 39 78 3d f4 0c ee 3d 41 c5 5e 3d 7e 2f d3 bc
       0.060602028 0.11623564 0.054387335 -0.025779482
0000c0 7e 06 7c bd b6 e4 18 3d d8 80 32 3e 53 c5 45 3e
       -0.06152963 0.03732749 0.17431962 0.19313554
0000d0 82 9d 7c 3b 82 c8 ed bd 14 a6 78 3c 9e e7 27 3e
       0.003854603 -0.116105095 0.015176315 0.16396949
0000e0 ce 7d a0 3d 4e 93 41 3e b5 69 1f 3e f6 91 dd 3d
       0.07836495 0.18903849 0.15567668 0.108188555
0000f0 9c 9c f6 3d 93 5e 85 3d c9 d4 0d bd 54 59 5b 3d
       0.120415896 0.06512179 -0.034626756 0.053551987
000100 95 bf 9f bc 07 c6 71 3c 95 a2 6e bd 22 73 ac bc
       -0.019500533 0.014756686 -0.05826052 -0.021050993
000110 f7 e7 16 3e 08 ab f9 3c f2 a8 83 3c 7e c6 87 3d
       0.14736925 0.030477062 0.01607177 0.06629656
000120 bd d8 c6 bd 6a d7 e2 3c 29 c1 df bc fa d0 65 3d
       -0.09709308 0.027690608 -0.027313786 0.0561075
000130 ab 89 59 3d 7a 31 f9 bd 85 1b 93 3b cb fe 84 3b
       0.053109806 -0.1216764 0.0044893646 0.004058694
000140 bc 2b fa 3d d7 58 43 bd 10 90 81 bd 38 76 a7 3d
       0.12215373 -0.047692146 -0.06326306 0.08176845
000150 58 63 90 bc 0b 10 85 3d d5 4b ad 3d b5 c6 0a be
       -0.017625496 0.064972006 0.084617294 -0.13552363
000160 ac 6d f1 3d a1 7a 02 be 40 b9 47 3b 62 7d 04 3e
       0.117884964 -0.12742092 0.0030475408 0.12938455
000170 27 4b df bd 45 bd 7b 3d 28 72 86 3d a0 59 24 3e
       -0.10903006 0.0614598 0.06564742 0.16049814
000180 6b 3d 15 3c 3a d0 1d bd 90 3d 84 3d f7 1f a1 3d
       0.0091088815 -0.03852866 0.064570546 0.07867425
000190 b7 aa 96 bd d4 bb ea 3d 3f 95 a9 bd 18 18 da bc
       -0.0735678 0.114616066 -0.082804196 -0.026622817
0001a0 7f ad d9 3d dc 10 78 3d 43 5f 5d bd 2a 87 85 bd
       0.10628795 0.060562953 -0.054045927 -0.06519921
0001b0 0a 78 c9 3d 8f 24 06 3d 72 ee bf 3d 37 c7 1f 3e
       0.09837349 0.03274971 0.09371652 0.15603338
0001c0 bb e2 1b be c0 2e 6d bd 67 85 9a 3d b1 5f 92 bc
       -0.1522321 -0.057905912 0.07544976 -0.017867895
0001d0 f0 fd 5f bd 47 77 bf 3d d1 5c dd bd d8 24 59 bb
       -0.054685533 0.09348922 -0.10808719 -0.0033133533
0001e0 d6 cf 6a bd 16 75 f3 3d 4b 1a 2d 3e ce 85 9e bd
       -0.057327114 0.11887567 0.16904561 -0.07740365
0001f0 ec c1 75 b8 32 73 5c 3d 40 13 64 3c ab 52 be bd
       -5.8593156e-05 0.053820796 0.013920605 -0.092931114
000200 30 e5 ec 3c 7d 78 3a 3d 02 73 58 bd ca 56 ef 3d
       0.028917879 0.045525063 -0.052844055 0.116864756
000210 64 84 d3 bd b5 6e 7a bd 3b fb 16 be 23 b3 ce bc
       -0.10327986 -0.061140735 -0.14744274 -0.025231903
000220 7d e9 fa bd a6 59 0a be 12 d7 a5 bd 7f e9 cb bd
       -0.122515656 -0.1351076 -0.08097662 -0.09956645
000230 08 b9 3a 3d 1b 32 7a bd aa 33 98 bd 50 59 92 3d
       0.045586616 -0.06108294 -0.07431729 0.07145941
000240 37 57 48 3d c8 17 09 be 85 d0 0d be 7e aa 8f bd
       0.0489113 -0.13387978 -0.13849075 -0.07014941
000250 7a 8c 56 3c 59 ed 9c bc ae f1 66 3d 30 2f 49 3c
       0.013095016 -0.019156145 0.056382827 0.012279317
000260 0b ff bb bd a4 c1 b3 bd b8 4d 5e 3d 40 e7 84 3d
       -0.09179505 -0.087771684 0.054273337 0.0648942
000270 0a da 2b 3c 6c 84 98 bd 32 f7 f5 bd 7d 67 8c bd
       0.010488996 -0.074471325 -0.120100394 -0.06855676
000280 64 38 20 3d 98 c4 c4 bd 2f ee d5 bd fc 65 e3 3d
       0.03911628 -0.0960781 -0.104458205 0.11103436
000290 12 47 93 bd e8 b8 ab 3c ee 81 38 bd 38 6c 02 be
       -0.0719129 0.020962194 -0.045045786 -0.12736595
0002a0 4f 2c e3 3d c3 6e b1 3d aa e5 1b be a4 7d 8f 3d
       0.110924356 0.08663704 -0.15224329 0.07006386
0002b0 89 90 47 3d fc 31 c6 3d e4 b4 c9 bd 9a c2 05 be
       0.048721824 0.096775025 -0.09848955 -0.13062516
0002c0 e0 1f c1 3c b3 ec 6b 3d 80 87 80 3b 5d 46 f2 bd
       0.02357477 0.05759878 0.003922403 -0.11829827
0002d0 cf e8 a2 bd e4 33 11 be b2 c8 63 bc 0d 7b da 3d
       -0.07954561 -0.14179951 -0.01390283 0.10668001
0002e0 77 f0 81 bc e8 42 8f bd 42 82 7d bd c0 a2 90 3c
       -0.015861733 -0.06995183 -0.0618918 0.01765573
0002f0 7f 8f bb bd 90 2a 78 3c d2 4e b5 3d 98 7c 19 3d
       -0.09158229 0.015146866 0.088529244 0.037472337
000300 b3 1f 4e 3c 89 95 6c 3e f9 cc 47 3d de fa 95 bd
       0.0125808 0.23103918 0.04877946 -0.0732324
000310 27 5c 33 3e ba c5 49 3d da 71 8e bc 0c c4 ab 39
       0.17515622 0.049260832 -0.017388273 0.00032761728
000320 2d 59 9f 3d da c7 f5 bc 53 be 0a 3e 13 29 38 3a
       0.07780681 -0.030002523 0.13549165 0.00070251635
000330 17 fb 1a 3e bb 97 83 3d f3 0e 16 be f5 fb 02 be
       0.15134846 0.06425425 -0.1465414 -0.12791426
000340 94 88 df bd 48 61 19 3d c2 88 9f 3d 1c 84 3c 3d
       -0.10914722 0.03744629 0.07789756 0.046024427
000350 2a 7a d6 3d 30 6f b8 3d 8c 8e 36 3d c1 95 4b bd
       0.1047252 0.09005582 0.044569537 -0.049703363
000360 b2 33 21 3d 80 9d 84 bd 4a 56 c7 3d 5e 60 08 3e
       0.03935594 -0.06475353 0.09733255 0.13318011
000370 8c 44 80 3d 1b dd 0a 3e 62 1f 40 bc c5 48 79 3d
       0.06263074 0.13560908 -0.011726232 0.060860414
000380 92 20 38 3d d4 dd 1f 3e e6 96 f0 3d ab 0b cc 3d
       0.044952936 0.15611964 0.117475316 0.09963163
000390 c3 98 e2 bc fb 84 ec bc 07 26 71 bd ec 60 84 bd
       -0.027660733 -0.028872004 -0.058874156 -0.06463799
0003a0 3c 9c ab 3d fe e0 d2 bd be 09 bd 3d 02 0c d1 3c
       0.08379409 -0.1029682 0.09230374 0.025518421
0003b0 21 64 80 3d 28 94 85 3d ca 02 cb 3d db 42 d5 3d
       0.06269098 0.06522399 0.09912641 0.10413142
0003c0 67 bc 96 bd 9d d2 3c bd 05 73 23 3e b7 5a 4a 3d
       -0.07360154 -0.046099294 0.15961845 0.04940292
0003d0 e7 02 f3 3d 8a e1 7c 3d 99 e0 2e 3d 06 bb 0d 3e
       0.11865788 0.06173853 0.04269466 0.13840875
0003e0 a0 40 62 bd da b2 35 3e 31 5f ea 3b 78 25 b0 bd
       -0.055237412 0.17744008 0.007152461 -0.086008966
0003f0 12 b3 48 3d 1c 23 da 3d 47 61 e9 bd e3 b2 d4 bd
       0.0489989 0.10651228 -0.11395507 -0.103856824

linears.1.bias f4 [32]
000000 4e 7b c2 3d 02 ae ea bb fd d1 55 3d 7f 27 2c bd
       0.09496175 -0.0071618566 0.052202214 -0.042029854
000010 a6 1f 1c bc 7c a2 e5 bd 40 f9 cb 3d 2e fc 6c bd
       -0.00952903 -0.11212632 0.0995965 -0.057857685
000020 02 ea e8 bc 9b 65 db 3d af 96 ed bd 2d d4 a7 3d
       -0.028431896 0.10712739 -0.11601006 0.08194766
000030 04 b9 a3 3d 85 aa 8c 3b aa 3a 1c 3d eb 43 ce 3d
       0.07994273 0.0042927884 0.038141884 0.10071548
000040 81 db 57 3d 7a a5 e8 bc 74 c1 9a bd 5f 3f 7b 3d
       0.05269957 -0.028399218 -0.075564295 0.061339732
000050 d5 ba 8f bd 52 54 11 be 1e 42 a5 bd 17 97 35 bc
       -0.07018057 -0.14192322 -0.080692515 -0.011083386
000060 d4 66 07 bc d5 ca a5 bd 75 06 40 bc 54 e8 03 be
       -0.008264262 -0.08095328 -0.0117202895 -0.12881595
000070 8f 68 ba 3c 00 fa 93 3d ad ba 4b 3c 8f 9d 25 bd
       0.022754936 0.07225418 0.012434644 -0.040433463

linears.2.weight f4 [32, 32]
000000 ad 92 dd 3d f5 52 8c bd 6a 20 ee 3d 0a 49 c0 3d
       0.10818992 -0.0685176 0.11627276 0.09388931
000010 2e 42 cf 3d 5f 76 89 3d 5e e3 82 bd 85 02 1c bd
       0.10120045 0.067120306 -0.06391023 -0.03808834
000020 9f 45 99 bd 91 88 01 be 07 c1 cf bd 5b 5e e7 bc
       -0.07483982 -0.12649752 -0.10144239 -0.028243234
000030 9f 49 17 be 63 13 38 be 01 48 d3 3d 4d a6 84 3d
       -0.14774178 -0.17976145 0.10316468 0.06477032
000040 df 02 df bd fb 85 18 3e ae 9a eb bc 6f ad 08 be
       -0.108892195 0.1489486 -0.02876028 -0.1334741
000050 92 8e 39 3d 02 30 1c 3d a9 ac 8a 3d f2 8a 59 bc
       0.04530198 0.03813172 0.067712136 -0.013277756
000060 37 3e 14 3d a2 e8 f5 bd 02 bd e1 3c bb fc 8b 3a
       0.036192145 -0.12007262 0.027555946 0.0010680178
000070 92 7c 39 bd 29 85 77 3c 13 08 1b 3e c1 a8 37 be
       -0.045284815 0.015107431 0.15139799 -0.17935468
000080 d5 c4 21 3e ea 4b a1 3c 2a 03 51 bd 73 b8 58 3d
       0.15797742 0.019689519 -0.051028408 0.05291028
000090 19 fa 6e 3d 49 16 ef 3d aa e9 ec 3d 00 5e 3a 3c
       0.05834398 0.116741724 0.115680054 0.01137495
0000a0 8d 82 23 3e a4 f3 73 bc bb e2 e8 bd 47 ba 20 3e
       0.1596777 -0.014889631 -0.113713704 0.15696059
0000b0 2e eb 2b 3e 91 97 c7 bd 0b b1 f7 bd ed b7 15 bd
       0.16788933 -0.09745706 -0.12094315 -0.03655236
0000c0 ae ab dd bd 5c d9 0d be c8 a8 b9 3d 8c cf 9c bb
       -0.10823761 -0.13852447 0.090653956 -0.0047854837
0000d0 b6 34 fa ba 58 a5 e4 bd f0 c5 91 bd 6f 7a 36 3e
       -0.0019089195 -0.11164349 -0.07117832 0.17820142
0000e0 2f 9a 6e 3e ff f7 07 3d 92 40 cd 3d 71 9c df 3b
       0.23301004 0.033195492 0.100220814 0.006824069
0000f0 f5 67 37 3e b3 c6 c5 bd 8b a2 a3 bc 34 db 8a 3c
       0.1791075 -0.096570395 -0.019974967 0.016950227
000100 ab 0a ef bd d9 cb d1 3c 5e 42 f0 3d 5b e2 b1 3c
       -0.11671957 0.025609897 0.117314085 0.02171438
000110 93 df a1 bd f9 fe b5 3c 5e 31 5e bd fd eb 12 3e
       -0.079039715 0.022216307 -0.0542463 0.14347835
000120 dc 6f 45 3d 4a 4a 1f be 5c a0 a6 bd 96 81 25 be
       0.04820238 -0.15555683 -0.08136055 -0.16162714
000130 6d 53 79 3c df 92 33 3d 7a a5 cc bd 42 4e a3 3d
       0.015217644 0.04384124 -0.099925 0.07973911
000140 a6 7c 9b 3d 52 df dd 3b dc 24 87 bd 71 58 dd bd
       0.07592134 0.0067710066 -0.06598827 -0.108078845
000150 ea f2 36 3c cd 68 06 3e 78 3e cc 3d 4d 65 42 bd
       0.011166314 0.13125916 0.099728525 -0.04745989
000160 f7 e2 e0 3d 57 00 35 3e 6d d8 e2 bd 78 4a 25 3d
       0.1098079 0.17675911 -0.11076436 0.040354222
000170 ef d9 10 be 0f cd 09 be ae b4 e6 3d 58 bc fd bc
       -0.14145635 -0.1345713 0.11264931 -0.030973598
000180 17 5d a3 3d c1 89 1c bd 3f df b5 3d b2 dd 8c 3d
       0.0797674 -0.03821731 0.088804714 0.068782225
000190 88 3d 84 3c d4 14 9f bb 50 1c 4b 3d 0f 32 eb 3d
       0.016142622 -0.004854778 0.049587548 0.11484157
0001a0 d5 1f ca bc c5 79 18 3e 67 0d 94 bd e7 4f fd 3d
       -0.024673382 0.14890201 -0.07229119 0.12368756
0001b0 ff d0 81 bd 9c fd 4a 3c 8d 13 92 3d 86 7e 0a be
       -0.06338691 0.012389567 0.07132635 -0.13524827
0001c0 b7 25 3b be 8e 86 de 3c ce d4 97 bd d3 01 0f be
       -0.18276106 0.02716377 -0.07413636 -0.1396554
0001d0 f7 a0 49 be 81 7b c6 3d cb d2 e5 bb 7e ef e7 39
       -0.1969031 0.09691525 -0.007013654 0.0004423819
0001e0 bf bc cc 3d a4 6d 02 bd 94 33 4d be 8e bc 13 be
       0.09996938 -0.031842843 -0.20039207 -0.14427397
0001f0 e5 45 ab bd d6 6d 48 be b8 7d 05 3e 5a 21 b0 3a
       -0.08362941 -0.19573149 0.13036239 0.0013437674
000200 46 51 d6 bd 6a 02 08 3e ce 75 f6 bd 0a c6 47 3e
       -0.104647204 0.13282171 -0.12034188 0.1950914
000210 c2 7c 97 bd 2a e1 41 3e 65 e2 85 bd 51 1c ea bd
       -0.073968425 0.1893355 -0.06537322 -0.11431182
000220 c8 6d 50 3c 82 24 30 be 7b ec 03 bd c8 48 02 3e
       0.012721486 -0.17201427 -0.032207947 0.12723076
000230 fc ad a9 3c a3 99 1d 3e 01 f7 c1 3b 31 12 25 3e
       0.020712845 0.15390639 0.0059193377 0.1612022
000240 fa e3 bf 3d fe ee 0a be 79 ae 06 3e 7c 43 34 bd
       0.09369655 -0.13567731 0.13152494 -0.04400967
000250 aa 6a 60 3d 24 87 4c 3d c3 f1 99 bb 21 d9 dc 3d
       0.054789223 0.049933568 -0.0046980097 0.107836016
000260 bb 41 5c bd 75 e5 d2 3d 3b 58 09 3d 2d 5b 06 be
       -0.053773623 0.10297672 0.03353141 -0.13120718
000270 08 14 0e 3e b5 0c 37 3e cc d0 1c 3d ef 37 82 bb
       0.13874829 0.17875941 0.03828506 -0.003973953
000280 b8 ae b7 3d cc a9 c6 bb b7 24 9d 3d 48 c0 e3 3d
       0.08968872 -0.006062722 0.076730184 0.11120659
000290 f3 a6 be bd 5a 6d 3e be e6 77 44 bd 76 3c 19 bd
       -0.09309187 -0.18596402 -0.047965907 -0.037411176
0002a0 09 fb 1c be 8d 6d 5a 3e 80 4a c9 bd 74 1c 44 be
       -0.15330137 0.21330853 -0.09828663 -0.19151479
0002b0 0e d8 2d be f0 1a 1b be 7e 20 42 3e e6 77 39 3d
       -0.1697695 -0.15146995 0.18957707 0.04528036
0002c0 55 4c 10 be 46 3a 8c bd 2a 68 52 bd 37 3f 02 3d
       -0.14091618 -0.06847052 -0.05136887 0.031798568
0002d0 6c 7a 3a 3d 9e 66 4e 3d 40 4b d7 bc d6 6e 5b be
       0.045526907 0.050390832 -0.026281 -0.21429
0002e0 3e 6f cd 3d 3e da 88 3d b5 79 3e bd 31 23 0d 3e
       0.100309834 0.066822514 -0.046502788 0.13782956
0002f0 4e 1e 8f bd 35 b3 c2 3c 3a 08 8a 3d b3 c5 f3 bc
       -0.06988202 0.023767093 0.0673985 -0.029757356
000300 b9 3c 7b 3d 8d 16 04 3e 21 e2 30 3e 73 64 3e bd
       0.061337207 0.12899227 0.17273761 -0.046482515
000310 42 84 e9 bd 5c ae 0f 3d 23 0d ff 3d 2c cf 1b 3e
       -0.11402179 0.03507839 0.124536775 0.15215749
000320 e2 95 d9 bd 84 79 52 bd cf d5 f5 bc fb 4a d0 bd
       -0.10624291 -0.051385418 -0.030009178 -0.101705514
000330 7e 34 b0 bb db cd c2 bc 90 87 f3 bd da 3b 68 3d
       -0.0053773513 -0.0237798 -0.11891091 0.056697704
000340 61 6b b7 bd 18 27 17 3b 32 1d 0d 3e 8d c4 0c 3e
       -0.08956028 0.0023064073 0.13780668 0.13746853
000350 86 f9 0e 3e 72 2d c5 bc 39 55 13 3e be e9 90 3d
       0.13962373 -0.024069522 0.14387979 0.07075833
000360 4c 3c 51 3e 9f 62 c9 bd 4a 9d f7 3d e0 78 0a 3d
       0.20433158 -0.098332636 0.120905474 0.03380668
000370 05 bb ad 3d 37 1b 9c 3d 82 31 81 bc 8c f8 21 bd
       0.08482937 0.07622378 -0.015770677 -0.039543673
000380 fe cd 85 3d 81 65 09 be 4b 36 6e 3d bc e9 56 3d
       0.065334305 -0.13417627 0.058157247 0.052469
000390 77 5a 2a 3e 26 47 8d bd 96 f2 41 3c 96 b8 cd 3d
       0.16636072 -0.06898336 0.011837622 0.100449726
0003a0 56 7d b4 bc e3 09 91 bd 02 a1 04 3c f7 0b 0d 3e
       -0.022032421 -0.07081964 0.008095028 0.13774095
0003b0 ae e3 3e 3d 90 87 61 bc cb d4 df bc 78 72 a0 bb
       0.04660385 -0.013765231 -0.027323147 -0.0048964582
0003c0 2e 5a 17 bc d8 de 4e 3e ee 37 b7 3d e5 3c 37 3e
       -0.009237809 0.20202196 0.089462146 0.17894323
0003d0 5f e1 2d 3e a8 96 f6 3d 32 8f ac bd c7 57 1e bc
       0.16980503 0.12040454 -0.0842575 -0.009664482
0003e0 be 24 51 bd 42 31 98 3d 51 67 d8 bd aa 67 de bd
       -0.05106043 0.0743127 -0.10566581 -0.10859616
0003f0 f9 67 34 bd 83 22 94 3d c3 02 ad bc b5 14 eb bc
       -0.04404447 0.07233145 -0.021119481 -0.028696397

linears.2.bias f4 [32]
000000 5d d7 ff bd 9d 31 96 bd 21 fb e8 bd 69 dd 05 3e
       -0.12492249 -0.07333682 -0.11376024 0.13072743
000010 11 a6 b1 bc 6c 47 e1 3d 0c d4 53 3c d2 e9 05 3d
       -0.021685632 0.10999951 0.012928974 0.03269369
000020 50 2e c6 3d ad 9e 15 be d0 3d d1 3b 1d c9 8b bd
       0.09676802 -0.14611311 0.0063855425 -0.06825469
000030 e6 ce 3b 3e f9 d4 e3 3c 0d 97 c3 3d f8 b9 05 3e
       0.18340644 0.027811514 0.09550295 0.13059223
000040 43 a0 10 3e 20 01 89 3d 89 5f 3e 3e 7b 27 04 be
       0.14123635 0.06689668 0.18591131 -0.12905686
000050 24 ae f1 bd c2 9c dd 3d 49 53 03 be b7 2f fb bd
       -0.11800793 0.10820915 -0.1282474 -0.1226496
000060 2e ee 12 3e 9a 7d 8e bd be c7 57 3e 17 d7 f4 3d
       0.14348671 -0.0695755 0.2107229 0.11955088
000070 22 05 31 3e b7 a2 35 3e 76 d3 31 be 12 0f 31 3e
       0.17287114 0.17737852 -0.17365822 0.17290905

output.weight f4 [1, 32]
000000 9b 0a f0 3c 85 d6 32 bd 66 d7 0c be 16 4f 70 3e
       0.029301932 -0.043661613 -0.13754043 0.23467669
000010 99 28 39 be f0 01 44 3e 3f 97 1c be 94 5e e3 bd
       -0.18081893 0.19141364 -0.15292071 -0.11102024
000020 16 8a 1d be ec f7 e5 bd 7d 15 ae bd 83 e9 03 3e
       -0.15384707 -0.11228928 -0.08500192 0.12882046
000030 64 90 40 be a9 17 5b 3e 65 7e 21 3e 28 4e b1 bd
       -0.1880508 0.21395744 0.15770872 -0.08657485
000040 bb 4d 17 be 01 fc 56 3e d1 fc 04 3e e4 59 f2 bd
       -0.14775746 0.2099457 0.12987067 -0.118335515
000050 af 23 4d 3d 8c 6d 3d 3d 48 10 f0 bc e2 14 0c bc
       0.05008286 0.04624705 -0.029304639 -0.008549901
000060 3e 1e ff bd d4 5e d1 bd ca 92 47 3e 6c fa 5d 3e
       -0.1245694 -0.10223165 0.1948959 0.2167756
000070 04 6c 83 3e 9d 4d a1 bd bf fb 5e 3b 8d ff 1a 3e
       0.25668347 -0.07876132 0.0034024564 0.15136547
