bank/Models/transformer_v4/0.902_1/params.pt (torch_old, 20691 bytes, 70 tensors)

transformer_encoder.layers.0.self_attn.in_proj_weight f4 [24, 8]
00000000: 49d8 54be c132 95be fd39 25be e6c1 533e
00000010: f28f 31be 711c 4dbe fefe 19bd cfd5 8fbe
00000020: 7b07 c3be e1ba 02be 3706 1d3e 2ed8 603f
00000030: 8a69 f9bd e82f 9e3e ef47 2dbe 12d9 713e
00000040: 8a87 29bd 2786 7d3e 6b2b 443d 63a6 50bf
00000050: f346 583d de1b f1bc 858e 603d abc1 02bf
00000060: 8466 92be 79aa fabe 3061 573e 8c82 0c3f
00000070: 1711 86be a255 2cbd b1ab 34be 88d4 9a3e
00000080: 38df c13e dac4 1a3b a095 023f 7820 0e3f
00000090: 99b2 3cbe 4cc7 86bd 27d9 88be 3eba 863e
000000a0: 6f66 7a3e ea57 b4be 1c53 e03e b7ca 183f
000000b0: b38e 563e 3bf0 943e f754 61be e418 753e
000000c0: 92bb 0dbe a168 7abe 3442 89bd 764e 22be
000000d0: 6832 60be 74f1 cbbe 244c 793e 79d7 8abe
000000e0: d8ec 4e3c b41f 1fbc 0980 95be f1ff c13e
000000f0: 809e 9a3e 52a7 0abf 6abd 003f b566 9c3e
00000100: 0825 163a 737e 4f3e 74f3 8c3e d502 c33e
00000110: 3f4a 353e 97b5 05bf f06f 6fbe a982 75bd
00000120: fe2c 64be 9631 5f3e acb0 543f ba0a 323f
00000130: 4bed 0a3d 2a95 2e3e d319 97be 71cd cd3d
00000140: f684 11be 0c62 013f bcdd 0cbf b076 10bf
00000150: 874a c0bd 9d56 fdbe 3143 04be 7bf3 553e
00000160: 40c2 51bd 5856 82be 1326 003f a0f3 5dbd
00000170: 4078 ad3e e51a d43e 2fad 813e 89c5 dbbe
00000180: 1e04 123e 6ee0 02bf dd9d 913e 1d03 afbd
00000190: f267 d73e 6866 173f 57b8 22bf 1c8a 1fbd
000001a0: 240d b9be 1989 3ebe a746 0a3f 3984 e83e
000001b0: 3a46 e6be 02df bf3e dcbf 20bf 54cf f2be
000001c0: dede c13e ea63 4dbe 63ff 283e 839a 95be
000001d0: dcd0 3ebe 4e4e eebe ecc1 143f f3f2 14bc
000001e0: c501 b23e e8da 9d3d bd48 82be 0811 0d3f
000001f0: e70a 9cbd bec8 87bc 2e1e 113f 59b6 24be
00000200: 85c5 46be 0d50 80be a445 10be d81c 9d3e
00000210: 0dcc 2dbe 1985 51be 3fd2 12bf 6c8e 12be
00000220: 8498 7b3e 76ff 31bf e4ad 643e bb1a d43d
00000230: 51d5 4abe 98cb 453e 4aca e2be 502b a0be
00000240: 4228 36be b5ac e03d 9e0a 9c3e 5044 dfbd
00000250: ef3f b03e f7b0 1d3d ffc9 923e 7685 debe
00000260: 65f5 86bd fcba 0b3e cce3 d33e 2604 a4be
00000270: 84a0 4ebe c443 d6bd 8681 f03e 3bda 523e
00000280: 97df 90bd 6738 6f3e 15f9 01be dbff 2cbe
00000290: 1956 c13d 74f9 653e 6649 1cbe b953 623e
000002a0: 9d88 dd3e 3338 90be b3bc b93e f49b f8be
000002b0: 47e0 f83e 555c 38be 0d39 3b3e 4da7 243e
000002c0: c44e fcbc 7f22 0c3f 05ed 603e e4e6 04be
000002d0: eb12 8cbd 5f46 38be 2e9c dc3e 45b5 753e
000002e0: c84a 143c 54f9 143e 49de debd b45d ca3e
000002f0: ef8e 433e 8c28 753e 863f 9c3e c8c3 d3be
-0.20785631 -0.29140285 -0.16135402 0.20679435 -0.17340067 -0.20030381 -0.037596695 -0.2809281
-0.38091645 -0.12766601 0.15334402 0.87829864 -0.12178333 0.30895925 -0.16921972 0.23617962
-0.041389026 0.24758206 0.04789297 -0.81503886 0.052802037 -0.029432233 0.054823417 -0.51076764
-0.28593838 -0.48958185 0.21033168 0.548867 -0.26184914 -0.042073853 -0.1764362 0.30240273
0.37865615 0.0023615868 0.5100956 0.55518293 -0.18427505 -0.065809816 -0.26728174 0.26313967
0.24453138 -0.35223323 0.43813407 0.5968432 0.20952873 0.2908953 -0.22005068 0.23935276
-0.13841084 -0.24453975 -0.0670208 -0.15850243 -0.21894228 -0.39832652 0.24345452 -0.27117518
0.01262971 -0.009712148 -0.29199246 0.3789058 0.3019905 -0.5416156 0.5028902 0.3054711
0.0005727564 0.2026308 0.2752949 0.38088098 0.17704104 -0.5223021 -0.23382545 -0.05993906
-0.22282788 0.2179626 0.8308208 0.6954762 0.033917706 0.17049089 -0.2951189 0.100489505
-0.14210877 0.5054023 -0.5502584 -0.564311 -0.09389215 -0.49480143 -0.12916256 0.20893662
-0.05121064 -0.254565 0.50058097 -0.054187417 0.33880806 0.4142677 0.2532744 -0.42924145
0.14259383 -0.511237 0.28440753 -0.08545516 0.4207149 0.59140635 -0.6356253 -0.03895007
-0.36142838 -0.18606986 0.54014057 0.45413378 -0.44975454 0.3747483 -0.62792754 -0.47423804
0.37865347 -0.20057645 0.16503672 -0.29219446 -0.18634361 -0.46544117 0.581084 -0.009091127
0.34766975 0.07707769 -0.2544612 0.5510411 -0.07619267 -0.016575214 0.56686676 -0.16085185
-0.19411285 -0.25061074 -0.14089066 0.3068607 -0.1697237 -0.20460929 -0.5735206 -0.14312142
0.24569899 -0.6953043 0.22331959 0.10356661 -0.19807936 0.19315946 -0.4429496 -0.31283045
-0.17788795 0.10970441 0.3047685 -0.109017015 0.34423777 0.038498845 0.28669736 -0.43461198
-0.06589774 0.13645548 0.41384733 -0.32034415 -0.2017842 -0.10462144 0.4697382 0.20591061
-0.070738964 0.2336136 -0.12692674 -0.16894476 0.0944025 0.2245844 -0.15262374 0.2210225
0.4326829 -0.28167877 0.3627678 -0.48556483 0.4860861 -0.18003972 0.18283482 0.16079445
-0.030799277 0.54740137 0.21965416 -0.12978703 -0.06839546 -0.17995594 0.43087906 0.2399493
0.009051032 0.14548236 -0.10882241 0.39524615 0.19097494 0.23941249 0.30517215 -0.41360307

transformer_encoder.layers.0.self_attn.in_proj_bias f4 [24]
00000000: 08c9 2bbe bf74 6abd f81d 033e d7c5 60be
00000010: 2369 54be 8845 21be 4419 963c a63d 413e
00000020: 3637 bfb7 08ea 5b3b ebfb 8f3b 4350 693b
00000030: 88af 5f3a 52bc 863b a82e 2bbb 6150 35bc
00000040: 43a4 5a3d c9eb 003e 7568 1ebd a747 00bc
00000050: 79ac da3d 7096 6ebd 462f e2bd be34 133e
-0.16775906 -0.057240244 0.12804401 -0.2195047 -0.20743231 -0.1574918 0.018322594 0.18871173
-2.2794684e-05 0.0033556242 0.0043940446 0.0035600818 0.0008532931 0.004111805 -0.0026120339 -0.011066527
0.05337931 0.12589945 -0.038673837 -0.007829583 0.10677428 -0.058248937 -0.11044173 0.14375588

transformer_encoder.layers.0.self_attn.out_proj.weight f4 [8, 8]
00000000: 866e 83bd 6a8c 82be 6423 cdbe c293 b53e
00000010: 9108 053d e325 e3be cd54 0a3f 484a 8e3e
00000020: 1a76 4d3e 95c2 6d3d 597b 32be ae6f c7be
00000030: f632 833d c159 16be 0c0f 80be a480 2d3d
00000040: ca42 8ebe 7aa8 d9be 41fd bc3c 0c6a 9e3d
00000050: 8ef9 c53d 7f0e 423e 5aa5 113e c21e 0e3b
00000060: ebdc 5bbd 9771 bc3e 069d 9ebd a36d 063d
00000070: e398 9d3d fbce 6d3e ffe9 853c 2799 76be
00000080: 2e1a 5f3e 5c6e 31be 9307 81be edcd 9ebd
00000090: f381 e73d a6e8 443e 1c74 163d abfb ed3c
000000a0: e176 8bbd a371 b43e 2bd0 10be 5cd8 343c
000000b0: 34e3 ea3d 00a1 eebe 5fb4 90bd 2ecf 883e
000000c0: 5c74 5b3d 7f85 a53e 411c 93bd f28b 47bd
000000d0: e1d5 a63d 0f9b 0e3e 3488 923c b7b0 a53d
000000e0: 7ab9 63be 4e4e dfbe 17f2 26be 7121 b9bb
000000f0: f712 803d 53c4 ac3c 32f5 803e 6d29 18be
-0.06417565 -0.25497752 -0.40066063 0.35464293 0.032478873 -0.44364843 0.54035646 0.27791047
0.20064583 0.058046896 -0.17429866 -0.38952392 0.064062044 -0.14682676 -0.2501148 0.04235901
-0.2778533 -0.4251135 0.02306998 0.077350706 0.096667394 0.18950842 0.14223233 0.0021685814
-0.05367748 0.36805412 -0.077447936 0.0328194 0.076951765 0.23223488 0.01634693 -0.2408186
0.2178733 -0.17327255 -0.2520109 -0.07754121 0.11304083 0.19229373 0.036731824 0.029050669
-0.06809784 0.35242948 -0.1414191 0.011037912 0.11469117 -0.46607208 -0.07065653 0.26720566
0.053577766 0.32328412 -0.071831234 -0.048717447 0.08146263 0.13926338 0.017887212 0.08090346
-0.22238722 -0.4361443 -0.16303287 -0.0056497385 0.06253617 0.021089708 0.2518707 -0.14859553

transformer_encoder.layers.0.self_attn.out_proj.bias f4 [8]
00000000: 91c8 cc3d 6724 88bd 6794 73bd 0c61 0ebd
00000010: a954 08bd f593 343d 5c56 0abd 9329 c53c
0.099991925 -0.06647568 -0.0594677 -0.03476052 -0.033283863 0.044086415 -0.033773765 0.024067676

transformer_encoder.layers.0.linear1.weight f4 [64, 8]
00000000: 7095 9c3e 257b 0a3e 38e6 0abf 33d4 b63d
00000010: e19d 5ebe d2af 763e f450 16be 0178 f63d
00000020: 952c 40bd c111 9b3e 39ed 8ebd 08be 5abe
00000030: 7735 c3be 6e9b 81bd 9783 b83e 9977 5b3c
00000040: f3b9 83be ad1d bb3e 7a53 313e 871f 193d
00000050: 5b60 10bf fa0c 92be fbfc 89be 6312 133e
00000060: 08b5 853d fe8d a4bd 3a89 ecbd 2ffa fd3b
00000070: 3f85 da3e 5f7a b13e c5cc 12bf 1323 66be
00000080: 3dd0 e0bc 02b6 203f a28e e7be 17c4 f7bd
00000090: bc5d 83bd 9775 393e 05d4 883e efa1 bc3e
000000a0: bf23 233e d803 db3e 8b26 2bbe eb4f abbd
000000b0: 161d 24be 24eb d03e aa45 1fbe 3afd a6bd
000000c0: a8d3 b83e c558 abbe 303f 59be 975a 423d
000000d0: 0110 65be 504f c63e 30a8 07be 9fd8 db3d
000000e0: b00e 08be 7ac9 58bd 340e 4bbe a1ca b4be
000000f0: eab7 7ebe f226 7bbe 638f e13d beb4 9cbe
00000100: 863e fcbd 2a16 063d 5604 0e3e d4d7 073d
00000110: 2387 34be 651f d23e d670 da3d 37bf ca3c
00000120: a319 26be b5ec 7a3c 1c85 8a3e a1b3 54be
00000130: 98fc d53e ee06 dabd c128 3ebe 2464 ba3e
00000140: 6df8 073f 1a2b 1fbe e853 83bc 60c6 8dbe
00000150: 572e 9abe 6af1 da3e cfdf a3be 6250 883e
00000160: ab31 913e 83df 6bbd 0f27 a5bd 3382 5abe
00000170: 1e39 5abe ca55 8e3e 334c a6be 31cd f53e
00000180: 8244 fabd d9da a03d fc9c d3be bbca c53c
00000190: e885 15be 1557 cebc a631 4d3d e860 ccbd
000001a0: 978e 77bd a88d 50bd 2d59 ebbe c52f 273e
000001b0: 1832 cf3e f91f 2e3e d267 dbbd d511 a0be
000001c0: 1a43 6fbd f5bb f03d de21 7ebe be9b 90be
000001d0: 67e5 13be 6f9f 193d b188 e5be 2e7d 7a3d
000001e0: bd27 90be 15c3 e3be d77d b4be 51b2 a23d
000001f0: 9267 41be cbab 76bc 4ca2 0d3e be84 fa3d
00000200: bf06 22bb 9b37 7dbe cbd8 043f 9e87 a5be
00000210: a896 b63d dd5c 123e 236f 53bd 37e1 043f
00000220: f46b 32be 619f 263f 0e7a c6be 2dc6 8abe
00000230: 6285 7fbe 2274 a6bd 791f 803c dd40 353e
00000240: 8f08 6d3d 754b 923e 4338 8a3e 3b91 6dbe
00000250: 7b0b b13e 224f 2fbd 1df9 05bf 6da2 353d
00000260: 5163 c83c 43dc f23e ea63 abbe 54df 4f3e
00000270: ef38 833e 4480 ce3d 4032 8d3e 0bc1 a13d
00000280: 9b25 b6bb 6cb4 603e c6b8 35be 87eb a3bd
00000290: eb47 103f 11d4 843d 3f6d 61bd 82d2 2b3e
000002a0: 7a7e 2d3d d0ff 8a3e bdca 92be 42bb bdbe
000002b0: 109f abbd 60b3 603d 16d1 95bd a892 0abe
000002c0: b836 cc3d d6d5 84be 9c4c da3d bcf9 163e
000002d0: f6d4 e03d 51d8 95bd 9810 3ebd 2df3 233e
000002e0: 4ca4 b2bc 7a4d 64bd 9f54 10be 17c6 073e
000002f0: 854b 073e d580 093e 716f d5bd 81d9 22be
00000300: 3c96 07bc bdde bf3e 58f0 a63e 4f99 abbd
00000310: ee82 103e 6820 463e 4681 b4be ba06 903c
00000320: 7933 523e f179 9a3e c370 963e add1 91be
00000330: 1f2f 13bf 3936 083e 7e49 053e dc11 cb3e
00000340: 2710 f33e b598 24be d2b3 13bf 0089 043e
00000350: 79e6 463d 31dd 313e b8f3 9ebd 1ff2 6d3e
00000360: d142 b2bc 919a aa3e 4ca8 5cbd d80b 5e3d
00000370: 5952 873e 0d15 d13e 2735 84bd 8878 8e3e
00000380: 5a36 a73e 31d3 f1bc 4a0c 763d 64a9 2fbe
00000390: 12fe 543e f564 5a3e 8faa aabe 9c21 803e
000003a0: 520d 1bbe 16e0 f23e f26d c2bd 20d6 e8bb
000003b0: 8fb9 d1bd 8f06 333d 1b4c b2bd b37f 583e
000003c0: b3f6 17be 4033 633e 60af bd3e 73c1 da3d
000003d0: 5f9e 02be 341a 173e 7767 b5bd 105d da3d
000003e0: 434e 453e 920b 973e 1f81 85be 2d53 a3be
000003f0: b0c3 9f3d 08d0 c83e ab16 08bf 54ca c33d
0.30582762 0.13523538 -0.54257536 0.089271925 -0.21739914 0.24090508 -0.14679319 0.12034608
-0.046917517 0.30286983 -0.069788404 -0.21361554 -0.38126728 -0.06328474 0.36037895 0.0133952135
-0.25727805 0.36546078 0.17317 0.037383582 -0.56397027 -0.28525525 -0.2695082 0.14362483
0.065286696 -0.08034895 -0.115496114 0.0077507715 0.42679784 0.34663674 -0.57343704 -0.22474317
-0.027443046 0.6277772 -0.45226008 -0.12097948 -0.06414363 0.18111263 0.26724258 0.36842296
0.15931605 0.4277637 -0.16713922 -0.083648525 -0.1602672 0.40804398 -0.15553918 -0.08153768
0.3609898 -0.33466163 -0.2121551 0.047449674 -0.22369386 0.38732386 -0.13247752 0.107346766
-0.13286853 -0.052926518 -0.19829637 -0.35310844 -0.24874845 -0.24526575 0.11013677 -0.30606645
-0.12316613 0.03273598 0.13868842 0.033164814 -0.17629676 0.41039577 0.10666053 0.024749381
-0.16220717 0.015315224 0.2705468 -0.20771648 0.41794276 -0.10645853 -0.18570234 0.36404526
0.5311344 -0.15543786 -0.01603122 -0.2769041 -0.3011348 0.4276231 -0.3200669 0.26623827
0.28358206 -0.057586204 -0.080640905 -0.2133873 -0.21310851 0.27799827 -0.3248001 0.4800811
-0.12220098 0.07854242 -0.41330707 0.024144521 -0.14601862 -0.025188008 0.050096177 -0.09979421
-0.06043872 -0.050916344 -0.45966473 0.16326816 0.40467906 0.17004384 -0.107131615 -0.31263605
-0.058413602 0.117546 -0.24817607 -0.28243822 -0.14442979 0.037505563 -0.4483085 0.061154537
-0.28155318 -0.44484773 -0.35252258 0.079441674 -0.18887165 -0.015055607 0.13831443 0.1223235
-0.002472326 -0.24728243 0.518933 -0.3233003 0.08915454 0.14293237 -0.05161966 0.5190615
-0.17423993 0.6508694 -0.38764995 -0.2710432 -0.24953225 -0.08127619 0.015640007 0.17700525
0.05786949 0.28573194 0.2699605 -0.23199932 0.3457907 -0.042800076 -0.5233324 0.044344354
0.02446142 0.4743367 -0.33474666 0.20300037 0.25629374 0.100830585 0.275774 0.07898148
-0.005558682 0.21943825 -0.17746267 -0.08003908 0.5635974 0.06485761 -0.055035826 0.16779521
0.042356946 0.27148294 -0.28670302 -0.3705693 -0.08379948 0.054858565 -0.073152706 -0.13532507
0.09971374 -0.25944394 0.10659143 0.14743704 0.10978119 -0.0731665 -0.046402544 0.16010733
-0.021806858 -0.05573795 -0.1409478 0.13259159 0.13212402 0.13428052 -0.104216464 -0.15903284
-0.008275565 0.37474623 0.32605243 -0.08378851 0.14112446 0.193483 -0.35254878 0.017581332
0.20527448 0.3017116 0.29382905 -0.28480282 -0.57493776 0.13301934 0.13016316 0.39662063
0.4747326 -0.16073878 -0.5769626 0.12942886 0.04855964 0.17369534 -0.077613294 0.23236893
-0.021760376 0.3332105 -0.053871438 0.054210514 0.26430014 0.40836373 -0.064554505 0.27826333
0.32658654 -0.02951965 0.060070314 -0.17154461 0.20800045 0.21327575 -0.3333325 0.25025642
-0.151418 0.4743659 -0.09493627 -0.007105604 -0.102404706 0.043707427 -0.08705922 0.21142463
-0.14840202 0.22187519 0.37047863 0.10681429 -0.12755726 0.1475609 -0.08857625 0.106622815
0.19268136 0.29501015 -0.26075074 -0.31899396 0.07800996 0.39221215 -0.5315959 0.095600754

transformer_encoder.layers.0.linear1.bias f4 [64]
00000000: 8698 df3b 8bab 90be a520 15be b9e5 52be
00000010: 17be 8abd d62f acbe 3fe3 b7bd e3c1 f9bc
00000020: 5036 4abe 1ec8 2a3e dab7 e5be 1a3b c43d
00000030: 5ae7 9fbd 8239 00bf 277c d33d c819 9bbe
00000040: 0614 f2be 04fb 443d 4375 3d3d b901 80be
00000050: dae7 0ebf 2520 453e c6d2 bcbe 1836 9fbe
00000060: 16d3 20be 81d2 acbe 3a8a f8be 69e8 cfbd
00000070: 7ace e9bd dc9d d1bc 0247 9fbd 76f3 063d
00000080: 6de8 eebe 5e37 e7b9 701c d5bd beb0 163e
00000090: 423d 4ebd e3ce 70be 87da 60be 9451 7abe
000000a0: d0dd 2cbe 740e f5be 3824 9ebd d3c2 85be
000000b0: e4ba 3cbe a3be 1fbe b7a1 fdbd d57b b7be
000000c0: 66d4 f0be 9b69 0dbf be34 51be 7808 d1bd
000000d0: ca55 48bd 5a98 c2be 9bbc c3be 7f4c e9be
000000e0: 474f c6be 2684 eabe 8c80 debe 99ae f2bd
000000f0: 1b93 3abe ca55 41be 2bd4 fdbc 6684 dabd
0.006823602 -0.28255877 -0.14563234 -0.20595445 -0.06774538 -0.33630246 -0.08978891 -0.03048796
-0.19747281 0.16677901 -0.4486683 0.09581585 -0.07807799 -0.5008775 0.103264146 -0.30293107
-0.47280902 0.04809095 0.046254408 -0.25001314 -0.5582253 0.19250543 -0.36879557 -0.31095958
-0.15705523 -0.33754352 -0.48542958 -0.101517506 -0.114163354 -0.025587969 -0.077772155 0.032947026
-0.46661702 -0.00044101005 -0.10405815 0.1471586 -0.05035139 -0.23516421 -0.21958362 -0.24445182
-0.1688149 -0.4786259 -0.07721752 -0.26125202 -0.18430668 -0.15600066 -0.1238436 -0.35836664
-0.47037047 -0.55239266 -0.20430276 -0.102066934 -0.04890994 -0.3800686 -0.38229832 -0.45566174
-0.3873236 -0.45803946 -0.43457448 -0.11849708 -0.18220179 -0.18880382 -0.030984959 -0.10669784

transformer_encoder.layers.0.linear2.weight f4 [8, 64]
00000000: b0e5 a13e 1aa6 2a3d 3806 9d3d 4663 02bc
00000010: 6ea0 1d3f a6c6 fe3d 4c3d 7b3e f797 653e
00000020: 65f5 833d 7c17 3d3e 17c4 473f e305 013f
00000030: 7002 82bc dd3e 99bd 10f1 d33d af33 0bbe
00000040: 7e53 94be 35a5 153f c55f 1f3d 0d93 a53e
00000050: ffec f83e a9f9 883e 93cb 853e e730 6dbe
00000060: 25a1 0dbb cd1e 2a3d 0cef a63e 02d5 cf3d
00000070: e147 733e 85b2 5e3e cd1e 2cbe 8f7c 0d3e
00000080: 8a15 3abf e150 cf3d e0a1 64be a887 133f
00000090: 252a 2e3e 9d8f 1e3c e2d7 713a 316c 833e
000000a0: f975 d43e 4c1b c03e 59d5 bc3e 08a7 6d3d
000000b0: 9ec4 b43e 7a6f 00bc 5474 06be efe5 bb3d
000000c0: 7c53 263e de7c 5bbe fbab 6a3e de53 4d3e
000000d0: b912 123d c7cd 1a3d 4fcb 153f 8307 1b3e
000000e0: 4e37 a53d 1374 eebd 5a9b 28bc f996 703e
000000f0: ccfc 943e bde4 3ebe bc83 4e3f 4913 a43e
00000100: 8e6f 8ebe 1dc8 cb3e a42b 563e d149 003f
00000110: 0f93 7b3e c0ff 27be 11eb 83be 9d70 2d3e
00000120: 34a8 00bd 9df3 013e 89a7 3a3b 347a 50bd
00000130: ca9d 7a3e e064 c1bc 9fcf a7bd 846b 8fbd
00000140: 11eb 5a3d a154 5a3e cd9d cebb 3b89 1c3e
00000150: 813b 523e c2ca 8f3d 7c26 6bbe 1e70 613d
00000160: 7459 353c 136b 173e 6474 eebe 0261 0b3d
00000170: 2c3a eebc 2c19 873e 53f2 e83c 6b16 15be
00000180: 96b7 373d ae3b 8bbe 4c22 e9bd 65ef a5bd
00000190: 0e6d dabd 403a 8cbe a788 0bbd 4a2e 0abe
000001a0: 626e f9bd 885d b03d 981b a9be 70f7 813e
000001b0: 1e25 07be 67ff 93be d541 cfbd bb7f d73d
000001c0: e351 603e 9285 0ebe 153d a13e 75c9 09be
000001d0: 95e8 053e e738 9e3d 7cb7 5bbd 3c05 34be
000001e0: 73f6 153e 68ef 40bc f385 7ebe 4bb0 d93e
000001f0: f0b0 7fbe 76ae 963b f3cb 923e 881e c6be
00000200: b134 6abe cad6 7ebe f3fc c2be b118 143c
00000210: 233f 383e 24ba de3d f229 bb3d 1873 aebd
00000220: 66cd 2f3e 5fe4 56be d649 003e f253 0ebd
00000230: 292f 35be a6b9 85be de02 b23d 56b2 5d3e
00000240: 408b 01bf 9187 52be 5e45 683e 2e96 333d
00000250: f752 42bd c710 a6bc 673e b43c 8e0f 4abe
00000260: 86f0 e93d 95b5 b4be 1961 9d3e 0171 4e3e
00000270: 4777 1dbe 7d8a da3d a31b 45be 2e01 053e
00000280: 5918 9ebc 7ea3 343d 3ae3 ba3c e0fc d13e
00000290: f851 a23d 0b6f f53d 126d 083c 6381 e23d
000002a0: fbd8 193d c7ad 0f3e 45d9 db3d 92e6 8cbd
000002b0: 50ed 13be 524e 9bbe c6e2 3fbe fb2d 613e
000002c0: 1eb4 8bbd 2417 d93d 0185 673d 6826 fc3c
000002d0: 5cc4 773d f1aa 3abe e8a6 1e3e 2f00 a53e
000002e0: 0b1b 15be 89b1 52be bd8f e0bd b724 333d
000002f0: ae9a 003c 1223 3bbe 65cf 9e3d 2470 bbbd
00000300: 011a 15be a198 d1bc c35c b33d beb0 463e
00000310: 7703 a0bd fc95 8dbd 5048 e7bd 5662 5a3d
00000320: 5805 243e 6560 01be 5c1b dc3b da65 913d
00000330: 32fb ddbd 83e2 d83e 152c 1ebd 4833 d9be
00000340: fe7b 413e 3055 593b db39 32bd 770a bcbd
00000350: 871e a13e 15ea 853d 8262 50bc 2692 753d
00000360: 41c4 d8bd 1cab 8c3e 9231 59bd a368 e7bd
00000370: b2e7 29be 6fc0 6bbd 6b7c a83d 49cd 66be
00000380: 87ed 8a3d 062f 843d 1674 a4bd 9ab0 4a3d
00000390: c010 b83d c7c7 3fbd 8ff5 04bb 7d7b 4abe
000003a0: dd75 6dba 3a04 b7bd 588b ee3c deee a7bd
000003b0: eee1 9a3d 7718 be3e e7e9 84be ab6d 2e3d
000003c0: 6bff f3bd 48cb 17be 5b10 0fbd b40d 37bd
000003d0: 0b34 8f3d ea77 393d 790b c6bd 77a7 e63c
000003e0: 02e3 1e3e ce20 263e f51a f33c 3896 6abd
000003f0: 4c20 8f3b c20a eb3e 93ab 2d3d 28b0 84be
0.3162055 0.041662313 0.07667202 -0.007958239 0.6157292 0.12440233 0.24535102 0.22421251
0.0644329 0.1846599 0.78033584 0.5039961 -0.015870303 -0.07482693 0.103487134 -0.13593934
-0.2896995 0.5845521 0.038909692 0.32338753 0.48618314 0.26752976 0.26131877 -0.23163186
-0.0021610942 0.04153328 0.32604253 0.1014805 0.23757888 0.21747787 -0.16808625 0.13817047
-0.72689116 0.10122848 -0.22327375 0.5762887 0.17008264 0.009677795 0.00092255895 0.2566848
0.41496256 0.37520826 0.3688152 0.05802062 0.35306257 -0.007839078 -0.13130313 0.09174716
0.16242784 -0.21434352 0.22917168 0.20051524 0.035662387 0.0377939 0.5851335 0.15139584
0.08067189 -0.11643233 -0.010290945 0.23495091 0.2909912 -0.18641944 0.8066976 0.32045963
-0.27819484 0.39801112 0.20915085 0.50112635 0.24567817 -0.16406155 -0.2576528 0.1693749
-0.03141041 0.12690587 0.0028481206 -0.050897792 0.24474254 -0.023607671 -0.081938975 -0.07002929
0.053446833 0.21321346 -0.0063054324 0.15286724 0.20530511 0.07021095 -0.229639 0.055038564
0.011068691 0.1478694 -0.46573174 0.03402806 -0.029080473 0.26386392 0.028435862 -0.14559333
0.044852816 -0.2719397 -0.11383495 -0.081023015 -0.10665332 -0.2738819 -0.03406587 -0.1349422
-0.12179257 0.0861159 -0.33028865 0.25384092 -0.13197753 -0.28905794 -0.10119978 0.105224095
0.21906237 -0.1391814 0.31491914 -0.13455756 0.13077004 0.07725697 -0.05364178 -0.17580122
0.14644794 -0.011775829 -0.24855785 0.42517313 -0.2496984 0.004598434 0.28671226 -0.38695168
-0.22871663 -0.24886623 -0.3808361 0.00903909 0.17992835 0.10875347 0.0913886 -0.08518046
0.17168197 -0.20985554 0.12528166 -0.034748025 -0.17693771 -0.261182 0.08691953 0.21650061
-0.50603104 -0.20559527 0.22682711 0.043844394 -0.047442403 -0.020271672 0.022002412 -0.19732496
0.11422829 -0.35294786 0.30738142 0.20160295 -0.15377532 0.10670946 -0.19248824 0.12988731
-0.01929872 0.04410123 0.022813428 0.4101324 0.079257905 0.119840704 0.008326786 0.11059835
0.037560444 0.14031135 0.107348 -0.06879915 -0.14445996 -0.3033319 -0.18738851 0.21990196
-0.06821464 0.10600117 0.056523327 0.030780032 0.060489997 -0.18229271 0.15493357 0.32226703
-0.14561097 -0.20575537 -0.10964916 0.043736186 0.0078493785 -0.18275097 0.07754401 -0.091522485
-0.14560701 -0.025585474 0.08757927 0.1940336 -0.07813161 -0.06913373 -0.112930894 0.053316437
0.16017663 -0.12634428 0.0067171287 0.07099505 -0.10838927 0.42360315 -0.03861626 -0.42421937
0.18894956 0.0033162348 -0.043512207 -0.091816835 0.31468603 0.06538788 -0.012718799 0.05995383
-0.105843075 0.27474296 -0.05302579 -0.11299255 -0.16592291 -0.057556566 0.08226856 -0.22539248
0.06783586 0.064542815 -0.08029954 0.049484827 0.0898757 -0.046821382 -0.0020287966 -0.1977367
-0.00090583955 -0.08936353 0.029119179 -0.08199857 0.07562624 0.3712804 -0.25959703 0.042585056
-0.119139515 -0.1482364 -0.034927707 -0.044690803 0.06992348 0.045280375 -0.09670157 0.028156025
0.15516284 0.16223451 0.02967594 -0.057272166 0.0043678638 0.45906645 0.042399954 -0.25915647

transformer_encoder.layers.0.linear2.bias f4 [8]
00000000: 17b0 263e 86e7 533c 67f8 48be 7ba3 60bd
00000010: 5f17 4b3d 71d0 c03d 6815 e33d 4c64 263d
0.1627811 0.012933617 -0.19626008 -0.054843407 0.049582835 0.09414757 0.11088067 0.040622994

transformer_encoder.layers.0.norm1.weight f4 [8]
00000000: adaf 5d3f 48fd 8c3f a56f 813f a598 5d3f
00000010: 88ee 993f 24a6 733f 81b2 9e3f ebc8 663f
0.86596185 1.1014795 1.0112196 0.8656104 1.2025919 0.95175385 1.2398225 0.90150326

transformer_encoder.layers.0.norm1.bias f4 [8]
00000000: edbb 013f c026 64be 551e e73d 76d0 5fbe
00000010: d0b0 703d 02f2 6cbe 896e 03bd 9b26 7a3d
0.50677377 -0.22280407 0.11285082 -0.21856865 0.05876237 -0.23139194 -0.032087836 0.061071973

transformer_encoder.layers.0.norm2.weight f4 [8]
00000000: 8ba3 9b3d 1e00 263e 9f0f 723e e982 203f
00000010: 5132 4c3f 3bc6 293f d40a 3a3f e5e6 fe3e
0.07599553 0.16210982 0.23638771 0.62699753 0.79764277 0.663181 0.7267277 0.49785534

transformer_encoder.layers.0.norm2.bias f4 [8]
00000000: 052b dbbd 4ef7 043d dd65 0b3d 870a 123e
00000010: 2829 81bd c224 bd3e 163a a63d 30c3 213e
-0.10701565 0.03246241 0.03403269 0.14261828 -0.06306678 0.36942106 0.08116548 0.15797114

embedding.0.bias f4 [8]
00000000: c36b 79be 9ec4 733f e4bd c43e 205e 693e
00000010: 2d8b 13bd 2dce 343f 4ce4 70be b740 073f
-0.24357514 0.9522189 0.38426125 0.22789812 -0.0360214 0.706271 -0.23524588 0.5283312

embedding.0.weight_g f4 [8, 1]
00000000: c5b7 243f 2fa6 4b3f 278e e83d 9aed 443e
00000010: 6080 49bd b14b ff3e f3be 9e3e 9b0f 5d3e
0.6434291 0.7955045 0.113552384 0.19231263 -0.049194694 0.49862435 0.31005058 0.21587984

embedding.0.weight_v f4 [8, 1]
00000000: ebb7 4dbf e30f 2ebf bb54 23be 8fc4 963e
00000010: 82d5 61bd 060d f8be 3a53 cf3e 3452 473e
-0.8035876 -0.6799299 -0.15950291 0.29446837 -0.055135258 -0.48447436 0.40493184 0.19464952

embedding.1.bias f4 [8]
00000000: a36c ea3e 6644 923f 36f0 b93e 8364 c53e
00000010: e266 1cbf 7e6f 3abf fb51 083e 4895 3a3f
0.45786008 1.1427124 0.3631608 0.38553247 -0.61094487 -0.72826374 0.13312523 0.72884035

embedding.1.weight_g f4 [8, 1]
00000000: 329f 583f f2dd 9cbe 4551 243f 264c 273e
00000010: fca4 943e f82b 133f 57fa 1b3d 6446 653e
0.8461791 -0.3063808 0.6418651 0.16337642 0.29032123 0.57488966 0.03808054 0.22390133

embedding.1.weight_v f4 [8, 1]
00000000: b0d2 3b3f 38e2 2d3d 327b 093f 7887 8fbe
00000010: 19a9 e2be 69cd 8f3e 0b66 083f fe1f 163f
0.7336836 0.042452067 0.53703606 -0.28033042 -0.44269636 0.28086403 0.53280705 0.58642566

embedding.2.bias f4 [8]
00000000: 09b9 08bf e405 a23d 73fa 4bbf 166c 093f
00000010: ae45 91bf 4988 bbbe d91b b33d f7bd 99bf
-0.5340734 0.0791128 -0.7967903 0.5368055 -1.134939 -0.36627415 0.08745546 -1.2011098

embedding.2.weight_g f4 [8, 1]
00000000: 8f5d 493e cab1 3d3e f561 e53e b9ea 083f
00000010: 4b64 023e d006 fa3e eb8c b93e 2f42 793e
0.19664596 0.18524852 0.44801298 0.5348316 0.12733571 0.48833323 0.36240324 0.24341653

embedding.2.weight_v f4 [8, 1]
00000000: e153 493e 734e 823e 3143 ce3e 53e2 08bf
00000010: 9f29 cebd f196 1cbf 6aee e0be f528 9cbe
0.19660904 0.25450477 0.40285638 -0.53470343 -0.10066532 -0.6116782 -0.43931895 -0.30499998

embedding.3.bias f4 [8]
00000000: d7c0 573f cdd9 e33e 7856 e53e 3cdd 1d3e
00000010: 6bce 213e b831 f13e 7060 29bf 5648 f7be
0.84278625 0.44502106 0.44792533 0.15416425 0.15801398 0.47108245 -0.66162777 -0.48297375

embedding.3.weight_g f4 [8, 1]
00000000: 175d 913f bfd7 ba3f 5058 e33f 9d48 463f
00000010: 0554 073e 253d db3f c11b 923f adcb 0d3f
1.1356534 1.459709 1.7761326 0.7745455 0.13215645 1.7128035 1.141472 0.5538891

embedding.3.weight_v f4 [8, 1]
00000000: 6a00 a0be e285 4f3f 82f7 5fbf 7f30 3c3f
00000010: af91 12bf 04a9 56bf b6e9 cb3e 1618 913e
-0.31250316 0.81063664 -0.8748704 0.735115 -0.57253546 -0.8385165 0.39826745 0.2833869

embedding.4.bias f4 [8]
00000000: ff6b e2be b5f2 7a3f 2c5c 253e 4e8e 333e
00000010: bfb2 19bf 7ecf c83e dff3 5dbe 00ed 853f
-0.4422302 0.9802659 0.16148442 0.17534754 -0.6003837 0.39220804 -0.2167506 1.0462952

embedding.4.weight_g f4 [8, 1]
00000000: 2bdc 1d3e c7ca 3b3f 565a ac3f f249 e73e
00000010: 4482 683f b044 993e 0dbb 4d3f bf9b 0b3f
0.15416019 0.7335629 1.3465068 0.45173603 0.9082377 0.29935217 0.8036354 0.54534525

embedding.4.weight_v f4 [8, 1]
00000000: 7178 d6be d362 37bf d5c2 4f3f cfd1 f13e
00000010: ab8e 7f3f 8a5c 09bf 964c 5f3f 4ad6 60bf
-0.41888765 -0.7163517 0.81156665 0.47230384 0.9982707 -0.5365683 0.87226236 -0.8782698

embedding.5.bias f4 [8]
00000000: 87d2 463e 56c8 423f 3053 39bf 14d4 f73d
00000010: fd1b 04bf 1184 6c3f 62f5 febe afe5 323d
0.19416247 0.7608694 -0.7239256 0.121009976 -0.51605207 0.9238902 -0.49796587 0.043676075

embedding.5.weight_g f4 [8, 1]
00000000: dea5 a53e 14a5 5ebe 6260 ea3d 41c2 333f
00000010: 3a8e c23e 97c2 633e 89cf ae3e 8f6c 7a3e
0.3235311 -0.2174266 0.11444165 0.7021828 0.37999135 0.22242199 0.34142712 0.24455474

embedding.5.weight_v f4 [8, 1]
00000000: 9788 043f 8804 95bd 6143 c6be 875e 2abf
00000010: 3698 d43e 68c4 2a3e 48e9 44bf 4606 b8be
0.5177092 -0.07276255 -0.3872328 -0.6655049 0.41522378 0.16676486 -0.7691846 -0.35942286

embedding.6.bias f4 [8]
00000000: 0d63 863f 8b33 32bf a20b b33e cd12 393f
00000010: ecf8 323f 37b5 ae3d efd6 283f 1cec 343f
1.0498978 -0.696099 0.34969813 0.7229431 0.69911075 0.08530658 0.6595296 0.70672774

embedding.6.weight_g f4 [8, 1]
00000000: c731 203e 4bce c63f e9b0 8d3f 35ee a23f
00000010: 96d9 863f 6729 683f cb41 d03f eabc bd3f
0.15643989 1.5531706 1.1069614 1.2728945 1.0535152 0.90688175 1.6270078 1.4823277

embedding.6.weight_v f4 [8, 1]
00000000: 3970 2d3f 2c9a 3b3f 7959 053f d2a9 773f
00000010: c227 33bf 99a3 ebbe 684e 7b3f 2f7d 6f3f
0.67749363 0.7328212 0.5208965 0.967435 -0.6998254 -0.46023253 0.98166513 0.9355039

embedding.7.bias f4 [8]
00000000: 9d1e 5dbe b0d5 8abf 043b ab3f bbc6 b73f
00000010: d9eb 7fbf d46b a73f 76dc 73bf 6df8 89bf
-0.2159371 -1.0846462 1.3377385 1.4357523 -0.9996925 1.3079782 -0.9525827 -1.0778939

embedding.7.weight_g f4 [8, 1]
00000000: 68bd 8d3e 8ce7 ad3e bfa2 453f e961 4d3f
00000010: 50c4 353e 474b 473f 24e5 5a3d 5321 823e
0.27683568 0.3396572 0.77201456 0.80227524 0.17750669 0.7784924 0.05344118 0.2541605

embedding.7.weight_v f4 [8, 1]
00000000: 5010 1d3f d6e3 a13e ebbd 5ebf a8fd 72bf
00000010: ae92 913e c63d 53bf 9b93 3f3d 9b7a c0be
0.61353016 0.31619138 -0.8700854 -0.949183 0.2843222 -0.82516134 0.046771627 -0.3759354

embedding.8.bias f4 [8]
00000000: b584 f73e 9e3c 2d3f 2324 ffbe 966c 033e
00000010: 9aed 65bf cfa2 40bf 303d ed3e cc94 da3e
0.48343435 0.6767062 -0.49832258 0.12834391 -0.89815676 -0.75248426 0.46335745 0.42691648

embedding.8.weight_g f4 [8, 1]
00000000: b24c 013f f32c 1f3f 0b02 133f 7ff1 143f
00000010: 6d8d 883f 1cc8 ba3e 65dd df3e d0f5 413f
0.5050765 0.6217796 0.5742499 0.58180994 1.066816 0.36480796 0.43723598 0.75765705

embedding.8.weight_v f4 [8, 1]
00000000: a045 d53e 3215 8abe b8ed 47bf 6164 08bf
00000010: 9e31 7c3f 1e19 2dbf 88fd b8be 5d76 18bf
0.41654682 -0.26969296 -0.78097105 -0.53278166 0.9851321 -0.6761645 -0.3613093 -0.5955561

embedding.9.bias f4 [8]
00000000: 13f4 8ebe d3f6 d13d a5a6 96bd a772 2b3f
00000010: 8abf 033f 55a6 9abe 6c1b 4fbe d665 6ebe
-0.2792059 0.10252156 -0.07356004 0.6697182 0.5146414 -0.30205026 -0.20225304 -0.23281035

embedding.9.weight_g f4 [8, 1]
00000000: 2c6c 7d3f 9e1e e73e 5575 943b cb5f 343f
00000010: b1c7 d93e 5c28 8c3e bbce b63e 88f3 873d
0.9899318 0.45140547 0.0045305886 0.7045867 0.42535165 0.27374542 0.35704598 0.06638247

embedding.9.weight_v f4 [8, 1]
00000000: a8a1 403f e1c7 743f 3508 0dbf 9767 9abe
00000010: a16d 9bbe aede 29bf 0e78 063f c397 ac3e
0.7524667 0.9561749 -0.5509065 -0.30157158 -0.30357078 -0.6635541 0.5252694 0.33709535

embedding.10.bias f4 [8]
00000000: d58c 0ebf 763c a8be 4b7f 41be 344b 01bd
00000010: c706 403f fa1e 71be 71ce 69bc 8f6a 433e
-0.5568364 -0.32858628 -0.18896215 -0.03156586 0.7501034 -0.23546973 -0.014270411 0.19083618

embedding.10.weight_g f4 [8, 1]
00000000: f06b 3f3e 5b31 dabe 1138 2f3f f28c 8bbd
00000010: 39cb 913f c1ed 283f 6be9 8e3f 9ceb 433d
0.18693519 -0.4261578 0.68444926 -0.068139926 1.1390144 0.65987784 1.1164984 0.047832116

embedding.10.weight_v f4 [8, 1]
00000000: fd6b 8abe cac1 3cbe bbf7 043f 7d7b 13bd
00000010: ae3b 0abf 5bda 393f 1557 023f 7add 263e
-0.27035514 -0.184333 0.51940507 -0.03600644 -0.53997314 0.7259881 0.50914127 0.16295424

embedding.11.bias f4 [8]
00000000: a014 203f 98aa 2dbf 4c02 3f3f 6758 aa3e
00000010: 68d0 493f 0113 b4be edf2 473f 807f 05bf
0.6253147 -0.6783843 0.7461288 0.3327057 0.7883363 -0.3517075 0.7810505 -0.52147675

embedding.11.weight_g f4 [8, 1]
00000000: 17c7 0840 8354 17be 8b2f cebf 05a7 f6bf
00000010: 2a1f c23f 68df b3bf 4206 3a40 ef60 f5be
2.1371515 -0.14778332 -1.6108259 -1.926972 1.516576 -1.4052553 2.906632 -0.47925517

embedding.11.weight_v f4 [8, 1]
00000000: 0c95 62bf ef65 37bd a7a3 ba3e f1b2 babe
00000010: b149 783e fba9 93be a0e8 7bbf 37bd 4bbf
-0.8850868 -0.044774946 0.36452982 -0.36464646 0.24246861 -0.28840622 -0.9840183 -0.79585594

embedding.12.bias f4 [8]
00000000: ebad 9bbe 7423 15be b123 e33d 8803 f43e
00000010: 6211 4e3f 72a3 063f cf75 b53e ed1e bcbe
-0.30406126 -0.14564306 0.11090792 0.47658944 0.80495274 0.5259315 0.35441443 -0.36742344

embedding.12.weight_g f4 [8, 1]
00000000: 8002 3b3f 5796 073f 461a a13d 1eb4 273f
00000010: ac0e 1b3f ac33 1f3f e7de 843f 92e5 d33e
0.7305069 0.52963775 0.078663394 0.6550921 0.6056926 0.6218822 1.0380524 0.41386086

embedding.12.weight_v f4 [8, 1]
00000000: 2a63 b13e 83ae e53e 9245 ee3d 9d1a f6be
00000010: 4a56 edbe 1062 bdbe 7ed2 4e3f 42e1 943e
0.3464597 0.44859704 0.11634363 -0.4806718 -0.46354896 -0.36988878 0.80789936 0.29078108

embedding.13.bias f4 [8]
00000000: d88f 7c3f 3cb2 1a3f b30e 42bf b3e9 213f
00000010: e25a 3fbf e3cf 483f cdee cebe 3f71 6b3f
0.9865699 0.60428214 -0.7580368 0.6324722 -0.7474805 0.7844221 -0.40416566 0.91969675

embedding.13.weight_g f4 [8, 1]
00000000: 0a6b 3a3e d797 6a3f 51a6 0d3f 81b7 793d
00000010: 638e fb3e 1f96 053f eb80 493f 8772 ffbd
0.18204895 0.9163794 0.55331904 0.06096602 0.4913207 0.5218219 0.7871234 -0.12473016

embedding.13.weight_v f4 [8, 1]
00000000: 01ed 803e e40d 2f3f b2e4 543f 5005 0e3e
00000010: f56c 683f d65e 1ebf 07db 72bf 0774 813e
0.2518082 0.6838057 0.8316146 0.13869214 0.90791255 -0.6186346 -0.9486546 0.25283834

embedding.14.bias f4 [8]
00000000: 7bb9 9dbe e4d6 89bf 9c96 49bf dd94 14be
00000010: 950e 67be 4c2c f5bd 3226 fbbe 1b88 89bf
-0.30805573 -1.0768704 -0.78745437 -0.14509912 -0.22564156 -0.119713396 -0.49052578 -1.0744661

embedding.14.weight_g f4 [8, 1]
00000000: ec3c 9c3e 260a 533f 367e 26bd 3beb 913f
00000010: 9ac0 7d3f d0fa 4e3f 9b34 fa3d d4c7 cfbe
0.3051523 0.8243736 -0.040647708 1.1399912 0.9912201 0.8085146 0.12217065 -0.40582144

embedding.14.weight_v f4 [8, 1]
00000000: dbf0 f23e ec70 283f ea6e 223d a076 75bf
00000010: 6e8e 5abf 6913 59bf 12e9 bbbe edcd a0be
0.47449383 0.65797305 0.039656557 -0.9588413 -0.8537358 -0.8479524 -0.36701256 -0.3140711

embedding.15.bias f4 [8]
00000000: f4b5 0dbe 04fe 1cbf 7394 fcbd a7c6 4ebf
00000010: d63a cabe a424 fc3d fd99 37be 70f7 1fbf
-0.13838941 -0.613251 -0.12333002 -0.8077187 -0.39498013 0.12311676 -0.17929836 -0.62486935

embedding.15.weight_g f4 [8, 1]
00000000: 25fe 253f b30a 7abd a43e 3b3f ca91 a23f
00000010: 9f49 7f3f 01b9 ae3e 6950 913f 5908 023f
0.6484092 -0.06104536 0.73142457 1.2700741 0.9972171 0.34125522 1.1352664 0.5079399

embedding.15.weight_v f4 [8, 1]
00000000: 48fa 60bf 5622 f8be e021 1dbe 028e 3fbf
00000010: 644c 69bf 1c15 02be dd58 7b3f 848e 303f
-0.878819 -0.48463696 -0.15344954 -0.7482606 -0.9113219 -0.12703365 0.9818247 0.6896746

embedding.16.bias f4 [8]
00000000: 8ca2 54be 1e90 56bf 6d80 4dbf 52c1 02bf
00000010: 07cb 78bc 4d37 213e 3f6d a03e 9baf 0e3f
-0.20765132 -0.83813655 -0.8027409 -0.51076233 -0.015185124 0.15743752 0.31333348 0.557367

embedding.16.weight_g f4 [8, 1]
00000000: a7e3 8dbe 83f9 0a3e c827 f13e fa3e 3b3c
00000010: 88a3 7c3f 925e 543f 2640 b43d d8f7 873f
-0.27712747 0.13571744 0.47100663 0.011428589 0.9868703 0.829568 0.08801298 1.0622511

embedding.16.weight_v f4 [8, 1]
00000000: dc75 8e3c 661d 0cbd a01a 54be 0a78 8b3e
00000010: 5a42 e93e 4f4e 11bf da13 06be c10b 5dbf
0.017390184 -0.034207724 -0.20713282 0.2724002 0.45558435 -0.56760114 -0.1309351 -0.8634606

embedding.17.bias f4 [8]
00000000: 563f 42bf dfa1 99be 38e3 443f d493 c43e
00000010: 3615 57bf 0bdd 313f 38cd 1cbf 1381 34bf
-0.7587789 -0.3000631 0.7690921 0.38394034 -0.8401674 0.6947791 -0.6125064 -0.7050945

embedding.17.weight_g f4 [8, 1]
00000000: 6887 973d 9485 81be 3c7b 9fbe da6f 5a3f
00000010: 752d c43d 24c3 fbbd 457c aa3f 441f 023f
0.073988736 -0.25297225 -0.31148708 0.8532692 0.09578983 -0.122930795 1.3319174 0.5082896

embedding.17.weight_v f4 [8, 1]
00000000: 3452 483e b3ea b0bc 0247 b43e f018 01bf
00000010: 71e5 a23c 4af8 8b3e 847f 603f 8612 5d3f
0.19562608 -0.021596288 0.35210425 -0.50428677 0.019884797 0.27337867 0.87694573 0.8635639

embedding.18.bias f4 [8]
00000000: 47ab 14be 5e34 b3be d2aa eabe d236 db3e
00000010: fa42 17bf 478c d6be 3384 903e 9d19 1ebd
-0.14518462 -0.3500089 -0.4583345 0.42815262 -0.59086573 -0.41903898 0.2822586 -0.038598645

embedding.18.weight_g f4 [8, 1]
00000000: 4854 2b3f b17b 673f af2e 483f cca0 283f
00000010: 943c 373f 0d9c 083f 5126 963f 47ae 723f
0.6692548 0.90423113 0.78196234 0.65870357 0.7157681 0.53363115 1.1730443 0.94797176

embedding.18.weight_v f4 [8, 1]
00000000: 7894 3abf 8fcb 743f c838 543f 04a0 80be
00000010: 1b7a cf3e 0656 923e 4ca6 79bf 1fd0 0fbf
-0.72882795 0.95623106 0.8289914 -0.25122082 0.40522847 0.28581256 -0.97519374 -0.5617694

decoder.weight f4 [1, 152]
00000000: 3c78 623d 7680 d6bc 341c d53d d716 60bd
00000010: 9899 8b3d 83da 03bd 285a c0bd fb82 96ba
00000020: 6ba3 86bd c53e f4bd 1539 193d bb64 c43c
00000030: db51 013d 8e44 c23b 5a9a 413c 7d49 1b3c
00000040: 546c 083c 63b7 4a3d 2fa7 cdbd 58f6 05be
00000050: 3278 0a3e d742 783d f841 493d 9a5b 2b3d
00000060: 2046 b23d f569 2ebe 7fd4 df3d 3bf6 13bd
00000070: 5fb7 ce3c 0637 893c 7293 36bd 2d5c 2dbd
00000080: a5da 28bd 8319 5e3d 3914 06bd 0ec3 d0bb
00000090: bfa1 4ebd 74b7 873d 71de b63a 4925 9ebd
000000a0: 22d9 8fbd 66f1 803c 13a9 b33c 7d96 7c3c
000000b0: 96cd 193c 957c 56bc 88ff 06bd 59a8 663d
000000c0: 4fa6 473e e210 2b3c 432d 383e 10b6 06be
000000d0: a9ea 8d3e aa5e e03d 50a3 3ebc 6a0d b6bd
000000e0: e053 313d c4a5 a5bb 7c8e 143d 0c9b 05bd
000000f0: dbd4 933c 76cb 10bd 2e9b 37bd 97fa 1d3e
00000100: b708 1f3e 41d7 9e3e 8137 b0bd 5926 963d
00000110: 3fe7 46bd b655 4d3c 5d75 96bc 6889 12be
00000120: cbb0 ac3b 6f14 773d 9bc9 863d 5da1 7fbe
00000130: 74dd 10be 71eb 67bd c741 733c 61aa 103d
00000140: 9a96 0e3e deb2 4b3e 32c5 df3d 173b e43d
00000150: c70a 81be e8aa 56bd c4eb e7bd 73e6 16be
00000160: d374 6b3d 4ffd 97bc 784b b03d 34e3 a7be
00000170: a808 0a3c d14c 6fbe b6f1 113e 42b5 0abc
00000180: 789e 3fbe 551b 0dbe be1a d8bc 59d1 993e
00000190: 60df d13d a028 a63e 5947 81bd b8fe 6ebe
000001a0: b12a 99bd 644a 3bbd 1e44 b9bc 6da9 1a3d
000001b0: 8d9e dd3b e624 743c 654d 0a3d 2b7b d5bc
000001c0: bf94 2dbd 565e 57be db3f 88bd 0a76 763e
000001d0: 38fa 133e ca3f 233b 930f 593d e6ff cbbd
000001e0: 2e58 25bd 55ac 5e3e 2597 7e3c 8c3d f8bd
000001f0: c27c 623c 8a9f 85bd e59f 8f3d 4a6c 8a3c
00000200: 2f35 6ebc 8d4c 1fbd 4424 363d 71ab bbbd
00000210: afae f0bd b3ae 913d 8b73 62bc 5fc8 6d3d
00000220: d306 1cbe d986 bd3c 34e8 f2bc bf8f 223e
00000230: 02d7 8b3e dbf1 4dbe 8861 b4be a6b2 fc3e
00000240: 3863 89bd 2823 28be 4ae7 a2be 07af 903d
00000250: 1096 78be f81f 04be 8eec a73e 41b7 723e
0.055290446 -0.026184302 0.1040577 -0.05470928 0.06816405 -0.03219081 -0.09392196 -0.0011483127
-0.06574138 -0.11926035 0.037407953 0.023973813 0.031572204 0.0059285825 0.011816585 0.00947797
0.008326609 0.049491297 -0.10041653 -0.13082254 0.13522413 0.06061062 0.04913518 0.041835405
0.087047815 -0.17032607 0.10929202 -0.036123496 0.025233923 0.01674987 -0.04457421 -0.042324234
-0.04122414 0.05422355 -0.03273413 -0.0063709086 -0.05044722 0.06626788 0.0013951791 -0.07721955
-0.07023837 0.015740108 0.021931207 0.015416739 0.009387394 -0.013091226 -0.032958537 0.056312893
0.19497035 0.010441037 0.17986016 -0.13155389 0.27718094 0.10955556 -0.011635616 -0.08889277
0.04329288 -0.005055161 0.036268696 -0.032618567 0.018045833 -0.035350285 -0.044825725 0.15427624
0.15530668 0.310236 -0.086043365 0.07331533 -0.048560377 0.012532642 -0.01836651 -0.14310229
0.005270099 0.06032222 0.06581422 -0.24963899 -0.14146978 -0.05662102 0.0148472255 0.035318736
0.13924637 0.19892451 0.10926284 0.11144083 -0.25203535 -0.052409083 -0.113242656 -0.14736347
0.05748446 -0.018553404 0.086081445 -0.3279053 0.008424915 -0.23369147 0.14252362 -0.008466067
-0.18712795 -0.13779958 -0.02637994 0.30042532 0.102476835 0.3245287 -0.063124366 -0.23339355
-0.07478846 -0.04572524 -0.022615489 0.037759233 0.0067632855 0.014901375 0.033765215 -0.026059708
-0.042378183 -0.2103208 -0.066528045 0.24068466 0.1445092 0.0024909847 0.05299337 -0.09960918
-0.040367298 0.21745427 0.015538965 -0.12121114 0.01382369 -0.0652457 0.07012919 0.01689734
-0.014539047 -0.038891364 0.04446818 -0.09163559 -0.11752068 0.07113399 -0.013821493 0.058052417
-0.15236978 0.02313559 -0.029651739 0.15875147 0.27312475 -0.20111792 -0.3523066 0.49355048
-0.067083776 -0.16419661 -0.31817085 0.07064634 -0.24275994 -0.1290282 0.32797664 0.23702718
