adult/Models/transformer_v4/0.8576_1/params.pt (torch_old, 17481 bytes, 55 tensors)

transformer_encoder.layers.0.self_attn.in_proj_weight f4 [24, 8]
00000000: b92b 103f 4499 dd3e 6538 a7bc 80b7 9f3e
00000010: 0846 133e a5db 13bf c87e 543e 469e 3fbf
00000020: 3aee 5abf 22d5 10be 6c17 943e 9aed db3e
00000030: b744 d73e 862f bbbd fb2a 423d 3930 8c3e
00000040: 9e98 3abf 16b5 0dbf e22e 14bf af0b 65be
00000050: 24eb 113d 9cfd b1be 9917 febe 5993 2dbd
00000060: d769 243f 6ec5 b33e a21b 8abf 7e67 61be
00000070: cb43 d53e f5f6 a13c 8f67 a53e b338 13bf
00000080: 93e5 4ebf f640 163e 2157 1c3e 9657 5cbe
00000090: 43b1 8abe cc99 0a3f de19 0a3f a067 343f
000000a0: 8327 a9be b6bb ca3e 2d80 d4be 22d3 92be
000000b0: 1880 943e ffff 3a3e 6e49 413f b378 cabe
000000c0: 2e22 98bf b519 14bf 020e c23e d8b1 9dbe
000000d0: f3b3 52be efec ca3c 837e a23e c764 283f
000000e0: a518 f9be 7630 d03e 7604 49be 2701 23be
000000f0: ae1c 6e3f 7465 c63e db28 313f 899f bdbe
00000100: 00b7 bb3e 9e3d 423f c8b7 9cbe 0f50 473f
00000110: 6d38 033f 8023 343e df83 69be 1d8d bd3e
00000120: cf6f f2be 32b5 b1be 2a2e 4f3f c7c4 913e
00000130: a770 423e 56e6 1bbf d8af a93e 4f6c bdbe
00000140: c4b1 16bf 6b9d f4be 4929 603e 2df5 51bf
00000150: 87ce a8be f1f0 81be 36c8 213e 3b23 c03e
00000160: 99e0 60be 9e3f 433f c8a9 1bbf 847a 863e
00000170: c3c0 0d3e 8fa2 3b3f f44d e7be 0e8c 413e
00000180: 4000 723e 7e6f 32bf 1aa8 3b3f e699 28bf
00000190: 7646 5a3d 5d0f f2be 0436 92be f8c7 39bf
000001a0: 4803 71be ea7b 3c3f bb54 a3be 452e 17bf
000001b0: 1018 81bd 4f1f 523f c15e 1cbf d12d 97be
000001c0: 40c6 aabe 1b15 9abf 4088 163f b0c3 f9be
000001d0: d6fa 523d a931 25bf 37a3 87be d4ff f6be
000001e0: 5d19 f1be 4880 1b3f 715f 253f f9ca ed3e
000001f0: d50c 873f 8fac 0d3f 34c9 e0bd 72b5 15bf
00000200: bcd8 123e f5e5 393d 3955 24be 4e53 fd3d
00000210: 5cc1 f13d 2c3d 11be c2a0 afbc 13af 893b
00000220: 2ac5 3bbd abf3 7cbe d8b1 a23c 7e47 343e
00000230: 68ec 9e3d 48f5 b73d 38da 14be 8dd6 0cbc
00000240: db5b 093e d228 853e 8558 81bd 54d3 60be
00000250: 56f3 fc3e 33cb 64be 33a7 38be 812c b1be
00000260: f984 383d 08d5 00be ba99 cd3c 7dab 2f3e
00000270: 0abc eabd 3c22 e73c ea83 66bd 543e 5b3c
00000280: 01d5 10be 0f2b d93d 81a1 3cbd 5383 ec3d
00000290: 4e29 923e 0a69 4d3d 7729 073e a624 9cbe
000002a0: 4d44 82be b8ed 88be 2f30 8bbe cbf1 ce3c
000002b0: c0f7 fe3d 38cc 853e 6767 9e3e 4e43 603e
000002c0: 6ab2 873d 8e47 173e 4f56 60b9 ede5 80be
000002d0: 26e9 c9be 43ab 773d 90a7 7ebb e50a 343e
000002e0: 0baf 44bc 83b7 863d db39 083e ed87 863e
000002f0: 7cdd 8fbe 45fb 5cbd 4778 ab3d de6c d5bd
0.56316715 0.43280995 -0.020412633 0.31194687 0.14382184 -0.57757026 0.20751488 -0.7485088
-0.85519755 -0.14143804 0.2892412 0.42954713 0.42044613 -0.09139924 0.04740427 0.2738054
-0.72889125 -0.5535444 -0.5788404 -0.22367738 0.03562464 -0.347638 -0.4962738 -0.04237685
0.64224 0.35111564 -1.0789683 -0.22012135 0.41653284 0.019771079 0.3230557 -0.5750839
-0.8081905 0.14673218 0.15267612 -0.21517786 -0.27088365 0.54140925 0.5394572 0.7047062
-0.33037958 0.39596337 -0.4150404 -0.28676707 0.29003978 0.18261717 0.7550267 -0.3954521
-1.1885431 -0.57851726 0.37901312 -0.30799747 -0.20576458 0.024771182 0.31737146 0.65778774
-0.48651615 0.40661973 -0.19630608 -0.15918408 0.9301251 0.38749278 0.69202965 -0.37035778
0.36663055 0.7587527 -0.30608964 0.77856535 0.51257974 0.17591667 -0.22804211 0.37021723
-0.47350928 -0.34708554 0.80929816 0.28470442 0.18988286 -0.6089834 0.3314197 -0.36996695
-0.58865 -0.4777635 0.21890749 -0.82014734 -0.32970068 -0.25379136 0.1579903 0.3752688
-0.21960677 0.7626895 -0.6080594 0.26265347 0.13843064 0.7329492 -0.4517666 0.18901083
0.23632908 -0.69701374 0.7330338 -0.6585983 0.053289853 -0.47277346 -0.28556836 -0.72570753
-0.23536408 0.7362658 -0.31900582 -0.59054977 -0.06303418 0.82079023 -0.61082083 -0.29527143
-0.33354378 -1.2037691 0.5880165 -0.4878211 0.051508747 -0.645289 -0.2649171 -0.48242056
-0.47089663 0.60742617 0.6459876 0.46443918 1.0550791 0.5534143 -0.109758765 -0.5847999
0.1434049 0.04538532 -0.16048135 0.12369405 0.118044585 -0.14183491 -0.02143896 0.0042017787
-0.045842327 -0.24702327 0.019860193 0.17605397 0.07759935 0.089823306 -0.14536369 -0.008596075
0.13413946 0.26007706 -0.06315712 -0.21955615 0.494044 -0.2234314 -0.18032531 -0.34604266
0.045048688 -0.12581265 0.025097717 0.17155261 -0.11461647 0.028214566 -0.056278147 0.013381559
-0.14143755 0.10603916 -0.04605246 0.115484856 0.28547138 0.050149 0.13199411 -0.3049671
-0.25442734 -0.26743865 -0.271852 0.02526178 0.12449598 0.2613237 0.30938265 0.21900675
0.06625827 0.1477339 -0.00021394457 -0.2517542 -0.3943569 0.060466062 -0.00388572 0.17582281
-0.012004624 0.06577971 0.1330332 0.26275578 -0.28098667 -0.053950567 0.083725505 -0.104211554

transformer_encoder.layers.0.self_attn.in_proj_bias f4 [24]
00000000: 27ea 0e3e e43a 2a3f ddf6 f9bd 1984 eebe
00000010: a3a8 d03e da76 7ebe 8346 ba3e 3f67 bb3e
00000020: 7b29 b33c a911 29bc f259 343c ddd8 d8bb
00000030: 6226 c5bc af89 f73b 4cba 1c3a c848 e7bb
00000040: 1dc5 4d3e a780 9abd 0bfe f03d 0e1a d5bc
00000050: 5d72 b63d 4be9 10be f3f5 0fbc 02e2 883d
0.1395651 0.6649611 -0.122052886 -0.46585158 0.4075366 -0.24850026 0.3638192 0.36602208
0.021870365 -0.010319152 0.011007773 -0.006617649 -0.024066154 0.007554255 0.0005978688 -0.0070582367
0.20094724 -0.0754407 0.11767205 -0.0260134 0.08908532 -0.14151494 -0.008786666 0.066837326

transformer_encoder.layers.0.self_attn.out_proj.weight f4 [8, 8]
00000000: 165f c33c d63e 33bc b8db c7bc 1d6a eebc
00000010: a5bf 3b3c 684f 043d 9b4a c3bc e507 67bc
00000020: 9f4e 8abd 46f3 7b3d 7b4b dabe 1ac7 1b3d
00000030: 25d3 9dbe a54f b8be 16db 1a3e 34fc ca3d
00000040: 53e9 b7bd 3fe0 c43c 0415 f53e ffaa 15bd
00000050: 3a2e 163e 564d cebe 425d 23be b20a 5fbd
00000060: fca5 20bc c0af 16bd 64a5 f3bd d526 06bd
00000070: 49b7 283d 4d8f a6bd 7780 9f3c fb17 66bd
00000080: 76d9 333e 6f12 22bd 0252 253e f3c7 5ebc
00000090: 6506 3c3d f58e bebd dde2 a5bd a4f1 1c3c
000000a0: dce2 9fbb da41 c63b 757f 5e3b 53ea bebb
000000b0: 97a4 f13c 2a2a 89bc 71ad b0bb 108a 83bc
000000c0: 315e 043e ccb7 a63d 5f6f f03e 4010 02b7
000000d0: 1655 0d3d ab67 fabe 8893 10bb 7065 e4bd
000000e0: c5e8 403d c9f2 d7bb d100 8abd 2df8 de3b
000000f0: 4230 14bd 5fab a8bc 3b81 373c 108e 993c
0.023849051 -0.010940274 -0.024396762 -0.029103333 0.011459266 0.03230229 -0.023839286 -0.014101003
-0.06753277 0.0615113 -0.42635712 0.038031675 -0.30825153 -0.35998264 0.15122637 0.09911385
-0.0898005 0.02403271 0.47867596 -0.036540028 0.14666072 -0.40293378 -0.15953544 -0.05445356
-0.009805199 -0.036788702 -0.1189678 -0.032751877 0.04119042 -0.08132801 0.019470436 -0.056175213
0.17563424 -0.03956836 0.16144565 -0.013597476 0.045904536 -0.09304611 -0.08099911 0.009579096
-0.0048793387 0.0060503306 0.0033950482 -0.0058262735 0.029497428 -0.016743738 -0.0053917696 -0.016057044
0.12926556 0.08140525 0.4695997 -7.752387e-06 0.034504972 -0.48907217 -0.0022060592 -0.1115216
0.047096986 -0.0065902215 -0.06738437 0.006804487 -0.036178835 -0.020589529 0.011200245 0.018744498

transformer_encoder.layers.0.self_attn.out_proj.bias f4 [8]
00000000: 3e86 c5bb 9f58 39bd 70b5 d03b 055e 92bc
00000010: 8703 893c be19 20bc a77e 4c3c 7196 773b
-0.006027966 -0.04525053 0.0063692853 -0.017867098 0.016725315 -0.009771762 0.012481368 0.003777888

transformer_encoder.layers.0.linear1.weight f4 [64, 8]
00000000: 281c a8be 796e 433d 1d1b 1c3e ae39 c83e
00000010: 0b7c 01bf 6dfa babe ebdb aa3e 61a0 c83d
00000020: 46eb 3a3d c38c 5bbe d3a4 5bbe dc48 ef3e
00000030: 6462 773e 68ef 29bf 82fa 493d fce3 cbbe
00000040: 5882 84be a50d fa3e 8ac2 283f 504e 883e
00000050: b2a1 0cbd d7b6 183c dab0 50bf b897 873e
00000060: 2c93 bbbe 73a5 573e 09c2 c03d 0b1b 063e
00000070: 7278 653f f806 d83e 3c0c cebe 3278 4abe
00000080: 44ca 563e bc11 193e a95b 373e 5ae0 ddbe
00000090: 4a1f 583e e36d 353e 8e9f 4d3e 1f5c 9a3e
000000a0: 725a c03e c1bf 873f 03a7 ffbc 2203 31bc
000000b0: 2443 21bf b523 23be f24e 3f3e ac49 81bf
000000c0: cbcd 903e f048 6d3f 6774 10bf b026 ae3e
000000d0: fe83 eebe f9c4 edbe 67a5 b5be c0ef 58be
000000e0: c848 8ebe a126 be3e ecef 383e 4467 983e
000000f0: d297 f73b 3784 a73e 3934 0dbf 628d a63e
00000100: 3a87 79be 7486 70be dc18 1a3e b2c7 d63e
00000110: a555 2f3f 71aa d03e 35c6 70be 6cdd 82bd
00000120: ccb0 b13d 6662 0d3f ccda 853e 97b2 1abf
00000130: a23f dabe cae9 ae3e da19 5e3e 010a 8ebe
00000140: 21ca 28be 94d4 e0be f798 073d 4090 343e
00000150: 3618 243f fe31 74bd 6ecc 05bd 333a e5be
00000160: ab06 58bd 22d8 07bf c137 563d 6b87 273d
00000170: 8fca 113f 76d3 00be 0f8d b43e 9a3e 46be
00000180: aed2 583f aae0 fd3e bab5 543e c5af 15be
00000190: ff3c 94be f965 a0bd 1d09 1f3f e4ff b3bf
000001a0: f09d 873c 5b8a 793e b26a 073f 547a 03bf
000001b0: 07c1 06be b7c5 e83e a4e5 6f3f b0b0 0dbe
000001c0: c2ec 6ebe b27c 523f 7c5d 6ebd 2313 2abe
000001d0: 31c6 b33e 1c1a 80be cb79 1dbe c1a5 bdbd
000001e0: 16ea f43e 37ef ebbe aec1 33bd 6422 143f
000001f0: d501 f3be 88a1 9abe ae77 203f e6c4 34be
00000200: 8b13 a6bb f490 653e 1ced 6a3e 06e9 533e
00000210: b420 133e 41f2 753d 0009 c0bb 8f72 7bbd
00000220: f9bf 91be 2172 f13c c456 84be f1f0 2abe
00000230: 31c8 173f 013f 1e3f ae86 6fbd c500 9fbe
00000240: eb77 513f 1015 053f 9c5c 423e 55d7 923e
00000250: 4946 893c 4eef c53e fa19 e93e 093c 83bf
00000260: a3af f23e bd68 bebe 86c0 2cbe 30e9 883f
00000270: 38e7 eabe b6f6 07bf a968 833e 9425 93be
00000280: ed08 c3be ae9d 533f ad3d 24be c0f8 c0bc
00000290: f5f7 113d c119 743e 2c39 da3e 427c c5be
000002a0: eb86 703f 8830 433f 2004 503d 1dc1 293d
000002b0: aea3 ec3d 7095 883e 767b 9e3e 7b96 a3bf
000002c0: 4c42 7a3e 8bb5 8d3f 04c2 cc3d 22e3 9c3d
000002d0: 266f 21bd f2a1 25be ecaa fa3d a641 a6bd
000002e0: ff00 f5be cb03 733d 7ff4 013e a169 9b3e
000002f0: 33a9 503f a19c 3d3f 6086 4dbe c4b3 7dbe
00000300: 6f50 e63b 9e3b 9cbc 90cb ff3e 1b67 b93d
00000310: f564 90bd b5bb 4fbe 468c 2dbf eb84 bb3e
00000320: 99c2 9b3e 0731 dcbc 5dd3 bd3e 974f a9bd
00000330: bbac ffbe c5e6 53be 3f6f 473e 540d 073d
00000340: 7021 05be 5050 d23c 18be 95be 9864 d13c
00000350: e251 0c3f dc55 153f d123 303e 9265 89be
00000360: c364 803e e5e5 a83f 14d2 80be c149 873d
00000370: 6c2c 41bf 006d 0bbe 0455 0e3e 5bae e2be
00000380: cb76 dd3d 8317 063f 390c c0be 6564 a33e
00000390: 1a6a 0bbc 4a0b e43e 6631 7bbe cb96 bcbe
000003a0: ed61 76be 6c67 1c3e eea5 663e a689 293e
000003b0: 2f8c 793e 2547 e2be e1a5 793e 047b a6be
000003c0: 26be a83e cdf4 ccbe f43e 77be 21d0 773f
000003d0: 9e58 5dbe cd4f 8cbe c79f 8abd d188 c0bd
000003e0: d33a 863e f03a 18be 7c81 0dbf 696d 733f
000003f0: dbb8 f13d 9780 32bd 4431 fc3d 8ce2 093c
-0.32833982 0.047712777 0.15244718 0.39106506 -0.505799 -0.36519185 0.3337091 0.09796215
0.04563453 -0.21440415 -0.21449594 0.46735275 0.24158627 -0.6638093 0.04931117 -0.39822376
-0.25880694 0.48838535 0.65921843 0.26622248 -0.034333892 0.009320936 -0.81519854 0.2648294
-0.3663572 0.21059208 0.09412009 0.13096254 0.8963691 0.42192817 -0.4024371 -0.19772413
0.20975596 0.14948171 0.1790606 -0.4333523 0.21105686 0.177177 0.20080397 0.30148408
0.37569004 1.0605394 -0.031207567 -0.01080397 -0.62993073 -0.1593159 0.18682459 -1.0100608
0.28282008 0.9268942 -0.56427616 0.3401389 -0.46585077 -0.4643934 -0.35477754 -0.21185207
-0.27789903 0.37138847 0.18060273 0.29766285 0.00755594 0.3271806 -0.5515781 0.32529742
-0.24367991 -0.2348879 0.15048546 0.4194923 0.6849006 0.40755036 -0.2351311 -0.06389889
0.086762995 0.5522827 0.2614349 -0.60428756 -0.42626673 0.34162742 0.21689549 -0.27742007
-0.16483356 -0.43912184 0.033104863 0.17633152 0.6409944 -0.05961799 -0.032665662 -0.44770965
-0.052740734 -0.5306417 0.052299265 0.04090063 0.56949705 -0.12580666 0.3526387 -0.19359818
0.8469647 0.49585468 0.20772448 -0.14617832 -0.28952786 -0.0783195 0.6212328 -1.4062467
0.016554803 0.24369185 0.5289718 -0.5135853 -0.13159572 0.45463344 0.9370978 -0.13836932
-0.23332503 0.8222152 -0.058194622 -0.16608863 0.35112146 -0.2501992 -0.15378492 -0.09260131
0.47834843 -0.46080944 -0.04388588 0.57864976 -0.47462335 -0.30201364 0.62682617 -0.17653236
-0.0050682477 0.22418576 0.22942013 0.2069436 0.14367944 0.060045484 -0.005860448 -0.06138855
-0.28466776 0.029473366 -0.25847447 -0.16693474 0.5928984 0.61814886 -0.05847805 -0.31055275
0.81823605 0.51985264 0.1898064 0.2867991 0.016757147 0.38659137 0.4552763 -1.0252696
0.47399625 -0.37189284 -0.16870317 1.0696163 -0.4587953 -0.53110826 0.25665787 -0.28739607
-0.38092747 0.82662475 -0.16039152 -0.023556113 0.03563686 0.2383795 0.42621744 -0.38571364
0.9395587 0.7624593 0.050785184 0.041443933 0.11554657 0.26676512 0.30953568 -1.2780298
0.24439353 1.1071028 0.09997943 0.0766051 -0.03941264 -0.16175058 0.12239632 -0.0811799
-0.47852322 0.05932979 0.12690924 0.30354026 0.8150818 0.7406712 -0.20070791 -0.24775606
0.0070286314 -0.019071396 0.49959993 0.09052869 -0.07050506 -0.20286448 -0.67792165 0.36624846
0.30421904 -0.026878847 0.3707532 -0.08267134 -0.4993647 -0.206935 0.19476031 0.032971695
-0.13001037 0.025673062 -0.29246593 0.025560662 0.54812443 0.58334136 0.17201163 -0.26835304
0.25076875 1.3195158 -0.25160277 0.06605864 -0.7545841 -0.13615799 0.13899618 -0.44273648
0.108136736 0.52379626 -0.37509325 0.31912532 -0.008509183 0.44539863 -0.24530563 -0.36833796
-0.24060793 0.15273827 0.22524235 0.16556415 0.24369882 -0.44194904 0.24379684 -0.32515728
0.32957572 -0.40030518 -0.24145108 0.96801955 -0.21615836 -0.27404633 -0.06768756 -0.09401096
0.26216754 -0.14866233 -0.552757 0.9508882 0.118028365 -0.043579664 0.12314084 0.008415829

transformer_encoder.layers.0.linear1.bias f4 [64]
00000000: 8ec8 17bf 41cc edbc d258 93be 3523 57be
00000010: 6818 22bf 7175 373e 51aa b1bb 15f7 a8be
00000020: c20a 0cbf 2295 4ebe b9b0 b3be 7af2 7bbe
00000030: d3ec e1bd e40d c1be ca80 b1be b77c 76be
00000040: b5ef 9abe 160d fcbe 6b27 40be 8a80 bebe
00000050: 472a 1fbf 5b52 8cbe ab7e babe 10e8 41be
00000060: 6202 1fbf a27f eebe 288d d2be 7de1 e1bc
00000070: 1f46 0ebe 5800 c3bd fe0f febe a924 88be
00000080: 15b3 643e 006f c0be 7545 9bbe 903d 16bf
00000090: ebb5 d9bc 6f0f 05be 10fe a5bd f1ce 52be
000000a0: b473 9cbe 205a 53be 5949 2cbf c3aa 17bf
000000b0: 6f6c d03d 6a49 2abf 57fb 8abe bec9 88bd
000000c0: 7ff8 ebbe effc b23c ae8a 1dbf f8cd 03be
000000d0: 0c4a 39be ffa8 44be 0a4a 2ebf 8c57 a5be
000000e0: 3c2b b9be 1b1a e0be 2c42 fdbd fcd9 3cbe
000000f0: 7211 03bf f372 09be 77c7 70be 2b2a ffbd
-0.592904 -0.02902806 -0.28778702 -0.21009524 -0.6331849 0.17915894 -0.0054219146 -0.3300101
-0.54703915 -0.20174077 -0.35095766 -0.24604216 -0.11031499 -0.3770591 -0.3466857 -0.24071012
-0.30261007 -0.49228734 -0.18765037 -0.37207443 -0.62173885 -0.27406582 -0.36424765 -0.18936181
-0.6211301 -0.4658175 -0.4112332 -0.027573342 -0.13893937 -0.0952155 -0.49621576 -0.2659047
0.2233394 -0.37584686 -0.3032643 -0.58687687 -0.026576003 -0.12994169 -0.08105099 -0.20586754
-0.30557024 -0.20639849 -0.6729942 -0.59244937 0.10176932 -0.6651827 -0.27144882 -0.06679104
-0.46088025 0.021849124 -0.61539733 -0.1287154 -0.18094653 -0.19205092 -0.68081725 -0.32293355
-0.36165798 -0.43769917 -0.12366137 -0.1844253 -0.51198494 -0.13422756 -0.2351359 -0.12459215

transformer_encoder.layers.0.linear2.weight f4 [8, 64]
00000000: f68c 9ebe 8953 b53e 41b5 a2be c51f 8bbd
00000010: 629e 743e 66c9 ab3f a962 233f 40e7 27be
00000020: 45ac 9cbf 62a9 10bf cfb7 c03e 2f19 bcbe
00000030: 4b85 f73f a329 5fbf a104 563d 75f6 503f
00000040: 467e fd3c 6f12 17bf 56ab c33f 78ff bd3f
00000050: 7de9 90be ca3f ee3f e7e3 2c3d 8873 b2be
00000060: 3735 2bbf f4f2 4e3e 3ca3 89be 71b1 3a3f
00000070: d177 373f 0748 d63e ff7c 793f c48f ff3e
00000080: ca92 f2bd d99a 41bf 8d04 c7be 2123 c2be
00000090: e4db 39bf ffad d03f 8855 df3e f8a0 35be
000000a0: 2881 e0bd 620f e7bd 8583 aabf 7f47 3ebf
000000b0: 5a3e e73d 4279 2640 a36a da3e 0a98 72bc
000000c0: 80bc d33d 336a ab3e 4908 e03e b05c 903f
000000d0: 3fb3 563f 690d 993e f3f1 4cbf 5702 ebbd
000000e0: 0d34 983f 1f05 31bf 1f8f 393d 9cfa 923e
000000f0: 6ead 92bf 358f 19be e5b5 b93e 7340 123f
00000100: a385 c7bb fcee 3dbe 3ced 5c3f 764d 9d3c
00000110: 8595 1bbd 1a8c 5bbf 56d0 f4be a2f1 193f
00000120: 0927 c83e 645a a2bd 4d82 4d3e 17fc e73e
00000130: f13d 4fbf 9f1e 13bd d373 6bbe 98a3 503d
00000140: a3f1 27be cca2 663f 1aec 9bbe 3977 c9bd
00000150: 6c14 44be 01d6 e1bd a283 f5bc 575c ed3e
00000160: 50c6 56be 5a1b 03be 205c fb3e 86cc 77be
00000170: c2f7 533c 56bc 4cbe 536c e8be 78c3 ddbe
00000180: 7fb9 8c3d e8e5 7d3e 6116 833e 7278 3ebe
00000190: 6dd5 103e deba 5dbf 4677 adbe 723c 663e
000001a0: 4eff a03d 2c84 083e 9b9c 613f f3bf fc3b
000001b0: 54cb c4bc cd93 29be 19b1 e2bd 61ac b33c
000001c0: d226 f0be f945 aabe e96e e9be c074 53be
000001d0: 1228 b2bd 4931 e73e dd16 a73f 3ffe 31bd
000001e0: 28f0 dcbe 4eb8 043f dc75 7fbe 8f63 e4be
000001f0: a544 023f 3f65 043e 1ae5 da3e 86a0 c7bd
00000200: 0b9d 333e 6ca0 96be 0f0d ba3e cc2b 283f
00000210: 6ebc 153e ba25 78bf b80c e2bd a3b6 5b3e
00000220: 132c 153f 9e32 3c3f c086 8dbe 0ef5 d4be
00000230: 2aa9 91bf ec67 473f 53cc f73d 7b6e 9bbe
00000240: b3dc e43c e3c8 4bbf ccde 89bf 6d8e 82bf
00000250: 648a 0d3f 80cd efbf c66f 223f 5396 f83d
00000260: a70e c73e aac2 ee3c 920f 2dbf 0186 62bf
00000270: caad ddbe 0584 73be 40a4 01bf a13b 93be
00000280: 8c5e d939 aa53 0b3f 84ea 823e dd74 4f3f
00000290: 0d02 253f d528 0dbf de5d 77be b46d 953e
000002a0: 7af3 dcbe 1bc0 1b3e 4340 073f 6c8d 10be
000002b0: cf6c 96be a823 f6bf 682e 973d b0b2 83bc
000002c0: 1a56 71be 9f1d a13d bc4d ecbd 5ec3 2cbf
000002d0: fe77 23bf 9b6f 333d a758 053f 0cac 7e3d
000002e0: 6854 f1be e55f c73e 9d33 07bf 7961 4fbe
000002f0: 3fe3 373f 5426 933d 0d8d 86be 5438 02bf
00000300: c529 d7bd f147 ba3d 26d9 a63e 294d f33d
00000310: fb49 f63e d2c5 8ebe 6fb0 74bf adaf 6ebd
00000320: 8b1f 103f 2d83 2abf 0528 abbd 5a15 793d
00000330: 3e4d 8f3d b804 9ebe 715f c9be feda a43d
00000340: 13f8 d5bd 2628 543e 9473 d83e 7164 333c
00000350: 9c0b 963e 5323 c53e 250c 3fbf 9265 74bd
00000360: 6167 843e 88ce 1d3e 8dd8 bd3e 295b 28bf
00000370: 5bf5 c1be 2ab4 12be 58d6 f0be af78 f8be
00000380: 0d0d a43d 0169 163f 152c 983e 4c9e 393f
00000390: f3f1 b1be b965 893d 3758 37bf 2cc7 8abd
000003a0: 505d fe3d b185 bdbe 15c2 953f 0388 693f
000003b0: c83a 253e a1fe ec3e 626e 56bd 0374 00be
000003c0: 6b8c 37bf 15d8 06bf e7d7 99bd 26d8 28be
000003d0: df18 b2bd a27f 303f 8a48 143f d49c 193e
000003e0: 721e 8abe 7269 0e3f 7a98 1ebf 8713 f2be
000003f0: 288a 693f a79a c0bd 0315 acbf e534 8e3d
-0.3096692 0.35415295 -0.3177891 -0.06793169 0.23888543 1.3420837 0.6382242 -0.16396809
-1.2240072 -0.5650846 0.37640235 -0.36737964 1.9337553 -0.8717291 0.05225051 0.81626064
0.030944 -0.590125 1.5286663 1.4843588 -0.28303137 1.8613217 0.042209532 -0.34853768
-0.66878074 0.20209867 -0.2688235 0.72927004 0.716672 0.41851828 0.97456354 0.49914372
-0.11844404 -0.75626904 -0.3887066 -0.37917426 -0.7260115 1.6303099 0.43619943 -0.17737186
-0.109621346 -0.11282231 -1.3321387 -0.74327844 0.112911895 2.601151 0.42659482 -0.014806757
0.10338688 0.3347946 0.4375632 1.1278286 0.8386726 0.29893044 -0.80056685 -0.11475056
1.1890885 -0.6914844 0.045302507 0.28706825 -1.1459177 -0.14996035 0.36271587 0.5712959
-0.006088929 -0.18548197 0.8629949 0.019201975 -0.03798439 -0.85760653 -0.47815198 0.6013433
0.3909228 -0.07927397 0.20069237 0.45309517 -0.8095389 -0.035917874 -0.22993402 0.050937265
-0.16400771 0.9009216 -0.3045357 -0.09837193 -0.19148415 -0.11027146 -0.029969994 0.46359512
-0.20974088 -0.12803403 0.49093723 -0.24199113 0.012937488 -0.1999372 -0.45395145 -0.43313193
0.06871318 0.24794734 0.2560301 -0.18600634 0.14143915 -0.8661326 -0.3388006 0.22483996
0.078611955 0.1333167 0.88129586 0.007713312 -0.024022736 -0.16560288 -0.11068935 0.021932783
-0.46904618 -0.3325651 -0.4559243 -0.20650005 -0.08699049 0.4515479 1.3053852 -0.04345536
-0.43151975 0.51843727 -0.24947304 -0.44607207 0.50885993 0.12929247 0.42752916 -0.09747414
0.17540376 -0.29419267 0.36338088 0.6569183 0.14622661 -0.96932566 -0.11037582 0.21456389
0.58270377 0.73514736 -0.2764187 -0.41593212 -1.137975 0.7789295 0.120995186 -0.30357727
0.027937269 -0.79603404 -1.0771117 -1.0199715 0.5528929 -1.8734589 0.634518 0.12138047
0.38878366 0.029145557 -0.67601883 -0.88485724 -0.43296653 -0.2378083 -0.5064125 -0.2875643
0.00041459908 0.54424536 0.25569546 0.81037694 0.64456254 -0.5514043 -0.24156901 0.2918526
-0.43154508 0.15210001 0.5283243 -0.14116448 -0.2937989 -1.9229631 0.07381898 -0.016076416
-0.23568001 0.07866978 -0.11538264 -0.67485607 -0.6385497 0.043807607 0.520884 0.062175795
-0.4713471 0.3894035 -0.5281313 -0.20252027 0.71831125 0.07185045 -0.26279488 -0.508672
-0.10506014 0.09095753 0.32587546 0.118799515 0.48103318 -0.278853 -0.95581716 -0.058273006
0.5629813 -0.6660641 -0.083572425 0.060811378 0.06997155 -0.30862975 -0.3933063 0.08049582
-0.10447707 0.2071844 0.4227568 0.01094924 0.29305732 0.38503513 -0.74627906 -0.059667177
0.25860122 0.15410817 0.37079278 -0.657641 -0.37882504 -0.1432654 -0.4703853 -0.48529574
0.08010302 0.58753973 0.29721132 0.72507167 -0.34754905 0.06708855 -0.7161898 -0.0677627
0.12420142 -0.3701606 1.1699854 0.9122316 0.16135705 0.46288016 -0.052351363 -0.12544255
-0.71698636 -0.52673465 -0.07511883 -0.16488704 -0.0869615 0.6894475 0.57923186 0.15001231
-0.26976353 0.55629647 -0.6195141 -0.47280523 0.91226435 -0.094044976 -1.3443912 0.069436826

transformer_encoder.layers.0.linear2.bias f4 [8]
00000000: 1053 eabc 30ed 4c3d 5b3b 443d 4bdd aa3a
00000010: 4fb4 29bd 57c0 74bc de82 d53c a778 aa3c
-0.02860406 0.050030887 0.04790817 0.0013035921 -0.04143172 -0.0149384355 0.026063379 0.020809485

transformer_encoder.layers.0.norm1.weight f4 [8]
00000000: 23c4 eb3f b43d f93e 678a 263e ddea 623f
00000010: fd3a db3e 38c6 b33f c034 f13d 8240 a03f
1.8419231 0.48679888 0.16263734 0.8863962 0.42818442 1.4044867 0.117776394 1.2519686

transformer_encoder.layers.0.norm1.bias f4 [8]
00000000: dd83 163f 9226 a0be 228b d2be 4118 5abd
00000010: 6388 4cbe b8ca 66be 97b5 a0bd 7aab b23d
0.5879496 -0.31279427 -0.41121775 -0.053245787 -0.19973902 -0.22538269 -0.078471355 0.08724113

transformer_encoder.layers.0.norm2.weight f4 [8]
00000000: fa1f 5d3f 46ac d93e d19c 493e b552 3a3f
00000010: 3477 463f d2af 973f c146 4c3e 1c08 8c3f
0.8637692 0.42514247 0.19688727 0.7278245 0.7752564 1.1850531 0.19948865 1.0939975

transformer_encoder.layers.0.norm2.bias f4 [8]
00000000: e570 40bf 3c08 753e d9dc 053e bff4 e63e
00000010: dac4 d43b 051b d1bd b859 fb3d 231b 4fbf
-0.75172263 0.23928922 0.13072528 0.451086 0.006493193 -0.10210232 0.12272972 -0.8090078

embedding.0.bias f4 [8]
00000000: de07 53bf 8b14 e0be fed2 86be 12e4 96be
00000010: f9b0 0c3f 590e 0abb 51e3 7d3d d12c 173f
-0.8243388 -0.43765673 -0.2633285 -0.2947088 0.5495754 -0.002106568 0.061984364 0.5905276

embedding.0.weight_g f4 [8, 1]
00000000: 08fb 1d3c d562 1cbe 35ac 5a3e fcdf 36be
00000010: 15f3 cbbe 1147 eb3d 61d9 5e3f 0414 643e
0.00964237 -0.15272076 0.21354754 -0.17858881 -0.39833894 0.11488164 0.87050444 0.2227326

embedding.0.weight_v f4 [8, 1]
00000000: 1a0e 05bd 8d67 76bd 3090 42be 5760 613d
00000010: f4c2 713e b4ad 22be e8d5 263f ccdb 45be
-0.03248415 -0.060157347 -0.19000316 0.055023517 0.23609525 -0.15886575 0.65170145 -0.19322127

embedding.1.bias f4 [8]
00000000: 4165 9fbf d8a2 db3d 0eee 9a3f 1d06 0cbf
00000010: 7001 a63f 638a ba3f d21e b93e 383b 3ebf
-1.2452775 0.10724419 1.2103899 -0.5469683 1.2969189 1.4573482 0.36156327 -0.7430911

embedding.1.weight_g f4 [8, 1]
00000000: 6925 e0bb 2f7a 443e a6d0 033f f969 f13d
00000010: eca9 6e3e 970a 3e3e 12aa ac3e 3698 67bd
-0.006840397 0.19187234 0.5149025 0.11787791 0.23307008 0.18558727 0.33723503 -0.056541644

embedding.1.weight_v f4 [8, 1]
00000000: 0c19 1bbc 961e cabe 6a05 61be 0307 0ebf
00000010: a9a1 01bf c7bf 4bbe e102 17bf e910 a5be
-0.009466421 -0.3947646 -0.21974722 -0.5547945 -0.506373 -0.19897376 -0.5898877 -0.32239464

embedding.2.bias f4 [8]
00000000: 22d4 b73f 7648 66bf 15f3 ff3f 0382 82bf
00000010: a1ee 9c3d 5667 2c3e e5fe 03bf ada2 a4bf
1.4361613 -0.89954317 1.9996058 -1.0195926 0.07662702 0.16836295 -0.51560813 -1.2862145

embedding.2.weight_g f4 [8, 1]
00000000: a94d e13e fedd 253e 91f0 623e 2d82 a4be
00000010: a805 cb3e c5fd 7dbe de2b 6d3f 3395 5e3f
0.44004562 0.16197965 0.22162081 -0.32130566 0.39652753 -0.24803837 0.9264506 0.8694641

embedding.2.weight_v f4 [8, 1]
00000000: b698 84be aed8 4b3f f764 e13d 0c81 d9be
00000010: 4664 133e 964a 1fbf 9939 793f 0fce 2d3f
-0.2589776 0.796275 0.11005586 -0.42481267 0.1439372 -0.62223184 0.9735351 0.67892545

embedding.3.bias f4 [8]
00000000: 0473 2bbe 91cd 31bf 4105 86bd ac72 a23e
00000010: 81df 7a3f b8e5 67bf f8cd e3be af77 0840
-0.16743094 -0.69454294 -0.06543971 0.31728113 0.9799729 -0.905849 -0.4449308 2.132305

embedding.3.weight_g f4 [8, 1]
00000000: 18a0 a03e 3192 ed3e 7862 c13e fcfe 133e
00000010: 0df7 aa3c bc64 3b3f 156a 033f 769c 0f3d
0.31372142 0.46400598 0.37770438 0.14452738 0.020869756 0.73200583 0.51333743 0.035061322

embedding.3.weight_v f4 [8, 1]
00000000: 5631 dd3e 60e4 523f 9c21 de3e 0000 80bf
00000010: 4675 6bbd e53c 563f d023 2c3f 6e40 283e
0.43201703 0.8237972 0.43385017 -1.0 -0.057484888 0.8368667 0.67242146 0.16430828

embedding.4.bias f4 [8]
00000000: 58c2 1c3f 4552 ae3f 5c7c 2e3f 3058 103e
00000010: 7d74 4d3f 8bf9 863f 6b1e 59bf b986 2c3f
0.61234045 1.3618857 0.6815851 0.14096141 0.8025587 1.0544904 -0.8481204 0.6739307

embedding.4.weight_g f4 [8, 1]
00000000: 50c0 c63e f8ed 133f 06b1 d33d c8bd 023d
00000010: e12f 333f 5f2b c63e a881 8abe 04df cf3d
0.38818598 0.57784986 0.10336499 0.03191927 0.6999493 0.38704965 -0.27052045 0.10149959

embedding.4.weight_v f4 [8, 1]
00000000: 3b49 edbe 5dfd 6fbf cbea a1be 5e3d 93be
00000010: 0328 5dbf 41d6 b3be da7a 2fbe 2f71 373f
-0.46344933 -0.93745977 -0.31624445 -0.28757757 -0.8638918 -0.351244 -0.17136708 0.7165708

embedding.5.bias f4 [8]
00000000: 8820 0d3f f4c2 70be fe8c a33f 9821 54bf
00000010: 75fd cfbe 8ff8 a2bf 828f 3dbf 89a5 b43e
0.55127764 -0.23511869 1.2777402 -0.8286376 -0.4062306 -1.2732104 -0.740471 0.35282543

embedding.5.weight_g f4 [8, 1]
00000000: c994 723e fb35 e93e 0f65 af3e fcf1 c23c
00000010: 62f2 603d cb8f 253f 6291 bc3d 3d22 bd3e
0.2368957 0.45548996 0.3425679 0.023797028 0.054918654 0.64672536 0.09207417 0.36940184

embedding.5.weight_v f4 [8, 1]
00000000: 913d 033f 236b 43bf d489 44bf 219d 84bd
00000010: b141 133f b03d 9e3e 659d 4d3e aa99 78bf
0.5126582 -0.7633535 -0.7677281 -0.064752825 0.5752211 0.3090644 0.20079572 -0.9710947

embedding.6.bias f4 [8]
00000000: 896b 3a3f fdad 21bf 733d 543e 099a b9be
00000010: 2d40 3abf 1c2d a9bf 7bf1 e5bb 9402 3cbf
0.72820336 -0.6315611 0.20726566 -0.36250332 -0.72754174 -1.3216891 -0.007017312 -0.73441434

embedding.6.weight_g f4 [8, 1]
00000000: 8e21 5f3f 3f1e 40bf 55d7 cb3e 4e80 eebe
00000010: 9327 45bd baab 0a3f 4a13 6c3f c207 dd3d
0.87160575 -0.7504615 0.39812723 -0.46582264 -0.048133444 0.54168284 0.9221693 0.10792495

embedding.6.weight_v f4 [8, 1]
00000000: a7ca 27bf 397b 0c3e ab34 dfbe 59d8 103f
00000010: 1755 2cbe 26ad 003f 84b6 763f b988 4ebf
-0.655436 0.1371888 -0.4359487 0.5658012 -0.16829334 0.50264204 0.96372247 -0.8067737

embedding.7.bias f4 [8]
00000000: 1765 2ebf 9810 d73e 1a5c 853f db46 7b3e
00000010: 62c3 26bf 46bc 083e 5dd5 393e 0364 d7bd
-0.68123 0.42004848 1.0418732 0.24538748 -0.6514188 0.1335307 0.18147798 -0.105171226

embedding.7.weight_g f4 [8, 1]
00000000: ab74 363f f953 523e 38aa 3d3f 51f1 913e
00000010: 6f57 073f 0f1a 063f 3069 453f b025 4f3f
0.7127177 0.20539846 0.7408786 0.28504422 0.5286779 0.5238351 0.7711363 0.8091688

embedding.7.weight_v f4 [8, 1]
00000000: 770a 5b3f a6cd b73d 25f0 7abf 2367 693e
00000010: 5962 a93e 3ecc d33e b9f1 113f 7a0c 3e3f
0.85562843 0.08974771 -0.9802268 0.2279325 0.33082846 0.41366762 0.57009465 0.7423779

embedding.8.bias f4 [8]
00000000: f3f4 9b3e a5b6 e7be 1720 603f da89 dbbd
00000010: b1e5 963e ee7b 1fbe cda4 8f3e ea44 c63e
0.3046032 -0.45256534 0.87548965 -0.107196525 0.29472116 -0.15574619 0.2805542 0.38724452

embedding.8.weight_g f4 [8, 1]
00000000: cfc9 bb3f 3a8c a13e 2427 48be bb6a f73e
00000010: bead 863e 762d e23f c950 623f c165 543f
1.4670962 0.31552297 -0.19546181 0.48323616 0.2630443 1.7670124 0.8840452 0.82967764

embedding.8.weight_v f4 [8, 1]
00000000: 5340 29bf a4af 92be 2e5a 003f f763 c4be
00000010: 7500 04bf 960b 673f a56a 4fbf 1590 d53e
-0.66113776 -0.28649628 0.50137603 -0.38357517 -0.515632 0.90252054 -0.810221 0.41711488

embedding.9.bias f4 [8]
00000000: ae5c c3be 4b96 93bf 2905 db3d 1036 12bf
00000010: 761a a0be 7cb2 54be 38a2 7fbe 2f17 0abf
-0.38156646 -1.1530241 0.106943436 -0.5711374 -0.31270188 -0.20771211 -0.24964225 -0.53941625

embedding.9.weight_g f4 [8, 1]
00000000: 3485 633e 43c8 ccbe 311e b63f 3f77 dbbd
00000010: 6328 ca3d e43f 0f40 3df6 843f a205 c83f
0.22218782 -0.39996538 1.4227964 -0.10716104 0.098709844 2.2382746 1.0387646 1.5626719

embedding.9.weight_v f4 [8, 1]
00000000: 7208 60be 8309 1c3f 1e41 6fbf f80b 25bf
00000010: 1fed 9cbe 5e0a 5dbf be0e 183c 2707 2d3f
-0.21878222 0.60952014 -0.93458736 -0.6447139 -0.3064966 -0.86343944 0.009280859 0.6758904

embedding.10.bias f4 [8]
00000000: 67bf 83bf 5f46 6c3e 2dd2 0bbf 1497 b3bd
00000010: a2a8 19be 357f a83e 85e2 3b3f 942c 833e
-1.0292786 0.2307372 -0.5461758 -0.0876905 -0.15005735 0.3290955 0.73392516 0.25619948

embedding.10.weight_g f4 [8, 1]
00000000: 17e6 363f 0ef1 ad3f fb41 703e 4fa2 663f
00000010: 3949 313f 44e4 34bf a64a b7bd f7b7 463d
0.7144484 1.3589189 0.2346267 0.90091413 0.69252354 -0.70660806 -0.08949785 0.048515286

embedding.10.weight_v f4 [8, 1]
00000000: bb42 d93d 6531 1dbf 89ee 213d 5d72 39bf
00000010: 8aae 49bf c246 9b3d 32e0 f23e 41be aabd
0.10608431 -0.61403495 0.039534125 -0.7244013 -0.7878195 0.07581855 0.47436672 -0.08337069

embedding.11.bias f4 [8]
00000000: c00b f4bd 0f3e bdbe 40a3 8abe a53e 06bf
00000010: f4b2 5c3e d8aa ebbe d307 8dbe 076c 5c3e
-0.11916304 -0.3696141 -0.27077675 -0.5243934 0.2155264 -0.4602878 -0.27545032 0.21525584

embedding.11.weight_g f4 [8, 1]
00000000: 9cb6 2440 c6d8 19c0 849b aa3f cecb 0e40
00000010: 7ff5 3f40 616c 7a40 e984 0940 5662 7540
2.5736456 -2.4038558 1.332871 2.2311893 2.999359 3.912865 2.1487372 3.834127

embedding.11.weight_v f4 [8, 1]
00000000: 7539 68be aa20 67bf 6f2b 0d3d fa9c 813e
00000010: 9337 6c3f 8c4e 2e3f da01 5f3e 406e 37bf
-0.22678168 -0.90284216 0.03446525 0.25315076 0.922723 0.68088603 0.2177805 -0.71652603

embedding.12.bias f4 [8]
00000000: fa02 223f 5c5e f13d 00f6 703f d3b9 a13e
00000010: 4fb8 3bbd 04bf e8bd 1659 78bd 0331 553e
0.6328579 0.11785576 0.94125366 0.31587085 -0.045830067 -0.11364558 -0.060631834 0.20819478

embedding.12.weight_g f4 [8, 1]
00000000: 30b0 8c3f fefc a0be aae9 9e3f 875a 683e
00000010: af71 6c3f d22d 5d3f 9c83 99be b6f1 d63c
1.0991268 -0.31443018 1.2415059 0.22690783 0.9236097 0.8639804 -0.29983222 0.026238304

embedding.12.weight_v f4 [8, 1]
00000000: c6fd 00bf fe24 18be 5662 37bf 97a6 43be
00000010: 47c9 313f 0687 fe3e c1c7 5bbf 88d4 d83d
-0.5038723 -0.14857861 -0.71634424 -0.19106518 0.6944775 0.4971239 -0.85851675 0.10587412

embedding.13.bias f4 [8]
00000000: 459d 38bf f14e bcbe 95e5 57be 336b d73d
00000010: e8a0 c33d c9ca 873c f806 0ebf e255 54be
-0.72114974 -0.36778978 -0.21083672 0.105184935 0.09552175 0.016576188 -0.55479383 -0.20735887

embedding.13.weight_g f4 [8, 1]
00000000: f853 343f 5957 123f dd7d 3f3f dbca b03f
00000010: 1817 b03f febf 033f dfe1 80be 2646 0b3d
0.70440626 0.5716453 0.7480143 1.3811907 1.3757048 0.5146483 -0.25172326 0.034002446

embedding.13.weight_v f4 [8, 1]
00000000: 273d d73e ae5f a5be aa9d 083f 1b13 72bf
00000010: 76d9 71bf 87ae cfbe 0736 1bbf 669d f2bd
0.42038843 -0.3229956 0.53365576 -0.945604 -0.94472444 -0.4056284 -0.60629314 -0.118464276

decoder.weight f4 [1, 112]
00000000: a8f2 ebbd 01a6 143e d75e 073e cac9 153e
00000010: cd97 8dbe b4b1 733d a4f3 7dbd ed45 b5bc
00000020: ee52 6abb 029c acbd e9c0 10be c970 18bd
00000030: d946 523c 6878 efbd 86b3 3bbd 90b5 5b3c
00000040: 7532 773e 6edf abbe 7815 29be 231e 29be
00000050: 03cb 9d3e 5d06 503e d3df 16be 180a 95be
00000060: a18c 823e 4b5f 30bd 3846 cbbe 6f82 2abe
00000070: 9acf 80be 66b4 4d3e f68b 84be bd56 8c3e
00000080: f0f0 3c3e 173f 8cbc fa3d 8bbe 738f 4cbd
00000090: 886a 643e a292 a23d 5d80 49be 570b e0bb
000000a0: 8488 bebc 3a10 abbc 9eb1 55bd 6aca 313c
000000b0: 949f 94bd 83f1 073c 9264 6ebc cd28 423d
000000c0: b693 0ebd 93fc 0f3c 4393 123d 8478 f23d
000000d0: b000 cabb 5c02 49bd 51cc 993d 579a 3cbd
000000e0: 7f60 ddbd d769 afbc bf69 993e 9e54 1d3d
000000f0: df9a f13d 3174 1fbd d825 233e bc82 c8bd
00000100: bc43 c5be 84b5 c5bd caf1 7a3e 8d59 33be
00000110: 805d 82be face a73e 6604 d1bd 7a15 b63e
00000120: 3111 a73d f9f1 363e f011 8fbc 78db 26be
00000130: 39ae 353d 7c9f cbbd 5035 e8bc 5d26 3a3e
00000140: 80de 3a3f 2fbd d2bd 12e4 58bd 28e1 4fbe
00000150: c499 9f3d c1ee 26be 7899 eebd 8661 0b3e
00000160: ec79 1cbf d0f7 113f 4166 703e 3e71 2e3f
00000170: 10cc d8be f76b fb3e b3d3 3c3f 097b 24bf
00000180: c79d 4bbe 5305 6d3d 586f 943e 68ee d9bd
00000190: b9e7 99be 3875 013f cb76 763e 1d32 a9be
000001a0: 40fd 8d3e 21b5 50be 459a 03be 856e 41be
000001b0: 8b9c 7bbd 39fb 123d 271f 25be cd45 113e
-0.115208924 0.1451645 0.13219772 0.14627758 -0.27654877 0.059495643 -0.061999932 -0.02212807
-0.0035754996 -0.08428194 -0.1413609 -0.037216935 0.012834274 -0.116928875 -0.045825504 0.013409987
0.24140342 -0.335689 -0.16512096 -0.16515402 0.30818948 0.20314927 -0.1473382 -0.29109263
0.25497916 -0.04305963 -0.3970201 -0.16651319 -0.25158387 0.20088348 -0.25888032 0.27409926
0.18451285 -0.017119927 -0.27195722 -0.04994149 0.22306263 0.07938124 -0.19677873 -0.0068372893
-0.023258455 -0.02088176 -0.052171342 0.010851482 -0.072569996 0.008297327 -0.014550345 0.047402192
-0.034808837 0.008788246 0.03578497 0.11839393 -0.0061646327 -0.049074516 0.075096734 -0.046045627
-0.10809421 -0.021412773 0.2996349 0.038410775 0.117971174 -0.038929168 0.15932405 -0.097905606
-0.3852824 -0.09653762 0.24506298 -0.1751463 -0.2546196 0.32775098 -0.10205917 0.3556326
0.08157576 0.17865743 -0.017464608 -0.16294658 0.044355605 -0.099425286 -0.028345734 0.18178697
0.7299576 -0.1028999 -0.05295188 -0.20300734 0.07793 -0.16302015 -0.116503656 0.13611421
-0.6112354 0.57018757 0.23476507 0.68141544 -0.42343187 0.49105808 0.7376053 -0.64250237
-0.19884406 0.057866406 0.289912 -0.106411755 -0.30059603 0.50569487 0.24068753 -0.33046046
0.27732277 -0.20381595 -0.12851818 -0.18889816 -0.061428588 0.035884116 -0.16125165 0.14186783
