bank/Models/transformer_v4/0.9014_3/params.pt (torch_old, 17425 bytes, 70 tensors)

transformer_encoder.layers.0.self_attn.in_proj_weight f4 [24, 8]
-0.040240303 -0.3480357 -0.40672982 0.098407574 -0.5897479 -0.23482165 0.12892805 0.11405888
0.3342058 -0.031869974 0.06205414 0.07658463 -0.51353407 0.3815877 -0.055668272 0.081388585
-0.23119731 -0.34385476 0.13848567 -0.09935574 -0.17414589 0.1051605 -0.3772879 0.08793663
0.37589112 0.5464865 0.19565134 -0.021637024 -0.37023333 -0.24165839 0.2622687 0.3522152
-0.07677509 -0.46783182 -0.45507655 0.23095344 0.009412743 -0.4352821 -0.3310524 -0.10324964
0.35009506 0.18210225 0.07691679 -0.40094906 0.060249124 0.3370256 -0.040280573 -0.020922806
0.10862915 0.4436306 0.2199291 -0.3813157 0.15977937 0.0071250596 0.47368127 0.12250559
-0.44529614 -0.23500381 -0.3788148 0.17253706 -0.458431 -0.594466 0.342827 -0.064531304
-0.1508051 -0.24809836 -0.44725117 -0.5368324 0.123796456 0.14021586 0.22866076 -0.47585422
0.10618529 0.019602273 -0.29614875 0.26051962 0.34402135 0.07124074 0.3772606 0.21404284
0.046098944 -0.21900094 -0.1224801 -0.22118829 0.34287617 -0.0014906159 0.26946503 0.08557134
-0.29148307 0.31534135 0.09197718 0.0636663 -0.032407437 0.2974113 -0.086068414 -0.4029687
-0.3144162 0.3220048 -0.5129065 -0.5454222 -0.031442594 -0.19721851 0.27521607 -0.2336727
-0.30857348 -0.20865928 0.44529143 0.40727347 0.13567218 -0.020507058 0.3674478 -0.1801069
0.0056518996 -0.2706261 -0.24893126 0.4275732 -0.4728321 0.4046301 -0.31430694 -0.29465625
-0.054875486 0.54116666 -0.2515601 -0.21644922 0.32763153 -0.17162833 -0.4436437 -0.238872
-0.15926634 -0.30213663 -0.15927242 0.051794514 0.2910422 -0.1649851 -0.4283774 0.090402134
-0.08935977 -0.3275082 0.04722172 -0.226483 0.021030385 -0.12284824 -0.14674047 0.073365875
-0.014446696 -0.15181017 -0.2047826 -0.14707741 0.0903505 0.2471827 0.19190983 -0.26730645
0.22926018 -0.13394122 -0.27615586 -0.20573966 -0.17526734 0.20062225 -0.24073993 0.053089492
-0.19442211 -0.23767233 0.1714944 0.35683873 -0.23494402 0.03389718 -0.3208139 -0.051992275
-0.1371491 -0.14075324 0.24398541 0.29358983 -0.14440604 0.22769609 0.22326355 -0.013793403
-0.35728458 -0.12159556 0.17315802 0.39388463 0.02381533 -0.0284783 0.31115967 -0.2506341
0.13311766 0.21470197 0.07197461 0.3502542 -0.21848413 -0.305618 0.28747854 0.20450789
00000000: 04d3 24bd bc31 b2be e43e d0be e989 c93d
00000010: b8f9 16bf 1675 70be b705 043e b497 e93d
00000020: 061d ab3e 178a 02bd 7b2c 7e3d 67d8 9c3d
00000030: f876 03bf 775f c33e 6a04 64bd 0faf a63d
00000040: fdbe 6cbe bb0d b0be 30cf 0d3e 067b cbbd
00000050: 4d53 32be 635e d73d e12b c1be 1f18 b43d
00000060: cd74 c03e 8ae6 0b3f d358 483e 2140 b1bc
00000070: 398f bdbe 4c75 77be 1548 863e 8d55 b43e
00000080: 423c 9dbd a787 efbe cbff e8be 0f7f 6c3e
00000090: e837 1a3c 4cdd debe b37f a9be 8c74 d3bd
000000a0: a93f b33e 0379 3a3e 8d86 9d3d 3249 cdbe
000000b0: c9c7 763d 9f8e ac3e 3efd 24bd 4e66 abbc
000000c0: f678 de3d 8d23 e33e 1835 613e d03b c3be
000000d0: 349d 233e 5579 e93b 5a86 f23e 36e4 fa3d
000000e0: dbfd e3be d7a4 70be 03f4 c1be 8ead 303e
000000f0: 78b7 eabe ec2e 18bf 0587 af3e fd28 84bd
00000100: a76c 1abe 7f0d 7ebe 1bfe e4be d96d 09bf
00000110: ff88 fd3d bf94 0f3e 0c26 6a3e 2aa3 f3be
00000120: ac77 d93d f294 a03c cfa0 97be d462 853e
00000130: 9123 b03e aae6 913d 4d28 c13e 0c2e 5b3e
00000140: 3fd2 3c3d c841 60be d9d6 fabd 2f7f 62be
00000150: 778d af3e c560 c3ba 52f7 893e 0740 af3d
00000160: 453d 95be 6c74 a13e 885e bc3d 7a63 823d
00000170: a9bd 04bd 4b46 983e a344 b0bd ea51 cebe
00000180: 29fb a0be d0dd a43e d74d 03bf caa0 0bbf
00000190: f3c9 00bd a6f3 49be 1fe9 8c3e e547 6fbe
000001a0: 58fd 9dbe c7aa 55be 3dfd e33e 2686 d03e
000001b0: a6ed 0a3e 6bfe a7bc 1e22 bc3e f16d 38be
000001c0: 9233 b93b 818f 8abe d6e7 7ebe e0ea da3e
000001d0: 0d17 f2be ad2b cf3e d7ec a0be 2fdd 96be
000001e0: 1ec5 60bd e689 0a3f 7ccc 80be dda4 5dbe
000001f0: 52bf a73e 56bf 2fbe 4425 e3be dd9a 74be
00000200: b716 23be a7b1 9abe 4f18 23be 7c26 543d
00000210: 7c03 953e dbf1 28be 4854 dbbe c124 b93d
00000220: 4102 b7bd 28af a7be 906b 413d 29eb 67be
00000230: ea47 ac3c dc97 fbbd 2243 16be d940 963d
00000240: d6b1 6cbc 2074 1bbe 88b2 51be 769b 16be
00000250: af09 b93d 761d 7d3e 0384 443e 64dc 88be
00000260: 2ec3 6a3e e327 09be 4d64 8dbe 6bad 52be
00000270: 4879 33be eb6f 4d3e 8784 76be 5e74 593d
00000280: 9716 47be 6060 73be 3a9c 2f3e 91b3 b63e
00000290: 2a95 70be c5d7 0a3d b841 a4be daf5 54bd
000002a0: d070 0cbe 9e21 10be 50d7 793e 6851 963e
000002b0: 2ddf 13be 2a29 693e 339f 643e bafd 61bc
000002c0: 01ee b6be 1807 f9bd 5650 313e 3fab c93e
000002d0: 5e18 c33c 534b e9bc 5250 9f3e 1d53 80be
000002e0: ff4f 083e d5da 5b3e 6d67 933d 8554 b33e
000002f0: 4eba 5fbe f679 9cbe 6330 933e 846a 513e

transformer_encoder.layers.0.self_attn.in_proj_bias f4 [24]
0.14550896 0.11532438 0.24104235 -0.05817115 -0.015085127 -0.08977032 -0.05022535 -0.03931758
0.0065301107 -0.001389587 -0.0018068737 -7.669726e-06 0.0004159167 -0.00091756665 0.00035236313 0.0045873183
-0.09093032 0.033275336 -0.00130636 -0.0049550547 0.008830015 0.05701723 0.018323913 0.044302538
00000000: 4d00 153e 302f ec3d ced3 763e df44 6ebd
00000010: 9c27 77bc 80d9 b7bd 19b9 4dbd 790b 21bd
00000020: 8afa d53b cd22 b6ba 9fd4 ecba 39ad 00b7
00000030: 650f da39 db88 70ba 61bd b839 3751 963b
00000040: ad39 babd b84b 083d 2b3a abba 035e a2bb
00000050: c4ab 103c e68a 693d 081c 963c 9476 353d

transformer_encoder.layers.0.self_attn.out_proj.weight f4 [8, 8]
-0.30405566 0.15111808 -0.03762831 -0.09911479 0.24917445 -0.10974188 -0.15838638 0.013537991
-0.17958497 -0.1542332 -0.02221215 -0.031105172 0.18137884 0.19912195 -0.0020628893 -0.013958376
-0.26882094 0.35970384 -0.0769659 0.173159 -0.04232283 -0.037390538 -0.22579996 0.05718826
-0.13014226 0.20415567 0.22698717 -0.06024866 0.09375263 -0.1340502 -0.10309526 -0.06396815
-0.0072712023 0.078225166 0.3086458 -0.048668757 0.29288715 0.07883015 -0.142168 0.108982176
0.21214136 0.1665854 -0.028979514 0.008986464 0.4186237 0.07188676 -0.15931736 -0.104480304
-0.20723039 0.08033375 -0.025716046 -0.15124677 0.18353781 -0.07822934 0.0635066 0.27163368
0.25020283 -0.1316036 -0.027362026 0.08711286 -0.05457679 0.19492278 -0.32976228 -0.16372706
00000000: 2fad 9bbe b3be 1a3e 2520 1abd b2fc cabd
00000010: 9627 7f3e 5ac0 e0bd 0a30 22be 73ce 5d3c
00000020: 1fe5 37be 4fef 1dbe 41f6 b5bc 46d0 febc
00000030: 60bb 393e a0e6 4b3e 8a31 07bb acb1 64bc
00000040: e6a2 89be 1a2b b83e 4ca0 9dbd 9850 313e
00000050: b45a 2dbd d226 19bd 1b38 67be 3d3e 6a3d
00000060: 0344 05be 2f0e 513e 536f 683e 4dc7 76bd
00000070: 6101 c03d 7544 09be 9c23 d3bd bc01 83bd
00000080: 4443 eebb 8434 a03d d306 9e3e e458 47bd
00000090: 4ef5 953e b471 a13d 7d94 11be 0c32 df3d
000000a0: 963b 593e 5d95 2a3e 7266 edbc f63b 133c
000000b0: d855 d63e 5e39 933d 1724 23be c5f9 d5bd
000000c0: 3434 54be 0586 a43d 75aa d2bc 6fe0 1abe
000000d0: 56f1 3b3e b436 a0bd c00f 823d 9213 8b3e
000000e0: 961a 803e 18c3 06be 5426 e0bc 3a68 b23d
000000f0: ea8b 5fbd d699 473e 9ad6 a8be 11a8 27be

transformer_encoder.layers.0.self_attn.out_proj.bias f4 [8]
-0.059707735 0.07002077 0.17963722 0.032300927 -0.014844152 0.024800388 -0.054731954 -0.09401354
00000000: 1990 74bd 0d67 8f3d d2f2 373e fa4d 043d
00000010: e334 73bc 2f2a cb3c 9d2e 60bd 2c8a c0bd

transformer_encoder.layers.0.linear1.weight f4 [16, 8]
-0.1670349 -0.4190329 -0.47611955 0.25113937 -0.012298682 0.090891145 -0.21094668 0.20091489
-0.012763247 -0.29228672 -0.47623235 -0.056298643 -0.18755357 0.092469394 -0.25670376 0.35131824
0.266488 -0.030200686 0.12929605 0.3780448 -0.11246608 -0.15984899 0.033632528 -0.03180675
-0.32256907 -0.34925812 -0.06659346 -0.064936474 0.105368674 -0.24511924 0.09793994 0.18592788
0.08653123 0.30598506 -0.0073533296 0.0113460105 -0.42141283 -0.1766449 0.020687876 -0.018686457
-0.01998045 -0.18846914 -0.12773886 -0.17407975 0.07972659 0.339658 0.24111667 -0.032089986
0.17500474 -0.062315833 0.19778386 0.28972766 0.22766724 -0.1162552 -0.12767102 0.25489572
-0.1249455 -0.093302 -0.06298773 0.05399651 0.034817517 0.09292654 -0.104514785 -0.048636608
-0.20904034 -0.14201666 -0.20568056 0.19047567 -0.08985072 -0.12124813 -0.18229204 0.312885
0.06423695 -0.2070513 0.39840528 -0.022245837 0.24213764 0.08129029 -0.107837886 -0.2247664
0.117950074 0.0899286 -0.17487824 -0.37172642 -0.18876193 0.20260839 -0.050432004 -0.0003675453
0.24667893 -0.008214363 -0.05772884 -0.28233263 0.3981303 0.24661323 0.07828896 -0.03712695
0.26562655 -0.071330674 0.288586 0.26052967 0.34001842 -0.24965154 0.1214658 0.08417112
0.079519644 -0.11706111 0.06895763 0.08042842 0.10406648 0.28394538 -0.10227833 0.12724762
0.023026658 0.007056801 -0.20601965 -0.48582378 0.03181373 0.22820963 0.27869716 -0.12230306
0.21420443 0.24801278 0.17556205 0.12601428 -0.20805015 -0.20288922 -0.09232134 0.13233544
00000000: 320b 2bbe 7b8b d6be f1c5 f3be 5795 803e
00000010: 6980 49bc 2325 ba3d 6802 58be a2bc 4d3e
00000020: f01c 51bc 9ba6 95be bad4 f3be 6899 66bd
00000030: 0b0e 40be 9860 bd3d ad6e 83be fcdf b33e
00000040: 1d71 883e 6e67 f7bc 2f66 043e 178f c13e
00000050: 9e54 e6bd 74af 23be 43c2 093d cb47 02bd
00000060: c627 a5be f6d1 b2be 2762 88bd 6afd 84bd
00000070: 88cb d73d 8a00 7bbe bc94 c83d e163 3e3e
00000080: 4937 b13d 13aa 9c3e 33f4 f0bb 9ee4 393c
00000090: 6cc3 d7be 67e2 34be 9f79 a93c 5714 99bc
000000a0: 0aae a3bc 0efe 40be facd 02be f641 32be
000000b0: b247 a33d a7e7 ad3e 4ae7 763e ca70 03bd
000000c0: 7134 333e e33e 7fbd da87 4a3e 2f57 943e
000000d0: 9a21 693e 3517 eebd 31bc 02be b181 823e
000000e0: 6de3 ffbd 1e15 bfbd b6ff 80bd 722b 5d3d
000000f0: d09c 0e3d 4550 be3d d90b d6bd 2e37 47bd
00000100: ac0e 56be d16c 11be ed9d 52be 0e0c 433e
00000110: a703 b8bd f150 f8bd c4aa 3abe 7632 a03e
00000120: a98e 833d 4205 54be c7fb cb3e e73c b6bc
00000130: eef2 773e 867b a63d 1cda dcbd 2a29 66be
00000140: cf8f f13d 7c2c b83d 4813 33be ed52 bebe
00000150: cf4a 41be 9378 4f3e ca91 4ebd 18b3 c0b9
00000160: 6799 7c3e 8995 06bc 1375 6cbd e78d 90be
00000170: bcd7 cb3e 2e88 7c3e f655 a03d 6e12 18bd
00000180: 3400 883e d115 92bd 8bc1 933e 2564 853e
00000190: e516 ae3e a7a4 7fbe 10c3 f83d e861 ac3d
000001a0: 32db a23d bcbd efbd a839 8d3d a8b7 a43d
000001b0: cf20 d53d 4a61 913e 4d77 d1bd 334d 023e
000001c0: 67a2 bc3c bd3c e73b d1f6 52be e5bd f8be
000001d0: 1d4f 023d c9af 693e 65b1 8e3e 077a fabd
000001e0: 6858 5b3e 10f7 7d3e 8ac6 333e e309 013e
000001f0: 190b 55be 31c2 4fbe f912 bdbd f182 073e

transformer_encoder.layers.0.linear1.bias f4 [16]
-0.04847671 -0.42363244 -0.2676818 0.019366747 -0.38603303 -0.27807438 0.25981054 -0.20831783
-0.0128516555 0.082705945 -0.18220857 0.19673307 -0.076789014 -0.21534202 -0.28994387 -0.039324306
00000000: 848f 46bd 5ae6 d8be 970d 89be 03a7 9e3c
00000010: 1fa6 c5be c45f 8ebe e305 853e 4551 55be
00000020: c08f 52bc bc61 a93d e294 3abe 6574 493e
00000030: 8f43 9dbd 9e82 5cbe 8673 94be 8612 21bd

transformer_encoder.layers.0.linear2.weight f4 [8, 16]
-0.26925987 0.045051534 -0.29375952 0.09572679 0.21868674 0.043698676 -0.09236934 -0.1265314
-0.05975414 -0.09153564 -0.15898189 -0.021278413 0.069485635 -0.2837502 0.12317527 -0.036261644
-0.45972472 -0.4439893 -0.19536975 -0.042760886 -0.09845151 0.17899244 -0.16360565 -0.11859996
-0.27492452 -0.19966711 0.091887474 0.45028508 -0.15572517 -0.02718174 0.2991573 0.108115666
0.3025466 0.24070273 -0.09425378 0.19498359 -0.13606742 -0.23003745 0.13914706 -0.058017343
0.036441512 -0.07746779 -0.049025156 0.08884328 0.27425984 0.11962162 -0.04045844 -0.13618949
0.047483657 0.1562422 0.23312278 0.13083869 0.074632004 -0.117213994 0.089157745 -0.0015468536
0.07297971 -0.10905309 -0.00278285 -0.012006865 0.23729248 0.12843363 -0.07516133 0.012064143
-0.2452123 -0.15039906 0.1368772 -0.17998664 -0.27804217 0.041163787 0.011460871 0.066454545
0.035095863 -0.12276626 0.075082295 0.022303699 0.14742349 0.18778391 0.18702114 -0.059183888
-0.10108808 -0.11264059 -0.10045118 0.22004727 -0.3023193 -0.18556704 -0.12185245 -0.022631679
0.04317936 -0.04368491 0.11108529 0.293117 0.08110586 -0.061092857 0.0017160748 -0.09380502
-0.01597931 0.09167128 0.23107876 -0.23155932 -0.00038894732 -0.24013425 0.008153721 -0.065251045
0.07893021 -0.21347766 0.015476896 0.09189237 0.07148462 0.07987386 0.103894465 -0.11002638
0.14817938 0.27592555 0.17439902 0.03868684 0.34590873 -0.06558673 -0.06306838 -0.13472974
0.09434582 -0.12736806 -0.14812508 -0.14595257 0.08888441 -0.20210326 -0.24747299 0.03401068
00000000: 6edc 89be f587 383d a667 96be 680c c43d
00000010: 6bef 5f3e 62fd 323d 232c bdbd 7391 01be
00000020: c2c0 74bd 0a77 bbbd 26cc 22be 1150 aebc
00000030: 7c4e 8e3d b547 91be 5143 fc3d 1787 14bd
00000040: 0a61 ebbe 9152 e3be 020f 48be 0a26 2fbd
00000050: f2a0 c9bd cb49 373e 3d88 27be 89e4 f2bd
00000060: e8c2 8cbe 8975 4cbe 802f bc3d c48b e63e
00000070: 6b76 1fbe 3eac debc 252b 993e bf6b dd3d
00000080: 63e7 9a3e c77a 763e 2008 c1bd c7a9 473e
00000090: 4255 0bbe f08e 6bbe 917c 0e3e 98a3 6dbd
000000a0: b243 153d 6fa7 9ebd 9ace 48bd 77f3 b53d
000000b0: c96b 8c3e 2efc f43d c0b7 25bd 4275 0bbe
000000c0: 397e 423d f5fd 1f3e bdb7 6e3e 94fa 053e
000000d0: aad8 983d e40d f0bd 5698 b63d cbbf caba
000000e0: 6376 953d 3a57 dfbd 7a60 36bb 71b8 44bc
000000f0: cdfc 723e 1b84 033e 2fee 99bd afa8 453c
00000100: ef18 7bbe 3602 1abe 8929 0c3e 6b4e 38be
00000110: 8b5b 8ebe 5c9b 283d 61c6 3b3c 5219 883d
00000120: aec0 0f3d e06c fbbd bfc4 993d 3fb6 b63c
00000130: 2ff6 163e 6d4a 403e 7882 3f3e ce6a 72bd
00000140: 4407 cfbd 1cb0 e6bd 59b9 cdbd 1254 613e
00000150: 98c9 9abe 4905 3ebe c78d f9bd 1266 b9bc
00000160: d7dc 303d f3ee 32bd af80 e33d 6e13 963e
00000170: d41a a63d 813c 7abd eaed e03a d91c c0bd
00000180: 0be7 82bc 27be bb3d e99f 6c3e e31d 6dbe
00000190: a0eb cbb9 c1e5 75be 2f97 053c 57a2 85bd
000001a0: 29a6 a13d e399 5abe cf92 7d3c 1132 bc3d
000001b0: 8766 923d e894 a33d 9fc6 d43d 8355 e1bd
000001c0: 56bc 173e 1d46 8d3e a895 323e 1876 1e3d
000001d0: f31a b13e 5652 86bd ff29 81bd 98f6 09be
000001e0: 6238 c13d c66c 02be 1aae 17be 9774 15be
000001f0: 0809 b63d 28f4 4ebe 8f69 7dbe c84e 0b3d

transformer_encoder.layers.0.linear2.bias f4 [8]
-0.04061577 -0.0911487 0.22461554 -0.055193063 0.038175475 0.13123466 -0.07507326 0.051790718
00000000: b95c 26bd 2bac babd 9e01 663e 1f12 62bd
00000010: e35d 1c3d 6162 063e 02c0 99bd 8122 543d

transformer_encoder.layers.0.norm1.weight f4 [8]
0.90785384 0.98204404 0.60268 1.4457985 1.074819 0.92886645 0.7175708 1.1360772
00000000: 1c69 683f 3d67 7b3f 3d49 1a3f ed0f b93f
00000010: ab93 893f 31ca 6d3f b8b2 373f fa6a 913f

transformer_encoder.layers.0.norm1.bias f4 [8]
-0.4414029 -0.0020917046 0.27591366 0.11709569 0.09576922 0.19846405 -0.17590098 -0.20879507
00000000: 90ff e1be fb14 09bb 8e44 8d3e ddcf ef3d
00000010: a722 c43d 293a 4b3e 631f 34be 60ce 55be

transformer_encoder.layers.0.norm2.weight f4 [8]
0.5194164 0.77653706 0.5929667 0.82546645 0.8370723 0.854363 0.6540774 0.836538
00000000: 79f8 043f 22cb 463f aacc 173f c551 533f
00000010: 5f4a 563f 89b7 5a3f 9e71 273f 5b27 563f

transformer_encoder.layers.0.norm2.bias f4 [8]
0.2342708 -0.02679773 -0.21768478 -0.07158359 0.055891387 -0.32185954 0.057976294 0.05001207
00000000: afe4 6f3e ea86 dbbc c2e8 5ebe 6b9a 92bd
00000010: 5eee 643d c6ca a4be 8d78 6d3d 75d9 4c3d

embedding.0.bias f4 [8]
-0.05759802 -0.3464587 0.52257395 0.5106203 -0.06038103 0.09605606 0.24854404 -0.6575483
00000000: e7eb 6bbd 0963 b1be 68c7 053f 03b8 023f
00000010: 1952 77bd 0ab9 c43d 5482 7e3e 1655 28bf

embedding.0.weight_g f4 [8, 1]
0.09649294 0.78968984 0.14178906 0.38004026 0.72579455 0.79252005 0.33945143 0.59631866
00000000: 179e c53d 1d29 4a3f 2731 113e a394 c23e
00000010: accd 393f 98e2 4a3f 94cc ad3e 57a8 183f

embedding.0.weight_v f4 [8, 1]
-0.071801715 0.7651282 -0.1948245 -0.44087842 -0.8207366 -0.82795614 -0.36740696 0.51166445
00000000: c70c 93bd 71df 433f 1380 47be d1ba e1be
00000010: cb1b 52bf eff4 53bf c41c bcbe 71fc 023f

embedding.1.bias f4 [8]
-0.14337835 0.39253175 -0.20672894 1.0326464 0.21920851 -0.58178574 0.69636685 -0.49634144
00000000: c6d1 12be ecf9 c83e c0b0 53be c22d 843f
00000010: 3278 603e e9ef 14bf 1945 323f 7720 febe

embedding.1.weight_g f4 [8, 1]
0.36157757 0.36562407 0.06865646 0.3842033 0.09676932 0.9760077 0.8351102 0.670103
00000000: b220 b93e 1433 bb3e c29b 8c3d 4cb6 c43e
00000010: fe2e c63d a4db 793f c8c9 553f df8b 2b3f

embedding.1.weight_v f4 [8, 1]
-0.090799086 0.2857116 -0.39542282 0.25273663 -0.37040293 0.900884 -0.9024331 0.9377736
00000000: dff4 b9bd ca48 923e dc74 cabe b266 813e
00000010: 74a5 bdbe 55a0 663f db05 67bf ee11 703f

embedding.2.bias f4 [8]
-0.583411 0.6215088 -1.1090364 -0.8976604 -0.14553289 -1.0056341 0.009005886 -0.38203862
00000000: 6c5a 15bf 331b 1f3f e8f4 8dbf 12cd 65bf
00000010: 9306 15be 9eb8 80bf 6c8d 133c 919a c3be

embedding.2.weight_g f4 [8, 1]
0.12844867 0.44780225 0.22197662 0.7365044 0.16685753 0.88916373 0.23490311 0.09016012
00000000: 0c88 033e 5646 e53e d74d 633e 8d8b 3c3f
00000010: b3dc 2a3e 3ca0 633f 718a 703e dea5 b83d

embedding.2.weight_v f4 [8, 1]
-0.12987824 0.5530762 0.17065483 0.73612756 0.23852012 0.7642286 -0.28688848 0.06695166
00000000: cdfe 04be 6796 0d3f 24c0 2e3e db72 3c3f
00000010: 9e3e 743e 7ca4 433f 0ce3 92be f41d 893d

embedding.3.bias f4 [8]
-0.979685 -0.6881454 0.8319038 -0.16780609 -0.9050801 0.31532064 0.61597234 -0.07018024
00000000: a3cc 7abf 4c2a 30bf a6f7 543f 5cd5 2bbe
00000010: 54b3 67bf b571 a13e 5db0 1d3f a8ba 8fbd

embedding.3.weight_g f4 [8, 1]
1.2984303 0.22593503 -0.124981485 -0.40488186 -0.035180416 1.61261 0.634657 0.7180412
00000000: f732 a63f 835b 673e 4bf6 ffbd ad4c cfbe
00000010: 5719 10bd 016a ce3f e278 223f 8cd1 373f

embedding.3.weight_v f4 [8, 1]
0.9502552 -0.79298574 0.4750839 0.17489332 -0.62437487 0.99792993 0.34219047 0.7995655
00000000: ed43 733f 1d01 4bbf 323e f33e 3c17 333e
00000010: 08d7 1fbf 5678 7f3f 9733 af3e 53b0 4c3f

embedding.4.bias f4 [8]
0.08343989 -0.020820107 -0.64989 -0.3510928 -0.60981864 -0.7519141 0.6761476 -0.34925365
00000000: 88e2 aa3d ee8e aabc 315f 26bf 6fc2 b3be
00000010: 131d 1cbf 717d 40bf 0218 2d3f 60d1 b2be

embedding.4.weight_g f4 [8, 1]
0.7411683 0.0039099483 -0.09887535 0.5220769 0.752247 0.6360439 -0.12969738 0.72605354
00000000: 35bd 3d3f 061f 803b 297f cabd d5a6 053f
00000010: 4293 403f c6d3 223f 64cf 04be a5de 393f

embedding.4.weight_v f4 [8, 1]
0.7322671 -0.09941058 -0.042749695 -0.3767131 -0.64422226 -0.8716953 0.020194901 -0.90781945
00000000: db75 3b3f c697 cbbd 4e1a 2fbd 8ae0 c0be
00000010: c0eb 24bf 6c27 5fbf c76f a53c db66 68bf

embedding.5.bias f4 [8]
-0.03569933 0.18502122 -0.63985205 -0.18393129 -0.1691181 -1.1096241 -0.123875715 0.3151784
00000000: 7639 12bd 3476 3d3e 58cd 23bf 7c58 3cbe
00000010: 4c2d 2dbe 2a08 8ebf 8db2 fdbd 105f a13e

embedding.5.weight_g f4 [8, 1]
0.06171438 0.12604503 0.080777496 0.9907441 0.5314344 0.8733829 0.8872435 0.15302889
00000000: 38c8 7c3d f311 013e ac6e a53d 68a1 7d3f
00000010: 160c 083f 0696 5f3f 6422 633f 9bb3 1c3e

embedding.5.weight_v f4 [8, 1]
0.20016359 0.109460786 0.19134857 0.9546426 0.6837437 0.8237947 0.90378374 0.22516617
00000000: aff7 4c3e fa2c e03d e1f0 433e 7563 743f
00000010: d409 2f3f 36e4 523f 5f5e 673f f691 663e

embedding.6.bias f4 [8]
-0.80441654 0.6631151 -0.471539 -0.80144155 -0.11506421 0.079758205 -0.43206754 -0.58068603
00000000: 3eee 4dbf e9c1 293f 8f6d f1be 462b 4dbf
00000010: c9a6 ebbd 4558 a33d f537 ddbe d7a7 14bf

embedding.6.weight_g f4 [8, 1]
0.335827 0.40518627 0.20312117 0.8915773 0.6532198 0.7378123 0.9473185 0.3004637
00000000: 84f1 ab3e 9374 cf3e fffe 4f3e 693e 643f
00000010: 6a39 273f 44e1 3c3f 7783 723f 61d6 993e

embedding.6.weight_v f4 [8, 1]
0.044746693 0.66369325 -0.080766276 0.54864573 -0.40719107 -0.3596292 -0.6300071 0.022539092
00000000: 4f48 373d cde7 293f ca68 a5bd 0c74 0c3f
00000010: 597b d0be 5221 b8be 2548 21bf e7a3 b83c

embedding.7.bias f4 [8]
0.54511327 -1.0516411 0.63284445 1.1524969 0.15718234 -0.15436916 1.0296413 0.14022002
00000000: 8b8c 0b3f 2d9c 86bf 1802 223f 0585 933f
00000010: 68f4 203e f312 1ebe 49cb 833f d695 0f3e

embedding.7.weight_g f4 [8, 1]
0.6768934 0.39893708 0.81879795 0.1369686 0.40396163 0.29656118 0.7176791 0.3517709
00000000: e348 2d3f 7b41 cc3e be9c 513f 7f41 0c3e
00000010: 0fd4 ce3e ded6 973e d1b9 373f 511b b43e

embedding.7.weight_v f4 [8, 1]
-0.8512865 0.4201586 -0.94662684 -0.07142787 0.5827694 -0.41452625 -0.6717212 -0.39439574
00000000: e9ed 59bf 071f d73e 2356 72bf c648 92bd
00000010: 6030 153f c93c d4be ecf5 2bbf 3dee c9be

embedding.8.bias f4 [8]
0.7898174 -1.0405717 0.44977093 -0.45405644 -0.35361397 1.188782 0.35430312 -0.6949258
00000000: 7931 4a3f 7431 85bf 6048 e63e 167a e8be
00000010: e40c b5be 022a 983f 3867 b53e a8e6 31bf

embedding.8.weight_g f4 [8, 1]
0.4157592 -0.06752729 0.1499883 0.59651273 1.2043077 0.5822408 0.14156741 0.18810183
00000000: 64de d43e bf4b 8abd 8896 193e 0fb5 183f
00000010: c126 9a3f bc0d 153f 0cf7 103e c49d 403e

embedding.8.weight_v f4 [8, 1]
-0.36256665 -0.027778378 0.36072835 0.37497124 -0.9307295 -0.51387614 0.5998077 -0.29286557
00000000: 56a2 b9be 7b8f e3bc 63b1 b83e 3bfc bf3e
00000010: 4a44 6ebf 638d 03bf ff8c 193f 7af2 95be

embedding.9.bias f4 [8]
-0.51540035 0.0725376 -0.83925 0.13355905 0.7174626 -0.47778195 0.5249827 0.20789896
00000000: 47f1 03bf 988e 943d 17d9 56bf b4c3 083e
00000010: a1ab 373f d69f f4be 4465 063f 77e3 543e

embedding.9.weight_g f4 [8, 1]
0.6692283 0.14128785 0.14504276 0.7328016 0.14396237 0.06368536 0.2385077 0.16445036
00000000: 8c52 2b3f c3ad 103e 1786 143e e398 3b3f
00000010: df6a 133e 786d 823d 5d3b 743e ad65 283e

embedding.9.weight_v f4 [8, 1]
0.4903297 0.19628558 -0.11812493 -0.50377953 -0.031130847 0.031540472 0.2995831 0.22906724
00000000: 7f0c fb3e 16ff 483e 7ceb f1bd b2f7 00bf
00000010: 1e06 ffbc 9530 013d f562 993e 9a90 6a3e

embedding.10.bias f4 [8]
-0.8798967 0.5370326 0.6207181 -0.3536005 0.7724518 0.26835212 -0.4225521 0.68243766
00000000: e940 61bf f87a 093f 62e7 1e3f 200b b5be
00000010: 67bf 453f 7365 893e c058 d8be 3cb4 2e3f

embedding.10.weight_g f4 [8, 1]
0.42888957 0.31364468 0.21642365 1.0550911 0.79474115 -0.07905347 0.43131235 -0.27528092
00000000: 6a97 db3e 0996 a03e 299e 5d3e 3a0d 873f
00000010: 2874 4b3f c9e6 a1bd f9d4 dc3e 9ff1 8cbe

embedding.10.weight_v f4 [8, 1]
0.34975085 0.5909841 0.5094713 0.7329872 -0.27963486 0.23456304 -0.68825006 0.31145117
00000000: 8b12 b33e bc4a 173f b66c 023f 0da5 3b3f
00000010: 4d2c 8fbe 4b31 703e 2831 30bf 8776 9f3e

embedding.11.bias f4 [8]
0.21004227 -0.20624183 0.53781575 -0.5723356 0.007904059 0.1256757 0.62821805 0.68185216
00000000: 5215 573e 0f31 53be 4bae 093f 9684 12bf
00000010: 0780 013c 21b1 003e e6d2 203f dd8d 2e3f

embedding.11.weight_g f4 [8, 1]
1.5949903 2.135928 -0.21189971 -1.5010215 -1.1976433 1.6200435 0.95467365 1.4347531
00000000: a428 cc3f 0bb3 0840 3dfc 58be 7921 c0bf
00000010: 604c 99bf 965d cf3f 7e65 743f fda5 b73f

embedding.11.weight_v f4 [8, 1]
0.32040137 -0.76616603 0.63103753 0.0059441645 0.4543176 -0.1501518 0.12808032 -0.055243056
00000000: a60b a43e 7523 44bf ad8b 213f 44c7 c23b
00000010: 519c e83e 65c1 19be 7d27 033e 8b46 62bd

embedding.12.bias f4 [8]
0.65296364 0.2692946 0.005576206 0.05837162 0.31761864 0.8450204 0.5632984 0.5642737
00000000: a028 273f fbe0 893e 9bb8 b63b 1417 6f3d
00000010: e99e a23e 4253 583f 5334 103f 3e74 103f

embedding.12.weight_g f4 [8, 1]
0.31907701 0.9978876 0.71007156 0.8833074 0.71554923 0.33672333 0.6028077 0.9026068
00000000: 105e a33e 9075 7f3f 40c7 353f 6f20 623f
00000010: 3c2e 373f 0067 ac3e 9b51 1a3f 3d11 673f

embedding.12.weight_v f4 [8, 1]
0.44158435 -0.7974748 0.6575608 0.73157513 -0.82056737 -0.22904094 -0.7607487 0.81430835
00000000: 5817 e23e 4f27 4cbf e855 283f 8248 3b3f
00000010: b410 52bf b589 6abe 6dc0 42bf 8376 503f

embedding.13.bias f4 [8]
-0.972615 0.1617608 0.35174242 0.055582248 0.52584624 -0.004066843 0.075783215 -0.6755727
00000000: 4cfd 78bf a0a4 253e 9517 b43e 36aa 633d
00000010: dc9d 063f 2743 85bb 3b34 9b3d 55f2 2cbf

embedding.13.weight_g f4 [8, 1]
0.72722137 -0.2153922 0.12542395 0.101834275 0.73796934 -0.046522234 -0.054087818 0.5041233
00000000: 2e2b 3a3f c68f 5cbe 236f 003e 7d8e d03d
00000010: 8feb 3c3f 198e 3ebd 308b 5dbd 390e 013f

embedding.13.weight_v f4 [8, 1]
0.41631058 0.015702749 0.18380545 0.0530321 0.52051747 0.19007151 -0.09031415 0.639537
00000000: a926 d53e 0da3 803c 7f37 3c3e 3038 593d
00000010: a240 053f 1ba2 423e a0f6 b8bd b2b8 233f

embedding.14.bias f4 [8]
-0.04642996 -0.25693122 -0.42148063 -0.19944683 -0.73415804 -0.284834 -0.9474325 -0.28265235
00000000: 572d 3ebd 7d8c 83be 4fcc d7be ca3b 4cbe
00000010: c8f1 3bbf c3d5 91be f08a 72bf cfb7 90be

embedding.14.weight_g f4 [8, 1]
0.32310048 0.9046057 0.9248425 -0.020459637 1.2792448 0.85523176 0.24373484 0.9834175
00000000: 6d6d a53e 3d94 673f 7ac2 6c3f f89a a7bc
00000010: 4bbe a33f 78f0 5a3f a095 793e 40c1 7b3f

embedding.14.weight_v f4 [8, 1]
0.7111413 0.666124 0.622317 0.24493659 0.97426397 0.75919956 0.3562479 0.6810649
00000000: 5b0d 363f 1a87 2a3f 2b50 1f3f a8d0 7a3e
00000010: 5d69 793f e75a 423f 2066 b63e 455a 2e3f

embedding.15.bias f4 [8]
0.08788177 -0.6597208 0.08439608 -0.8718566 -0.7443521 0.379044 0.017790027 -0.26352364
00000000: 5cfb b33d 76e3 28bf dad7 ac3d fe31 5fbf
00000010: dc8d 3ebf 0e12 c23e 64bc 913c 92ec 86be

embedding.15.weight_g f4 [8, 1]
0.250859 0.60918635 0.092998214 0.5765454 0.23843962 0.8815015 0.6267302 0.86605877
00000000: 9770 803e a3f3 1b3f d975 be3d 7b98 133f
00000010: 8429 743e 15aa 613f 6471 203f 07b6 5d3f

embedding.15.weight_v f4 [8, 1]
0.83530325 -0.45797363 0.23777363 0.32252058 -0.16001117 -0.6488032 -0.4981467 0.7184192
00000000: 6fd6 553f 857b eabe ee7a 733e 6b21 a53e
00000010: f8d9 23be f717 26bf 160d ffbe 52ea 373f

embedding.16.bias f4 [8]
-0.22615592 -0.09880587 -0.52706814 -0.33345917 0.080426544 0.35558465 0.6755105 -0.16158424
00000000: 6b95 67be bb5a cabd f0ed 06bf 29bb aabe
00000010: acb6 a43d 310f b63e 42ee 2c3f 5776 25be

embedding.16.weight_g f4 [8, 1]
0.9414718 0.5443544 1.0029778 1.1610876 1.1138481 0.021900093 -0.036342993 1.3106015
00000000: 4c04 713f cf5a 0b3f 9461 803f 859e 943f
00000010: 9392 8e3f d367 b33c 64dc 14bd cac1 a73f

embedding.16.weight_v f4 [8, 1]
-0.47733077 -0.24587634 -0.9461324 0.68744105 -0.5708425 0.30085692 0.18815051 0.93557715
00000000: b364 f4be 02c7 7bbe bc35 72bf 23fc 2f3f
00000010: bc22 12bf eb09 9a3e 87aa 403e fc81 6f3f

embedding.17.bias f4 [8]
0.5635014 0.35941294 -0.45950937 0.13780585 0.2673466 0.78292733 -0.39562684 -0.8821277
00000000: a141 103f f904 b83e d044 ebbe fa1c 0d3e
00000010: a7e1 883e ed6d 483f 9a8f cabe 1fd3 61bf

embedding.17.weight_g f4 [8, 1]
0.49972078 0.5233379 0.13913032 -0.13524377 1.0549865 1.0833626 0.10686483 0.4936186
00000000: 67db ff3e 79f9 053f 2e78 0e3e 587d 0abe
00000010: cc09 873f a0ab 8a3f f3db da3d 94bb fc3e

embedding.17.weight_v f4 [8, 1]
-0.12959339 -0.50979763 0.062564276 -0.03380988 -0.83799404 -0.96792066 -0.0866777 0.67722905
00000000: 21b4 04be 1982 02bf b321 803d 3b7c 0abd
00000010: c786 56bf a6c9 77bf 1484 b1bd e25e 2d3f

embedding.18.bias f4 [8]
0.638106 0.7606331 -0.33978727 -0.7795483 0.51132977 -0.49817598 0.5095296 0.2655606
00000000: ea5a 233f dab8 423f 99f8 adbe 7a90 47bf
00000010: 82e6 023f ec10 ffbe 8870 023f 8ff7 873e

embedding.18.weight_g f4 [8, 1]
0.7229179 1.210626 0.2954986 0.7733549 1.2294465 0.49250072 0.11976471 0.98585135
00000000: 2611 393f cbf5 9a3f 984b 973e 96fa 453f
00000010: 815e 9d3f 0e29 fc3e 3347 f53d c160 7c3f

embedding.18.weight_v f4 [8, 1]
-0.4042481 -0.7247035 -0.41146365 0.19031973 -0.7607113 -0.2983854 0.4593446 0.5533873
00000000: 9bf9 cebe 2b86 39bf 5dab d2be 2de3 423e
00000010: fabd 42bf f9c5 98be 372f eb3e caaa 0d3f

decoder.weight f4 [1, 152]
0.05847301 -0.038775973 -0.027153445 -0.088180184 0.07448322 0.0825509 0.05113741 0.00012691857
0.05204268 0.039872024 0.041344766 -0.047109473 0.04509221 0.07421923 -0.030799886 0.048069067
0.0067569087 -0.02733054 0.05590877 -0.031897657 -0.120526634 -0.06511942 0.015178654 -0.08078242
-0.0060563507 0.03437883 0.07491169 0.10112061 0.003785815 -0.11052116 -0.015295799 0.03064928
-0.045921408 0.014522943 0.018661058 0.008719371 0.017452704 -0.009978004 0.06108947 0.0016624837
0.0030247185 0.02540993 -0.035197597 0.032820206 0.056084268 -0.041728683 0.015804594 -0.017135415
-0.101139694 -0.052749332 0.06256546 -0.10788671 0.109781004 0.12692225 0.17798795 0.0016025414
-0.016184535 0.06590828 0.053817514 0.06673708 0.06456305 -0.0318837 0.024029933 -0.040378034
-0.01994803 0.14293686 -0.08523981 -0.035055 0.07781265 -0.14682664 -0.034679193 0.023544965
0.3125663 0.08623 0.08071868 -0.098606445 -0.034122642 0.05091228 0.075942226 0.008541739
0.04195516 -0.03215863 -0.103886686 0.114562094 -0.095245436 -0.0059111626 0.037380017 -0.030458536
-0.19813424 0.10574133 0.04738212 -0.05750252 0.053570118 0.11539403 -0.01423475 0.09465406
0.012818049 0.13186516 -0.116678886 -0.165843 0.054692246 0.13532455 0.06007839 -0.10431433
-0.060262587 -0.0075925533 -0.012770993 -0.009737056 -0.020007472 0.027132073 -0.021455795 0.011576707
0.08425713 -0.06771816 0.009779215 0.20720688 -0.22160733 0.01747546 -0.017319817 -0.051690914
-0.0033821294 -0.024689358 -0.04935455 0.12858196 -0.018080892 -0.15873733 -0.0991302 0.009595827
0.10915302 0.032382604 0.021968177 -0.07861624 0.052587163 -0.15067148 -0.1116862 -0.053918708
-0.06400136 -0.03265605 -0.10305559 -0.11836388 0.057335015 0.012466853 0.00071104395 0.024792077
0.09258492 0.18474995 0.053996123 -0.14414936 0.23534583 0.06675556 -0.083692804 -0.25688094
00000000: 6581 6f3d 8ed3 1ebd e770 debc d097 b4bd
00000010: a98a 983d 7210 a93d 7675 513d 7215 0539
00000020: b52a 553d d950 233d 2159 293d ddf5 40bd
00000030: 9cb2 383d 4000 983d 0b50 fcbc 12e4 443d
00000040: 0f69 dd3b 4ce4 dfbc 9800 653d 1ea7 02bd
00000050: abd6 f6bd 555d 85bd e4af 783c 4171 a5bd
00000060: 5a74 c6bb d1d0 0c3d 4d6b 993d 5318 cf3d
00000070: 701b 783b eb58 e2bd 3b9b 7abc 3314 fb3c
00000080: 1618 3cbd a3f1 6d3c 13df 983c b1db 0e3c
00000090: f9f8 8e3c c87a 23bc f438 7a3d b2e7 d93a
000000a0: 5b3a 463b 7c28 d03c 5b2b 10bd 7b6e 063d
000000b0: 9eb8 653d b2eb 2abd a378 813c 925f 8cbc
000000c0: 5422 cfbd af0f 58bd 5222 803d b5f3 dcbd
000000d0: ddd4 e03d e8f7 013e 7942 363e 5e0c d23a
000000e0: 6e95 84bc ecfa 863d c16f 5c3d 73ad 883d
000000f0: a239 843d 7c98 02bd 6cda c43c 7063 25bd
00000100: 0d6a a3bc 0a5e 123e 3692 aebd d595 0fbd
00000110: 3d5c 9f3d b959 16be c50b 0ebd 5fe1 c03c
00000120: b108 a03e 5b99 b03d d64f a53d 2df2 c9bd
00000130: 2fc4 0bbd 6589 503d 9987 9b3d a6f2 0b3c
00000140: 2dd9 2b3d c5b8 03bd 8bc2 d4bd 889f ea3d
00000150: 0a10 c3bd 6db2 c1bb ca1b 193d 2e84 f9bc
00000160: b4e3 4abe e98e d83d c113 423d c387 6bbd
00000170: 576c 5b3d b553 ec3d de38 69bc fdd9 c13d
00000180: cb02 523c a907 073e 57f5 eebd bfd2 29be
00000190: fa04 603d 8592 0a3e c214 763d c0a2 d5bd
000001a0: e7d5 76bd f4ca f8bb 6d3d 51bc 2c88 1fbc
000001b0: b6e6 a3bc 1544 de3c 10c4 afbc 3aac 3d3c
000001c0: 018f ac3d d2af 8abd 0039 203c 0a2e 543e
000001d0: 08ed 62be b228 8f3c 4ae2 8dbc dab9 53bd
000001e0: b7a6 5dbb 5641 cabc ff27 4abd fdaa 033e
000001f0: 611e 94bc 0a8c 22be c604 cbbd d137 1d3c
00000200: 9e8b df3d 9fa3 043d 9bf6 b33c 8d01 a1bd
00000210: a365 573d a049 1abe bcbb e4bd ddd9 5cbd
00000220: 2513 83bd 5ac2 05bd cf0e d3bd c368 f2bd
00000230: 1fd8 6a3d c541 4c3c 5a65 3a3a c118 cb3c
00000240: 2a9d bd3d 172f 3d3e 0a2b 5d3d e49b 13be
00000250: 7ffe 703e 24b7 883d 2267 abbd e685 83be
