bank/Models/nn/0.9018_1/params.pt (torch_old, 53354 bytes, 7 tensors)

linears.0.weight f4 [128, 19]
000000 16 3f 16 be b1 cc 56 be 44 eb 3e be d3 cb 06 be
       -0.14672503 -0.20976521 -0.18644434 -0.1316369
000010 c7 bc dc 3c 7d 67 d4 38 f0 a0 0c bc a5 58 05 bd
       0.026945485 0.00010128224 -0.008583292 -0.03255524
000020 29 b1 c0 bd e7 e0 4e 3e b3 cb 51 3e 0c 48 38 3d
       -0.094087906 0.20202981 0.20487861 0.044990584
000030 36 28 ff 3c 26 12 fd 3d 8a 31 be bd d9 a7 7c be
       0.031147104 0.12356977 -0.092867926 -0.24673404
000040 52 63 d8 3d a3 e2 62 bd 4b ba 52 3e 94 1a fa 3c
       0.10565819 -0.05539192 0.20578878 0.030530252
000050 0d 4e 6d 3e 16 d0 66 3b 16 e8 83 3d e5 4c 4e 3e
       0.23174305 0.0035219244 0.06440751 0.2014652
000060 92 4a 82 bc 90 68 72 be dd 5c 27 bd 03 2e dc 3d
       -0.015904699 -0.236727 -0.040860046 0.107509635
000070 74 e2 b5 3e 1c 9a 7b bc ad 18 8d be f7 d5 7f be
       0.35524333 -0.015356567 -0.2755789 -0.24983965
000080 3d 14 c0 3d 26 6b 4e bd fd e5 49 3b 64 f9 92 3e
       0.0937886 -0.050395153 0.003080725 0.28705895
000090 09 b6 a1 be 46 b8 b0 be d2 74 9d 3d dd 73 04 3e
       -0.31584194 -0.3451559 0.07688297 0.12934823
0000a0 d2 62 8d 3c 6a 5f 1f 3e c5 f4 71 3d 86 2f c7 3d
       0.017259035 0.15563741 0.05907132 0.09725861
0000b0 b4 66 3c be 57 0c a5 be a6 89 0c 3d 30 ec fe 3d
       -0.18398553 -0.32235977 0.03431096 0.12447393
0000c0 ed 9e 56 be 4c 1d 49 bd 81 64 4a 3e f5 92 21 bd
       -0.20959063 -0.049100205 0.19764902 -0.03944679
0000d0 2e b3 3e 3e 1a a9 01 be 78 86 5e be 02 40 92 3d
       0.18623039 -0.12662163 -0.21730983 0.07141115
0000e0 e4 38 6d bd b8 4b 11 3e d2 6b 3a be ff 07 34 be
       -0.057915583 0.1418904 -0.18205193 -0.17581175
0000f0 31 a2 82 3e 84 cd 57 3d fe 4f ac 3d 88 ed c9 3d
       0.25514367 0.05268623 0.08413695 0.098597586
000100 fa c6 8f bd e5 4e f3 bb 65 76 97 be 4b 60 8c be
       -0.07020374 -0.0074251764 -0.29582515 -0.27417216
000110 5f d1 dd 3d 35 dd 52 3e 59 fa 73 be a3 a9 0f be
       0.1083095 0.20592196 -0.23825969 -0.14029555
000120 0e 30 31 3d ef 7e 2f be a7 40 81 3e 16 e3 39 3c
       0.04325872 -0.17138265 0.25244638 0.011345645
000130 db 49 38 3e 39 77 42 be 39 46 9a bd fc bf 09 3e
       0.17996924 -0.18990792 -0.07532925 0.13452142
000140 22 60 2c 3d cb f3 5e 3e cc 8b 5d bc c2 88 29 be
       0.042083867 0.21772687 -0.0135221 -0.16556075
000150 c9 bb 05 3e 61 d7 08 be d3 0a 87 3e b5 8e 21 be
       0.13059916 -0.1336341 0.26375446 -0.15777095
000160 14 7e 1e be 26 5e a7 3d 6f 24 52 be f6 09 1f bd
       -0.15477782 0.08172254 -0.20521711 -0.03882786
000170 7a db ba 3d ab a1 0b be ff 6a a7 be a8 20 7d 3d
       0.09123893 -0.1363589 -0.3269882 0.06179872
000180 62 c3 4f bd 6e a8 19 3d 9c ac 64 bd b4 99 15 3e
       -0.05072344 0.037514143 -0.055828676 0.14609414
000190 18 1e 10 be 5f 29 c4 3d 99 53 ec bc c5 90 34 be
       -0.1407398 0.095782034 -0.028848456 -0.1763335
0001a0 d0 f7 96 3c 89 32 f2 3d 78 fb e4 3e cf da 83 3e
       0.018428713 0.11826045 0.44723105 0.25752875
0001b0 e2 14 1b 3d 96 0b 0e bd a1 42 4b 3d 03 70 1c be
       0.037861712 -0.034679018 0.04962409 -0.15277104
0001c0 1e a4 67 3e 89 87 1a 3e dd 55 e8 bb b9 5f 4f bd
       0.226212 0.15090765 -0.007090314 -0.050628398
0001d0 2c 89 57 bd d1 35 4f 3e c1 b0 a0 3e e4 58 1d 3e
       -0.05262105 0.20235373 0.31384853 0.1536594
0001e0 33 4a 23 be b4 6b fb bc 61 95 85 bd 3d 54 95 3d
       -0.15946274 -0.030691005 -0.065226324 0.07291458
0001f0 98 65 58 be 42 9c 9c 3e 3e 43 29 3e 37 e3 9e 3d
       -0.21132505 0.30587965 0.16529557 0.077581815
000200 7b b4 0d be f1 0a 2e be 13 57 63 be cd 0e f1 bd
       -0.13838379 -0.16996361 -0.22201185 -0.11770401
000210 cb ab 75 3e 82 1e 04 3e 53 e4 85 bd d2 19 18 be
       0.23991315 0.12902263 -0.0653769 -0.148536
000220 1d 05 8b 3e 71 8a b8 3d f8 ff 71 bd ab 68 e2 3b
       0.2715234 0.090107806 -0.059082 0.00690945
000230 8f 49 0c 3d 8d c6 4b 3e 1d 17 89 be 95 d3 31 be
       0.03424984 0.1989996 -0.26775447 -0.17365868
000240 6c ff d0 3e bb e8 5e 3e 2e af 72 bd d7 4a 38 3d
       0.4081987 0.21768467 -0.059249096 0.044993248
000250 b6 9f 98 be f2 38 7f be 1c 58 13 3e 29 35 b7 3e
       -0.2980935 -0.24924067 0.1438908 0.35782745
000260 e2 1c 78 3d 4b 4b 39 be f9 1f 0e 3e 96 ed b1 3d
       0.06057442 -0.18095128 0.13879384 0.08687894
000270 b3 11 26 bb c6 58 9a bd 34 8f 04 bd 2b 39 df bd
       -0.002534014 -0.075364634 -0.03236313 -0.10899576
000280 a0 b7 ad 3d 59 72 82 3d 1e 1d 90 bd 15 71 04 3f
       0.08482289 0.06369466 -0.07036804 0.5173505
000290 08 fd d3 3d a1 21 b9 bd 6e 2b 95 3e 57 f9 23 be
       0.10350996 -0.09039617 0.29134697 -0.16013084
0002a0 55 dc 8e be dc 23 3d 3e 05 76 61 3e 5c 77 24 3d
       -0.27902475 0.1847071 0.22017677 0.040152892
0002b0 02 db c2 3b 6a 98 21 be 66 42 14 3e a7 4f 83 3d
       0.005946518 -0.15780798 0.14478454 0.06411677
0002c0 99 c9 11 3e 68 09 0d be ec e3 0a 3e b9 a5 53 be
       0.1423706 -0.1377312 0.13563508 -0.20668687
0002d0 7e 74 00 3e 60 3e 30 3d 27 42 09 be dc a5 8f be
       0.12544438 0.043028235 -0.13404141 -0.28056228
0002e0 f8 2d 70 bb 29 05 91 bd 43 0b a7 3e b3 bf a5 3e
       -0.0036648493 -0.07081062 0.3262578 0.32372817
0002f0 58 d7 14 3e f4 7b 54 be a7 8a cd bd 28 e5 ca bb
       0.14535272 -0.2075041 -0.100362115 -0.0061918683
000300 f3 de 30 3d a4 b1 71 3e 79 03 1a be 73 06 d4 3d
       0.04318137 0.23602921 -0.15040387 0.103527926
000310 5a ed 19 be 32 ef d9 3d fc 10 85 bc a4 5a dc bd
       -0.15031949 0.10641326 -0.01624345 -0.10759476
000320 a5 f8 75 be e1 89 bf 3e 7b fb 04 3d 71 b3 01 bd
       -0.24020632 0.3740988 0.032466393 -0.03166527
000330 d5 1b ee bd d0 be 88 be b0 90 5c be 30 f8 8b 3a
       -0.11626402 -0.26708078 -0.21539569 0.0010678824
000340 77 62 62 3e d4 6a 71 bd 26 29 4b bd 8e b8 8e 3d
       0.22107874 -0.05893977 -0.04959979 0.06968795
000350 4a ae 18 3d df a6 76 3d 7a e6 bf bd be 29 aa 3d
       0.03727559 0.060217734 -0.09370132 0.08308743
000360 f0 05 47 be c9 d6 64 3e 84 4b f9 bd 99 ff 62 3e
       -0.19435859 0.22347559 -0.121726066 0.22167815
000370 6e ea 68 bb 17 c5 8f be dc ac 33 3e 46 02 95 bd
       -0.0035540122 -0.28080055 0.1754641 -0.07275824
000380 0b 9f 79 3d 39 d3 b0 3b e0 b7 8f be ce f9 80 3d
       0.06094269 0.0053962735 -0.28069973 0.062976465
000390 2e 0e 08 3d 8f 58 a3 bd 5d 96 4a 3d df d5 99 bd
       0.033216648 -0.079758756 0.049459804 -0.07511496
0003a0 be f7 3b be 90 8a 28 be cc 1e 36 3e 59 c4 04 bd
       -0.18356225 -0.16459107 0.17785186 -0.032413814
0003b0 9b f4 2e 3b ce d0 92 bc c5 04 db 3d 47 e8 5b 3e
       0.002669609 -0.017921831 0.10694269 0.21475326
0003c0 af b3 7e 3e 15 6d 67 3d 35 6e e0 bb 93 5b d0 bd
       0.24873231 0.056500513 -0.006849075 -0.101737164
0003d0 9a 92 eb 3d 60 1c a2 3e 5a 00 c0 3e 88 41 04 3e
       0.115025714 0.31662273 0.37500268 0.12915623
0003e0 0b 18 1e bc a0 45 de bc 6e 48 14 be c8 e1 2a 3d
       -0.009649287 -0.02713281 -0.14480755 0.041719228
0003f0 36 a7 02 be 8a 01 51 3e db c4 2d be 26 b6 0f 3e
       -0.12759098 0.20410743 -0.16969626 0.14034328

linears.0.bias f4 [128]
000000 fb 76 70 be 64 5a 8e bd 4c 23 14 3e ad 2e 8a be
       -0.23482887 -0.069508344 0.1446659 -0.26988736
000010 bb 52 bd 3d be 30 33 bc bf 46 5d 3d 6f 07 20 be
       0.09244295 -0.010936914 0.054022547 -0.15627836
000020 53 fa 41 3e 2b 27 07 3e 24 b1 05 be cc ae e5 bc
       0.18943147 0.13198535 -0.13055855 -0.028037451
000030 5c 20 ff bd 5e cc b5 bd 32 cd 5b 3e c2 5d 12 be
       -0.12457344 -0.088768706 0.21464995 -0.14293578
000040 fb 0d 1f be 7a ee 02 3e 52 73 45 bd 0e 5b e7 3d
       -0.15532677 0.12786284 -0.04820568 0.11296664
000050 59 91 47 3e 93 c6 c8 3d da c6 d2 bd fa c1 5c be
       0.1948904 0.098035 -0.10291834 -0.21558371
000060 a8 35 02 3e 11 18 1c be cf 04 da 3d 67 a3 8b 3e
       0.1271578 -0.15243556 0.106454484 0.27273104
000070 12 45 65 3e f8 15 13 be 91 d8 c1 3c 15 b9 45 3e
       0.2238963 -0.14363849 0.023662837 0.19308884
000080 50 3c f6 bc 93 8f 10 bd 6f 25 91 bd 78 d1 12 be
       -0.030058056 -0.035293173 -0.07087218 -0.14337718
000090 cd 2c 1f 3d 49 f3 fa 3c 81 30 7c 3d 3f 46 2d bd
       0.038861085 0.030633586 0.061569694 -0.04230332
0000a0 02 5c 7c bd 3b 43 3d 3e be 1c e2 3d 38 09 68 be
       -0.061611183 0.18482678 0.110406384 -0.22659767
0000b0 d4 fa b2 3d 35 47 17 be 47 82 1c be 1a a5 09 bd
       0.08739248 -0.14773257 -0.15284072 -0.03360472
0000c0 02 39 1e be e2 bd cf bd d4 41 80 3e 58 8d 32 be
       -0.15451434 -0.10143639 0.25050223 -0.17436731
0000d0 34 43 47 bd fd af 99 3c 2f 11 5b be 4b e3 88 3d
       -0.048648074 0.018760676 -0.21393274 0.06683978
0000e0 0b 40 b9 3d f3 5f 7e be 15 9f 15 3e 7d 0d 61 be
       0.09045418 -0.24841289 0.14611466 -0.21977802
0000f0 2a 9c ca bd 8e c9 b8 3d c9 6a 33 3e 6c 04 ad bd
       -0.09893067 0.090228185 0.17521204 -0.08448109
000100 27 30 21 bd 0f 7f 2e be 2d 10 b0 bd f0 68 80 3c
       -0.039352562 -0.17040657 -0.08596835 0.015675038
000110 4e 27 09 be 89 3b 76 bd d4 04 55 be 8f a4 89 3c
       -0.133939 -0.06011537 -0.20802623 0.0168021
000120 7e 6d 40 bc 41 50 92 bd ac 02 03 be 2f da 05 be
       -0.011744855 -0.071442135 -0.12793988 -0.13071512
000130 e5 95 d9 3d 35 dd 04 be 30 f6 3b be ba dc a7 bc
       0.10624293 -0.12975009 -0.18355632 -0.020490993
000140 89 79 63 be 4a b5 9f 3d 2a 2f 6d 3e 4e f3 55 bd
       -0.2221433 0.0779825 0.23162523 -0.052233987
000150 da 37 a8 bd ba fc 10 3e 65 b1 21 3d 98 7e 1a be
       -0.08213778 0.14158908 0.039475817 -0.15087354
000160 89 67 b5 ba 4f ed e7 3d 99 46 24 be 8f 42 0c be
       -0.001384006 0.1132456 -0.16042556 -0.13697265
000170 d5 fa c0 bd b8 ef 8d 3e 63 44 9e be 6f 47 46 3e
       -0.094228424 0.27721953 -0.3091155 0.19363187
000180 b6 14 c7 3d d0 cc e7 bc 05 ee 28 3e 45 54 a6 bb
       0.09720747 -0.028295904 0.16497047 -0.0050759637
000190 6b eb b6 bc 90 58 51 bd 44 2a e9 3c d4 9d 77 3e
       -0.022329053 -0.05110985 0.028462537 0.241813
0001a0 ec 67 e7 bd 2d 1b 28 bd 7a 80 3f bd 08 b3 4c 3e
       -0.112991184 -0.04104154 -0.046753384 0.1999017
0001b0 15 84 8f be 12 e1 d1 bd ba 75 58 3e 8b d7 e2 bd
       -0.28030458 -0.10248007 0.21138659 -0.11076268
0001c0 35 cb 69 3e 63 70 7e bd d0 6a 4d be 0a 8b b2 bd
       0.22831424 -0.0621189 -0.20060277 -0.08717926
0001d0 6e 30 04 3e 76 cc 81 be 99 1d 22 3d a6 d4 88 bc
       0.129091 -0.25351304 0.039579008 -0.016702961
0001e0 e8 ff 1d 3e 59 7d 45 be 5f 2c 5c be f9 2e 05 be
       0.15429652 -0.19286098 -0.21501301 -0.130062
0001f0 b2 14 86 be 2c ae 92 bc 1a c2 ef bd 0c ff 3c 3e
       -0.26187664 -0.017905317 -0.11706944 0.18456668

linears.1.weight f4 [64, 128]
000000 96 a8 26 3d 44 8f dd bc 58 21 83 3c a2 ef 2b 3d
       0.04068812 -0.027045853 0.01600711 0.04197658
000010 ba a0 46 bd 87 d4 83 bd dd 77 a1 3d 45 f5 a0 bd
       -0.048493125 -0.06437021 0.0788419 -0.078592815
000020 9d 01 e8 bc 13 1d 55 3d 9d 98 d4 3b c7 41 31 bd
       -0.028321082 0.05202968 0.0064879195 -0.04327562
000030 87 f8 82 bc a7 8e fe bc 76 fc 1a 3d 8d bd a9 3d
       -0.015987648 -0.031073881 0.03783842 0.08288107
000040 ab a9 56 bd 1f bb af bd 05 2a 02 bd c4 4a 26 bd
       -0.0524079 -0.085806124 -0.031778354 -0.040598646
000050 17 e7 c3 bd fb c8 95 bd 40 c2 8c bc 2d c2 cf 3c
       -0.09565561 -0.073137246 -0.01718247 0.025361145
000060 8c d9 16 bd 57 fc e0 bc ee e5 5f bd ec e7 84 3c
       -0.036828563 -0.027464075 -0.054662637 0.01622387
000070 35 7b 8e bd e7 3e b1 bd 22 9d f2 bc 3a ed 23 3d
       -0.069570936 -0.08654576 -0.029615942 0.04002116
000080 6d 46 11 bd 9c 5a e5 3c 93 39 69 bd 20 cf de 3b
       -0.035467554 0.027997307 -0.056939673 0.0067995936
000090 24 72 5a 3d c4 f9 27 bd 13 41 1c 3b da 7b bf bd
       0.05333151 -0.04100968 0.0023842498 -0.09349795
0000a0 e9 1b be 3c 18 2f b9 bc 36 04 93 bd 07 8e fe 3c
       0.023206668 -0.022605464 -0.071785375 0.031073583
0000b0 70 52 cd bb 85 e5 68 3b 98 fa 16 3d f5 0e 9f 3d
       -0.006265931 0.0035537195 0.03686008 0.07766525
0000c0 b9 aa c3 bd e6 88 0e bd 87 06 c9 bd c4 cd b4 3c
       -0.09554047 -0.034798525 -0.09815698 0.022070773
0000d0 af 1f ae bd c6 be 41 3d 6f 3e 8d 3d f6 6d 80 bd
       -0.08502137 0.047301076 0.06896674 -0.062709734
0000e0 3a b4 0f 3d 92 84 87 3d ff 13 a0 3d 40 af 65 3c
       0.035083987 0.06617083 0.07816314 0.014018834
0000f0 bd 5c ee 3c 86 77 7c bd 96 69 7c bd 71 77 2d bd
       0.029096955 -0.061637424 -0.061624132 -0.042350236
000100 f0 5b 29 bc b1 30 8e bb 5e b8 9b 3d ef 0c b9 bc
       -0.010336861 -0.0043393006 0.076035246 -0.022589175
000110 5b 8d bf 3c f6 8c 3a 3d 21 d2 bb bd 89 30 ae bc
       0.023382833 0.045544587 -0.09170938 -0.021263378
000120 ce 55 89 3d 43 d3 51 3d 8e a2 99 bd 7e bd fb bc
       0.06705819 0.051226866 -0.07501708 -0.030730005
000130 3e 24 c9 bc 33 2d 23 bc f9 34 03 bd 8b 55 5d bd
       -0.024553414 -0.009959507 -0.03203294 -0.05403666
000140 48 26 5f bc a7 39 f0 bb 0b 9e 32 bd cc f5 57 3d
       -0.013619967 -0.0073310914 -0.043607753 0.052724645
000150 73 01 9e 3d 5c 3f 05 3d f4 42 d6 3c f6 72 20 bd
       0.0771512 0.032531127 0.026154973 -0.039172135
000160 ba ad 4b 3d 01 a9 e8 bb ae 41 3d bd 91 82 3d bd
       0.049726225 -0.007100225 -0.046205215 -0.046267096
000170 ef b1 80 3d 29 b7 26 bd a5 4d 41 bd 82 7f 43 3d
       0.06283938 -0.04070202 -0.04719319 0.047729023
000180 d4 c5 bf bd 59 da 9b 3d 5d 81 93 3d 9f 90 b7 bd
       -0.093639046 0.07610006 0.072024085 -0.08963131
000190 08 ee 59 bc da 0c 61 bd 5c 18 27 bd 26 3d 54 3d
       -0.01330138 -0.054943897 -0.040794715 0.05181613
0001a0 be 0c 8c 3c c2 5e c7 bd e1 1c b9 bc 00 97 93 bb
       0.01709592 -0.097348705 -0.022596778 -0.0045040846
0001b0 67 a9 f9 bc 46 28 13 3d 70 b3 62 3c 39 80 7c bc
       -0.030476285 0.03592708 0.013836727 -0.01541143
0001c0 f0 89 92 bd a6 11 e2 3c 8d 5e 07 bd b4 09 27 3d
       -0.07155216 0.027596306 -0.033049155 0.040780738
0001d0 ad 76 a7 bd a5 73 99 3d f0 f0 89 3b 37 80 a8 bc
       -0.081769325 0.074927606 0.00420963 -0.02056895
0001e0 30 2b 55 bd fe 45 71 3d 87 9d 63 3c 7f d5 91 bd
       -0.05204314 0.05890464 0.013892538 -0.07120799
0001f0 47 b8 ac bb 80 f9 88 ba b5 ce 63 bd dd 57 ab 3c
       -0.005270991 -0.0010450333 -0.055617053 0.02091592
000200 81 a0 19 bd 8d 6e 68 bd fe 83 ab 3c 58 5e 7c bc
       -0.037506584 -0.056746054 0.020936962 -0.015403353
000210 4f 46 56 3d 4d 36 50 bb 2c 37 77 39 ae 52 85 3c
       0.052313145 -0.0031770647 0.00023576309 0.016274776
000220 05 52 22 bc 15 f3 83 3d e4 61 5d 3d e1 ec a1 bd
       -0.00990725 0.064428486 0.054048434 -0.07906509
000230 d3 b4 18 3d f2 6c 4d bd 09 ca ab bc 12 3d c9 bd
       0.037281822 -0.050152726 -0.020970361 -0.09826101
000240 b6 2e 7b bd f9 ee 40 3c 66 e8 08 3d 56 f0 13 bc
       -0.061323844 0.0117757255 0.033424757 -0.0090294685
000250 26 ad 02 be da 13 9a bd ca 7a 27 3d 94 b3 12 bd
       -0.12761363 -0.07523318 0.040888585 -0.03581579
000260 a4 2a 83 3d f6 11 94 3c cc 71 86 3d 30 b0 74 3d
       0.064046174 0.01807497 0.06564674 0.059738338
000270 4a f0 46 3d d8 cf 98 3c 8f 70 dd 3c ca a6 c8 bd
       0.048569 0.018653795 0.027031211 -0.097974375
000280 dc 7f 20 bb 9a 6e 62 bd 73 f6 c0 bc e2 28 ba bd
       -0.0024490273 -0.05528126 -0.023555016 -0.09089829
000290 48 e5 4b bd 0c f6 f3 ba ba c1 51 3d 49 87 47 bd
       -0.049779207 -0.0018612756 0.051210143 -0.048713002
0002a0 6e ed d1 bd 47 25 92 bd 06 92 40 bd 41 c6 bf bd
       -0.10250364 -0.07136016 -0.04701426 -0.09363986
0002b0 55 66 12 bb 4a a0 9d bd 68 60 e9 bb 1f 92 e3 bc
       -0.0022338827 -0.07696588 -0.007122088 -0.027779637
0002c0 5c 33 fe 3c b8 08 6a bd 34 75 6d bd eb e2 de 3d
       0.03103035 -0.05713722 -0.0579731 0.10883125
0002d0 63 35 d0 bb cd cd e3 bd d1 68 03 3d af 0b 46 bd
       -0.0063540204 -0.11123238 0.032082383 -0.048350986
0002e0 17 dd b5 bd f2 68 7a bd f3 21 92 3d 40 47 9d 3a
       -0.0888006 -0.06113524 0.071353815 0.0011999384
0002f0 99 bd f6 bc 49 b8 c3 bd b8 b7 2e bc e5 71 06 bb
       -0.030119704 -0.09556634 -0.010663919 -0.0020514664
000300 23 e2 12 3d 77 8e 2c bd 3a 09 df 3c cc 71 0e 3d
       0.035860192 -0.042128053 0.02722608 0.034776494
000310 79 7c ae bd 9d 4d 48 bd ae e2 71 bd 43 b7 f3 3c
       -0.08519835 -0.048902143 -0.05905407 0.029750472
000320 50 ef 9c 3c 03 df 47 bd e9 5c c0 bd 11 b5 db bb
       0.019157082 -0.048796665 -0.09392721 -0.0067049344
000330 cf 91 7a bd e2 c4 08 bd 09 9f 8b 3d 57 a2 87 bd
       -0.06117421 -0.033390887 0.06817443 -0.06622761
000340 df db 92 bc 3d e5 af 3c ae 79 a6 3d 15 e2 4a bd
       -0.017927108 0.021471614 0.08128677 -0.049532015
000350 67 f8 29 bc 74 48 09 3d c7 d7 05 bb 29 8d 92 bc
       -0.010374165 0.033516362 -0.0020422803 -0.017889576
000360 9b 30 d2 bc c7 fc ce 3a 8b fa 1e bd 5a 4f ee bc
       -0.025657943 0.0015791886 -0.038813155 -0.029090572
000370 99 f5 41 bd 68 bd aa bc 79 3d 7f bd b2 0d 84 3d
       -0.04735336 -0.020842269 -0.062314484 0.06447925
000380 51 a2 f5 bc 8a 7b aa bd 03 c1 bc bd c4 e2 09 bc
       -0.029984625 -0.083243445 -0.092165016 -0.008415882
000390 8d b3 6d 3d 7d 68 03 3c 7f ae 64 3d fa 08 08 3d
       0.05803256 0.008020517 0.055830475 0.033211686
0003a0 47 8d a0 bd c8 d5 76 3d 5d c2 af bb c1 43 7b 3c
       -0.078394465 0.06026247 -0.005363746 0.015335978
0003b0 eb f4 3b 3c 36 b8 97 bc 52 7d 64 3d 7c e1 61 bc
       0.011471967 -0.018520456 0.055783577 -0.01378667
0003c0 25 c6 e9 bd 9e 8a 31 bc c0 bd 80 bb 5e a4 92 3d
       -0.11414746 -0.010836272 -0.00392887 0.07160257
0003d0 4e 30 4e bd a2 bf 2e bd 6a 60 db bd 29 a0 d2 bd
       -0.050339036 -0.042663224 -0.10711749 -0.102844544
0003e0 9c 22 89 bc e0 61 de 3b 38 98 f1 bc b3 98 ad bd
       -0.016740136 0.00678657 -0.029491529 -0.08476391
0003f0 32 40 75 3d 55 ee 9a bc 92 23 a9 3c 71 14 91 bd
       0.059875675 -0.018912474 0.020646844 -0.07083977

linears.1.bias f4 [64]
000000 09 39 48 bd 9f 21 39 3c 62 bf 0e 3c 76 a4 bc bd
       -0.048882518 0.01129952 0.008712621 -0.09211056
000010 a7 11 15 3d 6a c2 24 bc 1c 34 84 3d ac 3a de 3c
       0.036393788 -0.010056118 0.064552516 0.027127586
000020 7b 99 9b bd 15 3b 33 bd 6c dd e2 3c d7 93 00 bd
       -0.075976335 -0.043757517 0.027693473 -0.03139099
000030 6b a3 0a bd 1c f4 53 3d 78 16 30 bc 3a 2f 10 3d
       -0.033847254 0.051746473 -0.0107475445 0.03520129
000040 d7 3a 93 3d 2c 46 cf bb 4a 82 f0 3b b6 88 1c bc
       0.07188957 -0.006325504 0.0073397504 -0.009554079
000050 32 c1 a3 3d 33 57 b4 3d 70 c0 8b 3b f5 e5 2e bd
       0.079958335 0.088056944 0.0042648837 -0.042699773
000060 10 98 71 bd 3f 33 be 3c 58 60 87 bd 22 61 89 3d
       -0.05898291 0.023217795 -0.06610173 0.0670798
000070 af a9 4c 3d b6 a7 f9 3d 6d 85 70 3d fa 33 89 bd
       0.04996651 0.121901914 0.058720995 -0.06699367
000080 87 10 52 bd 4e 40 0b 3d 8c 18 7f 3d d7 12 96 3d
       -0.051285293 0.033996873 0.06227927 0.07327812
000090 99 50 cf bd 51 82 ec 3d a5 72 b8 3c 92 e8 15 bc
       -0.10122795 0.115482934 0.022515604 -0.009149687
0000a0 a2 66 02 bd 20 49 4a bd d0 1c ba 3a 8b fa 0a bd
       -0.03183616 -0.049386144 0.0014199261 -0.033930343
0000b0 33 3e 78 bc 2f ca 47 3d d1 aa 75 3d bd 85 ab 3d
       -0.015151548 0.0487768 0.059977356 0.08375118
0000c0 07 1b fa 3d 50 68 f7 3c c7 8e 47 3b f9 11 f5 3d
       0.12212186 0.030201107 0.0030450092 0.11966319
0000d0 a5 8a 87 bc e1 11 37 bd db 3c 8b bd 13 76 1b 3d
       -0.016545603 -0.044694785 -0.06798717 0.0379544
0000e0 3a f0 ed 3c 0a 12 f0 bb d8 21 c7 3d 10 b8 c4 3d
       0.029045213 -0.007326369 0.09723252 0.0960542
0000f0 83 4c 64 bb 68 b4 83 3d f0 9b 1b 3d db 6f 8c bc
       -0.0034835644 0.06430894 0.03799051 -0.01714318

linears.2.weight f4 [32, 64]
000000 90 a1 bc bd d4 5d ac bd c0 d3 c1 bd 73 17 3b bc
       -0.09210503 -0.08416334 -0.09464216 -0.011419165
000010 a0 ce e7 3d e9 1c bc bd 6e bb 1f be ec 7e 9c bd
       0.113187075 -0.09185202 -0.15598843 -0.07641396
000020 60 6b 03 3d 03 97 24 3d 9d 87 1f bd d4 f2 b2 3c
       0.032084823 0.04018308 -0.03894769 0.021844305
000030 3a 87 54 3d 3d c8 e9 bd bf d7 ee 3c 7e d6 9c bd
       0.051886775 -0.114151455 0.02915561 -0.07658099
000040 13 83 14 be 25 cd 32 bd 68 7f d6 3d b8 40 98 bd
       -0.14503126 -0.043652672 0.104735196 -0.07434219
000050 07 40 e6 bc b9 03 8e bc 66 54 a8 bd 00 3d 14 bb
       -0.028106702 -0.01733576 -0.08219223 -0.0022619367
000060 07 c6 e0 bd 6d 7e 9c bd 32 49 ce 3d 71 b0 24 bd
       -0.10975271 -0.07641301 0.10072555 -0.04020733
000070 fe 3f cf 3d 6a c4 9f bd bb 72 80 be 48 4e 33 3d
       0.101196274 -0.07801135 -0.25087532 0.043775827
000080 71 e7 ff bd 83 ec 19 bd 27 d7 4b be c8 26 a6 bd
       -0.12495316 -0.03757907 -0.19906293 -0.08112866
000090 02 b1 f9 3c 95 21 27 be c3 54 d2 bc 84 c1 f8 bd
       0.030479912 -0.16321404 -0.025675183 -0.12146285
0000a0 e9 8f 05 be 5a 5d a1 bd 6b d8 83 bd 39 84 78 ba
       -0.13043179 -0.078791335 -0.06437763 -0.0009480152
0000b0 d9 df b4 bc 0b 62 70 3d 06 d8 a4 3d 3f 22 b2 bd
       -0.022079395 0.05868725 0.08049016 -0.08697938
0000c0 59 42 a1 3b 74 22 c7 bd 5d bf 1c 3c 48 8e 43 3c
       0.0049212393 -0.09723368 0.009567109 0.011935778
0000d0 28 de b4 3c 04 ca 0a 3e c9 bb 02 3d ec 33 3e 3d
       0.022078589 0.13553625 0.031917367 0.046436235
0000e0 9a e9 c8 3d 88 8f ec 3d 7c 9d 2f be 2c 94 74 3d
       0.09810181 0.11550814 -0.1714992 0.05971162
0000f0 39 b3 1d be 0e 8c 1a 3e c2 95 06 3e da 22 35 bd
       -0.154004 0.15092489 0.13143066 -0.04422269
000100 98 11 81 bc 3c 4b 60 bd 4a 83 02 bd 34 0d 97 3d
       -0.01575546 -0.05475925 -0.03186349 0.07375565
000110 8b e9 e3 bc 75 0e a7 3d 1a aa a2 3d cd 59 b4 ba
       -0.027821323 0.08157054 0.079426005 -0.0013759673
000120 d8 be 6b bd 9e 36 ac bc 75 49 c7 bc 03 1c 07 3e
       -0.05755505 -0.021022137 -0.02432702 0.1319428
000130 9e 7d 80 bd f6 07 b1 bd 66 c0 d5 bd af 84 7b bd
       -0.062739596 -0.086440966 -0.10437088 -0.061405834
000140 28 9c 9f bd e6 30 8b bd 67 40 a9 bd 5c 3a c2 3d
       -0.07793456 -0.06796436 -0.08264237 0.094837874
000150 bb 4e ae 3b d4 f0 7b bd e4 5a 84 bd 04 f2 28 bd
       0.005319444 -0.06150897 -0.064626485 -0.04124643
000160 72 70 93 bd 6d 7b e0 bd 7c d5 ce 3d 93 42 e2 bd
       -0.071991816 -0.109610416 0.10099313 -0.11047854
000170 20 2d 0a 3d a9 10 19 3d c2 2e ca bd d3 5a 32 3d
       0.03373444 0.037369404 -0.098721996 0.043543648
000180 58 c0 4e bd e8 a4 61 3d 0e e4 aa 3d 8c 19 30 bc
       -0.050476402 0.055088907 0.08344279 -0.010748278
000190 ac 0b ad bd d5 63 d5 bd 1e e8 a6 3d 5f 3b 43 3d
       -0.08449492 -0.10419432 0.081497416 0.047664043
0001a0 f8 79 a6 3c f4 b4 02 3e f0 02 99 bd 41 d7 cd bc
       0.020321831 0.1276434 -0.074712634 -0.025127055
0001b0 70 01 a0 bd f0 b2 32 3c a1 5b f4 bb 7a b4 42 3d
       -0.07812774 0.01090692 -0.007457212 0.047535397
0001c0 bf 02 bf 3b 01 23 8e bd 2f e9 17 bd 3f bd 04 3e
       0.005829185 -0.0694027 -0.037087616 0.12962817
0001d0 8a b0 72 bb bd 6c d6 3d eb e1 bc bd 1e 16 bb 3c
       -0.0037031495 0.10469959 -0.09222778 0.022837695
0001e0 00 02 63 bb a0 5a 94 3b d0 b6 bf bd 5d 28 df bd
       -0.0034638643 0.004527405 -0.093610406 -0.108963706
0001f0 72 3e 3e be 34 10 63 bd 50 f4 5c bd ff fa e9 bd
       -0.18578508 -0.055435374 -0.053943932 -0.11424827
000200 45 e5 e5 3c 34 d7 5c 3d 02 10 d0 bd 5f 54 1d bd
       0.028063426 0.05391617 -0.10159303 -0.03841054
000210 7c a6 8a 3d 3f 0d 37 3c ea 83 63 3d 69 71 e7 bd
       0.067700356 0.011172592 0.055545725 -0.11300928
000220 8c 86 81 bd d9 d3 e5 3d 09 9c a5 3d 5a 9b d2 3d
       -0.06324491 0.11222047 0.08086402 0.10283537
000230 54 68 29 bd 62 18 76 3c 07 f0 8e bc c6 43 81 bd
       -0.04135926 0.015020462 -0.017448438 -0.06311755
000240 dd 79 02 3e cc 16 e0 bc 50 6c 4e be 66 b8 a0 bd
       0.127418 -0.02735462 -0.20158505 -0.07847671
000250 e7 3c e6 3d a8 51 0a 3e 50 b4 0a 3d b8 d0 8b 3d
       0.11242085 0.13507712 0.033863366 0.06826919
000260 ea 3d 34 3e a5 06 f7 bc 3e 83 c1 bd 8e b0 18 be
       0.17601743 -0.030154536 -0.094488606 -0.149111
000270 c5 3f 90 3a 90 5b b6 3b 32 eb fb bb e0 a7 ee 3d
       0.0011005333 0.0055651143 -0.0076879496 0.11653113
000280 35 04 89 bc b3 15 03 3e fe 07 3a 3d 2f 69 1c bd
       -0.016725639 0.12801246 0.04541778 -0.03818625
000290 63 35 4d 3b 44 bb 5d bd 52 35 d5 3d 70 09 ba bc
       0.0031312339 -0.05413367 0.10410561 -0.022709578
0002a0 1e b9 f9 bc 2c ae 8f 3d 20 f5 60 3c a6 e2 90 3b
       -0.030483779 0.070156425 0.013730317 0.00442155
0002b0 14 5a 66 bd 4d 23 4f 3d dd 3f 62 3b f4 5d 41 3d
       -0.05623825 0.050570775 0.0034522929 0.04720874
0002c0 3e 1e a2 bb 8e aa ab bd 76 d0 26 bc a4 e0 a7 bd
       -0.004947453 -0.0838214 -0.010181537 -0.08197144
0002d0 83 90 bb 3d 35 6f a8 bc af 90 4d 3d d5 47 1b 3d
       0.09158423 -0.02056084 0.05018681 0.0379103
0002e0 fa 68 8f 3d 7e fd 4c 3d 6a c6 24 3e c2 3a 0f bd
       0.070024446 0.050046436 0.16091314 -0.034968145
0002f0 c3 d7 c5 bd ff 87 cd bd 16 d1 2c 3d ba fe 18 be
       -0.09660294 -0.10035705 0.042191587 -0.1494092
000300 29 c4 da 3d c1 8a af 3d e3 e5 ad 3d 65 53 2b 3d
       0.10681946 0.08571387 0.08491113 0.041827578
000310 84 26 ce bd 9e ed 10 3d 65 a5 a1 3d 77 ba a3 3d
       -0.1006594 0.03538286 0.07892875 0.0799455
000320 1e 87 ca bd f7 30 37 3b 15 3f b8 3c a5 dd f5 3d
       -0.09889053 0.002795277 0.022491017 0.12005166
000330 4d 1e c1 3d 4e 85 08 3e 80 e3 b4 3d 49 71 87 bd
       0.094296075 0.13332102 0.08832455 -0.06613404
000340 b8 8c 3e bd 87 b9 ca 3d 23 65 8b 3d 36 dd cd 3c
       -0.04652092 0.09898668 0.068064 0.025129896
000350 69 cb 2f 3e 56 1c 7b 3d 0b f0 9d bc 23 c7 96 bd
       0.17167439 0.06130632 -0.0192795 -0.07362201
000360 bf 39 f7 3d 5d c0 c5 3b 4d a4 eb bd c5 07 d6 bd
       0.12071561 0.0060348944 -0.11505947 -0.10450701
000370 dd da 41 3b 17 68 e4 3d e0 fb 79 3d 09 7f e0 3d
       0.0029579916 0.11152666 0.061031222 0.1096173
000380 6e de 1e 3d 71 d8 2a 3d ef 0b d3 bd fe 2d ad 3d
       0.038786344 0.04171032 -0.103050105 0.08456038
000390 9c bb e2 3d 5d a5 77 3d 52 03 bc 3d df d5 0b 3d
       0.1107094 0.060460437 0.09180321 0.03413951
0003a0 84 29 01 3e 40 94 72 3d c3 05 54 bd 10 46 bc 3d
       0.12613493 0.059223413 -0.051763307 0.09193051
0003b0 bf 79 ea bd 8c 98 5b bb 33 62 cb bd a9 1b ec 3d
       -0.114490025 -0.0033507673 -0.099308394 0.11528713
0003c0 81 48 1e 3d d1 94 0e bd 1d 95 1f bc 0c 21 b8 3d
       0.038643364 -0.03480989 -0.009740141 0.08990678
0003d0 20 15 ab bc e7 d9 b7 3d d5 3e 08 3e b3 32 85 bc
       -0.020884097 0.089771084 0.13305219 -0.016259527
0003e0 7e 51 e2 bd ad 6f e0 bd d6 f7 2d bd 5e b6 04 3e
       -0.110507 -0.109588005 -0.042472683 0.12960193
0003f0 04 2f ac bd 7f c3 a5 bc aa b9 b7 3c 68 00 1e be
       -0.08407405 -0.020234821 0.022427399 -0.15429842

linears.2.bias f4 [32]
000000 c4 09 be bc 0f 46 99 3d 3a 91 1b 3e dc c5 cf bc
       -0.023198016 0.07484066 0.15192118 -0.025362901
000010 e1 8a 16 3e 2c 40 3f 3e bf 68 12 3e 0a 88 f1 3d
       0.14701416 0.18676823 0.1429777 0.117935255
000020 c2 6b 8a 3c e7 23 82 bd a0 fa f0 3d 50 d2 17 3e
       0.016897086 -0.06354504 0.11766553 0.14826322
000030 e7 b1 1e 3c 5c 9b 8f 3d b4 7f 04 be f0 c9 0b 3e
       0.00968597 0.07012054 -0.1293934 0.13651252
000040 fb fb 55 bd 42 3e 6b bd 44 0e 1a 3e b3 9d f1 bd
       -0.05224226 -0.05743242 0.15044504 -0.11797657
000050 8c 75 d2 3d f5 3b 3c 3c b3 5f c8 bd 17 b3 14 3e
       0.102763265 0.011488904 -0.09783878 0.14521442
000060 dc 78 62 3d 28 25 b8 bc fe b0 ac 3d 98 22 6b 3d
       0.05529104 -0.022478655 0.08432196 0.057406038
000070 c1 d8 19 3e 5f 85 ee bb fc bd 90 3d 08 e9 1c 3e
       0.15024091 -0.0072790827 0.07067487 0.1532327

output.weight f4 [1, 32]
000000 23 73 0b 3e 90 6d 10 bd 8b 36 dc bd 5c dd 05 be
       0.1361814 -0.035260737 -0.10752591 -0.13072723
000010 d3 f4 9c bd b5 fc a2 bd e6 93 3f 3e 14 f0 29 3e
       -0.07663884 -0.07958356 0.18708763 0.16595489
000020 74 bc d4 bd 09 80 be bd d5 f9 a8 3d c6 b8 1b be
       -0.10387507 -0.093017645 0.08250777 -0.15207204
000030 f0 a5 10 bd 68 b4 fa bc 60 06 db bd c2 73 b5 bd
       -0.0353145 -0.030603603 -0.10694575 -0.0885997
000040 81 e4 2e 3e 04 0b ef 3d e8 1b d5 bd 38 2d 23 be
       0.17079355 0.11672023 -0.10405713 -0.15935218
000050 a6 a7 1a 3e 4f a3 da bc ea d7 03 3e 5c 67 76 3e
       0.15103015 -0.0266892 0.12875333 0.24062866
000060 b6 1a a4 3d 97 f0 dd bd 47 5f f8 bd 88 6f 8a bd
       0.08012907 -0.108369045 -0.12127548 -0.06759554
000070 aa c4 a9 3d 07 3f 01 3e 1e fe 33 3e 12 e8 1f bd
       0.08289464 0.126217 0.17577407 -0.03903968
