adult/Models/mixture_v0/0.8536_1/params.pt (torch_old, 46749 bytes, 56 tensors)

attention_mechanism.in_proj_weight f4 [48, 16]
0	0xbdbe48e7	-0.09291249
1	0x3eb654d8	0.35611606
2	0x3eb5c25c	0.35499847
3	0x3c37f50d	0.011227858
4	0xbf501055	-0.8127492
5	0xbe6e8405	-0.23292549
6	0x3e351379	0.1768321
7	0x3e17e914	0.14835006
8	0x3de14912	0.11000265
9	0xbc43f2c8	-0.011959739
10	0x3e8dbec2	0.276846
11	0xbf10f787	-0.56627697
12	0xbefe4a9d	-0.496663
13	0x3d9db55d	0.07700608
14	0xbf6068e1	-0.8766003
15	0x3e5e0f3e	0.21685502
16	0x3dca11b7	0.0986666
17	0x3ea3f101	0.3201981
18	0x3d96007a	0.0732431
19	0xbf3a12cb	-0.72684926
20	0x3dc08680	0.09400654
21	0xbf4b044e	-0.79303443
22	0x3f5b2efc	0.8561857
23	0x3eda2085	0.42602935
24	0xbeffcd09	-0.49961117
25	0x3e8565a6	0.26054114
26	0xbecdb34b	-0.40175852
27	0x3e1ba90e	0.15201208
28	0xbe379a33	-0.17929916
29	0xbde49eb1	-0.111630805
30	0xbeb9f101	-0.36316684
31	0x3f34f2c6	0.7068294
32	0x3d6e4b2e	0.058177166
33	0xbe8402b6	-0.25783318
34	0xbf675e83	-0.9037859
35	0x3f4782fb	0.77934235
36	0xbd37837c	-0.044803128
37	0xbf124d92	-0.5714961
38	0xbe98c37d	-0.29836646
39	0x3da0a168	0.07843286
40	0xbf615ea7	-0.88035053
41	0x3f8fa4be	1.122215
42	0x3ec32b20	0.3811884
43	0x3e23841c	0.15968364
44	0x3f1eccf0	0.6203146
45	0xbdec0f64	-0.11526373
46	0xbe59b554	-0.21260577
47	0x3e58d14b	0.21173589
48	0xbddce79c	-0.107863635
49	0xbdf103c4	-0.11768296
50	0x3c90eca7	0.01769097
51	0xbec92254	-0.39284003
52	0x3e74fffa	0.23925772
53	0xbf1d6201	-0.6147767
54	0x3f2175ce	0.6307038
55	0xbd3744f3	-0.04474349
56	0xbf30a457	-0.6900076
57	0x3faa12a9	1.3286945
58	0xbe21fb45	-0.15818508
59	0xbe64f85f	-0.22360371
60	0x3f390edb	0.7228829
61	0xbe3a7b7b	-0.18211167
62	0xbf0bc318	-0.54594564
63	0x3f2552a4	0.64579225
64	0xbf046f73	-0.5173256
65	0x3d1a1c25	0.037624497
66	0x3f9c4212	1.2207663
67	0xbe642600	-0.22280121
68	0x3f0071b0	0.50173473
69	0x3e846b78	0.25863242
70	0xbf0bfda2	-0.5468389
71	0xbe6fc316	-0.23414263
72	0x3e8a9aeb	0.27071318
73	0xbf56c001	-0.83886725
74	0xbd654c01	-0.055980686
75	0x3f016a85	0.5055316
76	0x3e16acd7	0.1471437
77	0xbedf1dfe	-0.4357757
78	0x3e42934a	0.19001499
79	0xbfa72bc7	-1.3060235
80	0xbeb75337	-0.35805675
81	0x3d394ebd	0.045241106
82	0xbdf4cae1	-0.119527586
83	0xbbffe8eb	-0.0078097484
84	0xbf868d4d	-1.0511872
85	0xbf84ffa7	-1.0390519
86	0xbdace4be	-0.084420666
87	0xbd3daf28	-0.04630962
88	0xbc5c261d	-0.013436821
89	0x3efdece9	0.4959481
90	0x3e3c4b01	0.18387987
91	0xbebe6db2	-0.37193066
92	0xbea34317	-0.31887123
93	0x3d8b9d4c	0.068171114
94	0xbec0751c	-0.37589347
95	0xbf24c1b5	-0.64358073
96	0x3f0328ab	0.5123393
97	0xbe0ec854	-0.13943607
98	0xbfc597e6	-1.5436981
99	0x3e2c26b1	0.16811635
100	0x3e679bc3	0.22618012
101	0xbf804435	-1.0020815
102	0x3eb54f0b	0.35411867
103	0x3de8aeae	0.113614425
104	0xbdf420cd	-0.11920319
105	0x3e36f966	0.17868575
106	0x3efe2b42	0.49642378
107	0xbd77d9da	-0.060510494
108	0x3e430b3b	0.19047253
109	0x3edbf1c8	0.42957902
110	0x3f1fa7f6	0.62365663
111	0x3e960323	0.29299268
112	0xbf06b350	-0.5261736
113	0x3db3f3c9	0.08786733
114	0xbf596cff	-0.8493194
115	0xbe040365	-0.1289192
116	0x3efcc56f	0.4936938
117	0x3e8122b8	0.252218
118	0xbef598a6	-0.47968024
119	0x3e39ef71	0.18157746
120	0xbe947fab	-0.29003653
121	0x3ec5c6d8	0.38628268
122	0x3e1576cb	0.14596097
123	0x3f05b246	0.5222515
124	0x3efc0083	0.4921914
125	0xbe89c753	-0.26909885
126	0x3f3dd875	0.7415841
127	0xbdd3f107	-0.10348707
128	0x3d6eb78c	0.058280513
129	0xbe895cde	-0.26828665
130	0xbc857bb0	-0.01629433
131	0x3e44e211	0.19226862
132	0xbe0f84a5	-0.14015444
133	0xbd8b61f4	-0.068057925
134	0xbec00609	-0.37504604
135	0x3cad5a06	0.02116109
136	0xbe211679	-0.15731229
137	0x3dd6c213	0.104862355
138	0x3f64f423	0.89435023
139	0x3d828727	0.063734345
140	0x3f14c0d4	0.5810673
141	0x3d9b2c6d	0.07576833
142	0xbf13a064	-0.5766661
143	0xbeb86922	-0.3601771
144	0x3e8c376a	0.27386028
145	0x3dab9e93	0.08379855
146	0x3ed8bbbe	0.42330736
147	0xbe9bde8b	-0.30443224
148	0xbf335a07	-0.70059246
149	0xbebf8810	-0.37408495
150	0xbe953018	-0.29138255
151	0x3d50e6e6	0.051001452
152	0x3f3b99f6	0.732818
153	0xbf54dec8	-0.8315244
154	0xbd5ad1e8	-0.05342284
155	0x3ccebc2f	0.025236217
156	0xbf31ecdd	-0.6950205
157	0xbc2703f8	-0.010193817
158	0x3e312f79	0.17303266
159	0xbed42d31	-0.41440728
160	0xbe2547d2	-0.16140679
161	0x3e1b20e5	0.15149267
162	0xbed00679	-0.40629938
163	0xbe2b8219	-0.16748847
164	0x3f4333a2	0.7625066
165	0xbc5d5bbe	-0.013510643
166	0xbe0486af	-0.12942003
167	0x3e147eb8	0.14501464
168	0xbf816a3a	-1.0110543
169	0x3f578aee	0.84196365
170	0x3e9efb9d	0.3105134
171	0x3ea2dc69	0.31808785
172	0x3f0bcb80	0.5460739
173	0x3d4bcd71	0.04975647
174	0xbc67ec02	-0.01415539
175	0x3f129c13	0.572694
176	0x3eafcb91	0.34334996
177	0x3f59dd60	0.85103416
178	0xbf6d852c	-0.9278133
179	0x3faccba9	1.3499652
180	0x3eba85dd	0.36430255
181	0x3e391693	0.18075018
182	0x3e65cb3b	0.22440808
183	0x3f7f8154	0.99806714
184	0xbe6e13f1	-0.23249795
185	0xbe940594	-0.28910506
186	0x3f2f6c5c	0.6852472
187	0xbf45cb57	-0.77263397
188	0x3e88fadf	0.267539
189	0x3f38fdcf	0.7226228
190	0x3dcbcc6e	0.09951101
191	0x3f86de48	1.0536585
192	0x3e52f2f5	0.20600493
193	0xbed2bc36	-0.4115922
194	0x3f236fa9	0.63842255
195	0xbe980dee	-0.29698128
196	0xbf651eb4	-0.89499974
197	0x3e821cbd	0.2541255
198	0xbec8838d	-0.39162865
199	0xbec2b585	-0.38029113
200	0x3f6811b9	0.9065204
201	0xbf1186ec	-0.568465
202	0x3e81102d	0.25207654
203	0xbe9129e7	-0.2835228
204	0xbecdce5c	-0.40196502
205	0xbeba9ca3	-0.3644763
206	0xbe8b2c91	-0.2718244
207	0xbe998cd1	-0.29990247
208	0x3efe132c	0.49624002
209	0x3eb89a63	0.36055288
210	0xbe455b63	-0.19273143
211	0x3eb65679	0.35612848
212	0xbf226901	-0.63441473
213	0xbd320e11	-0.043470446
214	0x3eca066b	0.39458022
215	0x3e8d8559	0.276408
216	0x3ee88852	0.45416504
217	0xbf5232e0	-0.8210888
218	0xbc855b09	-0.01627876
219	0xbf43df72	-0.76512825
220	0xbf20dece	-0.6283997
221	0x3e4cd5f5	0.20003493
222	0xbd93cd1c	-0.07216856
223	0x3ef754c8	0.4830687
224	0xbedff2cd	-0.4373993
225	0x3d07a1df	0.033113357
226	0xbf3e4557	-0.74324554
227	0x3eb5c115	0.35498872
228	0x3ed80114	0.42188323
229	0x3f160184	0.5859606
230	0xbe510da6	-0.20415363
231	0x3e2241ad	0.15845366
232	0x3ecbf6fc	0.39836872
233	0x3e99864a	0.29985267
234	0x3d3c5da9	0.04598776
235	0x3e2de2fa	0.16981116
236	0x3dcf0188	0.10107714
237	0x3e155b09	0.14585508
238	0x3f40f11b	0.753679
239	0xbf0e98e1	-0.55702025
240	0x3f5a0126	0.85158
241	0x3b9961b1	0.004680835
242	0xbf01e475	-0.5073922
243	0xbf1f09e0	-0.62124443
244	0xbe80cf83	-0.2515832
245	0xbf34858b	-0.7051627
246	0x3f24eafc	0.6442106
247	0xbda85726	-0.08219747
248	0xbf21588b	-0.6302573
249	0xbe95c10f	-0.29248855
250	0xbf0988c2	-0.537243
251	0xbea3ccc7	-0.3199217
252	0xbf201944	-0.6253855
253	0x3d529187	0.051408317
254	0xbe39e231	-0.18152691
255	0x3f4b8e0d	0.7951363

attention_mechanism.in_proj_bias f4 [48]
0	0x3e3f7605	0.18697365
1	0xbe24b702	-0.16085437
2	0xbf46ec64	-0.77704453
3	0xbe0e311e	-0.13885924
4	0x3f2edb2e	0.6830319
5	0xbef994a9	-0.4874623
6	0xbf270100	-0.652359
7	0x3d233b65	0.039851565
8	0xbe2d1808	-0.16903698
9	0xbca18c71	-0.019720288
10	0xbe7455fc	-0.23860925
11	0xbe836e40	-0.25670052
12	0x3e61e83b	0.22061245
13	0xbdf70e15	-0.12063233
14	0x3d8b7697	0.068097286
15	0xbe998a6f	-0.2998843
16	0xbd3b1fcc	-0.04568462
17	0x3d5000a5	0.050781865
18	0xbdcc8481	-0.099862106
19	0xbd6a29ee	-0.057168894
20	0x3dbdaf6a	0.09261973
21	0x3d168409	0.036747012
22	0xbd04203c	-0.032257304
23	0x3c3b3771	0.0114267925
24	0xbce7e259	-0.028306173
25	0x3e0d60e2	0.13806489
26	0xbdb9fc68	-0.09081346
27	0xbe607052	-0.21917847
28	0x3dabafab	0.083831154
29	0xbd3a9aaa	-0.045557655
30	0xbd1e5a49	-0.03866032
31	0x3d2b67b7	0.041846957
32	0xbeb4b075	-0.35290876
33	0xbeba98d5	-0.36444727
34	0x40139abf	2.30632
35	0xbf860c12	-1.0472434
36	0x3f6f1b24	0.9340079
37	0xbe968a1b	-0.2940224
38	0xbf9ad649	-1.2096645
39	0x3ffad987	1.9597634
40	0x401d4a31	2.4576533
41	0xbfeae4d4	-1.8351083
42	0x3fd211fd	1.641174
43	0x3fd7d1f6	1.686095
44	0xc000832a	-2.0080056
45	0x3ff45819	1.9089385
46	0xc0177cd9	-2.366995
47	0xbfffa51d	-1.9972264

attention_mechanism.out_proj.weight f4 [16, 16]
0	0x3ecb9c26	0.3976757
1	0xbecfebcf	-0.40609595
2	0x3ea36000	0.3190918
3	0x3e5cdd38	0.21568763
4	0x3e75a7e9	0.23989834
5	0xbe611c42	-0.21983436
6	0xbec3b38c	-0.3822292
7	0x3cd8bed1	0.026458176
8	0x3d01cae9	0.03168765
9	0xbf0109cd	-0.5040558
10	0x3d818909	0.063249655
11	0x3eafbb55	0.3432261
12	0xbdefd224	-0.11710003
13	0xbe24b46b	-0.16084449
14	0x3e0db98a	0.13840309
15	0xbc8ac32a	-0.016938765
16	0xbeaa8866	-0.3330719
17	0x3eba75d1	0.36418012
18	0x3eae94af	0.34097812
19	0xbf706a50	-0.9391222
20	0xbd827a3d	-0.06370971
21	0xbd7d7f5d	-0.06188904
22	0xbe966171	-0.29371217
23	0x3f17135e	0.59013927
24	0x3f4ccb89	0.7999807
25	0x3da37609	0.07981498
26	0xbec85806	-0.39129657
27	0x3f080eb4	0.53147435
28	0xbe155c72	-0.14586046
29	0x3f5fef8b	0.8747489
30	0x3e85d1e6	0.26136702
31	0x3cd53e82	0.026030783
32	0x3e954e12	0.29161125
33	0x3d8bb3bf	0.06821393
34	0xbea2279d	-0.31670848
35	0x3f073949	0.52821785
36	0x3da4678f	0.08027565
37	0x3e8f0a17	0.27937385
38	0x3d2ff4ba	0.042958
39	0xbf0572aa	-0.5212809
40	0xbeef2ed3	-0.46715412
41	0x3f086583	0.53279895
42	0xbf034989	-0.5128408
43	0xbe431481	-0.1905079
44	0x3ed24ebf	0.41075704
45	0xbf2ea288	-0.68216753
46	0x3f2c4e85	0.6730731
47	0x3e80ae42	0.25132948
48	0xbdbcb8e8	-0.092149556
49	0x3ea72a95	0.32649675
50	0x3eb5db84	0.3551904
51	0xbe1491e5	-0.1450878
52	0x3c8ba897	0.017048163
53	0xbc422020	-0.0118484795
54	0x3e1fb989	0.1559812
55	0x3ef49ee8	0.47777486
56	0xbdf6dcd1	-0.12053836
57	0xbcdc3dee	-0.026885
58	0x3eb3563e	0.35026735
59	0xbec85582	-0.39127737
60	0xbe200d38	-0.15630043
61	0x3f101bd2	0.5629245
62	0xbe1e67ac	-0.15469235
63	0x3f03afc2	0.5144006
64	0xbf40b1e8	-0.75271463
65	0x3f1a00af	0.60157293
66	0xbed5fe3c	-0.41795528
67	0xbece3fa7	-0.40282938
68	0x3f0e4f14	0.55589414
69	0x3eb282b3	0.3486534
70	0x3def99e7	0.116992764
71	0x3c62dd3b	0.013846691
72	0x3e85159a	0.25993043
73	0x3e774f2a	0.24151292
74	0x3f623c4d	0.8837326
75	0xbf7c14a6	-0.98469007
76	0x3e35dc3e	0.17759797
77	0x3ead51be	0.33851427
78	0x3eaa84cc	0.3330444
79	0xbe39c010	-0.18139672
80	0xbedd9bee	-0.43283027
81	0xbd7962e4	-0.060885325
82	0xbee08f29	-0.43859223
83	0xbfae6e9c	-1.3627505
84	0xbd49edb7	-0.04929897
85	0xbefec2c3	-0.49757966
86	0xbe9000f8	-0.2812574
87	0x3e852ed9	0.26012304
88	0x3aa39e15	0.0012483025
89	0x3be0c5d5	0.006859521
90	0xbf21a2c8	-0.6313901
91	0x3e252b40	0.1612978
92	0x3f32999b	0.69765633
93	0xbdf91425	-0.121620454
94	0x3efb4530	0.49076223
95	0x3dec3264	0.11533049
96	0x3c9d1e01	0.019179346
97	0x3e8f2179	0.27955225
98	0x3e8a28b0	0.26984167
99	0xbe5a584f	-0.2132275
100	0x3eb8e1e0	0.3610983
101	0x3d083e68	0.03326264
102	0xbe62c47f	-0.2214527
103	0x3f1c1ffe	0.60986316
104	0x3f196bf2	0.59930336
105	0xbdb92455	-0.09040133
106	0x3efe3342	0.49648482
107	0x3eebb00f	0.4603276
108	0xbc54fd5a	-0.012999857
109	0x3e9ef18a	0.31043655
110	0xbe94498e	-0.28962368
111	0xbe810054	-0.25195563
112	0x3db97d7e	0.09057139
113	0x3e130655	0.14357884
114	0xbea54b1c	-0.32283866
115	0xbddd82a4	-0.10815933
116	0xbea8c194	-0.32960188
117	0xbf4ccab0	-0.79996777
118	0x3ece9cc2	0.40353972
119	0xbe05686f	-0.1302812
120	0x3e66c882	0.22537425
121	0xbde69b06	-0.11260037
122	0xbf63a081	-0.88916785
123	0xbe8d22ac	-0.27565515
124	0xbc89a347	-0.01680149
125	0x3dba0f8d	0.09084997
126	0x3ea78c4f	0.32724234
127	0x3eca6abd	0.3953456
128	0x3ee216a0	0.44157887
129	0x3d99cfce	0.07510339
130	0x3f0ec387	0.557671
131	0xbe9cf138	-0.30652785
132	0x3efc2748	0.4924872
133	0x3f4fb220	0.8113117
134	0xbf285da6	-0.65767896
135	0x3e85aea8	0.26109815
136	0xbf0e0733	-0.55479735
137	0x3df07280	0.11740589
138	0x3e988244	0.29786885
139	0x3efc3825	0.49261585
140	0x3dff154c	0.12455234
141	0xbe2df5f3	-0.16988353
142	0x3f20055f	0.62508196
143	0xbe6343ee	-0.22193882
144	0x3e0e3e4e	0.13890955
145	0xbe910785	-0.2832605
146	0xbdeb2b84	-0.11482909
147	0x3f5fea07	0.8746647
148	0x3d84c236	0.06482355
149	0xbeb4d01c	-0.35315025
150	0x3f009343	0.50224704
151	0xbde19338	-0.11014408
152	0xbe13a404	-0.14418036
153	0x3e7bcded	0.24590273
154	0x3ef64255	0.48097482
155	0xbe53f41c	-0.20698589
156	0xbe4c4188	-0.19946873
157	0xbe65a014	-0.22424346
158	0xbf19bcdb	-0.60053796
159	0xbed09c28	-0.40744138
160	0xbe4172e2	-0.1889148
161	0xbe27ead1	-0.16398169
162	0xbcc568e9	-0.024097877
163	0x3eed3ca1	0.4633532
164	0xbe97a791	-0.2962003
165	0xbe93ece9	-0.28891686
166	0x3f1c58ab	0.61072797
167	0xbee61b60	-0.4494276
168	0x3ee59660	0.4484129
169	0x3f065a42	0.5248147
170	0x3e8ddd4e	0.27707905
171	0xbee5a392	-0.44851357
172	0xbe43d1c8	-0.19122994
173	0x3e2c3fd7	0.16821228
174	0xbf530a2e	-0.8243741
175	0xbe46c2b1	-0.19410206
176	0x3e0ff391	0.14057757
177	0x3e7ce564	0.2469688
178	0x3f194bff	0.59881586
179	0xbd723ec3	-0.059141885
180	0xbd87b416	-0.066261455
181	0xbe5d3d09	-0.21605314
182	0x3ecf327d	0.40468207
183	0xbbe260cd	-0.006908512
184	0x3e3fd39b	0.18733065
185	0x3edacbe1	0.42733672
186	0xbeaae027	-0.3337414
187	0x3e88b4aa	0.26700336
188	0xbe3178a4	-0.17331177
189	0x3c93e510	0.018053561
190	0xbf4e44be	-0.8057364
191	0x3e353b41	0.17698385
192	0x3e445c28	0.1917578
193	0x3eb6d02d	0.357057
194	0x3ddbf710	0.10740483
195	0x3d9a1935	0.07524339
196	0xbd893b03	-0.06700709
197	0x3e9700aa	0.29492694
198	0xbbd7bb61	-0.0065836166
199	0xbee24948	-0.44196534
200	0xbeff0bc0	-0.49813652
201	0x3f49be01	0.7880555
202	0xbf207abc	-0.6268728
203	0x3de7f385	0.113257445
204	0x3e766c06	0.24064645
205	0xbce3d4b1	-0.02781138
206	0x3f7838ea	0.96961844
207	0x3e6167bb	0.22012226
208	0x3ee58779	0.4482992
209	0xbe1421ca	-0.14466015
210	0xbe054bae	-0.13017151
211	0x3eeab000	0.45837402
212	0x3d07cbf9	0.033153508
213	0x3e4c9e5d	0.19982286
214	0xbf21d58f	-0.6321649
215	0x3b3680e5	0.0027847823
216	0xbf1cf3eb	-0.6130969
217	0xbf1a540e	-0.6028451
218	0xbeb085ac	-0.34476984
219	0xbd8b3b0c	-0.06798372
220	0xbe0a5a54	-0.1351102
221	0x3d9b6f5f	0.07589602
222	0x3f8eeeb2	1.1166594
223	0x3ec1b3f4	0.37832606
224	0xbb02add6	-0.001994004
225	0x3e065933	0.13119964
226	0xbe89a918	-0.2688682
227	0x3da48454	0.08033052
228	0xbe30ecb6	-0.17277798
229	0xbdfec1c7	-0.12439304
230	0x3defc354	0.11707178
231	0xbee60f73	-0.44933662
232	0xbef1dcd2	-0.47238785
233	0x3f026b6c	0.5094516
234	0xbec0d501	-0.3766251
235	0xbd5b892e	-0.05359762
236	0x3ec9cb72	0.3941303
237	0xbe70b389	-0.23505987
238	0x3e8c02cb	0.2734588
239	0xbd4b4efb	-0.04963587
240	0x3f51bfc3	0.8193323
241	0xbf15695c	-0.5836389
242	0x3f1b20d3	0.6059696
243	0x3f70c176	0.940452
244	0xbdac6345	-0.08417372
245	0xbe8597dd	-0.26092425
246	0xbf05b5a6	-0.522303
247	0xbe5cd789	-0.21566595
248	0x3e0c8d50	0.13725781
249	0xbf58296b	-0.844382
250	0x3c1074d6	0.008816918
251	0xbed5b3e8	-0.4173882
252	0xbf1da141	-0.6157418
253	0x3f3883fe	0.72076404
254	0x3e9b369a	0.30315095
255	0x3e7a95e0	0.24471235

attention_mechanism.out_proj.bias f4 [16]
0	0x3bdda0c2	0.0067635486
1	0xbbab5f6b	-0.0052298806
2	0x3cc49923	0.023998803
3	0xb9bb3b38	-0.0003571154
4	0xbc4e0f87	-0.012576944
5	0x3bef6a02	0.0073063383
6	0x3c6a4a1d	0.014299897
7	0xbc7c7222	-0.015408071
8	0x3cdad5ce	0.026713278
9	0xbcb35b27	-0.02189405
10	0xbd1481a0	-0.036256433
11	0xbbbfe468	-0.0058560856
12	0x3c4b1c4f	0.012396886
13	0xbccb5b15	-0.024823705
14	0x3c08f607	0.008359439
15	0xbc11a7b0	-0.0088900775

embedding.0.bias f4 [16]
0	0xbf1e149b	-0.6175019
1	0xbf5821ae	-0.8442639
2	0xbe7928c5	-0.24331959
3	0xbe2617a5	-0.16219957
4	0x3f8b9fb7	1.0908116
5	0x3e8d56e5	0.27605358
6	0xbff55816	-1.9167507
7	0xbf726db4	-0.94698644
8	0x3ea10a31	0.31453088
9	0x3f1172ea	0.5681597
10	0x3f98a1a5	1.192433
11	0x3dab142f	0.08353459
12	0xbf1b9fd0	-0.6079073
13	0x3f51262f	0.8169889
14	0xbf0cc187	-0.549828
15	0x3f644421	0.89166456

embedding.0.weight_g f4 [16, 1]
0	0x3f932e1d	1.1498448
1	0xbe7daf9f	-0.24774025
2	0x3e03949c	0.12849659
3	0x3edf7b0e	0.4364857
4	0x3f287ca7	0.65815204
5	0x3f101148	0.5627637
6	0xbe20b058	-0.1569227
7	0x3f11214f	0.5669145
8	0x3f5797f6	0.8421625
9	0x3f1ed383	0.6204149
10	0x3f8dd283	1.1079868
11	0x3c3ef9df	0.011656254
12	0x3ef42a54	0.47688544
13	0x3eec4c68	0.46152043
14	0x3e131ad5	0.14365704
15	0x3decb713	0.11558356

embedding.0.weight_v f4 [16, 1]
0	0xbf74e1b5	-0.956569
1	0x3e6a624c	0.2288906
2	0xbdf050fe	-0.11734198
3	0x3f10e235	0.56595165
4	0xbf72cb59	-0.94841534
5	0x3cebe6d9	0.0287966
6	0x3dcfe60f	0.10151302
7	0x3ea491d6	0.32142514
8	0x3f445b4c	0.7670181
9	0x3e4a1b1d	0.19736905
10	0x3f501334	0.812793
11	0xbe04f4c1	-0.12983991
12	0x3f111669	0.5667482
13	0x3f2f9a03	0.6859438
14	0x3f40d7f1	0.753295
15	0xbd5bdbc7	-0.053676393

embedding.1.bias f4 [16]
0	0xbe89750f	-0.2684712
1	0x3fc9c84a	1.5764248
2	0xbf853806	-1.0407722
3	0x3e5b1106	0.21393213
4	0x3fad4a2e	1.3538263
5	0x3f100796	0.56261575
6	0xbff2cb4f	-1.8968295
7	0xbe103dd5	-0.14086087
8	0xbff48af9	-1.9104911
9	0x3ed1b1cd	0.40955964
10	0x3c385d5e	0.011252729
11	0xbf5649e8	-0.8370652
12	0x3fbb3f39	1.4628669
13	0xbd369124	-0.04457201
14	0xbe9cb662	-0.30607897
15	0xbfa5bba2	-1.2947886

embedding.1.weight_g f4 [16, 1]
0	0x3ee01c0b	0.43771395
1	0x3f0c0dcd	0.5470856
2	0xbbc03bb0	-0.0058664903
3	0x3d3e9e34	0.046537593
4	0x3e6bf652	0.23043182
5	0x3de860b8	0.11346573
6	0x3d60e949	0.054909978
7	0x3f126c4a	0.57196486
8	0x3eed989d	0.46405497
9	0x3dc51309	0.09622771
10	0x3e6b226b	0.22962348
11	0x3e58a3b6	0.21156201
12	0x3e519685	0.20467575
13	0x3f1dae9e	0.6159457
14	0x3dd5ce21	0.104397066
15	0x3e8cfb12	0.275353

embedding.1.weight_v f4 [16, 1]
0	0xbf7f930f	-0.9983377
1	0x3f8874d5	1.0660654
2	0x3d2981ec	0.04138367
3	0xbccac6f6	-0.024753075
4	0x3ee5a065	0.44848934
5	0x3ec8e4b3	0.39236984
6	0xbdba3364	-0.09091833
7	0x3f7abf30	0.9794798
8	0xbf5d294e	-0.8639115
9	0xbede4c80	-0.4341774
10	0xbf07ff13	-0.5312359
11	0xbede7158	-0.4344585
12	0xbf038334	-0.51372075
13	0xbf7716c0	-0.9651909
14	0xbe343014	-0.17596465
15	0x3f31b239	0.6941257

embedding.2.bias f4 [16]
0	0x3eb03ecb	0.34422907
1	0xbf23f60a	-0.640473
2	0x3f1ce0da	0.61280596
3	0x3fa56282	1.2920687
4	0x3f9a9aea	1.2078526
5	0x3fb6d031	1.4282285
6	0xbfc31359	-1.524028
7	0x3f963747	1.1735619
8	0x3ea0324f	0.31288382
9	0x3ebeaf52	0.37243134
10	0x3fa9e969	1.3274356
11	0x3e48648b	0.19569604
12	0x3fe14165	1.7598082
13	0x3fc54daa	1.5414326
14	0xbf1c11f2	-0.6096488
15	0xbee6bc14	-0.45065367

embedding.2.weight_g f4 [16, 1]
0	0x3f8852df	1.065029
1	0x3f5f2d9e	0.8717898
2	0x3f8593d2	1.0435736
3	0x3f8c5827	1.0964402
4	0x3f8e4869	1.1115848
5	0x3e34a30e	0.17640325
6	0x3f9c4439	1.220832
7	0x3f61cd2c	0.8820369
8	0x3f3cac7f	0.7370071
9	0xbd6089fc	-0.054819092
10	0x3d9ea3de	0.07746099
11	0x3e4c9009	0.1997682
12	0x3e457d72	0.19286135
13	0x3f453270	0.77030087
14	0xbf15f747	-0.5858044
15	0xbe80cb78	-0.25155234

embedding.2.weight_v f4 [16, 1]
0	0xbf37a5d9	-0.7173744
1	0xbea43ca3	-0.32077512
2	0xbf5e80db	-0.8691537
3	0xbf86e28b	-1.0537885
4	0xbf336684	-0.700783
5	0x3ee80372	0.4531513
6	0xbf34eb9e	-0.70672023
7	0xbf0bef97	-0.5466246
8	0xbf1708e3	-0.58997935
9	0x3e7958f3	0.24350338
10	0xbf0e3450	-0.5554857
11	0xbea2bbd0	-0.31783915
12	0xbe43f4a2	-0.19136289
13	0x3f2517d3	0.6448948
14	0xbe457081	-0.19281198
15	0x3e4b0777	0.19827066

embedding.3.bias f4 [16]
0	0x3eef134a	0.46694404
1	0x4009ab55	2.1510823
2	0x3fe32f5f	1.7748832
3	0x3ff49623	1.9108318
4	0xbf8de8d3	-1.1086677
5	0xbfa374b3	-1.2769989
6	0x3bb1a7b9	0.0054216054
7	0xbf732d30	-0.94990826
8	0xbeeffe0f	-0.4687352
9	0xbfa98175	-1.3242632
10	0x3fca234c	1.5792022
11	0xbfb45f3e	-1.4091566
12	0x3e91c6c3	0.28471956
13	0xc03a468e	-2.9105563
14	0x3f9014b2	1.1256316
15	0xbfb15192	-1.3853018

embedding.3.weight_g f4 [16, 1]
0	0xbd6a7ac0	-0.05724597
1	0x3ec8ecdf	0.39243218
2	0x3e88cb20	0.26717472
3	0x3e231242	0.15924934
4	0x3f43b68f	0.7645044
5	0x3f251f7d	0.6450117
6	0x3ebfd82a	0.37469608
7	0x3e1b0394	0.15138084
8	0x3e8eb999	0.27875975
9	0x3f6752d1	0.9036074
10	0x3f82fbf6	1.0233142
11	0x3f01c81d	0.50695974
12	0x3c9037e0	0.017604768
13	0x3cf3797d	0.029721016
14	0x3f0148df	0.5050182
15	0x3e92f4b0	0.28702307

embedding.3.weight_v f4 [16, 1]
0	0x3e4f72b8	0.20258605
1	0x3f085b65	0.53264457
2	0xbe275793	-0.16342
3	0xbe29332c	-0.16523427
4	0x3f4b93f6	0.79522645
5	0x3f427bea	0.7597033
6	0xbf292325	-0.6606925
7	0xbe051c75	-0.12999137
8	0xbe738679	-0.23781766
9	0x3f1c9ce5	0.611769
10	0xbf6571c7	-0.89626735
11	0xbf0b3ce7	-0.54389805
12	0x3e0f41cc	0.13989943
13	0x3e4a62cc	0.1976425
14	0xbf2b6ae3	-0.6695997
15	0x3ed1668e	0.40898556

embedding.4.bias f4 [16]
0	0xbf9a1487	-1.2037514
1	0xc0021f38	-2.0331554
2	0x3e99a344	0.30007374
3	0xbfdb58fb	-1.713653
4	0xbf8c2921	-1.0950052
5	0xbf42ca9d	-0.76090413
6	0xbe0d054a	-0.13771549
7	0x3dc2d4c9	0.09513242
8	0x3f69e43a	0.9136387
9	0x3f861d68	1.0477724
10	0xbf724ab5	-0.94645244
11	0xbf06e4fb	-0.52693146
12	0xc00acb75	-2.168668
13	0x3f2fdefc	0.6869962
14	0x3f4606b1	0.7735396
15	0xbf66bc7e	-0.90131366

embedding.4.weight_g f4 [16, 1]
0	0xbe8c4ce3	-0.2740241
1	0x3d0ca56e	0.034337454
2	0x3f47141d	0.77765065
3	0x3f0b3d1b	0.54390115
4	0x3ee51047	0.4473898
5	0x3f83a64a	1.0285122
6	0x3ee86178	0.45386863
7	0x3fa32191	1.2744619
8	0xbd055a62	-0.0325569
9	0x3f1dde39	0.6166721
10	0xbeb8fcda	-0.3613041
11	0x3f6e1ebe	0.9301566
12	0x3f0624de	0.52400005
13	0x3f672c8a	0.90302336
14	0xbdcb522a	-0.09927781
15	0x3ee07b98	0.43844295

embedding.4.weight_v f4 [16, 1]
0	0x3e99caca	0.30037528
1	0x3e04d0d3	0.12970285
2	0xbf822d0c	-1.0169997
3	0x3ec2f7a5	0.38079563
4	0x3f16464b	0.5870101
5	0x3f30e6d0	0.6910219
6	0xbdc774a9	-0.09739048
7	0x3f5a3923	0.85243434
8	0x3eff0149	0.49805668
9	0x3ef72aaf	0.48274752
10	0xbe137988	-0.14401829
11	0x3f67e9c7	0.9059109
12	0xbe5d99c6	-0.21640691
13	0xbf228b46	-0.63493764
14	0xbe677eb3	-0.22606926
15	0xbeb1476c	-0.34624803

embedding.5.bias f4 [16]
0	0xbc68b996	-0.014204403
1	0xbfe248b4	-1.7678437
2	0x3f34c1a2	0.7060796
3	0xbf895cbe	-1.0731428
4	0xbfa6b4cd	-1.3023926
5	0x3ee60bde	0.4493093
6	0xbdc3d879	-0.09562773
7	0xbe129b62	-0.14317086
8	0x3eed93ca	0.46401817
9	0x3f84c6b1	1.0373136
10	0xbf5015ad	-0.81283075
11	0x3f4c63f3	0.7984001
12	0x3eba0bcb	0.36337122
13	0x3f51d504	0.8196566
14	0x3f251e80	0.64499664
15	0x3e48e037	0.19616781

embedding.5.weight_g f4 [16, 1]
0	0x3e89f1d8	0.26942325
1	0x3e6f6042	0.23376563
2	0x3ed683c4	0.41897404
3	0x3f870a25	1.0549971
4	0xbd96b37f	-0.07358455
5	0x3d6682df	0.056277152
6	0x3f816285	1.0108191
7	0x3ec62d8b	0.38706622
8	0x3ed3167f	0.412281
9	0x3ec5ffa0	0.3867159
10	0x3f5347dc	0.82531524
11	0x3f66d6fc	0.9017179
12	0x3f47ca2b	0.7804286
13	0x3e38220e	0.17981741
14	0x3e2fdcd1	0.17174079
15	0x3ee6adbd	0.45054427

embedding.5.weight_v f4 [16, 1]
0	0xbebde6b7	-0.37090084
1	0x3f69c363	0.9131376
2	0x3da8d037	0.08242839
3	0xbec2755f	-0.37980172
4	0xbdd42797	-0.10359114
5	0x3cd954a2	0.026529614
6	0x3f5d37b9	0.8641315
7	0x3f066b44	0.52507424
8	0x3e1ce538	0.15321815
9	0xbeefd202	-0.4683991
10	0xbf3b1b94	-0.73088956
11	0x3ec21543	0.37906846
12	0xbf545f2f	-0.8295774
13	0xbf67f99d	-0.90615255
14	0xbeca902d	-0.39563122
15	0xbea16e5e	-0.31529516

embedding.6.bias f4 [16]
0	0xbfa15b81	-1.260605
1	0x3d41a1f8	0.047273606
2	0xbfb20fbb	-1.391105
3	0xbf8d9789	-1.106187
4	0x3ed9b7ef	0.42523143
5	0x3fb1e851	1.3899022
6	0xbe95ca39	-0.29255846
7	0x3f61ab9b	0.88152474
8	0x3f0bb80a	0.54577696
9	0xbf143a66	-0.5790161
10	0xbf24ac7b	-0.64325684
11	0x3fe7a91d	1.8098484
12	0xbf7954eb	-0.973952
13	0x3eb4e8b2	0.35333782
14	0x401472dd	2.3195107
15	0x3f3adf38	0.72996855

embedding.6.weight_g f4 [16, 1]
0	0xbe8ae469	-0.27127388
1	0x3f8e99b3	1.1140655
2	0x3ed8f67c	0.42375553
3	0x3e9681c2	0.29395872
4	0x3fc492ca	1.5357296
5	0xbe838d61	-0.256938
6	0x3ffad9bb	1.9597696
7	0x3ef0b36e	0.47011894
8	0x4008276c	2.1274061
9	0x3ef3c333	0.47609863
10	0xbdd26368	-0.102728665
11	0xbe51fa39	-0.20505609
12	0x3fe48150	1.7851963
13	0xbee1060f	-0.43949935
14	0x3f70ceec	0.9406574
15	0x3ecc1144	0.39856923

embedding.6.weight_v f4 [16, 1]
0	0xbd1523b2	-0.036410995
1	0xbe951c85	-0.2912332
2	0x3dc32d4b	0.09530123
3	0x3f0f6fcc	0.56029963
4	0xbf75a4c2	-0.95954525
5	0xbda20969	-0.07911951
6	0x3f3e9222	0.7444173
7	0xbe9c5c29	-0.30539063
8	0x3efb5fe1	0.49096587
9	0xbf64458d	-0.89168626
10	0xbf1646ff	-0.5870208
11	0xbf7d1ba3	-0.98870295
12	0xbe8cd261	-0.27504256
13	0xbf2d2e54	-0.67648816
14	0x3ef50c21	0.47860816
15	0xbe60f751	-0.21969344

embedding.7.bias f4 [16]
0	0xbf11baf4	-0.5692589
1	0x3b43e025	0.002988824
2	0xbf26af4c	-0.6511123
3	0x3b9b96d6	0.0047482057
4	0xbf5706e9	-0.8399492
5	0xbffe7bfe	-1.988159
6	0x3e0f8454	0.14015323
7	0x3e9c0286	0.30470675
8	0xbe5175ae	-0.20455047
9	0xbda6d67b	-0.08146378
10	0x3ff8f9ad	1.9451195
11	0xbd1e6047	-0.038666036
12	0x3f8a30ab	1.0796102
13	0xbf281c88	-0.65668535
14	0x4039bf7a	2.9023118
15	0x3f29a803	0.6627199

embedding.7.weight_g f4 [16, 1]
0	0x3ef23791	0.4730802
1	0x3f19b4d4	0.60041547
2	0x3f06502e	0.52466094
3	0x3ed5e9c1	0.41779903
4	0xbc4dbd96	-0.012557408
5	0x3c76d92f	0.015066429
6	0x3c9d969a	0.019236851
7	0x3e87e434	0.26541293
8	0x3f5a2f2c	0.8522823
9	0x3f4d84a8	0.8028054
10	0x3e69fbc9	0.22849955
11	0x3eb0b294	0.34511244
12	0x3cc6efc2	0.024284247
13	0x3e9bece4	0.3045417
14	0x3ed246c7	0.41069624
15	0xbd5244a0	-0.051334977

embedding.7.weight_v f4 [16, 1]
0	0xbf2916f0	-0.66050625
1	0x3f4b87b6	0.79503953
2	0xbf631fe4	-0.88720536
3	0x3f28ca0f	0.65933317
4	0x3e866b45	0.26253715
5	0x3f2d907f	0.6779861
6	0xbd8c1e3e	-0.06841706
7	0xbf14d6e3	-0.5814039
8	0x3f75db85	0.96038085
9	0xbf607f33	-0.8769409
10	0xbe8c82aa	-0.2744344
11	0x3f543af4	0.82902455
12	0xbe18f574	-0.14937383
13	0xbe90954f	-0.28238913
14	0xbe9d11a2	-0.30677515
15	0xbea834ee	-0.32852882

embedding.8.bias f4 [16]
0	0x3ec17b2e	0.3778929
1	0xbedf09ae	-0.43562073
2	0x3f481847	0.78162044
3	0xbe6bd66d	-0.23031016
4	0x3c00b11e	0.007854728
5	0x3eed3cd3	0.46335468
6	0xbe33e053	-0.17566042
7	0x3f1e4bf6	0.6183466
8	0x3eea5d58	0.4577434
9	0x3f42160b	0.75814885
10	0x3f9724f9	1.1808158
11	0xbf3d9554	-0.7405598
12	0x3f9cfcd3	1.2264656
13	0x3f5daf29	0.865954
14	0xbf21eea0	-0.6325474
15	0x3f51659d	0.81795675

embedding.8.weight_g f4 [16, 1]
0	0xbe86a81a	-0.26300126
1	0xbf8a3f71	-1.0800611
2	0x3f8cf4d9	1.1012222
3	0xbe0bcc13	-0.13652067
4	0x3f89d7aa	1.076894
5	0x3e5d408a	0.21606651
6	0x3eee459a	0.46537477
7	0x3f32ff58	0.69920874
8	0xbf04918c	-0.51784587
9	0x4046b11a	3.1045594
10	0x3fe4a2a7	1.7862138
11	0x402d4be0	2.707756
12	0x402c9e6c	2.6971693
13	0x3ff704fc	1.9298396
14	0x3fbf0c18	1.4925566
15	0x3e8d65e7	0.27616808

embedding.8.weight_v f4 [16, 1]
0	0xbee78c0f	-0.45224044
1	0x3d8338bc	0.064073056
2	0xbf58795c	-0.8456018
3	0x3ebd7056	0.36999768
4	0xbdb52d48	-0.08846527
5	0xbe9ffd88	-0.31248116
6	0x3e05693e	0.13028428
7	0x3f50cfb1	0.8156691
8	0xbf091f8f	-0.5356378
9	0xbf5f348d	-0.8718956
10	0xbf1e38b3	-0.61805266
11	0xbf7e1da0	-0.99263954
12	0xbf51c361	-0.8193875
13	0x3f36a53a	0.71345866
14	0x3eafe3d1	0.34353498
15	0x3e8d02ab	0.27541098

embedding.9.bias f4 [16]
0	0xbfb68c74	-1.4261613
1	0xbf92d2c7	-1.1470574
2	0x3f57c13f	0.84279245
3	0xbf491ec1	-0.7856255
4	0xbf99ea4f	-1.202463
5	0x3e85cb1b	0.2613152
6	0xbed27a67	-0.4110901
7	0xbe370e47	-0.1787654
8	0x3f07af2a	0.53001654
9	0x3dad39b1	0.084582694
10	0x3f402a43	0.75064486
11	0x3f4257ff	0.7591552
12	0xbf6c33ca	-0.92266524
13	0xbf8e8b0b	-1.1136183
14	0xbf35c6ab	-0.7100627
15	0xbe96b0ce	-0.29431766

embedding.9.weight_g f4 [16, 1]
0	0x3ed1ee4b	0.41002116
1	0x3fc99aaa	1.5750325
2	0x3ebd696a	0.36994487
3	0x3ea02b2d	0.3128294
4	0x3ec942a4	0.39308655
5	0x3f4e996a	0.8070284
6	0x3ee22b05	0.44173446
7	0xbf1b3a2c	-0.6063564
8	0x3fab00bb	1.3359598
9	0x3f487ead	0.7831829
10	0x3f50f621	0.8162556
11	0xbde6e37b	-0.11273857
12	0x3e86fad2	0.26363236
13	0x3fab058a	1.3361065
14	0xbf1df565	-0.6170257
15	0x3e2f02c9	0.17090906

embedding.9.weight_v f4 [16, 1]
0	0xbf10c528	-0.56550837
1	0xbf3f557a	-0.747398
2	0xbe935322	-0.28774363
3	0x3ea9e1a2	0.33179957
4	0xbe793f72	-0.24340609
5	0xbf3ac8dd	-0.72962743
6	0x3e1e7453	0.15474062
7	0x3f111300	0.56669617
8	0x3f3c0ed6	0.7346014
9	0xbf692fde	-0.91088665
10	0x3f2194ae	0.6311749
11	0x3f090279	0.535194
12	0xbdb91b69	-0.09038431
13	0x3f640407	0.89068645
14	0x3da70e28	0.08156997
15	0xbf73c689	-0.95224816

embedding.10.bias f4 [16]
0	0xbf8002f5	-1.0000902
1	0xbe721a25	-0.23642786
2	0xbf65c260	-0.8974972
3	0xbf0c71c6	-0.54861104
4	0x3e99623f	0.29957768
5	0x3ee3dce8	0.44504476
6	0x3d4351dc	0.04768549
7	0x3f0d04b7	0.5508532
8	0x3f09da6f	0.5384893
9	0x3ef2676b	0.47344527
10	0x3eaaa53c	0.3332919
11	0x3e7331f7	0.23749529
12	0x3c38bbc7	0.011275238
13	0x3df6c55b	0.12049361
14	0x3ef3869d	0.4756364
15	0xbe74058e	-0.23830244

embedding.10.weight_g f4 [16, 1]
0	0x3f840987	1.0315408
1	0xbcbaf39c	-0.02282124
2	0x3ec22c8b	0.3792461
3	0x3e559caa	0.20860544
4	0x3eb53056	0.3538844
5	0xbe946d8a	-0.28989822
6	0x3f8a5b45	1.0809103
7	0x3fad2b38	1.3528814
8	0x3db53ff8	0.08850092
9	0x3f119112	0.56861985
10	0x3e9694a7	0.29410288
11	0x3f412861	0.7545224
12	0x3ef74431	0.48294213
13	0x3e034e7f	0.12822913
14	0x3f8396d1	1.02804
15	0x3f1164fb	0.5679471

embedding.10.weight_v f4 [16, 1]
0	0x3f18bbda	0.5966164
1	0x3f3beabb	0.73405045
2	0x3f12628d	0.57181627
3	0xbe9ac972	-0.30231816
4	0xbea290e4	-0.31751168
5	0x3ec20d12	0.37900597
6	0x3f22ddef	0.63619894
7	0xbf65580b	-0.8958747
8	0xbdf67851	-0.12034667
9	0xbe88fded	-0.2675623
10	0x3e36a38e	0.17835829
11	0x3f5d456f	0.8643407
12	0xbf13476f	-0.57530874
13	0x3ed252d0	0.41078806
14	0xbf77b1b5	-0.96755534
15	0x3f1350e9	0.57545334

embedding.11.bias f4 [16]
0	0xbf853b8c	-1.0408797
1	0x3cc03175	0.023461083
2	0x3ef57d2d	0.47947064
3	0xbef764a3	-0.48318967
4	0x3f6eb247	0.9324078
5	0xbeb09078	-0.3448522
6	0x3e5e4e3a	0.21709529
7	0xbd683b54	-0.056697205
8	0x3eec74a3	0.46182737
9	0xbf32b3a0	-0.69805336
10	0x3ef6df85	0.48217407
11	0x3eb80485	0.35940948
12	0xbe3e662d	-0.18593664
13	0x3ee5d953	0.44892368
14	0x3d4dd108	0.050248176
15	0x3dd8329b	0.10556527

embedding.11.weight_g f4 [16, 1]
0	0xbfa64e1c	-1.2992587
1	0x4070f344	3.7648478
2	0x401df098	2.4678097
3	0xc0a61ccb	-5.191015
4	0x409701ce	4.7189703
5	0xbdccba7e	-0.09996508
6	0x3fd7356b	1.6813177
7	0xc0313819	-2.769049
8	0x40a05fb5	5.011683
9	0x407e8b7c	3.9772635
10	0xbf6ff153	-0.93727607
11	0x40b691a8	5.7052803
12	0x4051bcb8	3.2771435
13	0x3e1cd299	0.15314712
14	0x3f998710	1.1994343
15	0x408b08f6	4.344844

embedding.11.weight_v f4 [16, 1]
0	0xbf30a566	-0.6900238
1	0xbe87519e	-0.26429456
2	0xbf1fff87	-0.6249928
3	0x3dcf3ab3	0.10118618
4	0x3f3e959e	0.7444705
5	0xbdde52c7	-0.10855632
6	0x3e12ae09	0.14324202
7	0xbedd56a0	-0.43230152
8	0xbf3869f1	-0.72036654
9	0x3c54b7b3	0.01298325
10	0xbf336035	-0.70068675
11	0x3e9bb2d1	0.30409864
12	0x3da32ea7	0.079678826
13	0xbf472ad5	-0.7779973
14	0xbf27bb3a	-0.6552006
15	0x3dcc7306	0.099828765

embedding.12.bias f4 [16]
0	0x3edfb127	0.43689844
1	0xbf405902	-0.75135815
2	0x3f1178ff	0.5682525
3	0x3ca0c94f	0.019627241
4	0x3f1a7d9f	0.6034793
5	0x3ee4cbf6	0.4468686
6	0xbe6f57df	-0.23373364
7	0xbebde895	-0.37091509
8	0x3efbf8de	0.49213308
9	0xbe6dd1d7	-0.23224579
10	0x3e48f116	0.19623217
11	0x3f590171	0.84767824
12	0x3e94b721	0.29045966
13	0xbed0d67d	-0.40788642
14	0x3e110825	0.14163263
15	0xbea9d74f	-0.3317208

embedding.12.weight_g f4 [16, 1]
0	0x3fd01195	1.6255366
1	0xbf583dbf	-0.8446922
2	0x3ff36f33	1.901831
3	0xbf32032b	-0.69536084
4	0x3d9f94df	0.07792067
5	0x3fa063c8	1.2530451
6	0xbf4b78bc	-0.794811
7	0x3fb8c6fb	1.4435724
8	0xbf6fda09	-0.9369207
9	0xbe2bac15	-0.16764863
10	0xbe97560a	-0.2955783
11	0xbfadcddf	-1.3578452
12	0x4001e8c9	2.029833
13	0xbf6585cc	-0.8965728
14	0xbee5d674	-0.44890177
15	0x3fce0d1b	1.609775

embedding.12.weight_v f4 [16, 1]
0	0x3f3ee6f7	0.74571174
1	0xbf2230ad	-0.63355523
2	0xbf68386f	-0.9071111
3	0x3f0aefc1	0.54272085
4	0x3cd8c3e9	0.026460605
5	0xbf06ce70	-0.5265875
6	0xbdaa99fb	-0.08330151
7	0x3f4d7e71	0.8027106
8	0x3e3687b4	0.17825204
9	0x3eae14ac	0.34000146
10	0x3eed5616	0.4635474
11	0x3e55811b	0.20850031
12	0xbf7155a1	-0.94271284
13	0xbf642a46	-0.89127004
14	0x3f40e54b	0.75349873
15	0x3ed00084	0.40625393

embedding.13.bias f4 [16]
0	0xbecd3bf9	-0.40084818
1	0xbeb4e5ea	-0.3533166
2	0x3d8611e4	0.06546381
3	0x3f849763	1.03587
4	0xbe7a050d	-0.24415989
5	0xbef83231	-0.48475793
6	0x3f4db4e5	0.8035415
7	0x3f0f96aa	0.5608927
8	0x3e10b6e9	0.14132275
9	0xbf1322ac	-0.5747478
10	0x3ed713b8	0.42007232
11	0xbda2599c	-0.07927248
12	0xbec5f53c	-0.3866366
13	0x3f16d1c5	0.5891383
14	0x3d50a75f	0.050940868
15	0x3ec24696	0.37944478

embedding.13.weight_g f4 [16, 1]
0	0x3eb2f15a	0.34949762
1	0x3f08fb16	0.53508127
2	0x3e168a76	0.14701256
3	0x3e5631c9	0.20917429
4	0x3f5c310e	0.8601235
5	0xbe99c7dd	-0.30035296
6	0xbe260337	-0.16212164
7	0x3e30f612	0.17281368
8	0x3e66bb8e	0.22532484
9	0x3f709e1d	0.9399126
10	0x3e900af8	0.28133368
11	0x3fb6d8fa	1.4284966
12	0xbf127e3d	-0.57223874
13	0x3f74850e	0.95515525
14	0x3f389e4b	0.72116536
15	0x3f913b99	1.1346313

embedding.13.weight_v f4 [16, 1]
0	0xbe608215	-0.21924622
1	0xbf3c4a26	-0.7355064
2	0x3f2a2256	0.6645864
3	0x3eb2e721	0.34941962
4	0x3e9b3ed1	0.30321363
5	0xbdb2029e	-0.086919054
6	0x3e63ad57	0.22234093
7	0xbd4523a5	-0.048129696
8	0x3da8d012	0.08242811
9	0x3f28aae1	0.6588574
10	0x3d8b16a0	0.06791425
11	0x3f35d8e8	0.710341
12	0xbe0bca0e	-0.13651296
13	0xbf437dbc	-0.7636373
14	0x3e33f5e9	0.17574276
15	0x3f3b70ac	0.732188

representation.0.weight f4 [32, 224]
0	0x3dce75c8	0.10081059
1	0xbca1e6fc	-0.019763462
2	0xbbe01b43	-0.0068391874
3	0x3f62164f	0.8831529
4	0xbc579bde	-0.01315972
5	0xbf38e9de	-0.72231853
6	0x3e36afb6	0.17840466
7	0xbf40fb3e	-0.75383365
8	0x3f2d1199	0.67604977
9	0x3e008f80	0.12554741
10	0xbed5b28b	-0.4173778
11	0x3d39bfda	0.04534898
12	0x3d45a5bf	0.04825377
13	0x3f0aa8a6	0.5416359
14	0xbd8417f9	-0.06449885
15	0x3edb77bc	0.42864788
16	0x3d55233e	0.052035563
17	0x3db2bdc5	0.08727602
18	0x3ef6b46e	0.48184532
19	0xbd8149fa	-0.06312938
20	0xbddf9808	-0.109176695
21	0x3e88db66	0.26729888
22	0xbf20a707	-0.62754864
23	0x3f83a030	1.028326
24	0xbec1d6a9	-0.37859085
25	0xbdef49d0	-0.116840005
26	0x3e4dfdd2	0.20116356
27	0x3d678842	0.05652643
28	0x3e8e285a	0.2776516
29	0x3ef49643	0.4777089
30	0x3ecd2842	0.40069777
31	0x3e949295	0.29018083
32	0xbe51da7e	-0.20493504
33	0xbc69f769	-0.014280179
34	0x3eb5d619	0.35514906
35	0x3dfa31f9	0.12216563
36	0x3dc60998	0.096697986
37	0xbf2e1700	-0.68003845
38	0x3c1f9a8d	0.009741438
39	0xbee70319	-0.4511955
40	0x3ec8f369	0.39248207
41	0x3dc88f52	0.09792961
42	0x3d9218d0	0.07133639
43	0x3e1ed252	0.15509918
44	0x3df41fc7	0.119201235
45	0xbbda9381	-0.006670416
46	0x3e55620f	0.20838188
47	0xbdc75685	-0.09733299
48	0x3ea1c973	0.31599006
49	0x3f23668e	0.6382836
50	0xbf108689	-0.56455284
51	0x3d8416e0	0.064496756
52	0xbd6ee645	-0.05832507
53	0x3ea4a5a5	0.32157627
54	0x3f034ac0	0.51285934
55	0x3e940b44	0.28914845
56	0x3d5c86cf	0.0538395
57	0xbf395d4d	-0.7240799
58	0xbf0a455d	-0.5401209
59	0xbdf7af9a	-0.1209404
60	0xbec93b64	-0.39303124
61	0x3f1e456d	0.61824685
62	0xbeeaec7a	-0.45883542
63	0x3f34cd28	0.70625544
64	0x3d736f50	0.059432328
65	0x3e493e05	0.19652565
66	0xbef8764f	-0.48527762
67	0x3e9297e9	0.28631523
68	0x3e200d69	0.15630116
69	0x3d817f51	0.06323112
70	0x3db62360	0.08893466
71	0x3ea483d9	0.32131842
72	0xbf1b9d6b	-0.60787076
73	0xbe373c04	-0.17893988
74	0x3ed23ef5	0.41063657
75	0xbdb15083	-0.086579345
76	0xbe967c2e	-0.29391617
77	0xbf445ea0	-0.76706886
78	0xbe531184	-0.2061215
79	0x3e392aae	0.18082687
80	0xbf5c912d	-0.8615902
81	0x3dc68cb1	0.096948035
82	0xbe18c940	-0.14920521
83	0x3e1b3346	0.15156278
84	0x3e4ac1f3	0.19800548
85	0xbf11a4d3	-0.56892127
86	0x3daf7d9f	0.08568882
87	0x3e0532a6	0.13007602
88	0xbf17c872	-0.5929023
89	0x3ef85b4e	0.4850716
90	0x3f1694d5	0.5882085
91	0x3f136110	0.5756998
92	0xbe0685f0	-0.1313703
93	0xbeb3544a	-0.35025245
94	0xbcfaec8b	-0.03063037
95	0xbef000ac	-0.46875513
96	0xbd3ee402	-0.046604164
97	0x3c24ea34	0.010065604
98	0x3e7cdced	0.24693651
99	0xbe20ece2	-0.15715364
100	0xbedc3abf	-0.4301357
101	0xbe8cbadc	-0.27486312
102	0x3d5f3ae0	0.054499507
103	0x3c407772	0.011747228
104	0xbd11e962	-0.03562296
105	0x3f4cb67c	0.7996595
106	0x3f06752e	0.5252255
107	0x3f758ae2	0.95915043
108	0x3e91bd7b	0.28464875
109	0xbf19ec4c	-0.60126185
110	0x3ee01a91	0.4377027
111	0xbea97e99	-0.331044
112	0x3dc1aa1e	0.094562754
113	0x3d931651	0.07181991
114	0xbdfeb030	-0.12435949
115	0x3f169439	0.5881992
116	0x3eb35cdb	0.3503178
117	0xbe277270	-0.16352248
118	0xbeb45f62	-0.3522902
119	0xbebc0668	-0.36723638
120	0x3e1cbbce	0.15306017
121	0xbe7b06bd	-0.24514289
122	0xbea202f0	-0.31642866
123	0xbf04f4a6	-0.51935804
124	0xbe788473	-0.24269275
125	0x3ece6008	0.4030764
126	0xbe764547	-0.24049865
127	0x3e642297	0.2227882
128	0x3f6c2c79	0.9225536
129	0xbd6bdc0b	-0.057582896
130	0xbf367fc1	-0.71288687
131	0xbe1fb151	-0.15594985
132	0xbf3034c5	-0.6883052
133	0x3ef1d368	0.47231603
134	0x3e2d4114	0.16919357
135	0x3ec737e9	0.38909844
136	0xbef228b6	-0.47296685
137	0x3daf2df8	0.0855369
138	0x3d88c01d	0.06677268
139	0xbe3851b5	-0.17999919
140	0xbf8bbc78	-1.0916891
141	0x3d954f29	0.07290489
142	0xbedf9b67	-0.4367325
143	0x3f9df2d6	1.2339733
144	0xbf8902f6	-1.0704029
145	0x3dfb6ba1	0.12276388
146	0x3df2b7c9	0.118514605
147	0x3f07a5a1	0.52987105
148	0x3fa01699	1.2506896
149	0x3df5b28a	0.11996944
150	0xbecc2417	-0.39871284
151	0xbe7ef012	-0.24896267
152	0xbe1c5161	-0.15265419
153	0xbe493c9a	-0.19652024
154	0x3efc6738	0.492975
155	0x3eb01bc5	0.34396186
156	0x3e045145	0.12921627
157	0xbf5d0965	-0.8634246
158	0x3edb836f	0.42873713
159	0xbfd41581	-1.6569062
160	0xbe56771d	-0.20943876
161	0xbdab613a	-0.08368154
162	0x3f201e97	0.62546676
163	0xbd4368ae	-0.047707252
164	0xbf1483c5	-0.58013564
165	0xbe5823f7	-0.2110747
166	0xbf2bcc7a	-0.6710888
167	0x3f3de9c5	0.7418483
168	0xbeb515d8	-0.35368228
169	0x3c296fc5	0.010341589
170	0x3ec84dbd	0.3912181
171	0x3f603ece	0.8759583
172	0x3f60abe5	0.8776229
173	0x3ef5fde5	0.4804527
174	0x3f2c65a8	0.67342615
175	0x3efbe60b	0.49198946
176	0xbddb6c37	-0.10714
177	0x3f725441	0.9465981
178	0xbe6dcdd8	-0.23223054
179	0x3f188f56	0.59593713
180	0x3f77fe8d	0.9687279
181	0x3fd068cb	1.628198
182	0x3e6b00a0	0.22949457
183	0xbd64688a	-0.05576376
184	0xbd0e0125	-0.03466906
185	0xbf36b683	-0.7137224
186	0xbe9e63a3	-0.30935392
187	0xbf0f579c	-0.55993056
188	0xbe9cd04e	-0.30627674
189	0xbe12478e	-0.14285108
190	0xbe12b292	-0.14325932
191	0xbedabba4	-0.42721283
192	0xbe0bd729	-0.13656296
193	0x3f501812	0.8128673
194	0xbe84f092	-0.2596479
195	0x3ed4ae88	0.41539407
196	0x3daed23d	0.085361935
197	0xbe49e521	-0.19716312
198	0x3f0b49cc	0.5440948
199	0xbecb8cde	-0.3975591
200	0x3ee3a9b0	0.444654
201	0xbeae0bdf	-0.33993432
202	0xbe1f9257	-0.15583168
203	0x3e9e733b	0.3094729
204	0x3e6a6731	0.22890927
205	0xbe6f5239	-0.23371209
206	0x3ca06662	0.01958007
207	0xbe40a06a	-0.18811193
208	0x3d411834	0.047142223
209	0x3f5e53f8	0.86846876
210	0xbf779076	-0.96704805
211	0x3f23d97a	0.6400372
212	0x3e7d58ae	0.2474086
213	0xbec06e89	-0.37584332
214	0x3f589306	0.8459934
215	0xbf48839c	-0.7832582
216	0x3f119421	0.5686665
217	0xbe9f7698	-0.31145167
218	0xbf0888a3	-0.5333349
219	0xbe1d66fe	-0.1537132
220	0xbf413e09	-0.75485283
221	0x3e77769b	0.24166338
222	0xbf307172	-0.68923104
223	0x3e00053a	0.12501994
224	0x3eb79100	0.35852814
225	0x3fa7071f	1.3049048
226	0xbe31eac1	-0.17374708
227	0xbeb8006b	-0.3593782
228	0xbed7c80b	-0.42144808
229	0x3f10eb13	0.56608695
230	0x3ed2104b	0.41028056
231	0x3e2b3ebb	0.16723149
232	0x3f335096	0.7004484
233	0xbf86e7c9	-1.0539485
234	0xbf45bd60	-0.7724209
235	0xbb769b73	-0.0037629276
236	0x3e5216c0	0.20516491
237	0x3f0d34ad	0.551585
238	0xbd897b50	-0.06712973
239	0x3e2e35fb	0.1701278
240	0x3e09aa00	0.13443756
241	0x3e60c57d	0.21950336
242	0x3cbd0ee1	0.023078384
243	0xbe46a491	-0.19398715
244	0xbe829daa	-0.25510913
245	0x3e7168d9	0.23575152
246	0x3c9ab074	0.018882968
247	0xbcc9b803	-0.024623876
248	0x3ebc3f11	0.36766866
249	0xbe9bfd1f	-0.30466554
250	0xbdb15d7e	-0.0866041
251	0x3e1314c1	0.14363386
252	0x3efaead2	0.4900728
253	0xbe672e27	-0.225762
254	0x3d3cda09	0.046106372
255	0xbcc516a2	-0.024058644

representation.0.bias f4 [32]
0	0xbcb62cc0	-0.022238135
1	0x3d8595cd	0.06522713
2	0xbc777907	-0.015104539
3	0xbc3fe6cc	-0.011712741
4	0x3cd3253e	0.025774594
5	0x3d3c5f7c	0.0459895
6	0xbcdf7a41	-0.027279975
7	0xbcba2d68	-0.02272673
8	0x3cc53f03	0.024077898
9	0xbd89aa5b	-0.06721946
10	0x3cf138ca	0.029446024
11	0x3d7a4fad	0.06111114
12	0x3d48125d	0.048845638
13	0xbd86853e	-0.06568383
14	0x3d1f2320	0.038851857
15	0xbd6d6ddf	-0.05796611
16	0x3b7a5bff	0.0038201807
17	0x3d00a863	0.031410586
18	0x3a3931d2	0.0007064614
19	0x3d8adcfa	0.06780429
20	0x3d8c9564	0.068644315
21	0x3c13fd27	0.009032524
22	0xbd8e8a26	-0.069599435
23	0x3d7be11f	0.06149399
24	0x3d879c0b	0.0662156
25	0x3c8bedbc	0.017081134
26	0x3cf17cf7	0.029478533
27	0xbd10c717	-0.035346117
28	0x3d7889c8	0.060678273
29	0x3cf52f84	0.029929884
30	0x3d78eb3b	0.06077121
31	0xbd82806c	-0.06372151

representation.1.weight f4 [32]
0	0x3f558f2f	0.83421606
1	0x3f43a913	0.7642986
2	0x3f113368	0.56719065
3	0x3f1e08f9	0.6173244
4	0x3f2d1e12	0.6762401
5	0x3f4c50a2	0.79810536
6	0x3f0583ff	0.52154535
7	0x3eedee6b	0.4647096
8	0x3f22276b	0.633414
9	0x3f1f006c	0.6211002
10	0x3f24c045	0.6435588
11	0x3f3dc187	0.74123424
12	0x3ee12118	0.4397056
13	0x3ebd5f13	0.36986598
14	0x3f18c37d	0.5967329
15	0x3f58ae4a	0.84640944
16	0x3eee2a47	0.4651663
17	0x3edbacdc	0.4290532
18	0x3ee1a25d	0.44069186
19	0x3f1202d0	0.5703554
20	0x3f33c290	0.70218754
21	0x3f2eaaef	0.68229574
22	0x3f102358	0.5630393
23	0x3f15153c	0.58235526
24	0x3f39e96e	0.7262181
25	0x3f36acd1	0.71357447
26	0x3f4658c6	0.7747921
27	0x3f1cc5cf	0.6123933
28	0x3f18f5f1	0.59750277
29	0x3f39002e	0.722659
30	0x3f04610a	0.5171057
31	0x3f0abb6d	0.5419224

representation.1.bias f4 [32]
0	0x3ea7e31d	0.3279046
1	0xbe9ee0b7	-0.3103082
2	0x3ef3f736	0.47649544
3	0xbebd57cc	-0.36981046
4	0xbed00e51	-0.40635923
5	0x3e83cbba	0.2574137
6	0xbf051282	-0.51981366
7	0xbedfeaea	-0.43733913
8	0x3dc0f232	0.09421195
9	0xbf0c0f87	-0.5471119
10	0x3eb3478b	0.3501552
11	0xbdbebaae	-0.0931295
12	0xbf266971	-0.6500464
13	0x3f2a768f	0.66587156
14	0x3eaa380f	0.33245894
15	0x3e9dbca0	0.30807972
16	0x3ee72178	0.45142722
17	0xbedc6baa	-0.4305089
18	0xbf1e2f1b	-0.6179063
19	0x3f1e00fc	0.6172025
20	0xbeaaf3eb	-0.3338922
21	0x3e989366	0.29799956
22	0xbf225ed0	-0.6342592
23	0xbecadddb	-0.39622387
24	0xbe577746	-0.21041593
25	0xbeff27f4	-0.4983517
26	0x3e57e434	0.21083146
27	0xbec09d46	-0.3761999
28	0xbe9c8f5f	-0.30578133
29	0xbdd6bc86	-0.10485177
30	0x3f247bdf	0.6425151
31	0x3f0f0e37	0.55881065

representation.1.running_mean f4 [32]
0	0x42cbc248	101.879456
1	0x4299135e	76.53783
2	0xc2aa961f	-85.293205
3	0xc236309a	-45.547462
4	0x42e2a40a	113.32039
5	0xc110a11d	-9.039334
6	0x4305d5e5	133.83553
7	0x42777360	61.86267
8	0x4149d943	12.615542
9	0x4225e2b9	41.47141
10	0x42b7f136	91.971115
11	0xc1f509af	-30.629728
12	0x42370568	45.75528
13	0xc2566f75	-53.608845
14	0xc23855b0	-46.08368
15	0x42abee49	85.9654
16	0xc2727294	-60.611893
17	0x42ccfb94	102.49136
18	0x41c213db	24.259695
19	0xc25f845a	-55.87925
20	0xc1b60455	-22.752115
21	0xc28613f7	-67.038994
22	0x431ef381	158.95119
23	0x4101411b	8.078395
24	0x4213ea0c	36.97856
25	0xc10a16eb	-8.630595
26	0x4289ecc1	68.96241
27	0xc2d1e7b0	-104.952515
28	0xc13046e1	-11.017304
29	0xc2215c94	-40.34041
30	0xc2d281af	-105.25329
31	0xc2bb7090	-93.71985

representation.1.running_var f4 [32]
0	0x4633bf1c	11503.777
1	0x45db847f	7024.562
2	0x4620f99e	10302.404
3	0x4678220a	15880.51
4	0x46075234	8660.551
5	0x45d2c7aa	6744.958
6	0x45c0f525	6174.643
7	0x45b87405	5902.5024
8	0x45dd53b2	7082.462
9	0x4576fb19	3951.6936
10	0x464900ef	12864.233
11	0x456edc6b	3821.7761
12	0x4598eb7b	4893.435
13	0x4615423e	9552.561
14	0x45a08c78	5137.5586
15	0x46255e06	10583.506
16	0x457dabd9	4058.7405
17	0x45d6ec41	6877.5317
18	0x45dea213	7124.2593
19	0x45619b7e	3609.7183
20	0x45d9026d	6944.303
21	0x45e9b813	7479.0093
22	0x460a306d	8844.106
23	0x465ba79a	14057.9
24	0x45ad3d85	5543.69
25	0x4532f4f4	2863.3096
26	0x463e77b1	12189.923
27	0x466166b7	14425.679
28	0x459f7546	5102.659
29	0x46133ca0	9423.156
30	0x459143ed	4648.4907
31	0x45ae6f1a	5581.8877

model_weighting.0.weight f4 [2, 14]
0	0xbd5a4ada	-0.05329404
1	0xbd993722	-0.07481219
2	0x3d83a832	0.06428565
3	0x3d2f8d13	0.04285915
4	0x3c37aea1	0.011211068
5	0xbe404a87	-0.1877843
6	0x3db1602a	0.0866092
7	0x3ec34e77	0.381458
8	0xbe521381	-0.20515253
9	0x3eb6dd97	0.35715935
10	0x3ec62273	0.38698158
11	0x3f92ab28	1.1458483
12	0xbd79f26d	-0.06102221
13	0x3e3c1412	0.18367031
14	0x3e20a0e2	0.15686372
15	0xbdb7e93c	-0.08980033
16	0x3de96b99	0.11397476
17	0x3e6a3289	0.2287084
18	0xbe05f3e1	-0.13081314
19	0x3c6136ef	0.013746007
20	0xbebddc3b	-0.37082085
21	0xbc1d762b	-0.009610693
22	0x3f281e55	0.65671283
23	0xbef4338d	-0.4769558
24	0xbe764c39	-0.24052514
25	0xbf782e1c	-0.9694536
26	0xbd15c291	-0.036562506
27	0xbdff7e96	-0.12475316

model_weighting.0.bias f4 [2]
0	0x3e0debf7	0.13859545
1	0xbd2ef5d7	-0.04271492

models.0.weight f4 [1, 32]
0	0xbe63dbfb	-0.22251885
1	0x3dcc351c	0.09971067
2	0x3d51adbf	0.051191088
3	0x3bfd8588	0.0077368654
4	0xbc7ced55	-0.015437444
5	0xbe29e69b	-0.16591875
6	0xbe4cb988	-0.1999265
7	0xbda8a00b	-0.08233651
8	0xbddadb7a	-0.10686393
9	0xbea3c869	-0.31988838
10	0xbd32777e	-0.043570988
11	0xbe36196b	-0.17783134
12	0xbe7d5b51	-0.24741866
13	0x3e81812b	0.2529386
14	0x3c569cdd	0.013098923
15	0xbe651d2f	-0.22374414
16	0x3dc721f0	0.0972327
17	0xbe1c228b	-0.15247552
18	0xbe515ae9	-0.20444836
19	0x3e9c1ca2	0.30490595
20	0x3db4f750	0.088362336
21	0xbd326e91	-0.043562476
22	0xbe548f73	-0.20757847
23	0x3ba69c50	0.005084552
24	0x3da595d7	0.0808522
25	0xbec7bddf	-0.39012048
26	0xbe43b083	-0.19110303
27	0xbc0350a6	-0.008014834
28	0x3d4794ba	0.04872582
29	0x3e1d2ef6	0.15349945
30	0x3e770738	0.24123847
31	0x3e72c220	0.23706865

models.1.weight f4 [1, 32]
0	0xbd6bbad1	-0.05755121
1	0x3d376025	0.044769425
2	0xbe4dd277	-0.20099817
3	0x3e4ce260	0.2000823
4	0x3e72d7dc	0.23715156
5	0xbc93b37d	-0.018029923
6	0x3e8422c6	0.2580778
7	0x3e813eaf	0.25243136
8	0x3bc8d146	0.006128463
9	0x3e905452	0.2818933
10	0xbdcb396e	-0.09923063
11	0x3d032d94	0.03202589
12	0x3ea17170	0.31531858
13	0xbe8e2112	-0.27759606
14	0xbe3280a2	-0.17431882
15	0x3d79a749	0.06095055
16	0xbe614db8	-0.22002304
17	0x3e833ed6	0.25633878
18	0x3ea7dbbc	0.32784832
19	0xbea0db8a	-0.31417495
20	0x3db4b3cb	0.08823355
21	0xbe414d8c	-0.18877238
22	0x3e9611df	0.2931051
23	0x3e284ff3	0.16436748
24	0x3db7759e	0.089579806
25	0x3e5a2e9d	0.21306844
26	0x3c94b88b	0.018154403
27	0x3e16f247	0.14740859
28	0x3e0cb3bf	0.13740443
29	0xbcaadf37	-0.02085839
30	0xbe8dd36e	-0.2770037
31	0xbe88645b	-0.26639065
