bank/Models/transformer_v4/0.901_1/params.pt (torch_old, 44024 bytes, 70 tensors)

transformer_encoder.layers.0.self_attn.in_proj_weight f4 [96, 32]
00000000: 3b79 3abe c5c2 1f3d 3a36 2fbd 8d05 29be
00000010: 4235 0b3c 5c73 b7bd 34f9 833e f8b9 bd3d
00000020: 7d51 6dbd 9145 4e3e 4655 8dbe c0f1 7d3d
00000030: d0d4 39be b030 ecbd 5e6c cb3d c064 123e
00000040: 7735 0c3e 5315 2abe b44a 2dbe c8e9 e6bc
00000050: 9bf1 d7ba 2c9a c33d 0b03 eb3c f598 adbd
00000060: 6678 253e a676 9d3d 9e16 943c 6f8e dd3c
00000070: 4886 143d 273f e2bd 3561 0a3e 453e 953c
00000080: a95f 443e 5e56 5bbe c0ed 293e 36ac b6bd
00000090: 6562 8abd b7be 3f3e eb1b 72bd 8736 333d
000000a0: 467f ef3d bd93 febd 2494 8b3d 254c 26bc
000000b0: 4ecd 2dbe 15e1 ccbb c655 76be c42f 22be
000000c0: 1303 99be 0e2d 913d 3d02 d9bc 4813 f3bb
000000d0: 3b40 5dbe 6176 e0bd ef19 0dbe 7fd1 1a3d
000000e0: 823a 8bbd f5a3 1ebe d147 64be 75c8 68be
000000f0: 7f70 683b d873 a83d ca39 043d 5668 2c3d
00000100: 3a10 cdbd 27dc 953e 740b b0bd be48 04be
00000110: e72f 593d 7529 aa3d 745c 843c f30d 543e
00000120: 98c4 92bd c391 4ebe a4e8 72bd 5f71 743d
00000130: 684c b4bd 216d f7bc 1dc3 1bbe 52fb 253e
00000140: 8804 0c3e f18b 33bc 64cf 6c3d 5979 3ebd
00000150: aeab a93d bda7 31be cc88 493b 2e5b 5fbd
00000160: 7fc7 fd3b 8833 03be 05ff b13c 19cb 43be
00000170: ba99 80bc 42e8 d9bd 7d70 a53e a1ae 5d3d
00000180: 70d5 38bc ce46 b2bd ef68 04be 654c af3d
00000190: ab98 05be 01e3 1ebe 79a4 3bbe 311a 0c3e
000001a0: cb4d a1bd a32d c13d 4a85 26bd 0c0c cc3c
000001b0: be0d b9bd c62d 08bd b416 ad3d 6ff4 09bd
000001c0: 3792 b23d 8656 9cbd aa5d 98bc 1304 43bd
000001d0: bb91 703e 0808 23be 7d7d 03bc a94a 2e3e
000001e0: f977 babd 82cd 143e 1a95 bbbd 9793 ddbd
000001f0: c7b2 dbbc 5d23 a9bd 923f 87be 7c98 2abe
00000200: cf39 abbd 4f36 7b3e 42f6 85be d329 35bd
00000210: 55a5 ca3d 8288 293e 370b 4ebe 4e64 d03d
00000220: 5b13 4cbd 9929 50bd 1541 173e a003 8d3d
00000230: e900 8a3e 3dda c33c 8ef8 f0bd 72c6 13bc
00000240: 109e 313e 3798 d13c b1de bebd 0279 97bc
00000250: 0762 313e 44a4 26be 6075 87bc 6525 3ebe
00000260: 6565 5fbe 5a3e 58be 96e1 423c 501f 13be
00000270: 3a9b 0abe d8ad 1bbc 8492 b23d 32fb 10bd
00000280: 629d 6c3e 58a9 213e 31e4 2ebe d6b8 973e
00000290: 2864 afbd 2ce3 51be e729 94be 346a 993d
000002a0: 0dc0 223e 8eea b0be 2d95 99bc 3d54 2ebe
000002b0: e5f0 b03e 32eb 1d3e 8963 97bb 1ef3 9a3d
000002c0: b4b4 593d f472 343e 077e 46be c106 2f3e
000002d0: d61c 81bd 7aea 38be 886f b33d 79ed 08be
000002e0: 2373 3cbd 5ac2 4abd 20d3 ccbd d032 2b3e
000002f0: 2c24 c63d 2470 bfbe 3f1d 1fbd a176 d23d
00000300: cab9 613e a0d9 63be 9672 1e3e e214 8f3d
00000310: 30ff 223c 3c82 b7bd 9ba5 77bd 9c7c 28be
00000320: afa6 83be db3c 26be d7ec a2bb 99ec 7ebe
00000330: d917 373e 3611 a03d fc90 b33d 39bf 80bd
00000340: 4678 c5bc b292 d4bd 328d 86be a484 073e
00000350: 4b2a 323d f967 0c3e e345 29be 192b 993c
00000360: 94ef 75be f7e9 b43d 2b25 20be 6039 1c3a
00000370: 41d1 38be e67b 52be 8529 23be 9710 873d
00000380: 6f4b 8d3e 5138 c0bc d727 a73e 536a 7e3e
00000390: 7946 1bbe 67da d43d 6300 43bd 88e1 1cbe
000003a0: 398c b2be 0ced 143b 3740 c5bd 9c13 48be
000003b0: 9c6b 3c3e 2485 5dbd 34eb f7bd 49b4 71bd
000003c0: 12d9 aa3d e9a3 cb3d dcc9 c73d ab38 78be
000003d0: b46c 333d 10fb 7dbe 0ec3 d4bd ac0e 1b3e
000003e0: 424d 5d3e 890f 0e3d e08b 15bd e0f6 1d3e
000003f0: 59e7 153e 1995 4cbc 93ee b7bd d2dc b03d
-0.18210308 0.039004106 -0.042776324 -0.16506024 0.008496584 -0.0895755 0.25776064 0.09263986
-0.05793904 0.20143725 -0.2760412 0.06199813 -0.18147588 -0.11532724 0.09932779 0.14296246
0.1369227 -0.16609697 -0.16923028 -0.028187647 -0.0016475202 0.0955089 0.028687974 -0.0847644
0.1615921 0.07688646 0.018077191 0.027045457 0.036260873 -0.110472016 0.13513644 0.018218169
0.19177116 -0.21419665 0.165946 -0.089195654 -0.067570485 0.18725096 -0.059108656 0.043753173
0.11694197 -0.124305226 0.06815365 -0.01014999 -0.16972849 -0.006252418 -0.24056157 -0.15838534
-0.29885158 0.070886716 -0.026490325 -0.00741807 -0.21606533 -0.10960079 -0.13779424 0.037797447
-0.06798269 -0.15492232 -0.22293021 -0.22732718 0.0035467444 0.082252204 0.032281674 0.04209169
-0.100128606 0.29269525 -0.085959345 -0.12918374 0.0530242 0.083086886 0.016157366 0.20708446
-0.071664035 -0.20172791 -0.059303895 0.05967843 -0.08803636 -0.030203404 -0.15211149 0.16209152
0.13673604 -0.010958658 0.05781497 -0.046502445 0.082846984 -0.17349143 0.0030751703 -0.054530315
0.007744729 -0.12812626 0.021728048 -0.19120444 -0.015698303 -0.10640003 0.32312384 0.054121617
-0.011281356 -0.08704911 -0.12930654 0.08559493 -0.1304652 -0.15516283 -0.1832446 0.13681866
-0.07876166 0.09432533 -0.040654458 0.024908088 -0.09035824 -0.033246778 0.08451596 -0.033680376
0.087192945 -0.076336905 -0.01859935 -0.047611307 0.23493092 -0.15921032 -0.008025524 0.17020668
-0.09104914 0.1453152 -0.09159298 -0.10819166 -0.026818646 -0.08258698 -0.26415688 -0.1665973
-0.083606355 0.24532436 -0.26164442 -0.04422934 0.09894816 0.1655598 -0.20121466 0.101753816
-0.049823146 -0.05082092 0.1477092 0.06885457 0.2695382 0.023907775 -0.11766158 -0.009019481
0.17345452 0.025585277 -0.09319819 -0.018490318 0.1732255 -0.162736 -0.016535461 -0.18568952
-0.21816023 -0.21117535 0.011894604 -0.14367414 -0.13535777 -0.009501897 0.08719352 -0.03539581
0.23106912 0.15787256 -0.17079236 0.29633206 -0.08564025 -0.20496815 -0.2893822 0.0749096
0.15893574 -0.3455395 -0.01874789 -0.17024322 0.34558788 0.15421751 -0.00462002 0.07565902
0.053150848 0.17621976 -0.19384013 0.1709242 -0.06304328 -0.18058196 0.08761507 -0.13371839
-0.04600824 -0.049501754 -0.100012064 0.16718602 0.09674868 -0.37390244 -0.03884625 0.10276533
0.22043529 -0.22250986 0.15473399 0.06986405 0.009948537 -0.08960387 -0.060460668 -0.16453785
-0.25713107 -0.16234152 -0.004972081 -0.24894942 0.17880191 0.07815783 0.08767888 -0.06286473
-0.024105202 -0.103795424 -0.26279598 0.13234192 0.043497365 0.13711537 -0.16530566 0.018697308
-0.24017173 0.08833688 -0.15639178 0.0005959477 -0.18048574 -0.20555076 -0.15933807 0.06594961
0.27596614 -0.023464354 0.32647583 0.24845247 -0.15163602 0.103932194 -0.04760779 -0.15320408
-0.34872606 0.0022724299 -0.09631389 -0.1953873 0.18400425 -0.05408205 -0.12105408 -0.059009824
0.08342184 0.09943373 0.097552985 -0.24240367 0.04380484 -0.24802804 -0.10388766 0.15142316
0.21611503 0.034682784 -0.03651035 0.15426207 0.14639033 -0.0124867195 -0.08981051 0.08635868

transformer_encoder.layers.0.self_attn.in_proj_bias f4 [96]
00000000: 2b5e 713b e76d 913c d468 723d 48bf 453c
00000010: f18b 1e3d 1384 6cbd 5690 ffbb d1f6 903d
00000020: 50f6 5abd 2d1a b3bd 8999 5ebd 7c52 10bc
00000030: 500d d8bc ad03 3abd 002c 66bb 50c7 83bd
00000040: 0230 fe3b 1bd6 48bd 1e46 a13d a5ef 063d
00000050: a1bc aebd 868f 9cbc ab3d 33bc b49d d1bc
00000060: 4445 993d 5694 3e3d b56c 723d cdd1 a03b
00000070: 1be0 febc 44ed f63d c800 d7bc e18e 403d
00000080: 2b14 ceb9 e543 4aba 1ac3 d0ba 896a 0439
00000090: fe1c e0b9 0682 00b9 56d0 7d39 3cc6 1839
000000a0: 6409 f5ba dd89 3e38 aa52 8fb9 d8ac 313a
000000b0: 2ab1 f3b9 3ebf af3a 6492 62ba f9c0 cb39
000000c0: addc 693a aecb 89ba e92d 4b3a be19 c6b8
000000d0: 3133 06b9 fc63 9eba 6c73 23bb eec0 f2b9
000000e0: 098d f439 1aab 2eb9 7427 133a 776f d1ba
000000f0: a37d 2dba 00e3 9f38 34db 45ba 0334 b5ba
00000100: 240b 6c3c fc55 0abd c6d7 11bb a630 21bd
00000110: 86c2 72bc 9ba2 8abd c7f3 bfbc 76ea e3bc
00000120: 622e f6bb a48c d4bc 528d 343d 9194 06bd
00000130: 17da 06bd f31b 15bd b7e2 bebd 4c45 9b3a
00000140: 6e0e a7bc 2ec3 a1bc eb62 7cbd e724 a83d
00000150: 2b8e a2bb 06b0 2ebd cb55 1a3d f1b8 2dbd
00000160: a48c 683d 37a7 023d cd58 c9bc 6a49 5fbc
00000170: 3878 963d 6669 2d3d 9364 163d 64e2 013d
0.003682981 0.0177526 0.059182003 0.012069531 0.038707677 -0.057743143 -0.0077991886 0.070783265
-0.05345756 -0.08745227 -0.05434564 -0.008808728 -0.026373535 -0.04541366 -0.003512144 -0.064345
0.007757188 -0.049032312 0.07874702 0.032943387 -0.08532072 -0.019111406 -0.010939996 -0.025587894
0.074839145 0.046528183 0.059185702 0.0049078227 -0.031112721 0.120569736 -0.02624549 0.04701126
-0.00039306408 -0.00077158056 -0.0015927285 0.00012628188 -0.0004274621 -0.00012255469 0.00024205571 0.00014569698
-0.0018694815 4.5427925e-05 -0.00027336675 0.000677777 -0.0004648057 0.0013408435 -0.000864303 0.00038862953
0.0008921128 -0.0010512972 0.00077506766 -9.4461706e-05 -0.00012798306 -0.0012084241 -0.0024940623 -0.0004630158
0.00046644386 -0.00016657673 0.0005613484 -0.0015978654 -0.00066181476 7.623993e-05 -0.00075476174 -0.0013824705
0.014406953 -0.033773407 -0.0022253855 -0.039353035 -0.014816886 -0.06769296 -0.023431672 -0.02782176
-0.0075128535 -0.025945969 0.044080086 -0.032856528 -0.03292283 -0.036403608 -0.09320586 0.0011846214
-0.020392623 -0.01974639 -0.061617773 0.082101636 -0.0049607954 -0.042648338 0.037679475 -0.042412702
0.05677475 0.03189775 -0.024578476 -0.013628343 0.07347149 0.042336844 0.03671701 0.031710044

transformer_encoder.layers.0.self_attn.out_proj.weight f4 [32, 32]
00000000: 3715 92bd 2525 c6bc 256d 8fbe a912 b13d
00000010: f357 06be 70bc 9e3d 48ba 203e e5a6 48bd
00000020: a881 c7bd 3668 ef3d 115b ccbd ac9d 2a3d
00000030: e91a f7bd b3b1 953c f753 9cbe 94b5 3bbd
00000040: 232f febd 9935 06bd d4c2 72bd 281c 76be
00000050: d250 d1bd f28e 093e ff96 203e 3511 dc3c
00000060: f38b 2e3d 3fd7 a9bc 7478 e93c b205 94be
00000070: 4b65 b5be a345 1d3e 199d 6fbe d6c4 2fbe
00000080: 7a2f 9f3d 58aa 763e 261b 133d d807 073d
00000090: 4aad 123e 7c14 0c3c f667 c03d 0c40 5f3d
000000a0: aae2 54be 7a8f ad3d 76e5 60be bf4d e13d
000000b0: e5ae 833e b416 84be 0189 033e 91cf a63d
000000c0: 4f1e 6bbe a671 123e 5bf5 923c 87f7 d3bd
000000d0: 142b 8c3d f1d7 0d3d 2f5d c33c 987d f23d
000000e0: 5400 423e 4628 753c 43ca 14bd 0aee b53c
000000f0: ba3d 29be c001 33bd 1a78 373d 4082 3c3e
00000100: 6367 1abe 4af3 b33e d0bd e93e 83ab d53e
00000110: 50b2 893e d5ad 293e 185a 2c3e 9784 853e
00000120: 585f 2dbe 0f99 853c 3b01 46be 7575 3bbe
00000130: 7a4b 893e bc2a 60be c5fe c73e 71f2 d13c
00000140: d4aa 9c3e c602 b6be 0e77 423e 7ee0 ad3e
00000150: 4b02 953e c8da cd3d 3955 29be 121b 9c3e
00000160: d418 203e 708c 553e a1b8 063e 0cc4 0c3e
00000170: 3142 d13d 8fc0 ccbd 1531 763e 8220 a63e
00000180: 5e76 113d 9f3a 813d 6f6a 53bb 770e d93d
00000190: 5b96 dd3d e987 a6bb 4694 a13d decb 1fbd
000001a0: 290b adbb 30f4 3a3d be70 ccbd 1125 22be
000001b0: e9a9 8b3c 6ee0 263d 7985 88bd e349 303d
000001c0: 2cd6 f83d 70a2 ffbd 5a49 833d e3df 5b3d
000001d0: 7e41 e03d 3b64 763d 1f4a 1d3e bfce 873d
000001e0: 4a23 d13b 9175 f6bd 53f2 e83c 702f 2abe
000001f0: 8b09 113d 3140 0d3e c553 d0bd 717c 45be
00000200: 550a 8d3d 4fba 11be f5bd 04be 335c fcbd
00000210: 421f ecbc aaf5 d2ba 4e7b f4bc 707e c7bd
00000220: c818 a1bc 7d91 16bd abce 563b d8aa 2dbd
00000230: 5bb3 c3bd f7d0 273e 773e 25be 2072 bd3d
00000240: a2fe 113d 7acc 743d f2bd a5bd d1b4 1b3d
00000250: 3bd3 e3bd 291f 12be 80c3 523e 5db4 f6bd
00000260: 5176 d5bd 9852 02bd cfbd 0b3e d588 15be
00000270: d421 e33d 463b 243d 42b1 01be 03f6 22be
00000280: d732 f6bd f677 9e3d 3c71 babd 6e1e 2f3d
00000290: 6776 e4bd 9eb8 88bd ae0c 093d f104 87bd
000002a0: 6902 ffbd 7fce 003e 576d 63bd 0ffd 293d
000002b0: e39c cdbd ecc3 a93d e828 343e 108b 5ebd
000002c0: f6d5 123e 71cc 59bd 43dc c0bb 2b8b 153e
000002d0: da62 6d3e 8519 463d 284f bd3d b962 dbbc
000002e0: b591 15bd 798e 053e e939 133e ed65 503d
000002f0: 81de 6d3e 2ecf 8dbd 40a7 f2bd 09d5 ba3c
00000300: 62db 0bbe 0d3f 81bd ad2a 0abe e132 e7bd
00000310: d0f8 c4bd 06e0 b13d 2b02 ea3c ae11 b23d
00000320: a943 9cbd db19 d83c cccb 533d 3672 e4bd
00000330: 5300 e03d a693 453d 0faa 4e3b fca4 af3d
00000340: a2f9 debc bb2f 183e 8600 d2bc 9701 9f3d
00000350: 663d 9d3c 54a6 03be bb7d 1e3e ac5b 04bd
00000360: dacd 73bd 3ce7 a73d 7f7c e9bd d4ec 2a3d
00000370: ea7d c63d ceac 233d 6542 11bd 5b44 ae3d
00000380: 94f2 48bc 3dfa 363e 5efb 9ebd 98b0 a83d
00000390: e21d 9fbd 9677 92bd 4a61 4f3e ea9c a23c
000003a0: a487 eabc 20a3 b9bc b7ec fbbd 695a f23d
000003b0: 889a 233c 7123 45be f7d5 a33d 476f 27bd
000003c0: 008a 54bd 2a85 33be 2572 173e ef21 98bb
000003d0: 01cb 63bd caad 7dbd 5f6a 92bd d00a 8d3d
000003e0: 0b4e 8cbd 075a 12bd 0f98 febc 5bef 903e
000003f0: 9765 123d aea8 413d 32a1 f43d b5f8 94bd
-0.07132953 -0.024187634 -0.28012958 0.08646137 -0.13119487 0.07750785 0.1569606 -0.048987288
-0.09741527 0.116897985 -0.09978307 0.041654274 -0.120656796 0.01827321 -0.3053281 -0.045827463
-0.12411334 -0.03276596 -0.059267834 -0.24034178 -0.102204934 0.13433436 0.156826 0.026863674
0.042613935 -0.02073252 0.02849982 -0.28910595 -0.35428843 0.15358596 -0.23399772 -0.1716493
0.07772727 0.24088418 0.035914563 0.032966465 0.14323917 0.008549806 0.09394829 0.05450444
-0.2078959 0.084746316 -0.21962532 0.11001157 0.2571937 -0.2579857 0.12845232 0.08145059
-0.2296078 0.14301166 0.01793926 -0.103499465 0.06844154 0.034629766 0.023848144 0.11840361
0.18945438 0.014963215 -0.036325704 0.022208232 -0.16527453 -0.04370284 0.044792272 0.18409061
-0.15078501 0.35146552 0.45652628 0.41732416 0.26893854 0.16570218 0.16831243 0.2607772
-0.16930902 0.016308336 -0.19336407 -0.18306525 0.26815397 -0.21891302 0.3906156 0.0256283
0.30599082 -0.3554899 0.18990728 0.33960336 0.29103312 0.10051495 -0.16536416 0.30489403
0.15634471 0.20854354 0.13156368 0.13746661 0.10217703 -0.09997665 0.24042161 0.32446676
0.035513274 0.06310009 -0.0032259484 0.10598462 0.10819694 -0.0050821197 0.07889609 -0.039012782
-0.0052808714 0.04564303 -0.09982441 -0.15834452 0.017048793 0.040741377 -0.06666083 0.043039214
0.12150225 -0.12482154 0.06410475 0.053680312 0.10949992 0.06015418 0.15360306 0.066312306
0.0063823806 -0.12034143 0.028435862 -0.16619658 0.03540949 0.13794018 -0.10172228 -0.19285752
0.06886736 -0.14231227 -0.12963088 -0.12322273 -0.028823499 -0.0016094942 -0.029843953 -0.09740913
-0.019665137 -0.036759842 0.0032776992 -0.042399257 -0.09555694 0.16388308 -0.1613711 0.09250283
0.035643227 0.059765317 -0.0809287 0.038014237 -0.111242734 -0.14269699 0.2058239 -0.1204612
-0.10422958 -0.03181705 0.13646625 -0.14602979 0.110904366 0.04009559 -0.12665275 -0.15914159
-0.12021416 0.077377245 -0.09103629 0.04275363 -0.11155396 -0.06675838 0.033459358 -0.065927394
-0.124516316 0.12578772 -0.055524196 0.0415011 -0.100396894 0.08289322 0.1759373 -0.05433184
0.14339432 -0.053173486 -0.0058856322 0.1460387 0.2318224 0.04836418 0.092436135 -0.026780473
-0.03651591 0.1304263 0.1437756 0.050878454 0.2322941 -0.06924282 -0.11848307 0.022806661
-0.13657907 -0.06310854 -0.13492842 -0.11289001 -0.0961777 0.08685307 0.028565487 0.086947784
-0.07630093 0.026379516 0.051708028 -0.111545965 0.10937562 0.04823651 0.0031534468 0.0857639
-0.027218644 0.14861958 -0.025635015 0.07763975 0.019194316 -0.12856418 0.1547765 -0.032313988
-0.059522487 0.08198401 -0.11400699 0.041729763 0.09691985 0.03995972 -0.03546371 0.085091315
-0.012264866 0.17868896 -0.07762788 0.082368076 -0.077693716 -0.071517155 0.20251957 0.019850213
-0.028629132 -0.022660792 -0.12301009 0.118336506 0.009985574 -0.19251801 0.07999795 -0.040877607
-0.05188942 -0.17531267 0.14789636 -0.004642717 -0.05561352 -0.061933316 -0.07149195 0.06886828
-0.06850823 -0.035730388 -0.031078367 0.28307614 0.035741415 0.047280006 0.11944808 -0.072739996

transformer_encoder.layers.0.self_attn.out_proj.bias f4 [32]
00000000: 5746 27be a44a 32be c5c2 b23d 1dfa 033c
00000010: 0b40 2c3d 0f73 463d d21e de3b 6212 66bb
00000020: 555b 13bd 24e4 8ebc fbbc 9d3c 19f3 fdbd
00000030: 8ae8 cf3d 705b 06be 3fa8 9cbd f62c 5cbd
00000040: 02e4 38bd 1974 cb3c c823 893c 25c5 86bc
00000050: 0433 49be 7ad8 0fbd ac4a acbd a9cb cc3b
00000060: 0127 f7bc c473 493d 4965 a53d 42d7 a23d
00000070: 7a81 693b 5a30 ba3d 57c3 9b3c 0bb2 03bd
-0.16335426 -0.17411286 0.087285556 0.008055237 0.042053264 0.048449572 0.0067785764 -0.0035106172
-0.035975773 -0.01744277 0.019255152 -0.12399883 0.10151775 -0.13120818 -0.07649278 -0.053753816
-0.04513932 0.024835633 0.016740695 -0.016451428 -0.19648367 -0.035118558 -0.0841268 0.006249864
-0.030169966 0.04918267 0.08075959 0.079512134 0.0035630153 0.090912536 0.019014044 -0.032152217

transformer_encoder.layers.0.linear1.weight f4 [16, 32]
00000000: 0dfa aabd af41 13bd 15eb 6abd 8325 65bd
00000010: d4ea 193e f284 05be ad0b 033d 5d73 56bb
00000020: 5e27 0e3d 4754 02bc fff6 92bd 4d06 573e
00000030: bb53 3a3d 2ba3 e23c 60af f9bd a2fa 5b3e
00000040: 923a 7fbe ad16 4abe bda6 32bc 2d7a c7bd
00000050: 5beb 423c 32f9 04be c97c d5bd 4b6e 51bd
00000060: 2f78 c8bd 0015 603d 0ae8 25bd 1c63 fbbd
00000070: 8727 7d3d a610 d23d d55d 3f3e edf7 debc
00000080: 6993 dabd 2da9 bdbd 4d4a cabd a4da 9a3e
00000090: b269 2cbe faae 10be 5df0 ddbc f25a 0c3d
000000a0: 1f81 eebd d125 293e d421 313e 7e0a 51bd
000000b0: 2ca3 823d 591f d93d ab59 9a3d 2e7b 1ebe
000000c0: 60ab 6abe e3cc ddbc 897e 48bd b819 85bd
000000d0: de78 2bbe 1a92 acbd 8e6b 0e3e 1506 1bbc
000000e0: 6553 62be c15d 493e 9373 b1bd cc4b 743c
000000f0: 4fea a0bc 32eb 82bd ebae 95bc 0354 2b3e
00000100: 0f69 253d 025f 933d 8a20 56bd 376c 6d3d
00000110: 5502 9ebd 1ea4 c63c 71e4 36be 8dc1 cf3d
00000120: f906 933e 1abe c3bd 8c92 79be 021e 623e
00000130: 1812 b6bd e8e6 073e b93d a23d 0091 0a3e
00000140: 4236 7f3c 297a 773e fb0a 8b3d 61f5 4d3e
00000150: 1394 52be 2b72 febb 2828 0b3e 05dc acbb
00000160: 2ce4 f8bc 25d4 293e d0a0 d8bd 9434 163e
00000170: b6a6 ccbd 7039 fb3d 29fc 27be 66df 09bc
00000180: 3d78 f63d ce96 72bd 6622 e23d c18d 16be
00000190: 6991 3cbd a62b 34be f03c ae3d 2bb3 0a3d
000001a0: 011a 0bbe 20b8 7cbd d517 e03d a4a0 5c3e
000001b0: 0b8d 43be 87cf 2e3e 3e17 7dbe ed32 14bc
000001c0: 5042 983d bdf5 b2bd fee9 a83d 0e2c c13c
000001d0: 7d77 1d3c a28a a0ba 6bf3 873c d445 ff3d
000001e0: 8544 e23d 4294 1fbe c472 673b 30d7 e9bc
000001f0: 09d4 aabd 842c c43d c87e 413e b799 bcbd
00000200: 3a01 32bc 54a8 1fbe b07f 9abd 49ce 07be
00000210: d592 4f3d 7c8b e73d b54b e9bd f760 47be
00000220: c879 753d 1fa0 5b3d 05d5 0e3e 737b 193e
00000230: f999 43bb fbb4 41bd 3268 87bd eded 413d
00000240: 842c c73d 6518 003d 1210 a83c af9f 173e
00000250: c348 633e b026 113d 2b15 4ebe 02bc 193e
00000260: 1d54 efbd 67b8 87be d1e1 efbd ed5d 1dbe
00000270: 3f1c 0b3e 3d9a c5bc 6838 053e 37d5 ce3d
00000280: bc17 0bbe bfda 4ebd 3080 b2bd 18cb 6fbe
00000290: a837 7e3b 9c38 5abd d85d 6c3c 2176 de3d
000002a0: 3948 eb3d f1d4 4dbe 67e7 82be d240 2b3e
000002b0: d466 d9bd 144a 143e 7d6d d6bc af7a 53be
000002c0: 6a8f 3c3d 5ffc 42be e56b b0bc cdc9 983d
000002d0: 39b2 19be 43d8 023d c47b 3e3e ee0c f53d
000002e0: 6f36 f43d fb9c 72bd 42b2 043e 6557 8fbc
000002f0: 701b 323e b5b5 423e 80e3 a4bd e763 39bd
00000300: 3281 353e 5b1a 303e 107b 0ebd 8d6b 40be
00000310: 36d7 8fbc 1423 023d c65b 763d a189 773e
00000320: 687a 0ebc 1cbc 76bc de82 c23c 9b56 3cbe
00000330: 4772 4fbe e133 bc3d 33eb 19be 0e57 d3bd
00000340: 1927 13be 9365 efbd 90e4 843d 857f 9abd
00000350: 9a0a 19be 4eed a3bc 2b94 b93d b9be 07be
00000360: c9fb 1c3e 18cd ac3d f583 96bd db11 6c3e
00000370: 39eb 8abd fc3b e5bc 43b2 1dbe 9d6f 8abd
00000380: 75eb d5bd 7216 49bd 450c 38be 768a d2bd
00000390: 52f9 b83d aaac c9bd 8e3f fcbd 5a79 083e
000003a0: ae72 713d 0591 84be 4030 9bbe c33d 35bd
000003b0: cac1 5abc 131a 343d f9f6 a53d 5bad 7c3d
000003c0: 004b eebd c771 9fbd 1076 0e3d e2f6 be3d
000003d0: 2f06 583d 92e6 12bd 36b0 cbbc 27c0 98bd
000003e0: 65c9 173d 98a3 10be 4a9a b5bd 5770 083e
000003f0: dd45 893c 5874 a2bd 161c 293e d34f 8abe
-0.08348475 -0.035951313 -0.057353098 -0.055943977 0.15030986 -0.13038996 0.031993557 -0.003272257
0.034705512 -0.007954664 -0.07176017 0.20998497 0.045490008 0.027665695 -0.12191653 0.21482328
-0.24924687 -0.19735213 -0.010904011 -0.097401 0.011896933 -0.12985685 -0.104241915 -0.051130574
-0.09788548 0.054707527 -0.040504493 -0.12274763 0.061805274 0.10257082 0.18688138 -0.02721783
-0.106726475 -0.09260783 -0.09877453 0.30244935 -0.16837195 -0.14129248 -0.027092153 0.03426642
-0.11645722 0.16518332 0.1729806 -0.051035397 0.06378779 0.10601682 0.07536634 -0.15476677
-0.22916937 -0.027075237 -0.0489488 -0.06499046 -0.16745326 -0.08426304 0.13908216 -0.009461899
-0.22102125 0.1966467 -0.08664622 0.0149106495 -0.019642977 -0.06392516 -0.018271884 0.16731267
0.040383395 0.07195856 -0.052277125 0.05796453 -0.077152885 0.024248179 -0.17860581 0.10144339
0.28716257 -0.09557743 -0.2437231 0.2208176 -0.0889017 0.13271677 0.07921929 0.13531876
0.015576901 0.24167694 0.06789204 0.20113136 -0.20564298 -0.0077650747 0.13589537 -0.005275252
-0.030382238 0.16584833 -0.105775476 0.14668494 -0.09992735 0.12266815 -0.16404785 -0.008415079
0.120346524 -0.05922585 0.11041717 -0.14702512 -0.04603711 -0.17594776 0.08507717 0.033862274
-0.13584138 -0.061699033 0.109420456 0.21545655 -0.19096772 0.17071353 -0.24715897 -0.009045345
0.07434523 -0.08738277 0.082477555 0.023580577 0.009611008 -0.0012248347 0.016595563 0.124644905
0.11048225 -0.155839 0.0035316208 -0.028544992 -0.08341224 0.09578803 0.1889602 -0.09209006
-0.01086455 -0.15591556 -0.07543886 -0.13262285 0.05067714 0.113059014 -0.11391393 -0.19470583
0.059930593 0.0536195 0.13948448 0.14988498 -0.0029846414 -0.047291737 -0.066116706 0.047346044
0.097252876 0.031273264 0.020515475 0.14807008 0.22195725 0.035437286 -0.20125262 0.15013126
-0.11685965 -0.26507875 -0.11712993 -0.15367861 0.13584994 -0.024121398 0.13009799 0.10099261
-0.13583273 -0.05050158 -0.08715856 -0.23417318 0.0038790498 -0.053276643 0.014426671 0.10862375
0.11488385 -0.20100762 -0.2556717 0.16723946 -0.10615316 0.14481384 -0.026175255 -0.20652269
0.046035208 -0.19041584 -0.021535823 0.074603654 -0.15009393 0.031944524 0.186019 0.11965357
0.11924445 -0.05923174 0.12958625 -0.017497728 0.17393279 0.19014628 -0.08051205 -0.04526129
0.17725065 0.17197554 -0.03478533 -0.18791027 -0.017558675 0.031771734 0.060146116 0.24173595
-0.008696176 -0.015059497 0.023744043 -0.18392412 -0.20258437 0.091895826 -0.15031128 -0.10319339
-0.14370383 -0.116892956 0.06488907 -0.07543854 -0.1494545 -0.020010617 0.09061464 -0.13256349
0.15330423 0.08437556 -0.073493876 0.23053686 -0.067831464 -0.027982704 -0.15400033 -0.0675957
-0.104453005 -0.04909367 -0.1797343 -0.102803156 0.09031929 -0.09847386 -0.123168096 0.13327542
0.058947258 -0.2589189 -0.3031025 -0.044248354 -0.013351867 0.04397018 0.08103747 0.061688762
-0.11635399 -0.07785373 0.034780562 0.09324433 0.052740272 -0.03586442 -0.024864297 -0.07458525
0.0370573 -0.14124906 -0.08867319 0.13324104 0.016756946 -0.07932347 0.1651462 -0.27014026

transformer_encoder.layers.0.linear1.bias f4 [16]
00000000: e112 41be a583 d7bc 244a 5abe 0e59 86be
00000010: adba d53d 4cc7 b5bc 1952 0abe 1737 d93c
00000020: be54 8ebd a8d1 81be a1ba 2dbe 00bb 463d
00000030: 751f adbd e79f 28be 6f32 613e 90a8 9ebd
-0.18854858 -0.02630789 -0.21317345 -0.26239818 0.10435996 -0.022189759 -0.1350788 0.026515527
-0.06949757 -0.25355268 -0.16965725 0.04851818 -0.084532656 -0.16467248 0.21991895 -0.077469945

transformer_encoder.layers.0.linear2.weight f4 [32, 16]
00000000: 456c 9c3d 2c5d f63d 5637 fb3d 72f5 183d
00000010: d007 853e f68e bbbd 7272 ee3c e40a a5bd
00000020: 8158 513e 59ac efbd abe6 50be f986 e23c
00000030: e788 7bbe fa16 32bd cc6b 80be 5276 263c
00000040: 2783 1ebe f3e8 09be 07b8 67bd b94b 86bd
00000050: e02d 483e 9fff a5be abd7 773e 0814 49be
00000060: 039f 323e 37ac 58be daf1 11be 4f02 87be
00000070: 0286 f53c 8b00 53be 4380 3ebe 5455 75bc
00000080: 6983 a53d 0f29 8c3e 2cc5 623e c99d dabd
00000090: 3203 603d f6cc 3abe 60c2 f6bd c4b6 333d
000000a0: aef3 9e3b 00f3 5c3e 572d 943e 7e13 57be
000000b0: c1d5 223d 1d19 8c3e 8ffa 05be c8f5 4a3e
000000c0: 23d0 28be d23a 103d 0b89 ca3c 703b 823e
000000d0: 277f 7a3c 3dd4 46bd cda1 e63d 3fd8 823e
000000e0: 6d21 1ebe ac4a 91bd 8c6b 7fbd 502d 1bbe
000000f0: 51d7 473e 1244 d13d 9169 8ebd 8afe 4f3b
00000100: 049d 633d cbb3 493d b75c 083e f344 4d3d
00000110: 7dba 923e 8f4a f8bd 7b7d 353e 4aae c93d
00000120: bc36 01be 6225 14be 9f6b 9a3e a232 1d3e
00000130: 37bc d13d 9bab 043e 7789 c6bd 09e0 813e
00000140: 41b0 20bd 178d 533e 0019 1f3e 6db5 34be
00000150: c050 14be bf04 213e 38b4 4ebe 1fc4 113e
00000160: 76d6 943e 4d27 e1bd db16 063d 3ccb aabd
00000170: f5e4 633d f110 57bd 663c e03d a45b 35be
00000180: 0ae2 b8bc 89d9 47be 3898 86bd 8de7 443e
00000190: 4d2d 833e d070 0a3e c07b 03bd 5389 eebd
000001a0: e501 ea3d c3da 6a3e 203a 56be a285 5f3d
000001b0: a77b 18be 3f7f 4b3e c112 2c3b 9149 83bd
000001c0: 77d2 4dba 5c05 0fbe f425 bcbc c6d8 893d
000001d0: b607 70be bc1e a9bd 3968 b8be acb2 93be
000001e0: 4e9c 2a3e 864d 883d cb23 8c3e 74ed fbbe
000001f0: 7ab9 2d3e 9bf2 58bc f8be 89be b188 42be
00000200: 9130 523d 01fe 863e b023 3e3d 940c 3bbe
00000210: d276 2fbe 06ef 3d3d cd6d 1fbe ba40 733d
00000220: fde4 573d 420e 67bd 1a61 823d b609 c0bd
00000230: e542 debd 73a0 883d 64e2 d73d c15b 6abe
00000240: 5dee 26be 8490 f83d f8a3 563e 4681 87bd
00000250: 8b3a 67bd b1d0 883d 9133 5bbd 44ae 34be
00000260: 958f 1ebd 3e14 6b3e d4f1 26be 757b 113d
00000270: c7f9 f5bd a810 68be 1620 c73d 6fa8 183e
00000280: 9568 e6bd 7aa8 15bd b096 143d 059f 2ebd
00000290: c3aa 0bbe aba7 c73d 540d 1e3e 0af8 77bd
000002a0: 33c4 04be 8e6b 113e fc2c 3f3d 4ab2 583e
000002b0: 3dec 153e 13d0 3c3d 8762 9b3e 7300 d9bd
000002c0: 3769 363e 89a9 e3be 19e5 2cbe 215a bf3c
000002d0: 11d1 133c 99a0 ab3c 6500 c7bd df7d 6dbe
000002e0: c9ef 44bd 4c99 dabb e887 97be b108 b73d
000002f0: 665b 90be b781 433d 3461 a7be acc9 a4bd
00000300: c70f ddbd 3b85 743d 4385 88bd b014 cfbd
00000310: d2cc b43e 12f7 b4bc 2bdc 843e faaf 15bd
00000320: d7db 053e c109 933d d650 053e 1269 28bd
00000330: c3e3 293e 478e 153e 310c 913e ee36 003e
00000340: eafa b63e ea1e b6be 47a1 93be b044 98be
00000350: 355f ecbd e074 f73d 93c2 fabd aec8 0ebe
00000360: 832b 1cbe 31eb 91be 98c8 2b3c f5db 9e3e
00000370: 7b32 a33d e5ef 843c fa61 afbe 3d43 3abe
00000380: 9d8b 543d bcd9 0a3e 8566 9abd f35a 0fbe
00000390: 1a09 c13d 4125 44be dc66 853e 4fc9 e53d
000003a0: 208b 3dbe b361 cd3d 7cef 7abe 02b6 153e
000003b0: 1ec6 30be d129 8d3d 3228 4e3e dc9b 93bc
000003c0: 85b1 b83d faab 013e b81e 89bd 3234 343d
000003d0: 625b afbd 45a7 0dbd 2378 443e 2d45 8cbd
000003e0: c22d 11be 34c2 4c3e c774 3abe 0103 e5bd
000003f0: 1d5c 143e 2de9 853c b618 40bc 1d0e b9bc
0.07637838 0.1202949 0.12266414 0.03734345 0.25982523 -0.09158127 0.029107306 -0.08058718
0.20443918 -0.117027946 -0.20400493 0.02765225 -0.24563943 -0.043478943 -0.25082242 0.010160046
-0.15479718 -0.1346777 -0.056571987 -0.06557412 0.1954875 -0.32421586 0.24203365 -0.19636548
0.1744347 -0.21159445 -0.14252415 -0.2636895 0.029971126 -0.20605676 -0.18603615 -0.014973957
0.08081705 0.27375075 0.22145528 -0.106746264 0.054690547 -0.18242249 -0.12048793 0.04387547
0.004850826 0.21577072 0.28940842 -0.2100353 0.039754633 0.2736291 -0.13083862 0.1982032
-0.16485648 0.035212345 0.02472355 0.25435972 0.015289105 -0.04854225 0.1126133 0.25555608
-0.15442438 -0.07094321 -0.062358424 -0.15154004 0.1951573 0.102180615 -0.06953729 0.003173741
0.055569664 0.04924373 0.13316618 0.050114583 0.28657904 -0.12123596 0.17723648 0.09847696
-0.12618536 -0.14467385 0.30160233 0.15351346 0.10240977 0.12956087 -0.09694188 0.25366238
-0.03923059 0.2065929 0.1553688 -0.17647333 -0.14483929 0.15724467 -0.20185935 0.1423497
0.2906987 -0.10993824 0.03273664 -0.08339545 0.055638272 -0.05250639 0.1094902 -0.1771074
-0.022568721 -0.19516577 -0.06572002 0.19228955 0.256205 0.13519597 -0.03210044 -0.11647286
0.114261426 0.22935013 -0.2092061 0.0545708 -0.1489092 0.1987276 0.0026256295 -0.06410516
-0.0007851491 -0.13966888 -0.022967316 0.067307994 -0.23440441 -0.08257815 -0.36017016 -0.28847253
0.16661188 0.066554114 0.27371058 -0.492046 0.16965285 -0.013241435 -0.2690351 -0.18997456
0.051315848 0.26365665 0.046420753 -0.18266517 -0.1713517 0.04637053 -0.1556923 0.0593879
0.052708615 -0.05641008 0.06366177 -0.09376852 -0.10852603 0.06671228 0.105412275 -0.22886564
-0.16301866 0.12136939 0.20960987 -0.06616454 -0.056452315 0.0668043 -0.053515974 -0.17644602
-0.03871115 0.2295694 -0.16303188 0.03551813 -0.12010532 -0.22662604 0.09722917 0.14908002
-0.11250416 -0.036537625 0.03627652 -0.04263212 -0.13639359 0.09748777 0.15434772 -0.060539283
-0.12965469 0.14201185 0.04667376 0.21161762 0.14640899 0.046096873 0.30348608 -0.10595789
0.17813574 -0.44465283 -0.16884269 0.023358406 0.009022013 0.020950602 -0.09716872 -0.23192547
-0.04808024 -0.0066711064 -0.29595876 0.08937205 -0.2819473 0.047731128 -0.32691348 -0.08046278
-0.10794025 0.05969737 -0.06666043 -0.10111368 0.35312515 -0.022090469 0.25949225 -0.036544777
0.13072143 0.07179595 0.13019118 -0.041115828 0.1659079 0.14605056 0.28329614 0.12520954
0.35738307 -0.3557046 -0.28833982 -0.29739904 -0.11541597 0.12082839 -0.12244143 -0.1394374
-0.15250973 -0.2849975 0.010484837 0.3102719 0.07968613 0.016227672 -0.34254438 -0.18189712
0.051890958 0.13559622 -0.07539085 -0.13999538 0.09425564 -0.19154836 0.26055038 0.11220037
-0.18510103 0.100284 -0.24505419 0.14620212 -0.17263076 0.068927415 0.20132521 -0.018018655
0.09018234 0.1266326 -0.06695312 0.04399509 -0.08562352 -0.03458335 0.19186454 -0.06849132
-0.14177611 0.19995958 -0.1820861 -0.111822136 0.14488263 0.016346538 -0.011724642 -0.022589738

transformer_encoder.layers.0.linear2.bias f4 [32]
00000000: 89ce 6dbe a82c 8abd 45ee 08be a3ac 1d3e
00000010: 6764 323e ac43 90bc 014b 6c3e 049b 4f3c
00000020: bfca 1b3c bf65 393d 2f35 333e a6b4 a8be
00000030: 69de 833e 7320 06be 0a97 67be 6c1e a63c
00000040: 3402 a6bd 99cf 0b3d fbcf 22be 31bf 0cbe
00000050: 811d 80bd e232 643d dff7 98be 86b8 18be
00000060: 02b7 773e 09d9 243e 8c2d 153e 55b4 20bc
00000070: 8c6d 16be 2fce 4f3b a4b0 a03c 11d1 f2bd
-0.23223318 -0.06746799 -0.13372143 0.15397887 0.17421113 -0.017610393 0.23075487 0.012671236
0.009508788 0.04526305 0.17500757 -0.32950324 0.25755623 -0.13098316 -0.2261621 0.020278178
-0.08105889 0.034133527 -0.15899651 -0.13744809 -0.062556274 0.055712588 -0.2987661 -0.1491414
0.24190906 0.16098417 0.14568156 -0.0098086195 -0.14690226 0.0031708588 0.019615479 -0.118562825

transformer_encoder.layers.0.norm1.weight f4 [32]
00000000: 9e0f 823f 48fe 7b3f 8928 9c3f b9a7 813f
00000010: 4d74 973f a4e8 503f 37e3 5b3f 704d 893f
00000020: dd61 7f3f 2f7a 5d3f 3ba5 663f 95b6 853f
00000030: 258d 853f f392 933f b6b2 693f 6b11 693f
00000040: 7ffd 853f 2106 8d3f 9898 543f d64e 813f
00000050: c193 863f 5268 773f e2bc 713f 6413 8e3f
00000060: cc0d 5a3f 1b6d 843f a36e 733f 8c8c 883f
00000070: 2ff7 803f 2a4e 773f 761b 673f 78d3 793f
1.0161016 0.9843488 1.219987 1.012931 1.1832367 0.8160498 0.8589358 1.0726757
0.997587 0.8651456 0.9009587 1.0446345 1.0433699 1.152922 0.91288316 0.910422
1.0467986 1.1017495 0.8304534 1.0102184 1.0513841 0.96643555 0.9442884 1.1099668
0.851773 1.0345796 0.95090693 1.0667892 1.0075434 0.96603644 0.9027628 0.975883

transformer_encoder.layers.0.norm1.bias f4 [32]
00000000: b0da 6fbd 6212 38be 3d66 293d 2a00 e43d
00000010: d317 343e 755c e83d 0e7d cf3c 9acd a5bd
00000020: 2d49 7ebd caaf f23d f791 063e 2483 93be
00000030: 03ba c33e 615c 84be a8f3 c9bd 505d 65bd
00000040: e9db 7d3d cbbf 313e cc12 cf3d 0d9a cabd
00000050: 40d8 4fbe 4a65 6b3b eb0b e9bd 9a28 e63d
00000060: 82c9 fbbc f8c7 6f3e 9153 07bd a547 593e
00000070: 843b e7bc d22b 05bd a2ba 14bc f05a 9d3c
-0.058558166 -0.17975762 0.041357268 0.11132844 0.17587213 0.1134576 0.025328185 -0.08095856
-0.062081505 0.11849935 0.13141619 -0.2881099 0.38227853 -0.2585173 -0.09860927 -0.055997193
0.0619773 0.1735832 0.10111007 -0.09892664 -0.20297337 0.0035918527 -0.11379226 0.11238213
-0.030735735 0.23416126 -0.03303868 0.21218736 -0.028226621 -0.032512493 -0.0090777 0.019208401

transformer_encoder.layers.0.norm2.weight f4 [32]
00000000: 3105 b13e ed73 b43e a975 0b3e 3426 513f
00000010: 11ac 343f 71da e63e b0b3 4f3f b856 873e
00000020: 1251 353f 6c58 e73e 734d e83e 1583 183f
00000030: b96d e43e 9d34 3e3e 3e60 103f 80eb 083f
00000040: b4cb f93e 8fc6 363f 6261 353f 7188 593f
00000050: 2e00 683e 286b 543f 3fe6 113f 6e96 0a3f
00000060: c4f4 023f 3ae0 423f a08f da3e e7ca 103f
00000070: 51dc 503f d913 3c3f 67e5 133f 3039 4a3f
0.34574273 0.35244694 0.13619103 0.8169892 0.7057505 0.45088533 0.81133556 0.2643335
0.7082683 0.45184648 0.4537159 0.59575015 0.44614962 0.18574758 0.56396854 0.53484344
0.48788226 0.71396726 0.7085172 0.8497382 0.22656319 0.8297601 0.5699195 0.5413579
0.5115473 0.7612339 0.42687702 0.56559604 0.81586176 0.73467785 0.57771915 0.7899351

transformer_encoder.layers.0.norm2.bias f4 [32]
00000000: 74cf 9c3d 9b65 943e 5a86 b4bd 8e5f 63be
00000010: 78ee 00be ab65 2cbe a331 26be e432 5b3e
00000020: 426c ebbc 60c4 4bbe bd03 98be 25b9 5f3f
00000030: 4ac8 9abe 5de2 893e 3131 fabd 33c5 873b
00000040: f372 d7bd 5813 d3be 3585 c53b 8352 353d
00000050: 38f1 923e b596 173a f512 9d3e 46b0 2abe
00000060: 52cb 023b 549d 9dbe cfc7 6bbd dbb5 a4be
00000070: 2ff0 b03e 5ed5 9dbe 532b 90bd 4876 913e
0.07656756 0.2898377 -0.08814688 -0.2220442 -0.12590969 -0.16835658 -0.16229872 0.21406132
-0.028738145 -0.1989913 -0.29690352 0.87391883 -0.30230933 0.26930514 -0.12216414 0.004143381
-0.10519972 -0.41225696 0.0060278424 0.044268142 0.2869966 0.000578265 0.30678526 -0.16668805
0.0019957614 -0.30784094 -0.0575636 -0.32169995 0.34558246 -0.3082685 -0.070395134 0.28410554

embedding.0.bias f4 [32]
00000000: 90e6 233f 0c07 293f ad68 d63e 11a4 d83e
00000010: f5f7 623f efa4 a33e f65e 4d3e 3115 82bf
00000020: 8d1d c5be 2acb c53e f006 a6be 197e 01bf
00000030: d40a 1c3f 9d8d ec3e 9ca9 1bbf cca4 f93e
00000040: ea78 2e3f feb2 08bf b255 d43e 0e29 003f
00000050: 3cc4 ea3e 4397 0ebe 39d0 88bf b413 043e
00000060: c912 16bf baec 0a3f 8d0c 71be 524a 8abe
00000070: 7c14 14bd 541e 5b3f 842a 373e 20d2 bcbe
0.64023685 0.6602638 0.41876736 0.42312673 0.886596 0.31961772 0.20055756 -1.0162717
-0.38499108 0.38631564 -0.32427168 -0.50583035 0.6095402 0.46201792 -0.6080568 0.48758543
0.6815325 -0.5339812 0.4147163 0.50062644 0.4585284 -0.1392489 -1.0688545 0.12898141
-0.58622414 0.54267466 -0.23539944 -0.27009827 -0.036152348 0.8559315 0.17887312 -0.36879063

embedding.0.weight_g f4 [32, 1]
00000000: 9d16 2f3f fb85 323e 2cdc 3d3f 4daf 6d3f
00000010: fb3c 6f3f e24c d13e 6af7 513f 6d86 793f
00000020: 2e1a 173f 7710 103f f143 813e 84f7 113f
00000030: 4b68 e33e 71f8 4d3f 5b0f 893e 4961 0f3f
00000040: 37cd 763f 6ebc bdbc 2819 c73d ecc0 3b3f
00000050: 840e 433f 9d2b 443f 7a0d 253f 386a 273f
00000060: f598 7a3b 19a9 493e 2a4a f93e 1bf0 143f
00000070: dc74 573f 834a 2c3e aedb 063f 410e 813e
0.6839388 0.17433922 0.7416408 0.9284561 0.93452424 0.4087897 0.8201815 0.9747074
0.5902432 0.56275123 0.25247148 0.57018304 0.44415507 0.80457217 0.26769528 0.5600782
0.96406883 -0.02316114 0.09721595 0.7334125 0.76194024 0.7662905 0.6447369 0.6539645
0.0038238142 0.19693412 0.48689395 0.5817887 0.8416269 0.16825299 0.52678955 0.25206187

embedding.0.weight_v f4 [32, 1]
00000000: 878a 433f bc47 603e f00e 3abf 46ef 753f
00000010: be9e 50bf 7d6f f6be d785 583f 2511 773f
00000020: 7a54 093f 5345 26bf bc58 afbe b2bd 04bf
00000030: 1c3b e5be f730 593f 91ef c13e b64c 1fbf
00000040: e8f9 6ebf b7cc e6bb ea63 3c3e ef52 40bf
00000050: 4c8a 3cbf 0cbf 633f 5313 343f e93e 263f
00000060: dcd3 273d ab44 5d3e c650 05bf 1b14 24bf
00000070: e0bc 603f ee50 36be 7ca9 33bf e74a 813e
0.7638325 0.21902364 -0.7267904 0.9606823 -0.8149222 -0.48131934 0.84579223 0.96510535
0.53644526 -0.6494953 -0.34247386 -0.5185195 -0.4477166 0.8484034 0.37878087 -0.62226427
-0.93350077 -0.007043447 0.18397489 -0.75126547 -0.73648524 0.8896339 0.70341986 0.64939743
0.04097353 0.21608226 -0.52076375 -0.6409318 0.877882 -0.1780431 -0.7018049 0.25252458

embedding.1.bias f4 [32]
00000000: c4ac 043f 73d1 1fbf 2798 6dbf 3e77 023f
00000010: cdca 81bf 206d e73e 8303 353d 7a03 59bf
00000020: 5621 5fbf 7f41 f43e 3d98 2a3f 5690 453f
00000030: cad2 8d3f 8d1b 8a3f 9d12 353f 33cb 1abf
00000040: 1928 2bbf 61f8 073f 2e1c 5b3f 85da 0cbe
00000050: 9d43 8abf 1765 6e3f 5fae 3a3f 8ca8 b63e
00000060: 2edf b33c 1936 aabe e827 fc3e 2b1e 60bf
00000070: 959f b4be 3441 d13d 1e0e 223f b925 79be
0.5182612 -0.6242897 -0.9281029 0.509632 -1.0140015 0.45200443 0.044192802 -0.8477093
-0.8716024 0.4770622 0.6663855 0.77173364 1.1079953 1.0789658 0.70731527 -0.6046631
-0.6685806 0.5311337 0.85589874 -0.13755234 -1.0801884 0.93123 0.7292232 0.35675466
0.021957006 -0.33244398 0.49249196 -0.8754603 -0.35278 0.10217515 0.6330279 -0.24330796

embedding.1.weight_g f4 [32, 1]
00000000: 953c 2a3f 8d9c 8c3f a2e0 b33d 3f4d 283f
00000010: 4106 363f d778 e93e 317b 2f3f adb3 013f
00000020: 4b97 2d3f dcf7 b73e c86b c63e bb9f 413f
00000030: a7d3 a93d 655e 133f e1cf 943e 4ccc 873e
00000040: 8643 383e 2fda b33d 2c3e 3c3f 5135 6d3e
00000050: e3fe 0b3f 16a0 e23e 2fff 9b3d 609a 803f
00000060: 778a 973e 52c2 f83e 5629 553f 393c b3bc
00000070: 7d17 453f 0187 ab3e 087e ad3e 51c8 5b3f
0.6649869 1.0985276 0.0878308 0.6574287 0.7110329 0.45600006 0.6854735 0.5066479
0.6780898 0.3593129 0.38754106 0.75634354 0.082923226 0.5756591 0.2906485 0.26523054
0.17994508 0.087818496 0.73532367 0.2316487 0.546858 0.4426276 0.07617032 1.0047112
0.29597828 0.48585755 0.832662 -0.021879302 0.76988965 0.33501437 0.33885217 0.85852534

embedding.1.weight_v f4 [32, 1]
00000000: 3b5f 2dbf d24e 7abf b9dd 743d 3c73 18bf
00000010: 1f7c 2dbf 51ec e8be a8c4 4cbf 6471 0abf
00000020: 33eb 1c3f edce b43e 8a40 f53e aaa7 30bf
00000030: f0f4 1fbe 308d 1c3f 1fb0 8e3e 2abd 9f3d
00000040: 3563 863c a224 833d 57db 3c3f 93d0 9f3e
00000050: 1050 103f ad47 053f c749 2abd f038 633f
00000060: 01a3 03bf 0b92 c93e cf28 3fbf 0635 08bd
00000070: d56f 54bf a0eb a03e 24b9 a8bd c301 5bbf
-0.67723435 -0.9777652 0.059781764 -0.59550834 -0.6776752 -0.45492795 -0.79987574 -0.5407927
0.61296386 0.35314122 0.47900802 -0.69005835 -0.1562078 0.61152935 0.27868745 0.07799752
0.016404727 0.064034715 0.73772186 0.31213817 0.56372166 0.52062494 -0.041574266 0.88758755
-0.514206 0.39369234 -0.74671644 -0.033253692 -0.8298314 0.31429768 -0.08238438 -0.85549563

embedding.2.bias f4 [32]
00000000: 6484 273e 9763 1fbf b17b 743e b92b 77be
00000010: c420 ffbe 5742 1e3f 7eda 0fbf 4d4c 403f
00000020: 398a 7a3f 9106 273e d23e 07bf 6a50 f33e
00000030: 4f2c 793e 36a9 0fbf 2b70 6fbf 75ac 3ebf
00000040: 4701 633f 9021 3c3f b2cd efbe c231 893f
00000050: 6fb7 b0be 3183 04bc 3097 243d 37b4 60bf
00000060: 0ee0 9dbe 0ffe cabe 7882 66bf 6250 213f
00000070: 01a3 a43e 16f3 653f afac 94be a9e0 b83e
0.16359097 -0.6226134 0.2387531 -0.24137773 -0.49829686 0.61819977 -0.5619277 0.75116426
0.9786716 0.16311099 -0.5283023 0.4752229 0.24333309 -0.5611757 -0.9353053 -0.744819
0.88673824 0.7348871 -0.4683662 1.071831 -0.3451495 -0.008087919 0.040183246 -0.87774986
-0.30835003 -0.39646956 -0.9004283 0.6301328 0.32155612 0.89824045 -0.29037997 0.36108902

embedding.2.weight_g f4 [32, 1]
00000000: 025a 623f d40f 203f 09b3 7d3f 9859 e73e
00000010: c333 6b3f e1aa 703e 29a0 293f 55aa 173f
00000020: 1b98 043f 5287 2a3f fd6b 143f 5605 b43e
00000030: 31a0 f53e a417 623e e205 b43e d7f6 303f
00000040: e5b8 403f e7e7 b23e 2a59 433e a5a2 653f
00000050: 38b7 493f 39e4 2f3e a114 eb3e 6215 4e3f
00000060: 810e 193f 6998 553d 1438 663d 3727 8b3d
00000070: c37d c63d c8e6 3a3f dbf5 b03e b54f 273d
0.8841859 0.6252415 0.9910131 0.45185542 0.9187586 0.23502685 0.6626001 0.5924428
0.51794595 0.6661273 0.5797728 0.3516032 0.4797378 0.2207933 0.35160738 0.6912665
0.75282127 0.34942552 0.19076982 0.897013 0.78795195 0.17176904 0.45914176 0.8050138
0.59787756 0.052147303 0.056205824 0.06794589 0.09691956 0.73008394 0.34562573 0.0408475

embedding.2.weight_v f4 [32, 1]
00000000: 8123 753f a541 2c3f 9c9d 77bf c93d 1abf
00000010: 3c5d 77bf e841 a1be 8880 3dbf 3526 1ebf
00000020: 2963 1dbf b0a6 3d3f d0bf 2f3f b0aa cc3e
00000030: 1166 023f 5828 993e 581b cbbe d4dc 4c3f
00000040: 806a 483f 0a9b d5be aa2e 2f3e 9a97 77bf
00000050: 0970 48bf fa1c 6ebe 8dee 0bbf 0e51 583f
00000060: e0b3 3dbf 0778 043d 4168 c63c 1a31 063e
00000070: b23d cbbd a2f7 4a3f 4b48 003f 710f 5abd
0.957573 0.67287666 -0.9672487 -0.60250527 -0.9662664 -0.31495595 -0.7402425 -0.6177705
-0.6147943 0.7408247 0.6865206 0.39973974 0.5093699 0.29913592 -0.396693 0.80024457
0.78287506 -0.41719848 0.17107645 -0.967157 -0.7829595 -0.23253241 -0.54660875 0.8449868
-0.7410259 0.03234103 0.024219634 0.13104668 -0.09923877 0.7928411 0.5011031 -0.053237382

embedding.3.bias f4 [32]
00000000: b7dd dc3e 7d20 8b3e 738e b03c 6467 0bbe
00000010: b587 f5be c760 c8be bb21 7ebd 6c90 ab3e
00000020: 495e 1ebd 8c09 bc3e 9c1c 393f 06b5 40bf
00000030: 49fd 8fbe dd10 5fbf a473 823c dec4 083f
00000040: 336d f0be 412a 1abf 57c5 d1be 7cd2 843e
00000050: e854 83bf ba43 713d 7876 46bf 709e b3be
00000060: 6811 aebe a76f b73e 4c86 7e3e cad7 613e
00000070: e9bb ba3e f1b8 973f edda eebd c8cd 633f
0.43137905 0.27173224 0.0215523 -0.13613659 -0.479551 -0.39136335 -0.062043887 0.33508623
-0.038664136 0.36726034 0.7230928 -0.7527622 -0.2812293 -0.87135106 0.015924282 0.53425395
-0.46958312 -0.60220724 -0.4097087 0.25941837 -1.0260286 0.05890248 -0.7752452 -0.35081816
-0.33997655 0.3582737 0.24855918 0.22054973 0.3647149 1.1853315 -0.116628505 0.8898587

embedding.3.weight_g f4 [32, 1]
00000000: 98e7 b7bd 6853 9b3d 6346 8bbe c0e3 b03e
00000010: 703b 563e ced1 0cbe e56b ee3e c516 ea3d
00000020: 5e39 a63e c6aa 17be 6459 0e3f cd65 233e
00000030: 92fa 643f 378e 383e 66ea 813f 6081 0b3f
00000040: 4985 5b3f 2669 043f d1f0 37be 5586 6a3f
00000050: f04f 193f 0f39 673f 18de 6e3f df79 633f
00000060: aa0e 9c3e 69b4 753f e1f0 bb3d 7a6d cb3e
00000070: ff39 4f3f c225 343f 0a76 903f f197 823f
-0.0897972 0.07584268 -0.27202138 0.3454876 0.20921111 -0.13751909 0.46566692 0.11430124
0.32465643 -0.14811239 0.5560515 0.15956803 0.8944484 0.18023 1.0149658 0.54494286
0.8575025 0.51722944 -0.17962958 0.91611224 0.598876 0.9032144 0.9330764 0.88857836
0.30479938 0.9597841 0.091768034 0.3973196 0.8094787 0.70370114 1.1286023 1.0202619

embedding.3.weight_v f4 [32, 1]
00000000: a466 2c3e 1ca8 a3be 7895 c2bc f20d 903e
00000010: 51e3 abbe 1751 d63d a4c8 4c3e 5181 81bd
00000020: b8ad 823e 35a5 52bd b7de 1a3f b0d1 b2be
00000030: fe00 1ebf 10de 343d 1ecc 673f 349f dc3e
00000040: a43c 553f 45a9 d6be f32e 3a3e 5f89 593f
00000050: 29d7 49bf d917 433f b4ec 2d3f fa44 44bf
00000060: f4c3 653e 4e2d 47bf 450d a2be 4042 f33e
00000070: fd40 5d3f 64ff 0bbf 6278 753f d83d 6bbf
0.1683603 -0.31964195 -0.023752913 0.2813564 -0.33571866 0.104646854 0.19998413 -0.06323493
0.25523162 -0.051427085 0.60496086 -0.34925604 -0.61720264 0.044157088 0.90545833 0.43090212
0.83295655 -0.41926017 0.18181972 0.84975237 -0.78843933 0.76208264 0.67939305 -0.7666775
0.22438031 -0.77803504 -0.3165075 0.47511482 0.8642729 -0.5468657 0.95886815 -0.9189124

embedding.4.bias f4 [32]
00000000: 7b2e 42bf 302a cb3e c3b9 413f 14a2 593f
00000010: 3fc2 333f 7d44 a5be a108 c33d c33e 63be
00000020: 9ecf 0f3f b4ef 49bf 22ff 84be 9027 62bf
00000030: ab66 4abf 7996 cb3e f8d4 e1be f0b3 723e
00000040: 9991 7e3f b653 f63e d799 6a3f 66e8 403e
00000050: e09d fcbe 1ec9 49bf beff 2fbf 1b6b 2e3f
00000060: 3a71 083f a832 62be 5997 5c3f 0dba 093e
00000070: 0881 4bbf e24e 0c3f 6cd0 df3e d04b 3dbf
-0.75852174 0.39680624 0.75674075 0.85012937 0.7021827 -0.32278815 0.0952313 -0.2219191
0.56176174 -0.7888138 -0.259759 -0.8834162 -0.7906291 0.3976324 -0.44107795 0.23701453
0.99440914 0.4811074 0.9164099 0.18838653 -0.493392 -0.78822505 -0.68749607 0.6813218
0.5329777 -0.22089636 0.8616844 0.13449879 -0.7949376 0.54807866 0.437137 -0.73943806

embedding.4.weight_g f4 [32, 1]
00000000: c02e 813f 25cb 133f 1d03 0f3f b0a6 193e
00000010: a451 a63e 1963 2d3f 0000 123f 5346 563f
00000020: cef5 e33e c3dc 543e 1eaf 7c3f 5642 ad3e
00000030: 7e38 053e 4abd c93c 77f7 153f 94ab 1e3f
00000040: ce49 313d dbc7 743e 6fed 0d3e e353 093f
00000050: 950b f83d 92d0 0e3f 4f4a 6f3e a277 e23d
00000060: 124a e03d 85a9 a7bd 5e94 663f 5143 a13e
00000070: 6ccf dd3e 135b 3f3f 13c9 90bd 1d12 523f
1.0092392 0.5773185 0.55864125 0.15004992 0.32484162 0.67729336 0.5703125 0.83701056
0.44523472 0.20787339 0.9870471 0.33839673 0.13009831 0.024626393 0.58580726 0.6198056
0.043283276 0.23904364 0.13860105 0.53643626 0.12111584 0.55787003 0.2336819 0.110579744
0.10951628 -0.0818663 0.9007014 0.3149667 0.43322313 0.74748343 -0.07069602 0.8205889

embedding.4.weight_v f4 [32, 1]
00000000: 9246 673f a680 18bf e98e 06bf c1ff e8bd
00000010: acfe a93e e95c 343f 3609 23bf af23 633f
00000020: 25bd f13e 517c 2cbe e7f3 6c3f f7dd cb3e
00000030: d5d6 2e3d 24ea 843d e827 073f c9f0 223f
00000040: 556e 083d 0346 a2be b597 6d3e 62be 03bf
00000050: 64c2 10be 0c25 18bf b015 57be 2206 2ebd
00000060: 2641 1b3e d4e7 cbbc 993f 5ebf 18ea b73e
00000070: 27e2 c1be e6ff 2fbf bdac 5b3c 6a5e 453f
0.90342057 -0.595713 -0.52561814 -0.11376906 0.33202112 0.7045427 -0.6368593 0.88726324
0.47214618 -0.16844298 0.92559665 0.39817783 0.04268535 0.06489971 0.5279527 0.6364866
0.033308346 -0.3169404 0.23202403 -0.51462376 -0.14136654 -0.5943153 -0.21004367 -0.042486317
0.15161571 -0.024890818 -0.8681579 0.35920787 -0.37867853 -0.68749845 0.013407883 0.7709719

embedding.5.bias f4 [32]
00000000: 838d 8c3e c09b 2bbf 87ff 503e 1975 d7be
00000010: cd9e 10bf 3c14 0c3e 5f43 c0be 94bd 0c3f
00000020: a36b 033d 7a31 e1be 2669 f9bd 9381 e83c
00000030: 6e64 09bf a8c3 a1bf 44a0 96be 4feb 82be
00000040: 3fde 0dbe 5697 6ebf 8314 cb3d 419c 4cbe
00000050: 7844 83bf 0c8b ee3e 32ee 53be a09b a53e
00000060: 6112 01bf 5567 af3e 2d03 13bf 0320 3dbe
00000070: 3100 68bf 200d debe bb95 cbbe 8593 6d3e
0.27451715 -0.6703453 0.20409976 -0.42081526 -0.5649231 0.13679594 -0.375514 0.54976773
0.032085072 -0.4398306 -0.121782586 0.028382098 -0.5366887 -1.2637835 -0.29419148 -0.2557015
-0.13854311 -0.9319967 0.09916022 -0.19981481 -1.025527 0.4659046 -0.20696333 0.32345295
-0.5041867 0.34258524 -0.5742672 -0.18469243 -0.9062529 -0.4336939 -0.39762673 0.23200805

embedding.5.weight_g f4 [32, 1]
00000000: 56a8 f23e 86b4 2c3e d41e 6d3f 8223 ef3e
00000010: 54ef 5b3f fc4f 663d ffe4 4f3d c75e 8d3f
00000020: 8202 a83e 4519 0c3e c1b5 cb3e 1d2e 2d3e
00000030: d34f 1e3e 9316 7f3f 00ff 113f 973a 5abd
00000040: ec03 2f3e 9b5b 413f d4db 093e e88f b03c
00000050: 4443 3b3e 2318 413f 1a35 bf3e fc9d 263f
00000060: 0737 3f3f 7670 893f 36e8 5f3f 2003 463f
00000070: 662f 4f3f 1634 a63e 7898 3f3f bd7f 4e3f
0.47394055 0.16865739 0.92625165 0.46706778 0.8591206 0.056228623 0.050755497 1.1044549
0.32814413 0.13681515 0.39787105 0.16912122 0.15460138 0.9964382 0.57029724 -0.053278532
0.1709134 0.75530404 0.13462764 0.021552995 0.18287379 0.75427455 0.373452 0.65084815
0.7469334 1.0737445 0.874637 0.7734852 0.809317 0.32461613 0.74842024 0.80663663

embedding.5.weight_v f4 [32, 1]
00000000: f65b e43e f104 003d d476 79bf a03a 053f
00000010: db3f 57bf 6e78 4a3d e836 e2bb c182 78bf
00000020: 6a4f 9a3e b16f 5fbe 52b6 cabe 597d dc3d
00000030: d463 43be c67c 4fbf 7cbe 093f f99e aebc
00000040: 890d cd3d 4c39 2dbf d35f f13d a264 753d
00000050: b131 563e 3660 4c3f a1da a93e 06b0 37bf
00000060: 5881 68bf 0ce6 753f 32f3 77bf ad31 50bf
00000070: 92af 3abf 2800 b43e 7a22 49bf 43f4 43bf
0.4460141 0.031254712 -0.9744694 0.5204258 -0.8408181 0.049431257 -0.006903518 -0.97074515
0.30138713 -0.2181995 -0.39592224 0.10766096 -0.1908105 -0.81049764 0.5380628 -0.021316038
0.10012347 -0.67665553 0.11785855 0.059910424 0.20917393 0.79834306 0.33174613 -0.71752965
-0.9082236 0.9605415 -0.9685546 -0.813258 -0.7292415 0.3515637 -0.7856823 -0.7654459

embedding.6.bias f4 [32]
00000000: 0a04 76bf 223a 53bd 64cf f63e bb72 6f3f
00000010: 686e e1be aa93 2cbd 405c bb3e 9f30 fdbe
00000020: 8a3e 743e 0cbc 743f e5e1 063f 3971 173f
00000030: 1ed3 c7be 7420 5fbf 4d39 313f dd77 b43e
00000040: 97d0 723e 109d 383e 0d80 233e 2ba5 a03e
00000050: 2302 44bf 5f56 0d3f 347e 43bf 106c 46bf
00000060: afee a7bd 9ad0 283f e6db 9dbd d43c f03d
00000070: 5a11 c7be fbd2 00bf f448 ca3e 4e00 e0be
-0.96099913 -0.05156911 0.482051 0.9353444 -0.44029546 -0.04213301 0.3659382 -0.49451157
0.23851982 0.95599437 0.5268844 0.5915714 -0.39028257 -0.87158895 0.6922806 0.35247698
0.23712383 0.18028665 0.15966816 0.31376013 -0.7656576 0.55209917 -0.76364446 -0.7750864
-0.08199822 0.659433 -0.07707958 0.11730352 -0.38880426 -0.5032193 0.39508784 -0.43750232

embedding.6.weight_g f4 [32, 1]
00000000: 3169 57be 122f 523f 7a25 453f cc80 683e
00000010: 0a8b c93e 70a5 63bd 4beb d53d 2546 5a3f
00000020: 8ccf 8c3e 68b6 923f b800 023f 0095 183f
00000030: b522 403e 43e4 3b3f 33fb e93e fe8f 5c3e
00000040: 6383 203f d280 943f 4ca8 993f f213 3a3f
00000050: 3a3b b73c c561 9d3e c7ca 4c3f 7855 1c3f
00000060: 1eb0 6e3f e91f 833f 373c 1a3e fa74 2d3f
00000070: 4a86 8b3f 1d86 2d3f 6dfb 423e 7fb3 853f
-0.21036221 0.82103074 0.7701031 0.22705382 0.3936389 -0.055577695 0.10445269 0.8526328
0.27502096 1.1461916 0.50782347 0.59602356 0.1876324 0.73395175 0.45699462 0.21539304
0.6270048 1.1601813 1.2004485 0.72686684 0.022367109 0.30738655 0.79996914 0.61067915
0.93237484 1.0244113 0.15062033 0.6775662 1.0900357 0.67782766 0.19041224 1.0445403

embedding.6.weight_v f4 [32, 1]
00000000: 0e7e 28bd d8a2 203f f3ad 583f adf6 b23e
00000010: da96 34bf f5fe 4c3e 4f53 9e3e b296 173f
00000020: a779 2d3e 8e70 733f 03dd 673e 8732 5a3f
00000030: b62f d63d 828a 62bf cc82 63be 47f3 c03e
00000040: 2748 463f b379 683f 32a4 733f 7df5 5d3f
00000050: dc4a 63be 65d8 48be 27e1 2b3f e685 b63e
00000060: 6b69 343f c6eb 49bf 9cc8 173e 1416 dbbe
00000070: 9c4f 64bf 356f 023f 7b69 083e 9d5a 4bbf
-0.04113584 0.6274848 0.84640425 0.34953824 -0.7054268 0.20019133 0.30922934 0.5921432
0.16940938 0.9509362 0.22642903 0.8523335 0.10458319 -0.88492596 -0.22217864 0.37685606
0.77453846 0.908107 0.9517242 0.8670271 -0.22196525 -0.19613798 0.6714043 0.3564903
0.70473355 -0.78875387 0.1482262 -0.42790282 -0.89183974 0.5095094 0.13321488 -0.7943514

embedding.7.bias f4 [32]
00000000: bc1e 4ebf 62cf 123f ce99 83bf 6c1e 8abe
00000010: 00f9 213e 0637 483f 9f44 5a3f a5c7 c2be
00000020: 608a 5d3f ddbe 2a3d 8017 7b3f 7662 303f
00000030: 5ed3 423f 4fc3 b6bd 1082 37bf 655f 5cbf
00000040: bd12 d3be ea74 983e 073d 05bf 1f63 023f
00000050: 9a53 673f e650 37be ce1e 23bf ba30 203f
00000060: 1e41 e2be 742e 36bf 3532 1c3f 0ca8 65bf
00000070: 5091 23be 329b cabe a861 4f3f de9e 083f
-0.80515647 0.5734769 -1.0281312 -0.26976335 0.15817642 0.7820896 0.8526096 -0.38042942
0.8653927 0.041685928 0.98082733 0.6890024 0.7610377 -0.08923971 -0.71682835 -0.8608306
-0.41225234 0.29776698 -0.52046245 0.50932497 0.9036194 -0.17901954 -0.6371888 0.6257435
-0.44190305 -0.7116463 0.6101411 -0.89709544 -0.15973401 -0.3957153 0.81008387 0.5336741

embedding.7.weight_g f4 [32, 1]
00000000: de0b 213e 7f35 a53d de99 1d3f 199a ae3d
00000010: 91d9 0b3f 6f53 823e 5f4d 5d3f 8d3e bebd
00000020: 55d0 4b3e 07a5 193d bcba a93e 4a90 0f3f
00000030: 9c6b 833e 81e0 0d3f f17b 4e3f 1630 2c3f
00000040: 5fca 2d3f 0b58 803e 1634 9c3e 9be4 c53e
00000050: 54ed 3e3f 153f 13bd 2f9a 973e 939d 493f
00000060: b8b5 2ebc 50ec 523f 0140 3d3e a7ff 333f
00000070: edcc 063f 6252 483f c275 8f3e fa9a debd
0.15727183 0.08066844 0.6156291 0.085254855 0.54628855 0.2545428 0.86446184 -0.09289274
0.19903691 0.037510898 0.3315028 0.5607954 0.25668037 0.5542069 0.8065787 0.67260873
0.6788692 0.2506717 0.30508488 0.38650975 0.74580884 -0.03594883 0.2960982 0.78756064
-0.010663442 0.82391834 0.18481447 0.7031197 0.5265644 0.78250706 0.2801953 -0.10869403
