mixture 2/Models/transformer_v4/0.855301205400891_1/params.pt (torch_old, 333129 bytes, 74 tensors)

transformer_encoder.layers.0.self_attn.in_proj_weight f4 [384, 128]
-0.041476607 -0.09020338 0.0027591262 -0.16978602 -0.017466793 0.0143252015 -0.08286886 0.0539114
-0.034947984 -0.06213784 0.044139843 -0.13038492 0.1105209 -0.14599012 -0.1452589 -0.062376037
0.034557704 -0.0077280556 0.08377 -0.029642962 -0.08724531 -0.070035346 0.060237072 0.038658455
0.005197655 0.09672119 0.064171754 -0.0073938277 0.06473541 -0.06742384 0.09999329 0.03923535
0.1077203 0.06690558 0.09687575 -0.026077155 -0.117040865 0.106117524 0.0639785 -0.015258025
-0.16992605 -0.020859545 0.099704094 -0.0346823 0.0034366257 0.13113081 -0.10037548 -0.074327536
-0.054606605 0.06763719 -0.048104014 0.054966193 0.10097136 -0.0533854 9.799641e-05 0.07366291
-0.09847079 -0.09207399 -0.15302053 0.08206948 -0.15970121 -0.03501685 -0.02590805 0.05473349
0.027954888 0.020046817 0.09930318 -0.043838385 0.05240859 -0.09085638 -0.059013326 -0.08713019
-0.08585211 -0.10142798 -0.029780874 -0.044771783 -0.004022572 0.0005303939 0.043286372 -0.005853317
0.0013287822 0.0821119 -0.08992529 0.075380825 0.0042743715 0.006559567 0.07815426 0.12513083
-0.03194767 0.072185926 0.0013359599 0.05916014 0.122488536 -0.045088027 0.18680935 0.18045786
-0.058164757 0.02218344 -0.10247915 0.071125895 -0.06730513 -0.06720084 -0.07887208 -0.048691306
-0.021151546 0.06052361 0.06488765 0.010263192 -0.030463887 0.08243082 0.032373253 -0.02668065
0.09962469 -0.04896453 0.12572518 -0.07247622 0.07202137 -0.09888634 -0.10007079 0.09703744
-0.12556706 0.10095296 0.15993793 -0.097064145 0.21456075 0.085304074 0.12435927 -0.028393622
-0.04459815 -0.022624468 -0.14107722 -0.12992157 -0.124499604 -0.06455838 -0.05401884 0.017288944
0.047911152 0.037953172 -0.08698955 -0.06437859 0.08638577 -0.10980929 -0.0744443 -0.13746345
-0.14387207 -0.024519308 0.11276372 -0.13418299 -0.0682632 0.14048153 -0.026771577 0.011184469
-0.008125896 0.08564453 0.08480993 -0.051761374 0.008096042 -0.03322915 -0.07876733 0.09365
0.09131496 -0.14820987 -0.014508287 -0.017184842 -0.18587634 0.22980241 -0.009856217 -0.024823543
0.03399264 -0.07253322 0.016045293 -0.02530516 -0.045327693 0.14597912 0.15631612 -0.074815534
0.013594 0.08631932 0.17174113 0.05080757 0.131599 -0.056921467 0.06933388 0.033695456
0.01882004 -0.040100638 0.055130154 -0.073669225 -0.0991123 -0.0960566 -0.07659127 0.02198378
0.0830497 0.08583184 0.044038158 -0.10743318 0.08258411 0.11973683 0.016430872 -0.029900858
-0.06068088 0.18757364 -0.016326578 -0.14262699 -0.21046682 -0.035165414 -0.06987702 -0.04506172
-0.039576624 -0.1111257 -0.030090706 -0.0051728208 -0.038516995 -0.05610626 0.047237568 0.0039158557
-0.055484425 -0.16431068 -0.070725404 0.06289315 0.112727314 -0.018036773 -0.27208364 0.10509685
0.026602712 -0.064257644 -0.21468642 -0.032595847 -0.059370574 0.038339574 -0.20695244 0.046607345
-0.05476021 0.17177105 0.032501936 0.09573726 -0.053346053 -0.12631449 -0.08542847 -0.11415806
-0.0118386205 0.09202689 0.103485025 0.028946565 -0.084759735 -0.1440528 0.15405266 -0.013225899
-0.10012278 0.03022038 -0.14822099 -0.07226644 -0.09516246 0.017205976 0.123165846 -0.11409612
00000000: 60e3 29bd 8dbc b8bd 75d2 343b 63dc 2dbe
00000010: 8516 8fbc 40b4 6a3c 26b7 a9bd 33d2 5c3d
00000020: 9e25 0fbd 3f84 7ebd fbcb 343d a083 05be
00000030: c858 e23d 6f7e 15be c0be 14be 047e 7fbd
00000040: 618c 0d3d a13b fdbb 9b8f ab3d ccd5 f2bc
00000050: abad b2bd b16e 8fbd 26bb 763d 5458 1e3d
00000060: 1751 aa3b c215 c63d 7b6c 833d ec47 f2bb
00000070: 0094 843d 8315 8abd 48c9 cc3d 3fb5 203d
00000080: 769c dc3d cb05 893d cb66 c63d c29f d5bc
00000090: 1fb3 efbd 2554 d93d 2907 833d ccfc 79bc
000000a0: 1801 2ebe a3e1 aabc a931 cc3d 070f 0ebd
000000b0: 0339 613b 2847 063e a991 cdbd 0939 98bd
000000c0: 2dab 5fbd 5e85 8a3d b708 45bd 3b24 613d
000000d0: 13ca ce3d a6aa 5abd 6c83 cd38 94dc 963d
000000e0: 0eab c9bd 4a91 bcbd 6ab1 1cbe 0b14 a83d
000000f0: b788 23be d46d 0fbd 1e3d d4bc 3930 603d
00000100: a601 e53c 3939 a43c 775f cb3d e18f 33bd
00000110: 64aa 563d e912 babd f5b7 71bd 5071 b2bd
00000120: 3bd3 afbd 79b9 cfbd 05f7 f3bc 9e62 37bd
00000130: c8cf 83bb 220a 0b3a 0d4d 313d 2fcd bfbb
00000140: 882a ae3a 492a a83d c02a b8bd 4361 9a3d
00000150: 0710 8c3b a3f1 d63b 570f a03d 4c22 003e
00000160: 8fdb 02bd 37d6 933d 601b af3a e751 723d
00000170: 45db fa3d 39ae 38bd f34a 3f3e f2c9 383e
00000180: 2b3e 6ebd 0cba b53c 97e0 d1bd 74aa 913d
00000190: 46d7 89bd 98a0 89bd af87 a1bd 8970 47bd
000001a0: 0246 adbc 9be7 773d d1e3 843d f226 283c
000001b0: 678f f9bc 7dd1 a83d d199 043d 6191 dabc
000001c0: 0808 cc3d 088f 48bd 1abe 003e 6a6e 94bd
000001d0: f17f 933d ec84 cabd eaf1 ccbd 91bb c63d
000001e0: a794 00be 6dc0 ce3d c5c6 233e 91c9 c6bd
000001f0: d0b5 5b3e e7b3 ae3d 13b0 fe3d be99 e8bc
00000200: 8dac 36bd f356 b9bc 8c76 10be 290a 05be
00000210: a6f9 febd 2f37 84bd dc42 5dbd 8ba1 8d3c
00000220: 7c3e 443d c974 1b3d 9427 b2bd ecd8 83bd
00000230: 06eb b03d b1e3 e0bd 4176 98bd 38c3 0cbe
00000240: 3353 13be b7dc c8bc aaf0 e63d 4467 09be
00000250: 94cd 8bbd 64da 0f3e 1150 dbbc 103f 373c
00000260: 7a22 05bc 6666 af3d d4b0 ad3d bc03 54bd
00000270: 43a5 043c 4a1b 08bd c450 a1bd 92cb bf3d
00000280: 5603 bb3d 54c4 17be 2bb4 6dbc 3ac7 8cbc
00000290: 5e56 3ebe 5351 6b3e f87b 21bc be5a cbbc
000002a0: de3b 0b3d 4c8c 94bd 6b71 833c c44c cfbc
000002b0: 88a9 39bd 8d7b 153e 5511 203e e338 99bd
000002c0: 5eb9 5e3c 2fc8 b03d e8dc 2f3e 991b 503d
000002d0: e3c1 063e 7c26 69bd ecfe 8d3d 3f04 0a3d
000002e0: 7c2c 9a3c 9140 24bd 28d0 613d e4df 96bd
000002f0: 64fb cabd 53b9 c4bd e2db 9cbd 5417 b43c
00000300: f615 aa3d 9bc8 af3d 5b61 343d ed05 dcbd
00000310: dc21 a93d 9538 f53d 099a 863c a5f2 f4bc
00000320: 848c 78bd 4e13 403e 51bf 85bc cf0c 12be
00000330: 9d84 57be 9c09 10bd af1b 8fbd a392 38bd
00000340: 191b 22bd df95 e3bd c980 f6bc c480 a9bb
00000350: ffc3 1dbd adcf 65bd 2e7c 413d 9450 803b
00000360: a343 63bd 0f41 28be 7bd8 90bd 20ce 803d
00000370: 94dd e63d dbc1 93bc 8c4e 8bbe 043d d73d
00000380: eeed d93c 8399 83bd c2d6 5bbe 3983 05bd
00000390: 8f2e 73bd f509 1d3d 57eb 53be 58e7 3e3d
000003a0: 3e4c 60bd c0e4 2f3e c020 053d e611 c43d
000003b0: 6481 5abd 9658 01be 1ff5 aebd b3cb e9bd
000003c0: c6f6 41bc 9878 bc3d f5ef d33d 5921 ed3c
000003d0: 8396 adbd 9482 13be fbbf 1d3e 71b1 58bc
000003e0: 2c0d cdbd bb90 f73c 3ec7 17be 6d00 94bd
000003f0: 89e4 c2bd 8cf3 8c3c 603e fc3d 3aab e9bd

transformer_encoder.layers.0.self_attn.in_proj_bias f4 [384]
-0.044723425 0.010383817 0.026383583 0.007134582 0.023067819 0.07180182 0.035240028 0.010530203
-0.013547595 0.028490318 0.0581925 -0.019181918 0.046855975 -0.04946257 0.00071695034 -0.008852333
0.008080883 0.0562324 0.058402114 0.058474686 -0.07249416 0.027993903 -0.009780543 0.058422606
0.022871092 -0.096611015 0.028337842 -0.03767399 -0.038912352 -0.033974152 -0.041207936 -0.008709943
-0.023435367 -0.073563874 -0.0006309226 0.018464968 0.01782302 -0.02302853 0.013839506 -0.025016256
-0.0124475695 -0.0015702074 0.06524493 -0.01770005 0.013897899 0.0037818511 0.05802268 0.032064255
-0.07473678 -0.033388842 -0.013907901 -0.0038004005 -0.026218949 0.005494776 -0.0046813134 0.03017575
-0.0052019632 -0.040029563 0.025057545 -0.03841744 0.040208854 -0.039420936 -0.04816953 -0.037855785
0.01935756 0.03754555 -0.030899357 0.01956638 -0.027557967 -0.037627697 -0.010411638 -0.03738174
0.062072046 0.0038659996 -0.026822852 -0.025400331 -0.06723797 -0.017312558 -0.07844502 -0.022967754
0.0335874 0.03954527 -0.021632446 -0.04767485 0.07887551 0.047358725 -0.07098374 0.038568825
0.041460946 0.06490347 -0.041839544 -0.055244714 -0.007844338 -0.04074762 0.023804428 -0.0002237584
-0.0075796465 -0.051096067 -0.043222427 0.018281382 -0.00068840914 0.07047902 -0.02603304 -0.011616706
0.024189135 0.014697749 0.061287317 0.023755375 -0.01465903 0.025451161 0.02392406 -0.04212726
-0.016757414 0.0013362896 0.055459082 -0.034102853 0.037317794 -0.024461122 -0.055082586 -0.038225386
0.0042210068 -0.047169548 -0.032260917 0.06989515 0.0030095484 0.017285464 0.024630688 -0.07102089
-0.0021546423 -0.00013492155 -0.0014577763 0.0055414145 -0.0031549567 -0.0045526763 0.00022538954 0.0020266713
0.0014283579 -0.0009312659 0.0009780035 0.0008210404 -0.0010494026 0.00051418727 -0.0012374929 0.0019730595
0.0041361237 0.0008763897 0.0045637707 0.0041571264 0.00059216755 -0.0013794835 -0.0025972703 0.0017289987
0.0018192567 -4.1607494e-05 0.0011022822 -0.0059571792 0.0024288245 0.0013102021 0.0005100558 -0.00018471052
0.0026857555 0.0024958474 0.0010322252 -0.004254504 0.0030527196 -0.0034193501 0.0039262236 0.00081639877
0.0004751274 -0.0043485835 -0.005035969 0.0016499397 -0.0026583697 -0.0055203238 -0.0008920088 -0.002692401
-0.0024631792 -0.00043591825 -0.0022244265 -0.0029261895 0.0055994904 0.00091673847 0.0026427538 0.0059462017
-0.001920082 0.0039942623 0.0015295787 -0.0014328256 0.004156051 -0.0060801473 -0.0013885564 -0.0042833765
0.004033465 -0.001284399 0.00033027437 0.0019525284 -0.004189139 0.005348468 0.0031922837 -0.00012224924
0.0007827268 0.0016003735 0.00013504298 0.0051195933 0.00080874085 -0.002676056 0.0021128017 -0.00046225576
-0.0006605933 0.0034031563 -0.0009576178 -0.0026327881 0.0036837284 0.0008958248 -0.007951518 -0.0011046851
0.0029102014 0.00038818544 0.0020375112 -0.008013501 0.0065485784 -0.0019862873 0.0070248973 -0.0045031374
-0.002252941 -1.7983464e-05 0.0020832806 -0.0022988636 -0.0014470606 -0.009213859 -0.002984967 0.0049992674
-0.00064057787 0.0029964214 -0.00039865708 -0.0006544771 -0.0014230366 0.0008333353 -0.003619687 0.0019940473
-0.002489007 0.0027141832 -0.0005108804 0.0032008202 0.004211958 -0.004057279 0.0028433145 -0.005316121
0.00017723603 -0.004405072 -0.0019477324 4.545935e-05 -0.0020378234 0.0027328662 0.0019774123 -0.0014881311
00000000: e92f 37bd e320 2a3c 6222 d83c 36c9 e93b
00000010: b9f8 bc3c d50c 933d d957 103d df86 2c3c
00000020: bbf6 5dbc 8764 e93c 425b 6e3d 6623 9dbc
00000030: 0dec 3f3d 4499 4abd b9f1 3b3a 6009 11bc
00000040: ae65 043c f253 663d 0e37 6f3d 2783 6f3d
00000050: d177 94bd 7853 e53c 923e 20bc 8b4c 6f3d
00000060: 285c bb3c ffdb c5bd c324 e83c 0b50 1abd
00000070: 8f62 1fbd 7b28 0bbd a7c9 28bd 26b4 0ebc
00000080: 87fb bfbc a8a8 96bd 8064 25ba d843 973c
00000090: 9501 923c 54a6 bcbc 18bf 623c e4ee ccbc
000000a0: e4f0 4bbc 6bcf cdba 229f 853d b2ff 90bc
000000b0: 03b4 633c efd8 773b 31a9 6d3d cf55 033d
000000c0: 990f 99bd bdc2 08bd f7dd 63bc 2410 79bb
000000d0: 1fc9 d6bc 860d b43b b465 99bb 2233 f73c
000000e0: 3b75 aabb 0af6 23bd 7b45 cd3c 9b5b 1dbd
000000f0: 0ab2 243d d977 21bd 6a4d 45bd ab0e 1bbd
00000100: bf93 9e3c 5dc9 193d a620 fdbc ac49 a03c
00000110: 3fc1 e1bc 801f 1abd 9395 2abc 981d 19bd
00000120: 423f 7e3d b65c 7d3b 99bb dbbc 5b14 d0bc
00000130: 10b4 89bd 11d3 8dbc c8a7 a0bd df26 bcbc
00000140: f192 093d 39fa 213d 8736 b1bc b446 43bd
00000150: 7c89 a13d 39fb 413d ec5f 91bd 58fa 1d3d
00000160: f4d2 293d 1cec 843d f15f 2bbd 4848 62bd
00000170: 8a85 00bc fae6 26bd 8101 c33c b0a0 6ab9
00000180: af5e f8bb 1c4a 51bd 000a 31bd d6c2 953c
00000190: 5b76 34ba 4e57 903d 3e43 d5bc ff53 3ebc
000001a0: 4b28 c63c d4ce 703c 6908 7b3d a29a c23c
000001b0: 6e2c 70bc f47e d03c 64fc c33c a28d 2cbd
000001c0: d846 89bc 7026 af3a 1029 633d 6faf 0bbd
000001d0: 8bda 183d b162 c8bc 479e 61bd 3992 1cbd
000001e0: 5f50 8a3b db34 41bd 0624 04bd 3025 8f3d
000001f0: d83b 453b 3f9a 8d3c 4cc6 c93c 6673 91bd
00000200: e634 0dbb ba79 0db9 db12 bfba c194 b53b
00000210: 64c3 4ebb 9e2e 95bb 8b56 6c39 e7d1 043b
00000220: bd37 bb3a 3220 74ba 5a30 803a 173b 573a
00000230: 1c8c 89ba 86ca 063a 5f33 a2ba 724e 013b
00000240: 5288 873b 84bd 653a af8b 953b 8138 883b
00000250: b13b 1b3a c9cf b4ba f736 2abb 929f e23a
00000260: 2074 ee3a b583 2eb8 747a 903a 7134 c3bb
00000270: ea2c 1f3b 16bb ab3a 44b5 053a daae 41b9
00000280: 8003 303b 5f91 233b bb4b 873a 5e69 8bbb
00000290: 2310 483b 2d17 60bb 8da7 803b 9803 563a
000002a0: 851a f939 907e 8ebb c504 a5bb ca42 d83a
000002b0: 0b38 2ebb d5e3 b4bb b2d5 69ba fe72 30bb
000002c0: 4a6d 21bb f58b e4b9 afc7 11bb 50c5 3fbb
000002d0: ee7b b73b 4751 703a 0d32 2d3b 5bd8 c23b
000002e0: 43ab fbba 4de2 823b 257c c83a a6cd bbba
000002f0: 7c2f 883b f93b c7bb 3900 b6ba 915b 8cbb
00000300: 282b 843b 4759 a8ba ad28 ad39 fbeb ff3a
00000310: 0c45 89bb 3442 af3b a235 513b 0830 00b9
00000320: e82f 4d3a a0c3 d13a 539a 0d39 43c2 a73b
00000330: ae01 543a c560 2fbb ee76 0a3b eb5a f2b9
00000340: aa2b 2dba 7d07 5f3b a508 7bba db8a 2cbb
00000350: b56a 713b c9d5 6a3a 1547 02bc 15cb 90ba
00000360: 14b9 3e3b 5e85 cb39 c487 053b 0f4b 03bc
00000370: 7595 d63b 5f2c 02bb 1c31 e63b 0e8f 93bb
00000380: 14a6 13bb 32db 96b7 a687 083b 88a8 16bb
00000390: 4cab bdba baf5 16bc 709f 43bb e5d0 a33b
000003a0: 74ec 27ba 9c5f 443b d902 d1b9 3791 2bba
000003b0: 2f85 baba 2f74 5a3a 4538 6dbb 90ae 023b
000003c0: 9c1e 23bb 70e0 313b 9aec 05ba dac4 513b
000003d0: 7704 8a3b ecf2 84bb e756 3a3b db32 aebb
000003e0: 6fd8 3939 6c58 90bb 0e4b ffba 9bab 3e38
000003f0: 018d 05bb e319 333b 7997 013b 650d c3ba

transformer_encoder.layers.0.self_attn.out_proj.weight f4 [128, 128]
-0.17974336 0.009117009 0.13043788 -0.090209484 0.012098055 0.028944964 -0.09149434 0.0010014836
0.07624625 0.056990467 -0.09756052 0.12890095 -0.1084054 -0.03003191 0.06490879 -0.069239594
-0.06899553 -0.05768256 -0.02443663 -0.052683428 -0.005893219 0.0668419 -0.0026092797 -0.020122243
0.020814005 -0.026170328 -0.048838988 0.067396075 0.009538745 0.14886487 0.031473655 0.009947648
-0.033043317 0.026980314 0.16947298 -0.078329116 0.12723918 -0.08241336 -0.015836168 -0.027293092
0.03488166 0.14665473 0.030433483 -0.037673973 -0.06113168 -0.042318366 -0.070079565 -0.018822037
-0.025211204 -0.033513233 -0.011436574 0.055112988 -0.035894617 -0.03786066 0.010753422 0.046006303
0.006269845 0.06621162 0.07791178 0.011078817 0.17226273 -0.08705889 -0.07900963 -0.13551542
0.067080334 -0.041734368 -0.073713474 -0.10393814 -0.045458626 0.052249033 0.2077966 -0.1503014
0.08154746 0.11142145 0.11112412 0.113473624 0.054598376 0.08044192 0.078591496 0.02366947
-0.049297616 -0.025195671 0.04719822 0.006321314 0.17241704 0.18139306 0.14249748 -0.06556634
-0.12584797 -0.009697357 -0.09899504 -0.09064177 -0.14345007 -0.08799942 0.05175978 0.017419677
0.12696548 -0.09383085 0.06843942 0.07327288 0.1082629 0.13376732 0.021186773 -0.07129525
-0.10705584 -0.083007835 0.06677923 -0.0068341894 0.014247478 0.032026988 -0.055064514 -0.029966611
-0.026262261 0.050445646 -0.11944486 -0.033425316 -0.010558502 0.112828456 0.006560178 -0.02474028
-0.13395773 0.07573949 0.011078449 -0.0304494 0.08254913 -0.13907516 0.057641283 -0.003923624
0.024014466 0.046184372 0.08037034 0.04618795 -0.19038215 -0.08760732 0.052852444 -0.12986043
-0.050137844 -0.070411354 -0.11465045 -0.029390013 0.059219617 0.09842827 -0.045321126 0.08978383
0.0019508081 -0.1235468 -0.02760357 0.078567356 0.0052964403 -0.05694379 0.0513498 0.099003024
-0.14333521 0.04083668 0.01890215 -0.088870786 0.014242785 0.06116807 0.05305245 -0.03640577
0.15441927 -0.04200393 0.08487389 -0.07818864 0.028188871 -0.038182564 -0.060675614 -0.024340577
-0.024036534 0.10537334 -0.07693824 0.08006049 -0.0010170514 -0.033821344 -0.19429596 0.15011485
0.09922044 -0.10490612 -0.1037705 -0.014720426 0.12729858 0.04280815 -0.072206914 0.07179795
-0.033375297 -0.1421616 -0.04883879 0.039423756 -0.05805652 -0.022994777 -0.07326144 -0.052506577
-0.0278867 0.01570093 0.08395243 -0.0011568863 -0.0070810756 -0.08804176 -0.03361915 0.005471967
-0.042419072 0.029347269 0.14236002 0.11651826 0.02471724 0.0653159 0.056945927 0.020763876
-0.09133505 0.050102808 -0.113455676 0.042747267 -0.06708927 0.08514017 0.14454444 -0.11731069
0.08753313 0.014630383 0.027137019 0.08505923 0.027840858 0.111036964 -0.074951805 -0.104481526
0.10604845 -0.061963227 -0.08185179 0.07826658 0.05896111 0.13472192 -0.099252604 0.017448366
-0.019853462 0.039183255 -0.11845733 0.1071676 0.037561923 0.03331206 -0.10426845 -0.05259047
0.05515219 0.03854173 -0.08112664 -0.04046099 -0.05479242 -0.06661885 0.009805352 0.02223433
-0.03486423 -0.03284965 -0.1813493 0.01822007 -0.0197469 0.014657592 0.14365448 -0.048543293
00000000: a50e 38be 825f 153c 8291 053e c0bf b8bd
00000010: ec36 463c fd1d ed3c 6261 bbbd 3744 833a
00000020: fe26 9c3d d66e 693d cfcd c7bd 9cfe 033e
00000030: a603 debd 7b05 f6bc e6ee 843d 7dcd 8dbd
00000040: 874d 8dbd 8c44 6cbd 542f c8bc 94ca 57bd
00000050: e71b c1bb 68e4 883d 7300 2bbb 67d7 a4bc
00000060: 2282 aa3c 2863 d6bc 640b 48bd f406 8a3d
00000070: 6548 1c3c 0870 183e 85ea 003d 76fb 223c
00000080: 6e58 07bd d205 dd3c 538a 2d3e 046b a0bd
00000090: fd4a 023e 56c8 a8bd daba 81bc c395 dfbc
000000a0: 12e0 0e3d a82c 163e a44f f93c 0650 1abd
000000b0: 3665 7abd 0656 2dbd e085 8fbd ac30 9abc
000000c0: ba87 cebc 2c45 09bd 7860 3bbc 28be 613d
000000d0: 3c06 13bd c813 1bbd 1f2f 303c 1b71 3c3d
000000e0: 4673 cd3b f599 873d 3690 9f3d ed83 353c
000000f0: a465 303e ee4b b2bd cdcf a1bd 8ec4 0abe
00000100: 6a61 893d a8f1 2abd 17f7 96bd 85dd d4bd
00000110: d332 3abd 1503 563d a2c8 543e 9ce8 19be
00000120: 5b02 a73d ee30 e43d 0b95 e33d dc64 e83d
00000130: 8ca2 5f3d bcbe a43d 94f4 a03d 7ae6 c13c
00000140: 4cec 49bd 2767 cebc ec52 413d 0623 cf3b
00000150: 188e 303e 1abf 393e dcea 113e a547 86bd
00000160: 4ade 00be aae1 1ebc e9bd cabd 64a2 b9bd
00000170: 93e4 12be 0a39 b4bd 1002 543d b6b3 8e3c
00000180: 3d03 023e 642a c0bd f729 8c3d 1710 963d
00000190: f0b8 dd3d 4dfa 083e e28f ad3c 3e03 92bd
000001a0: 1840 dbbd 0300 aabd 8dc3 883d 56f1 dfbb
000001b0: 416e 693c bb2e 033d 548b 61bd 8a7c f5bc
000001c0: f423 d7bc 18a0 4e3d 829f f4bd fce8 08bd
000001d0: 91fd 2cbc 9b12 e73d c3f6 d63b 21ac cabc
000001e0: 372c 09be 4e1d 9b3d 6282 353c 0571 f9bc
000001f0: 850f a93d b869 0ebe 4419 6c3d be91 80bb
00000200: fcb9 c43c d32b 3d3d 3499 a43d 932f 3d3d
00000210: 8af3 42be 776b b3bd ce7b 583d 22fa 04be
00000220: 575d 4dbd d433 90bd dbcd eabd 53c3 f0bc
00000230: 4590 723d c394 c93d a5a2 39bd 96e0 b73d
00000240: 42b2 ff3a 1b06 fdbd e220 e2bc ece7 a03d
00000250: c38d ad3b e43d 69bd 2b54 523d 19c2 ca3d
00000260: 77c6 12be 5d44 273d afd8 9a3c e301 b6bd
00000270: 925a 693c 5f8b 7a3d 874d 593d 371e 15bd
00000280: 1620 1e3e 500c 2cbd 5dd2 ad3d 5e21 a0bd
00000290: 59ec e63c 5265 1cbd fe86 78bd e465 c7bc
000002a0: 44e8 c4bc facd d73d cc91 9dbd c1f6 a33d
000002b0: 954e 85ba 4088 0abd 85f5 46be b5b7 193e
000002c0: 1634 cb3d 05d9 d6bd a185 d4bd f12d 71bc
000002d0: 8f5a 023e 9957 2f3d 38e1 93bd ce0a 933d
000002e0: 89b4 08bd cf92 11be 2f0b 48bd ce7a 213d
000002f0: accc 6dbd 8b5f bcbc 180a 96bd 2311 57bd
00000300: a672 e4bc 3d9f 803c 40ef ab3d aaa2 97ba
00000310: 5e08 e8bb 3d4f b4bd 3cb4 09bd 304e b33b
00000320: 9fbf 2dbd af69 f03c d3c6 113e 20a1 ee3d
00000330: cf7b ca3c 58c4 853d 2240 693d 0119 aa3c
00000340: df0d bbbd 9a38 4d3d 735b e8bd c217 2f3d
00000350: 1966 89bd f85d ae3d 7503 143e 9640 f0bd
00000360: 9244 b33d 46b4 6f3c 744e de3c 8933 ae3d
00000370: 8312 e43c 5967 e33d 5580 99bd 69fa d5bd
00000380: ee2f d93d 27cd 7dbd e9a1 a7bd 3b4a a03d
00000390: 3481 713d 8bf4 093e f344 cbbd e0ef 8e3c
000003a0: baa3 a2bc 9f7e 203d c299 f2bd b07a db3d
000003b0: 88da 193d 3a72 083d b28a d5bd 1b69 57bd
000003c0: 43e7 613d efdd 1d3d b925 a6bd 6cba 25bd
000003d0: 046e 60bd 776f 88bd a1a6 203c c524 b63c
000003e0: cbcd 0ebd 5b8d 06bd a2b3 39be 4242 953c
000003f0: 40c4 a1bc 6626 703c 291a 133e 55d5 46bd

transformer_encoder.layers.0.self_attn.out_proj.bias f4 [128]
-0.041868627 0.0031473157 -0.009312923 -0.028216057 -0.009214334 -0.004642968 0.050919805 -0.0040327436
-0.027655661 0.042898335 -0.04285582 -0.0079288175 -0.033684257 -0.05496519 -0.0030607348 -0.019091425
-0.020556627 0.0058197095 -0.0048692245 -0.014830269 0.014654346 -0.041387606 0.0057180347 -0.02893029
0.0027822186 -0.012987683 -0.017953174 0.012137867 0.009874527 0.04798154 0.038504582 0.028928448
-0.0015567848 0.027127694 0.005162666 0.0042842044 0.0010616255 0.02713947 -0.06554805 0.022115823
-0.008943678 0.0030231276 0.0067430628 -0.0014769576 -0.007258201 -0.008841309 0.026355598 -0.006270533
0.021980038 -0.035447765 0.0007220311 0.004458288 -0.0023830647 0.040357213 -0.02353582 0.01523266
0.01758144 -0.006086896 -0.01272701 0.03717156 -0.024606721 0.004579627 -0.00939702 0.02095055
-0.019634675 -0.023551455 -0.013601654 -0.029323818 -0.012195602 -0.024352416 0.025900053 0.029253423
-0.011209124 0.010682704 0.024505574 0.003209005 0.0037409132 -0.021736646 0.019034475 0.021472028
-0.013352759 -0.0078123333 0.010448319 0.024548486 0.011594001 0.0063181906 0.0279822 0.0117416
0.0017659826 -0.014624374 0.0031419934 0.028559925 0.016713943 -0.021012485 -0.008004596 0.013481663
0.007663987 0.017103821 -0.005119562 -0.01580286 0.007844397 -0.027974207 0.029653179 -0.021279298
-0.01605359 0.045539472 0.010528092 0.0018951453 -0.0060303207 -0.0086949235 0.011414917 0.060332548
0.043518465 -0.07465425 -0.0048716916 -0.022804165 -0.027449101 -0.023573114 0.0118858125 -0.025028812
0.008172376 -0.012168718 -0.015348322 -0.010861318 0.024951711 0.025761414 -0.019293975 -0.008987594
00000000: 707e 2bbd 3243 4e3b 3b95 18bc 5c25 e7bc
00000010: b8f7 16bc 0a24 98bb 4991 503d 1b25 84bb
00000020: 208e e2bc 2ab6 2f3d 9689 2fbd dfe7 01bc
00000030: 81f8 09bd 2e23 61bd 9c96 48bb 9f65 9cbc
00000040: 5f66 a8bc 43b3 be3b 048e 9fbb a8fa 72bc
00000050: c818 703c 0d86 29bd 5a5e bb3b 37ff ecbc
00000060: e255 363b 4aca 54bc 8912 93bc e7dd 463c
00000070: c5c8 213c 4b88 443d fbb6 1d3d 5afb ec3c
00000080: 080d ccba e63a de3c 952b a93b 8362 8c3b
00000090: 3e26 8b3a 9853 de3c 0e3e 86bd 3e2c b53c
000000a0: 8188 12bc aa1f 463b e9f4 dc3b 7996 c1ba
000000b0: 34d6 edbb 23db 10bc b2e7 d73c 0b79 cdbb
000000c0: 7b0f b43c ad31 11bd b046 3d3a d516 923b
000000d0: 312d 1cbb 9b4d 253d 31ce c0bc 6892 793c
000000e0: f406 903c 9674 c7bb f384 50bc 3541 183d
000000f0: 0994 c9bc b210 963b f5f5 19bc 7da0 ab3c
00000100: e6d8 a0bc fbee c0bc 79d9 5ebc 8138 f0bc
00000110: 10d0 47bc b87e c7bc 592c d43c e0a4 ef3c
00000120: 79a6 37bc 8206 2f3c eabf c83c 2c4e 523b
00000130: 1c2a 753b 0d11 b2bc 30ee 9b3c 1be6 af3c
00000140: 88c5 5abc 9afe ffbb 6d2f 2b3c e819 c93c
00000150: c4f4 3d3c d308 cf3b ed3a e53c d75f 403c
00000160: 8b78 e73a 129b 6fbc e7e9 4d3b 81f6 e93c
00000170: aeeb 883c 6022 acbc b625 03bc 31e2 5c3c
00000180: 2f22 fb3b 501d 8c3c 00c2 a7bb 0075 81bc
00000190: c985 003c 2a2a e5bc 39eb f23c ec51 aebc
000001a0: d282 83bc 9987 3a3d 057e 2c3c 8666 f83a
000001b0: ff99 c5bb 2775 0ebc a205 3b3c 431f 773d
000001c0: 6b40 323d 54e4 98bd b6a2 9fbb cdcf babc
000001d0: f0dc e0bc 671c c1bc b6bc 423c 3909 cdbc
000001e0: 6ee5 053c 4d5f 47bc 8777 7bbc abf3 31bc
000001f0: 8867 cc3c 9a09 d33c 660e 9ebc b440 13bc

transformer_encoder.layers.0.linear1.weight f4 [2, 128]
0.11439528 0.045189604 0.040764745 0.0017703009 0.09605428 0.0018791907 -0.029601881 -0.043721
-0.12108061 -0.060880944 -0.027514888 -0.040213477 0.13490222 0.09981237 0.045608208 0.091681436
0.059132934 -0.013158514 -0.0967127 -0.07520638 0.08373973 0.005964295 -0.030926855 -0.029040039
-0.0737243 0.026538897 0.055495005 -0.0068331943 -0.14258915 0.036124293 -0.096698515 -0.04939562
0.060365308 -0.055668 0.06549472 -0.017488126 0.09324194 0.028948043 0.052049715 -0.122988805
0.03244487 0.022365496 -0.050717715 0.07722951 0.066235885 -0.05855657 0.038348313 -0.07288205
-0.027748376 0.03062811 0.08167343 0.05226766 -0.05981919 -0.11315447 -0.065202355 -0.034314625
-0.017982662 0.0464901 0.055024542 -0.080427706 -0.037925046 -0.049360964 0.0068492913 -0.0698245
0.05445115 0.0050307643 -0.0033942373 0.0645506 0.11384537 -0.037102003 -0.035660956 0.0144756185
-0.03439192 0.037787594 0.028090715 -0.052758608 -0.034645848 0.09879417 -0.18202202 -0.047462076
0.09755757 -0.0065411227 -0.10063774 0.08720342 0.11146054 -0.07994498 0.03366354 0.06937238
0.013725311 0.1318019 0.054786753 -0.05787733 0.068581894 0.04855095 0.07630368 0.019021234
0.11382324 -0.03142129 -0.062429518 0.013199943 -0.07942315 0.11023752 -0.0821572 0.03497201
-0.018746428 0.04774498 0.07573544 -0.056046616 -0.0804239 -0.056562748 0.074617475 -0.07722754
-0.029882805 -0.0076787253 -0.05334041 0.04212332 -0.02724874 0.05590332 -0.012301187 0.051648054
-0.012008738 0.08746561 -0.07201195 0.0071330355 0.0078197215 0.094958745 0.059588257 -0.009913164
0.020090532 0.025827145 -0.027192103 -0.12341391 0.08700113 0.028852493 0.10992914 0.036166217
-0.09989328 0.13172197 0.10766505 0.027772024 -0.014995405 0.010223012 0.10754261 0.054329496
0.07005056 0.12454037 0.040271424 -0.015199215 0.14078642 0.13695168 0.028969364 -0.05196349
-0.012530647 0.08134539 -0.09102715 -0.079767115 -0.049906332 -0.10012602 -0.01969027 -0.112475544
-0.1231294 0.04669382 0.077372104 -0.02651073 0.13555215 -0.18261114 0.008654942 -0.018483143
0.017468475 -0.07695614 -0.083023466 -0.01752574 0.015754186 -0.046299707 0.042162664 0.030117664
0.006977164 -0.056198787 -0.05593642 -0.03943364 -0.062122665 -0.07309032 0.09930975 0.043096673
0.09412139 -0.00929793 -0.09519523 -0.04603758 0.08531061 0.038121715 0.10825339 -0.06788327
0.094963476 -0.06081602 0.012959801 0.11702405 -0.021788966 0.023779685 0.0132534625 -0.010662291
0.14880647 -0.1390917 -0.059033435 0.03786601 -0.026104804 -0.032899927 -0.08877944 -0.05730548
-0.1149867 -0.021263093 0.016095469 -0.023013884 -0.068617456 -0.11360474 0.0012955684 0.059732746
-0.055447236 0.066337354 0.12864962 -0.14080642 -0.1422434 0.109614775 -0.024039054 0.058972713
-0.014810314 -0.092833124 -0.016162975 0.058241166 -0.037596095 -0.031998966 -0.052231885 -0.04985838
-0.09103299 -0.0749877 0.033312283 -0.14719923 0.035745084 -0.041623253 -0.012557821 0.09133862
-0.09125516 -0.012530097 -0.008318303 0.043098852 -0.0038546743 0.12023351 0.012432393 -0.12638104
-0.0017756261 0.09476404 -0.050760027 0.0071325772 -0.039417785 -0.03681621 0.07449886 0.004726197
00000000: 1348 ea3d bc18 393d eff8 263d 7109 e83a
00000010: 1bb8 c43d 2d4f f63a a57f f2bc cb14 33bd
00000020: 1cf9 f7bd 4c5e 79bd e766 e1bc e3b6 24bd
00000030: cf23 0a3e 6e6a cc3d accf 3a3d 7ac3 bb3d
00000040: 6035 723d cf96 57bc 4f11 c6bd cd05 9abd
00000050: bc7f ab3d 2270 c33b 515a fdbc 60e5 edbc
00000060: c4fc 96bd 1a68 d93c bb4e 633d fde8 dfbb
00000070: e402 12be 11f7 133d df09 c6bd 1053 4abd
00000080: 9d41 773d 2104 64bd 1922 863d 4243 8fbc
00000090: a1f5 be3d 7224 ed3c 1532 553d 8ee1 fbbd
000000a0: e9e4 043d d837 b73c 61bd 4fbd 812a 9e3d
000000b0: aea6 873d 04d9 6fbd 1f13 1d3d 2f43 95bd
000000c0: 9050 e3bc cde7 fa3c 6644 a73d 9d16 563d
000000d0: f804 75bd 88bd e7bd d088 85bd 7e8d 0cbd
000000e0: 6050 93bc 676c 3e3d 6a61 613d 48b7 a4bd
000000f0: 4b57 1bbd b92e 4abd 0570 e03b 2600 8fbd
00000100: 2b08 5f3d 1cd9 a43b da71 5ebb 1b33 843d
00000110: c327 e93d 45f8 17bd 3911 12bd 252b 6d3c
00000120: 8bde 0cbd 2ac7 1a3d 801e e63c 6919 58bd
00000130: cee8 0dbd 9954 ca3d fb63 3abe 9867 42bd
00000140: 43cc c73d ea56 d6bb 291b cebd b597 b23d
00000150: 6c45 e43d 32ba a3bd c8e2 093d 1b13 8e3d
00000160: 20e0 603c 14f7 063e 1368 603d c710 6dbd
00000170: aa74 8c3d 5cdd 463d 1b45 9c3d 6bd2 9b3c
00000180: 291c e93d 9cb3 00bd 18b6 7fbd 9344 583c
00000190: 9ba8 a2bd 35c4 e13d 0942 a8bd cf3e 0f3d
000001a0: 1c92 99bc 3d90 433d 2f1b 9b3d 2391 65bd
000001b0: 49b5 a4bd 57ae 67bd 0cd1 983d 7929 9ebd
000001c0: c9cc f4bc d19d fbbb 797b 5abd 8189 2c3d
000001d0: c038 dfbc e1fa 643d eb8a 49bc e98c 533d
000001e0: 4cc0 44bc 2b21 b33d 007b 93bd 3dbc e93b
000001f0: 4a1e 003c bb79 c23d d112 743d d36a 22bc
00000200: e694 a43c 7393 d33c f9c1 debc 6fc0 fcbd
00000210: a62d b23d 105c ec3c 8722 e13d 0723 143d
00000220: d994 ccbd 20e2 063e 7e7f dc3d 2882 e33c
00000230: 4aaf 75bc 6c7e 273c 4d3f dc3d 9b88 5e3d
00000240: ab76 8f3d 060f ff3d a6f3 243d 2106 79bc
00000250: 512a 103e 103d 0c3e 2951 ed3c abd7 54bd
00000260: 584d 4dbc 6998 a63d 716c babd f15c a3bd
00000270: 956a 4cbd df0e cdbd 7d4d a1bc 9459 e6bd
00000280: 442b fcbd 0542 3f3d 4475 9e3d 082d d9bc
00000290: 2fce 0a3e 6afe 3abe 75cd 0d3c f669 97bc
000002a0: 0c1a 8f3c 2e9b 9dbd 3508 aabd 2492 8fbc
000002b0: ec0e 813c c3a4 3dbd c2b2 2c3d 52b9 f63c
000002c0: b2a0 e43b b330 66bd 961d 65bd 2b85 21bd
000002d0: 5674 7ebd 61b0 95bd e962 cb3d 2386 303d
000002e0: b7c2 c03d 5856 18bc b7f5 c2bd e791 3cbd
000002f0: 54b7 ae3d 8425 1c3d f4b3 dd3d 6206 8bbd
00000300: 367c c23d 381a 79bd 5855 543c 4eaa ef3d
00000310: c67e b2bc 9dcd c23c 0d25 593c e4b0 2ebc
00000320: b960 183e 0e6e 0ebe 0bcd 71bd 6419 1b3d
00000330: bed9 d5bc 13c2 06bd ffd1 b5bd 27b9 6abd
00000340: 267e ebbd f02f aebc a5da 833c 9d87 bcbc
00000350: 4f87 8cbd 9aa9 e8bd 10d0 a93a 53aa 743d
00000360: a41c 63bd e1db 873d babc 033e 8f2f 10be
00000370: 41a8 11be b67d e03d 8ded c4bc 5f8d 713d
00000380: f6a6 72bc 4b1f bebd 3768 84bc 4a8e 6e3d
00000390: 5dfe 19bd 5911 03bd 1af1 55bd 4d38 4cbd
000003a0: 816f babd 2793 99bd 7672 083d 65bb 16be
000003b0: 7069 123d 257d 2abd 52bf 4dbc be0f bb3d
000003c0: fce3 babd 094b 4dbc 7e49 08bc 6c88 303d
000003d0: b49e 7cbb fd3c f63d 3cb1 4b3c 086a 01be
000003e0: 20bc e8ba a613 c23d bfe9 4fbd 65b8 e93b
000003f0: 8b74 21bd 98cc 16bd dc92 983d 37de 9a3b

transformer_encoder.layers.0.linear1.bias f4 [2]
-0.03340442 -0.04207159
00000000: 13d3 08bd 4253 2cbd

transformer_encoder.layers.0.linear2.weight f4 [128, 2]
0.061909903 -0.52181464 -0.4613477 -0.48892364 0.635218 -0.39231738 0.5133886 0.51882225
-0.61856 0.6392171 0.17186604 -0.04704344 -0.070337094 0.2788367 -0.18972453 0.62908727
0.27449077 0.41517782 0.027466835 -0.5878234 0.66656834 -0.2738132 -0.20031957 0.39308593
0.64917684 -0.31963122 0.57969004 0.06476812 -0.6008878 -0.67434156 0.06254441 0.6649535
0.5183711 0.5126278 -0.58797044 0.07565236 0.24472488 0.11563993 0.3141224 0.020623157
-0.5077677 -0.40114555 -0.15731563 0.62328166 0.6384722 0.2517331 0.568429 0.51157415
0.20928386 0.71970916 0.004653946 -0.006289769 -0.6649926 0.6690452 0.61591506 -0.42490968
0.069045775 -0.67810845 0.114826895 0.53126824 -0.74818546 0.5619593 -0.6599751 0.70219564
0.6657089 0.08571963 -0.024737304 -0.68926877 -0.44052503 -0.19581239 -0.2708384 -0.16801336
-0.08238402 -0.32652953 -0.050515518 -0.5067439 -0.3525606 0.6206652 0.09100085 -0.14600597
-0.2686901 0.1313978 -0.48287067 -0.2535576 0.414986 -0.16712241 0.20076442 0.2649869
-0.081933 0.44484648 0.52549285 0.15465657 -0.7342774 0.658929 0.47046092 0.2131219
0.18278222 -0.038212173 -0.20255703 0.5218405 0.07694006 0.4244173 -0.497722 -0.73730785
-0.6013511 -0.61771595 0.15629025 0.0516936 -0.58894163 0.582367 -0.5377652 0.42100474
-0.6227092 0.27968585 -0.44200006 0.08339418 0.66567576 -0.38833362 0.04447006 -0.72013134
0.12459616 -0.19640547 -0.43296847 -0.19320066 0.27369288 0.1515063 -0.3611672 0.17184535
0.08466444 -0.64814883 0.54236585 0.29970407 0.64886534 -0.3951483 0.4430903 -0.4247542
-0.360829 0.72315717 0.5151758 -0.15213917 -0.26336265 -0.24469602 0.07538056 0.38501367
-0.12455344 0.45262116 -0.44779912 -0.5037915 -0.5504287 -0.2671718 0.09840576 -0.45354244
0.47326875 0.117045775 -0.50489026 0.44320944 0.5594628 -0.26866603 -0.13061458 0.7596635
-0.38603327 0.298578 -0.22034365 0.53476864 0.5006509 0.037875097 -0.5922761 -0.41764462
-0.40889898 -0.63004476 0.045828927 -0.4746956 -0.14291035 0.3939177 0.080568366 -0.53045046
0.30129886 -0.42213994 -0.5440827 0.3836605 0.12063395 0.22436851 -0.5316338 -0.07081105
0.34445286 0.14883348 0.36527345 -0.20394437 0.24166754 0.5491587 0.5268146 -0.18040843
-0.5230525 0.68084896 -0.042939026 0.71079415 0.4720573 0.6547667 0.18532299 -0.1582594
-0.24432994 -0.33440334 0.31519434 0.6765925 0.054642957 -0.24785855 0.30729488 0.58301955
0.68836987 0.19027579 -0.58401877 -0.39137787 -0.039423563 0.7685265 -0.058162224 0.11387148
0.5726631 0.21149167 0.42595893 -0.14822318 -0.31084535 -0.14873487 -0.4793847 0.22313175
-0.12875462 0.56646127 0.3013532 0.32363993 0.5858697 0.599258 0.19011636 0.12555307
0.0931138 -0.10663459 0.26959518 -0.32915473 0.34964743 0.33797577 0.34079474 0.57766676
-0.20172966 -0.1572013 0.3934337 0.24675614 0.30047342 0.20857452 0.18160032 -0.30629864
-0.6263827 -0.2650856 -0.16788685 0.58276594 0.11256776 0.3071753 0.056802902 0.550423
00000000: 3d95 7d3d a595 05bf c435 ecbe 3354 fabe
00000010: a69d 223f d3dd c8be 6f6d 033f 89d1 043f
00000020: f359 1ebf bba3 233f a7fd 2f3e 9fb0 40bd
00000030: e50c 90bd afc3 8e3e 2647 42be dd0b 213f
00000040: 0e8a 8c3e 3092 d43e 2102 e13c 987b 16bf
00000050: 39a4 2a3f 3e31 8cbe 9320 4dbe 8f42 c93e
00000060: 7430 263f b4a6 a3be 9166 143f 26a5 843d
00000070: c8d3 19bf a6a1 2cbf 4917 803d 643a 2a3f
00000080: f8b3 043f 933b 033f 3b85 16bf a0ef 9a3d
00000090: 2999 7a3e a1d4 ec3d a7d4 a03e e5f1 a83c
000000a0: 10fd 01bf f362 cdbe 5917 21be 638f 1f3f
000000b0: ea72 233f 29e3 803e 9084 113f 86f6 023f
000000c0: 824e 563e dc3e 383f 2180 983b 681a cebb
000000d0: f43c 2abf 8c46 2b3f 9cac 1d3f c38d d9be
000000e0: df67 8d3d 8498 2dbf 5d2a eb3d 3201 083f
000000f0: 1589 3fbf 91dc 0f3f 21f4 28bf 18c3 333f
00000100: e66b 2a3f c68d af3d e3a5 cabc eb73 30bf
00000110: 7f8c e1be 0b83 48be 55ab 8abe b20b 2cbe
00000120: f4b8 a8bd e12e a7be 5ce9 4ebd f8b9 01bf
00000130: d382 b4be eae3 1e3f a75e ba3d 9782 15be
00000140: c091 89be 258d 063e d33a f7be 4dd2 81be
00000150: 0c79 d43e 2322 2bbe 3095 4d3e 5dac 873e
00000160: 7dcc a7bd ebc2 e33e b386 063f 4b5e 1e3e
00000170: 9bf9 3bbf 92af 283f 41e0 f03e a13c 5a3e
00000180: 432b 3b3e 5e84 1cbd 1c6b 4fbe 5797 053f
00000190: c092 9d3d 394d d93e 6bd5 febe 35c0 3cbf
000001a0: 25f2 19bf a222 1ebf 8d0a 203e abbc 533d
000001b0: e1c4 16bf 0116 153f fbaa 09bf ef8d d73e
000001c0: df69 1fbf fc32 8f3e d54d e2be 91ca aa3d
000001d0: ba69 2a3f aad3 c6be 3d26 363d 875a 38bf
000001e0: 462c ff3d 841e 49be 0bae ddbe 65d6 45be
000001f0: 7921 8c3e 7824 1b3e e8ea b8be 3af8 2f3e
00000200: 8d64 ad3d 15ed 25bf 7dd8 0a3f d072 993e
00000210: 0a1c 263f e150 cabe bbdc e23e 6279 d9be
00000220: 94be b8be d420 393f 90e2 033f 5fca 1bbe
00000230: 78d7 86be 9891 7abe 1f61 9a3d 8320 c53e
00000240: e015 ffbd f6bd e73e ed45 e5be 7bf8 00bf
00000250: e5e8 0cbf beca 88be f688 c93d b736 e8be
00000260: 4850 f23e b2b5 ef3d 7d40 01bf 59ec e23e
00000270: f438 0f3f 988e 89be d4bf 05be 4f79 423f
00000280: 27a6 c5be 37df 983e c4a1 61be 99e6 083f
00000290: a82a 003f eb22 1b3d 689f 17bf 84d5 d5be
000002a0: 355b d1be 9d4a 21bf 1db7 3b3d 4d0b f3be
000002b0: 1757 12be 95af c93e 0701 a53d 9acb 07bf
000002c0: d843 9a3e ba22 d8be 0149 0bbf 266f c43e
000002d0: ef0e f73d dcc0 653e 2719 08bf 6205 91bd
000002e0: 205c b03e ce67 183e 1f05 bb3e cbd6 50be
000002f0: b277 773e aa95 0c3f 52dd 063f fdbc 38be
00000300: c5e6 05bf 1e4c 2e3f d5e0 2fbd 9bf6 353f
00000310: 7fb1 f13e ca9e 273f 4fc5 3d3e c10e 22be
00000320: a131 7abe ea36 abbe 2761 a13e 2b35 2d3f
00000330: 4bd1 5f3d a2ce 7dbe c155 9d3e c540 153f
00000340: 0239 303f a8d7 423e 4182 15bf ae62 c8be
00000350: 9a7a 21bd 27be 443f 833b 6ebd 7335 e93d
00000360: 0d9a 123f 4691 583e 4a17 da3e d1c7 17be
00000370: 1f27 9fbe f44d 18be e971 f5be a67c 643e
00000380: 40d8 03be 9b03 113f f74a 9a3e 22b4 a53e
00000390: 8ffb 153f f968 193f ddad 423e fc90 003e
000003a0: 73b2 be3d 3c63 dabd 6108 8a3e f886 a8be
000003b0: fd04 b33e 290b ad3e a67c ae3e f8e1 133f
000003c0: 3892 4ebe 61f9 20be 2470 c93e a4ad 7c3e
000003d0: a7d7 993e 8f94 553e 6ff5 393e 2dd3 9cbe
000003e0: 9e5a 20bf 4db9 87be 88ea 2bbe 2630 153f
000003f0: ed89 e63d 1546 9d3e 29aa 683d 86e8 0c3f

transformer_encoder.layers.0.linear2.bias f4 [128]
0.57975996 0.5480505 0.14522746 0.60679793 0.18034299 -0.29066062 -0.5967341 0.27984214
-0.21344256 -0.26798263 0.22268614 -0.070988685 0.39775485 -0.13936454 0.15339191 0.37206125
0.113378495 0.41694656 0.42200047 0.152592 -0.09271288 0.6092087 -0.637853 0.0873364
-0.62564474 0.5848273 0.21172728 -0.46458116 0.21150497 -0.2970609 0.060407322 -0.65232474
-0.29265687 -0.19148132 0.36731535 0.33350825 0.08196516 -0.11707631 0.48153946 -0.021589998
0.6038293 -0.4919407 -0.17336568 -0.6440792 0.015938807 -0.5044476 -0.4534337 -0.574664
-0.038767565 0.4384582 0.14380735 0.5125741 0.50171965 -0.62371373 0.6076388 -0.33305424
-0.23839387 -0.058662146 -0.15118472 -0.15713792 0.40765834 0.1793603 -0.5207187 -0.3961611
0.3050929 0.5017796 0.45399135 0.44652575 0.26275226 0.29540372 -0.3267376 -0.5862502
0.6213987 -0.067102455 0.22380622 0.12530121 -0.16732381 0.6168049 -0.4915015 0.025176695
0.43381852 -0.33854157 -0.6676266 -0.35656393 0.020197313 -0.15543309 -0.40534067 0.26975864
0.43217713 0.37747458 -0.5862482 -0.05451135 -0.36533168 -0.16606477 0.3222142 -0.6109701
-0.5218493 -0.5845548 0.53521645 0.31161475 0.41280872 -0.37345323 -0.6064401 -0.41872486
0.1471775 -0.51878715 -0.02049193 -0.5041584 -0.27389547 0.053155266 0.13642679 -0.43363434
-0.6166133 0.35416183 -0.24775648 0.31330082 0.40576923 0.22159402 -0.45324257 0.18190488
-0.26027 -0.48523644 -0.32582763 -0.48686534 -0.25602722 -0.64700747 0.14465725 -0.123794146
00000000: 266b 143f 0a4d 0c3f 82b6 143e 1c57 1b3f
00000010: d5ab 383e 78d1 94be 91c3 18bf 7847 8f3e
00000020: b090 5abe 0535 89be d607 643e 8462 91bd
00000030: 86a6 cb3e 94b5 0ebe c512 1d3e d07e be3e
00000040: fc32 e83d 057a d53e 7210 d83e 1441 1c3e
00000050: 40e0 bdbd 1af5 1b3f 564a 23bf 6ddd b23d
00000060: 412a 20bf 3eb7 153f 09cf 583e 95dd edbe
00000070: c294 583e 5e18 98be ab6d 773d c1fe 26bf
00000080: 1fd7 95be ae13 44be c210 bc3e 98c1 aa3e
00000090: 5add a73d b4c5 efbd 578c f63e 82dd b0bc
000000a0: 8f94 1a3f a7df fbbe c686 31be 60e2 24bf
000000b0: 1a92 823c 7a23 01bf 7628 e8be 2e1d 13bf
000000c0: bdca 1ebd 987d e03e 3c42 133e 0e38 033f
000000d0: b370 003f b4ab 1fbf 378e 1b3f 1686 aabe
000000e0: 861d 74be b847 70bd 2bd0 1abe c3e8 20be
000000f0: 98b8 d03e 3aaa 373e d24d 05bf a1d5 cabe
00000100: 2335 9c3e a174 003f 8e71 e83e 069f e43e
00000110: 7787 863e 283f 973e 274a a7be 7e14 16bf
00000120: fc13 1f3f 036d 89bd 752d 653e f64e 003e
00000130: ef56 2bbe ede6 1d3f 16a6 fbbe 5b3f ce3c
00000140: 761d de3e 5255 adbe 94e9 2abf 8c8f b6be
00000150: d674 a53c da29 1fbe d088 cfbe ce1d 8a3e
00000160: 5246 dd3e 5944 c13e 5d14 16bf 4b47 5fbd
00000170: c10c bbbe e20c 2abe 42f9 a43e 8968 1cbf
00000180: ea97 05bf 62a5 15bf f203 093f f88b 9f3e
00000190: aa5b d33e 4335 bfbe a93f 1bbf 1b63 d6be
000001a0: b3b5 163e 3ccf 04bf b1de a7bc 8610 01bf
000001b0: 073c 8cbe 56b9 593d 77b3 0b3e 5205 debe
000001c0: 5fda 1dbf b354 b53e e0b3 7dbe f768 a03e
000001d0: fcc0 cf3e 8be9 623e 690f e8be 4645 3a3e
000001e0: 1c42 85be e970 f8be e1d2 a6be 6a46 f9be
000001f0: 0016 83be 48a2 25bf 0821 143e c987 fdbd

transformer_encoder.layers.0.norm1.weight f4 [128]
0.9659735 1.0000334 0.94616646 1.0521944 1.0120211 1.0323335 1.0247867 0.95572263
1.0008776 0.9799253 1.0080328 0.9641117 0.97864276 0.9411011 0.99146473 1.0048497
1.0203767 0.99037963 0.9785736 0.9394092 1.0026671 1.0681648 0.9868565 0.99091035
0.99095106 0.9945035 0.937895 0.9883991 0.97550327 0.95559376 1.0035883 0.9873227
0.95478916 0.9827666 1.0019987 0.9762986 0.97994405 1.0598422 0.99542135 0.96168125
0.9711166 1.0036383 0.9985871 1.0062563 0.92773277 0.92521346 1.0485991 0.9821914
0.9490005 0.9577981 1.0270113 1.0043108 0.92932206 0.96638626 0.9822877 0.8656563
0.9707512 1.0058533 0.98065454 0.9681665 0.97058797 0.9401996 0.9760937 1.014286
0.9707207 0.99261016 0.8506125 1.0717052 1.0150131 0.9683367 0.9644831 0.9811443
1.0004396 0.981639 0.9421858 0.9396507 0.9347805 0.9715378 1.0190784 0.96632224
0.971557 1.0496532 1.045099 0.9526172 0.9721408 0.9730036 0.8677616 0.9966784
0.94638634 0.9697191 1.044718 0.9781178 1.02633 0.9848605 0.9865108 0.9667811
0.99221605 0.9559679 1.0892894 0.9691333 0.97648364 0.98142254 1.0704975 0.98974806
1.0091829 1.0059047 0.9662406 0.9939345 0.9088728 0.92185336 0.95037705 1.0498204
1.0013859 0.97438675 0.9555832 0.9544858 1.0053276 0.9819718 0.931778 0.98509777
0.9186977 0.97160435 0.9287422 1.0000091 0.9515433 0.9664939 1.0011995 0.9509794
00000000: 0a4a 773f 1801 803f f737 723f 4eae 863f
00000010: e889 813f 8123 843f 362c 833f 3daa 743f
00000020: c21c 803f 62dc 7a3f 3807 813f 06d0 763f
00000030: 5588 7a3f 00ec 703f a2d0 7d3f ea9e 803f
00000040: b49b 823f 8589 7d3f cd83 7a3f 1f7d 703f
00000050: 6557 803f a0b9 883f a1a2 7c3f 4dac 7d3f
00000060: f8ae 7d3f c897 7e3f e319 703f b907 7d3f
00000070: 95ba 793f cba1 743f 9575 803f 2ec1 7c3f
00000080: 106d 743f 9896 7b3f 7e41 803f b4ee 793f
00000090: 9ddd 7a3f e9a8 873f efd3 7e3f be30 763f
000000a0: 199b 783f 3877 803f 67a3 7f3f 02cd 803f
000000b0: e57f 6d3f cada 6c3f 7f38 863f e570 7b3f
000000c0: b2f1 723f 4232 753f 1b75 833f 428d 803f
000000d0: 0de8 6d3f 1765 773f 3577 7b3f a79b 5d3f
000000e0: 2783 783f cdbf 803f 2d0c 7b3f c2d9 773f
000000f0: 7478 783f ecb0 703f 47e1 793f 20d4 813f
00000100: 2781 783f b31b 7e3f bec1 593f a32d 893f
00000110: f3eb 813f eae4 773f 5de8 763f 462c 7b3f
00000120: 680e 803f b24c 7b3f 1733 713f f38c 703f
00000130: c64d 6f3f b4b6 783f 2971 823f e560 773f
00000140: f6b7 783f 095b 863f cec5 853f b9de 733f
00000150: 38de 783f c416 793f a025 5e3f 5126 7f3f
00000160: 6046 723f 833f 783f 52b9 853f ee65 7a3f
00000170: c85e 833f d11f 7c3f f98b 7c3f f77e 773f
00000180: df01 7e3f 50ba 743f d66d 8b3f 1f19 783f
00000190: d5fa 793f 823e 7b3f 1006 893f 2160 7d3f
000001a0: e82c 813f 7cc1 803f 8b5b 773f 7e72 7e3f
000001b0: e3ab 683f 95fe 6b3f e94b 733f 8460 863f
000001c0: 6a2d 803f 6971 793f 1aa1 743f 2e59 743f
000001d0: 93ae 803f 8162 7b3f 0189 6e3f 5e2f 7c3f
000001e0: c62f 6b3f 10bb 783f 0cc2 6d3f 4c00 803f
000001f0: 5798 733f 256c 773f 4e27 803f 6373 733f

transformer_encoder.layers.0.norm1.bias f4 [128]
-0.07005285 0.003400887 -0.01739968 -0.016652795 -0.060209405 0.020713264 0.013641637 -0.031413544
0.0059526735 0.04117755 -0.027869655 -0.019071609 -0.055640638 -0.06546195 -0.006488601 -0.08052212
-0.050864365 -0.01856391 -0.01355794 -0.010268442 -0.006772213 -0.078489296 0.0076742508 -0.016076049
0.02196235 -0.0679401 -0.035445094 0.029694617 0.045160197 0.036015857 0.038481075 0.040729318
0.005083439 0.054736502 -0.010229642 0.02485338 -0.005515135 0.04358551 -0.0635614 0.037596364
-0.048293475 0.04614623 0.029775588 -0.00591422 -0.04290439 0.02674675 0.017487267 0.02014236
-0.008680962 -0.021500094 -0.03580551 0.019570902 0.027517894 0.047513854 -0.053967647 0.009366465
0.030084994 0.0041017425 0.012099985 0.10317787 -0.04343361 0.008730278 -0.012250628 0.047898576
-0.025028331 -0.014824273 -0.023694875 -0.07261509 -0.030492878 -0.02562155 0.063548565 0.042751886
-0.03123407 0.04085456 0.035505682 0.018295925 0.026190544 -0.028938072 0.042551074 0.0032715204
-0.018975338 -0.011441762 0.027022136 0.020143995 0.014853581 0.039688237 0.0013865352 -0.013876343
0.012338431 -0.047018223 -0.0340509 0.0626025 0.024486914 -0.057582114 -0.0386848 0.045418277
0.0006414609 0.021656677 0.0059372545 -0.031282064 0.026892848 -0.06759234 0.107648894 -0.03225347
-0.004598916 0.054809794 -0.041292865 0.044012982 -0.015755793 0.006957721 -7.4049116e-05 0.013334476
0.05045402 -0.046480607 -0.0008033539 -0.05964166 -0.018621903 -0.029294385 0.007905511 -0.0261649
0.039530117 -0.029904636 0.017149283 0.021975333 0.046634346 -0.0075909263 -0.059465483 -0.013023234
00000000: de77 8fbd 6ae1 5e3b c689 8ebc 716b 88bc
00000010: 239e 76bd ddae a93c 2c81 5f3c 7dab 00bd
00000020: a50e c33b caa9 283d e74e e4bc 103c 9cbc
00000030: 70e7 63bd ea10 86bd 559e d4bb c8e8 a4bd
00000040: 2757 50bd 5713 98bc 1f22 5ebc f83c 28bc
00000050: 71e9 ddbb ffbe a0bd 4878 fb3b ebb1 83bc
00000060: 63ea b33c 2e24 8bbd e02e 11bd 2042 f33c
00000070: e6f9 383d 5d85 133d 559e 1d3d c9d3 263d
00000080: fa92 a63b 6233 603d 3a9a 27bc 5199 cb3c
00000090: 4eb8 b4bb b886 323d 7b2c 82bd a5fe 193d
000000a0: 61cf 45bd d403 3d3d efeb f33c 13cc c1bb
000000b0: 83bc 2fbd 001c db3c 7541 8f3c 9701 a53c
000000c0: 983a 0ebc f720 b0bc cca8 12bd 2853 a03c
000000d0: 356d e13c e39d 423d 2e0d 5dbd cd75 193c
000000e0: ce74 f63c e967 863b 043f 463c eb4e d33d
000000f0: 71e7 31bd 7109 0f3c dcb6 48bc 4c31 443d
00000100: 3708 cdbc 82e1 72bc c11b c2bc 38b7 94bd
00000110: 33cc f9bc 49e4 d1bc c025 823d 9a1c 2f3d
00000120: 98de ffbc 1c57 273d 686e 113d 56e1 953c
00000130: 8d8d d63c 890f edbc 094a 2e3d 0167 563b
00000140: 2b72 9bbc 3a76 3bbc 875d dd3c 0505 a53c
00000150: 6f5c 733c 2290 223d 67bc b53a 9a59 63bc
00000160: 2127 4a3c 2e96 40bd f578 0bbd bd35 803d
00000170: c898 c83c 39db 6bbd f473 1ebd 8408 3a3d
00000180: b627 283a 5869 b13c 4d8d c23b 9f21 00bd
00000190: 644e dc3c da6d 8abd 0677 dc3d 371c 04bd
000001a0: 81b2 96bb 3c80 603d b522 29bd f546 343d
000001b0: 4b12 81bc 98fd e33b d14a 9bb8 d978 5a3c
000001c0: e0a8 4e3d 7362 3ebd 2b98 52ba d04a 74bd
000001d0: f68c 98bc c7fa efbc 1e86 013c c657 d6bc
000001e0: 55ea 213d 91fa f4bc a77c 8c3c 9d05 b43c
000001f0: a803 3f3d 4ebd f8bb 1492 73bd 675f 55bc

transformer_encoder.layers.0.norm2.weight f4 [128]
0.89301574 0.91944015 0.89617723 0.92143685 0.9485366 0.88078624 0.98395765 0.87669444
0.9905549 0.91257536 0.9975456 0.9152567 0.8919422 0.8938177 0.92097867 0.8154064
0.881203 0.9117865 0.8917121 0.8795206 0.82247645 0.8547602 0.85287344 0.8107195
0.93109053 0.9190636 0.9604064 0.8599831 0.92191565 0.9422048 0.9791044 0.91331154
0.8782707 0.92891455 0.9299514 0.9246197 0.9008833 0.86073387 0.973219 0.9335559
0.88295895 0.77280724 0.86410594 0.9233668 0.8366563 0.8930042 1.0602968 0.88510674
0.89998823 0.9750485 0.9242323 0.9282214 0.8668085 0.8782357 0.8288889 0.8913832
0.91402656 0.93283117 0.8649052 0.84619004 0.9572948 0.8617022 0.87725866 0.888912
0.9259226 0.88995135 0.8915899 0.9622229 0.89665294 0.90363276 0.89022064 0.8782813
0.9049194 0.8321252 0.82962656 0.9485658 0.89177155 0.9136311 0.9628662 0.9400486
0.85075897 0.98647565 0.9900211 0.6505334 0.8422717 0.8990503 0.8327445 0.97263604
0.7547437 0.9213182 0.95441973 0.8812721 1.0015383 0.9265615 0.88571274 0.9014336
0.9773668 0.9344465 0.8036379 0.9604159 0.9214373 0.8437003 0.98597413 0.9061021
0.921965 0.8150992 0.90889174 0.9781917 0.86248034 0.9161904 0.8826895 0.9043641
0.94690865 0.9374972 0.9103592 0.93577963 0.9618501 0.9449233 0.887261 0.73758763
0.8925129 0.87543887 0.88520265 0.7606922 0.8367278 0.9115252 0.8733191 0.9083411
00000000: ae9c 643f 6e60 6b3f df6b 653f 49e3 6b3f
00000010: 4bd3 723f 357b 613f a6e4 7b3f 0c6f 603f
00000020: 0295 7d3f 8a9e 693f 265f 7f3f 434e 6a3f
00000030: 5356 643f 3dd1 643f 42c5 6b3f 79be 503f
00000040: 8596 613f d76a 693f 3f47 643f 4328 613f
00000050: d18d 523f 91d1 5a3f ea55 5a3f 508b 4f3f
00000060: f35b 6e3f c147 6b3f 32dd 753f da27 5c3f
00000070: aa02 6c3f 5534 713f 96a6 7a3f c9ce 693f
00000080: 59d6 603f 58cd 6d3f 4c11 6e3f e0b3 6c3f
00000090: 4aa0 663f 0e59 5c3f e124 793f 85fd 6e3f
000000a0: 9909 623f b2d6 453f 0c36 5d3f c461 6c3f
000000b0: 1b2f 563f ec9b 643f ceb7 873f 5b96 623f
000000c0: a165 663f c79c 793f 7d9a 6c3f eb9f 6d3f
000000d0: 29e7 5d3f 0ed4 603f 1032 543f b031 643f
000000e0: a5fd 693f 06ce 6e3f 6d6a 5d3f e99f 583f
000000f0: 4611 753f 8498 5c3f 0694 603f bd8f 633f
00000100: 4309 6d3f dad3 633f 3c3f 643f 3d54 763f
00000110: 0c8b 653f 7a54 673f 80e5 633f 0bd7 603f
00000120: cca8 673f 2806 553f 6862 543f 35d5 723f
00000130: 244b 643f bae3 693f 667e 763f 06a7 703f
00000140: 57cb 593f ab89 7c3f 0672 7d3f 5b89 263f
00000150: 1e9f 573f 2928 663f be2e 553f adfe 783f
00000160: e236 413f 82db 6b3f da54 743f 0c9b 613f
00000170: 6832 803f 2233 6d3f 12be 623f 5ac4 663f
00000180: b634 7a3f e337 6f3f 37bb 4d3f d1dd 753f
00000190: 51e3 6b3f befc 573f cd68 7c3f 4ff6 673f
000001a0: e605 6c3f 57aa 503f 21ad 683f c56a 7a3f
000001b0: 83cb 5c3f 748b 6a3f f0f7 613f 6884 673f
000001c0: 9b68 723f d1ff 6f3f 4d0d 693f 418f 6f3f
000001d0: cf3b 763f 7ee6 713f 8923 633f 8bd2 3c3f
000001e0: ba7b 643f c31c 603f a49c 623f b9bc 423f
000001f0: cb33 563f b759 693f d791 5f3f 0b89 683f

transformer_encoder.layers.0.norm2.bias f4 [128]
-0.014316887 0.010954775 -0.028626375 -0.09102627 -0.071865916 0.12518995 0.1143867 -0.05676995
-0.1656583 0.14666817 -0.01075349 -0.051000185 -0.1326744 -0.061309077 0.17237067 -0.16522045
-0.08692419 0.022459127 -0.08000119 -0.14676626 0.17581266 -0.15968134 0.00693931 -0.15009397
0.045051463 -0.07855275 -0.08287697 0.013338924 0.062776536 -0.037087332 0.0040012407 0.009921472
-0.047615953 0.11193591 0.09136311 0.050307337 0.116845354 -0.009454152 -0.085677475 -0.0034635784
-0.18907508 0.21773356 -0.06592502 0.038388494 -0.03998354 0.0068508317 0.023296056 0.043884438
-0.0068551553 -0.054121744 -0.07557055 0.06719017 0.08290611 0.018728988 -0.094450794 0.02964391
0.14101967 0.11232331 0.0038839346 0.14052165 -0.021845438 0.08126815 0.13543127 0.098385125
0.10134067 -0.20267034 -0.03532945 -0.061747458 -0.037233066 -0.05888548 0.112820156 0.068077125
-0.021940349 0.09961814 0.105457574 0.04887235 -0.0061524324 -0.04905442 0.011385295 -0.14637448
-0.026697205 -0.039919745 0.062236443 0.26011145 0.10596464 0.04400572 0.061623834 0.10568627
-0.041769724 -0.055013213 0.095012754 0.028576601 -0.006473079 0.0042963666 -0.30573633 0.14059405
0.040377356 -0.047482975 -0.29203388 -0.044182513 -0.069946155 -0.09077657 0.101817176 -0.08261177
-0.115583375 0.17478913 -0.07578329 0.05053099 -0.026576167 -0.025942454 0.10756521 0.104511864
0.03636275 -0.13698187 -0.10214055 -0.14522201 -0.061471853 0.02381884 0.0012392481 -0.14816482
0.060207795 0.097732395 -0.067576624 0.18859632 0.08797231 0.033395685 -0.033476077 -0.04185172
00000000: 6091 6abc a87b 333c dc81 eabc fb6b babd
00000010: 702e 93bd cb31 003e 9343 ea3d 9b87 68bd
00000020: 54a2 29be 2e30 163e 682f 30bc 92e5 50bd
00000030: ccdb 07be 3a1f 7bbd f081 303e 8d2f 29be
00000040: 4f05 b2bd 34fc b73c aad7 a3bd e549 16be
00000050: 3c08 343e 8183 23be 2763 e33b 3cb2 19be
00000060: e287 383d 44e0 a0bd 67bb a9bd 818b 5a3c
00000070: fc90 803d e3e8 17bd d71c 833b ab8d 223c
00000080: f208 43bd a83e e53d 951c bb3d 110f 4e3d
00000090: 9e4c ef3d 96e5 1abc ac77 afbd 34fd 62bb
000000a0: e69c 41be 8cf5 5e3e b203 87bd 413d 1d3d
000000b0: c8c5 23bd f17c e03b 5fd7 be3c 2bc0 333d
000000c0: 36a1 e0bb c3ae 5dbd bcc4 9abd 009b 893d
000000d0: aeca a93d 896d 993c 6b6f c1bd c9d7 f23c
000000e0: 7667 103e c309 e63d 9c89 7e3b e8e4 0f3e
000000f0: 34f5 b2bc ea6f a63d 7fae 0a3e 247e c93d
00000100: b28b cf3d d088 4fbe 9db5 10bd e7ea 7cbd
00000110: b381 18bd e731 71bd 410e e73d 056c 8b3d
00000120: 3fbc b3bc 9804 cc3d 24fa d73d 602e 483d
00000130: 589a c9bb 4aed 48bd 6389 3a3c 31e3 15be
00000140: 19b4 dabc e382 23bd a4eb 7e3d 542d 853e
00000150: fd03 d93d 583f 343d 4669 7c3d 0b72 d83d
00000160: bb16 2bbd 8955 61bd 0c96 c23d 7a19 ea3c
00000170: 1f1c d4bb 89c8 8c3b 7989 9cbe e3f7 0f3e
00000180: ba62 253d 827d 42bd 7785 95be b9f8 34bd
00000190: ee3f 8fbd 11e9 b9bd 8685 d03d 5c30 a9bd
000001a0: fab6 ecbd ecfb 323e 4534 9bbd 95f9 4e3d
000001b0: 43b6 d9bc 4585 d4bc 264b dc3d 510a d63d
000001c0: 1bf1 143d fa44 0cbe 112f d1bd 14b5 14be
000001d0: e9c9 7bbd ba1f c33c 446e a23a 85b8 17be
000001e0: 739c 763d ec27 c83d 9d65 8abd 651f 413e
000001f0: d42a b43d eac9 083d 361e 09bd b66c 2bbd
