adult/Models/transformer_v4/0.8536_2/params.pt (torch_old, 26731 bytes, 55 tensors)

transformer_encoder.layers.0.self_attn.in_proj_weight f4 [48, 16]
0.05664503 1.3134745 0.20505871 0.434436 -0.10855752 0.17294921 -0.33990577 -0.41275945
-0.18771037 0.27948698 -0.2623583 -0.29671517 0.15734074 0.2445666 0.27251446 0.100363255
0.09813577 1.0474951 0.17891656 0.4123749 0.26817575 -0.32313067 -0.13202588 -0.29008332
-0.42392367 -0.04129448 0.07940829 -0.5801721 -0.14914167 0.42815754 0.5189785 -0.19240135
-0.03902339 -0.077883 0.1273694 0.05936391 0.18599133 -0.38273773 0.11502338 -0.046066772
-0.22851627 -0.58147997 0.14033735 -0.08573859 0.1931255 0.108528756 -0.026026655 -0.09021143
0.38695782 -0.5026559 0.053210646 -0.4586322 0.028220907 0.34091464 0.28802085 0.4471491
0.3250171 -0.28154576 -0.055001944 0.1390738 -0.40770704 -0.38173017 -0.5290949 -0.14456564
-0.012126141 0.9447056 0.27135444 0.1099358 0.59779334 -0.33173546 0.30415565 -0.045597
-0.12601778 -0.60710794 -0.017238421 0.10386555 0.9246974 0.10285813 -0.32398465 -0.16560824
-0.2938144 0.94745785 0.2622362 0.5042712 0.251821 -0.20757009 -0.110930905 -0.18773586
0.003800535 -0.39433962 -0.4824403 -0.30211884 0.7034592 0.43560183 0.4335266 -0.019938838
0.4333993 0.80915314 -0.0034231145 0.02341844 0.011915336 0.24764398 -0.34177628 -0.20713113
-0.58455044 -0.28800136 -0.00684779 -0.15939544 -0.7706373 0.32839367 0.4371738 0.27148226
-0.041848846 1.0281831 0.053238414 0.1053382 0.13789426 -0.13018483 0.05039168 -0.4347005
-0.39377296 -0.13308185 0.068801776 -0.5478382 -0.08431611 0.34203282 0.18353489 0.3531408
-0.38739592 -1.2011967 -0.30766866 -0.16874039 -0.2546306 0.28296807 0.1759851 -0.11908216
0.1797015 0.40248105 -0.16177517 0.041902807 -0.26809537 -0.079996616 -0.19761048 -0.3738153
0.0077163773 -0.53662914 -0.55725265 0.16793711 0.21803902 0.084521435 0.7085692 0.14698415
0.36424935 0.009055 0.17506307 0.26212072 0.40317422 -0.11783533 -0.53349847 0.2952413
0.15417726 -0.32142785 -0.47094998 -0.13061255 0.476273 0.17523575 0.39727286 -0.2806418
0.048742723 0.049798287 0.12540098 0.07633067 0.0953194 0.062550925 -0.29683384 -0.1254687
-0.10861105 0.8284001 -0.034799878 0.6286639 0.20823802 0.14673683 0.034609918 -0.27559337
-0.5298698 -0.12765284 0.07796648 -0.42957848 -0.18788114 0.44595513 0.5861644 -0.04188562
-0.5500153 0.019841017 0.01935712 -0.068338364 -0.49986878 -0.15681939 0.0487093 -0.109661475
0.23377837 0.2814681 -0.18534614 0.05173601 -0.16473049 -0.66119957 0.30103 0.043335695
0.34275347 -1.1632454 -0.011259431 -0.23854429 0.18388121 0.040507887 -0.4539815 0.22374332
0.42335066 0.08344746 0.06260183 0.38511026 -0.3466962 -0.19265886 -0.27798334 0.21323171
-0.1428126 0.40775967 0.03604012 0.57610595 0.11179909 -0.08448342 -0.195168 0.22973049
-0.3120012 -0.031386863 -0.17058264 -0.31401506 -0.53696525 0.072380185 0.41624945 0.11726728
0.20198336 -0.75727755 0.34206063 -0.33928263 0.23548813 0.4157071 -0.19313858 0.009617361
0.43052834 -0.20019034 0.17196763 0.4582582 -0.59012634 0.03071868 -0.4565296 -0.13793015
00000000: 9e04 683d ef1f a83f e9fa 513e 656e de3e
00000010: 6853 debd 9919 313e 2108 aebe 3555 d3be
00000020: 2637 40be eb18 8f3e d453 86be 0deb 97be
00000030: ee1d 213e ab6f 7a3e 0487 8b3e 408b cd3d
00000040: 68fb c83d 5214 863f e735 373e ce22 d33e
00000050: 554e 893e 6271 a5be cb31 07be cd85 94be
00000060: 860c d9be 6724 29bd d0a0 a23d 2986 14bf
00000070: 98b8 18be 7737 db3e c6db 043f dc04 45be
00000080: fdd6 1fbd 1f81 9fbd 206d 023e 9227 733d
00000090: 8374 3e3e 33f6 c3be 6191 eb3d 83b0 3cbd
000000a0: 2b00 6abe dfdb 14bf 98b4 0f3e b797 afbd
000000b0: b1c2 453e 5344 de3d da35 d5bc c5c0 b8bd
000000c0: 561f c63e 0fae 00bf 68f3 593d d7d1 eabe
000000d0: 882f e73c 5d8c ae3e 7877 933e baf0 e43e
000000e0: a468 a63e c426 90be b849 61bd 5d69 0e3e
000000f0: fabe d0be 2372 c3be c372 07bf 0409 14be
00000100: b9ac 46bc 3ad8 713f f8ee 8a3e 0526 e13d
00000110: fc08 193f 3bd9 a9be 4aba 9b3e ebc3 3abd
00000120: ce0a 01be 6d6b 1bbf 9737 8dbc 76b7 d43d
00000130: f8b8 6c3f 49a7 d23d 51e1 a5be 3595 29be
00000140: d76e 96be 998c 723f d343 863e eb17 013f
00000150: afee 803e 418d 54be be2f e3bd d43d 40be
00000160: 6612 793b e2e6 c9be 6a02 f7be 52af 9abe
00000170: e715 343f 3407 df3e 33f7 dd3e c656 a3bc
00000180: 83e6 dd3e a924 4f3f 5556 60bb 07d8 bf3c
00000190: 8b38 433c 6296 7d3e 4dfd aebe 2f1a 54be
000001a0: 19a5 15bf ea74 93be 6d63 e0bb 8f38 23be
000001b0: 7c48 45bf 3723 a83e 3fd5 df3e b9ff 8a3e
000001c0: b269 2bbd 819b 833f 8610 5a3d 8ebb d73d
000001d0: 2734 0d3e 2c4f 05be 8267 4e3d 1091 debe
000001e0: 9c9c c9be 9c46 08be f2e7 8c3d 203f 0cbf
000001f0: edad acbd ed1e af3e 92f0 3b3e dfce b43e
00000200: c258 c6be d0c0 99bf bf86 9dbe 48ca 2cbe
00000210: f15e 82be 31e1 903e 7035 343e 59e1 f3bd
00000220: ac03 383e ff11 ce3e 64a8 25be 47a2 2b3d
00000230: cc43 89be 44d5 a3bd 675a 4abe b864 bfbe
00000240: aad9 fc3b 8760 09bf 1ca8 0ebf b5f7 2b3e
00000250: 9f45 5f3e 9319 ad3d cb64 353f 0383 163e
00000260: e47e ba3e 6c5b 143c bc43 333e b034 863e
00000270: da6c ce3e a653 f1bd 5b93 08bf de29 973e
00000280: a5e0 1d3e 3192 a4be 5b20 f1be 4cbf 05be
00000290: 0eda f33e 0071 333e 5967 cb3e 48b0 8fbe
000002a0: 73a6 473d 4af9 4b3d 1d69 003e 4153 9c3d
000002b0: d136 c33d b31a 803d 9bfa 97be de7a 00be
000002c0: 786f debd 0712 543f 518a 0ebd 1ef0 203f
000002d0: 593c 553e 2e42 163e 21c3 0d3d 931a 8dbe
000002e0: 8ca5 07bf 6db7 02be e4ac 9f3d b6f1 dbbe
000002f0: ea63 40be 3b54 e43e df0e 163f 4290 2bbd
00000300: cdcd 0cbf a189 a23c d392 9e3c fcf4 8bbd
00000310: cdee ffbe 4395 20be 6783 473d 3296 e0bd
00000320: 9963 6f3e 961c 903e 61cb 3dbe 23e9 533d
00000330: 1caf 28be 6044 29bf 9b20 9a3e c580 313d
00000340: 627d af3e 3ae5 94bf 7a79 38bc f444 74be
00000350: 5b4b 3c3e 99eb 253d 4370 e8be f81c 653e
00000360: 6bc1 d83e 80e6 aa3d 6335 803d 2c2d c53e
00000370: 2a82 b1be 5d48 45be d553 8ebe 6a59 5a3e
00000380: 773d 12be e0c5 d03e ce9e 133d ae7b 133f
00000390: ecf6 e43d a505 adbd 1fda 47be 783e 6b3e
000003a0: 9fbe 9fbe 838f 00bd 37ad 2ebe 95c6 a0be
000003b0: 8e76 09bf 103c 943d a61e d53e d429 f03d
000003c0: bad4 4e3e f1dc 41bf 9222 af3e 74b6 adbe
000003d0: cd23 713e 90d7 d43e 1fc6 45be 2392 1d3c
000003e0: 366e dc3e b2fe 4cbe 4818 303e d2a0 ea3e
000003f0: 8512 17bf bea5 fb3c 3fbe e9be 903d 0dbe

transformer_encoder.layers.0.self_attn.in_proj_bias f4 [48]
0.05067703 0.06587382 -0.060141783 -0.02137913 0.17471208 0.025230147 0.12959583 0.1846931
-0.17937575 -0.120583445 0.47189018 0.084753275 -0.8136293 0.07721589 -0.24287413 -0.17855372
0.006268314 0.03343053 0.012473368 -0.0038760884 0.014858842 0.018149782 0.017405534 0.007094332
-0.0010104649 -0.008205837 0.027299507 0.025141701 -0.034167074 -0.019197997 0.013591288 -0.008720009
0.005743834 -0.033433426 -0.0490778 0.06316665 0.02124722 0.020381957 0.034938935 0.07621768
-0.0380976 -0.056956418 0.0023375421 0.09043165 0.025199914 0.011673891 0.003676548 0.022532687
00000000: b892 4f3d dae8 863d 3b57 76bd 4923 afbc
00000010: b9e7 323e 74af ce3c c5b4 043e 3020 3d3e
00000020: 47ae 37be 74f4 f6bd 979b f13e 2093 ad3d
00000030: 034a 50bf 5d23 9e3d ffb3 78be c9d6 36be
00000040: 6e66 cd3b 74ee 083d 195d 4c3c f905 7ebb
00000050: 8072 733c daae 943c 0d96 8e3c 9277 e83b
00000060: 9371 84ba c671 06bc 37a3 df3c f8f5 cd3c
00000070: c6f2 0bbd 1e45 9dbc fead 5e3c 5ede 0ebc
00000080: c636 bc3b 7df1 08bd ce05 49bd 845d 813d
00000090: a60e ae3c 10f8 a63c 211c 0f3d 0418 9c3d
000000a0: 3b0c 1cbd 224b 69bd 7331 193b 3b34 b93d
000000b0: 0d70 ce3c d943 3f3c 3df2 703b 7896 b83c

transformer_encoder.layers.0.self_attn.out_proj.weight f4 [16, 16]
0.12548238 0.12274371 -0.036959726 0.109902635 0.27922508 -0.02816065 -0.03489857 -0.15827245
0.3344246 -0.1747043 -0.5034786 -0.20938145 0.31668594 0.19622836 0.14244768 -0.06924252
-0.004842909 0.066728435 0.12961604 -0.065947704 0.054460607 0.041555922 0.17313601 0.046559393
-0.06123495 -0.18890038 0.17425042 0.041673977 0.37044057 0.010496411 0.03891759 0.11592062
0.013032868 0.025838576 0.3937088 0.09836338 0.16673653 0.08757879 -0.1692536 0.02003374
0.40353692 -0.19942737 -0.19590293 -0.27392662 0.1564269 -0.29409948 0.3087532 0.068226725
-0.023710772 0.03425599 -0.08723591 -0.19378531 -0.14862077 -0.11390767 0.38934395 -0.14183952
-0.05287571 -0.45789543 0.35221922 -0.02653327 0.38866347 0.16550322 -0.18871994 0.23372261
0.09830785 -0.10970589 -0.081362166 0.1819594 0.03901191 0.06304206 0.043357927 -0.06117495
0.004988945 0.044115532 0.15351546 0.037411712 0.015353591 -0.0057782438 0.066737026 0.114103034
0.06505371 -0.054158267 -0.025080329 0.048354495 0.10095775 0.016704844 0.024725707 -0.0053202463
0.0064191055 0.17917052 -0.027452078 -0.050604656 0.024425875 0.056595434 -0.006594831 -0.046639778
-0.027558425 0.060431186 0.011301004 0.052881632 0.007890674 0.044123206 -0.03180314 0.03990404
0.0029282053 -0.070140176 -0.06199241 0.010015249 -0.0049029924 0.008295408 0.051629383 0.022704342
0.07449371 -0.031542096 -0.107012525 0.0071173143 0.13363282 0.017339448 -0.059028648 -0.09181467
-0.064438574 -0.06157605 0.18578471 -0.056802277 -0.025448002 -0.010368336 0.005151295 -0.01692463
0.0010289216 0.008941305 0.026727507 -0.040924843 -0.06189783 0.016353548 0.036887288 0.06854222
-0.07992621 0.10531734 0.12779589 -0.053085867 -0.039805423 -0.035016857 0.058555625 0.00020665093
-0.038589638 -0.0058449195 -0.07234912 0.043198816 -0.28263208 0.0046149525 -0.045932204 0.07640116
0.007919353 -0.13353497 -0.12054989 0.056188717 -0.05776674 -0.0429297 0.05534189 0.09017508
0.14336428 -0.1974621 -0.0005308941 -0.05972869 0.09741455 -0.03069212 -0.057250135 0.42609742
-0.07617444 0.15657216 -0.15588382 0.5430192 0.010660385 -0.015314071 0.1448157 0.22307059
-0.07292136 0.23549604 0.017661618 0.086295374 -0.047108874 0.07133762 0.008867723 -0.017774168
-0.09579174 0.07207067 0.24128646 0.15283929 0.010533052 0.056518015 -0.11334306 -0.07672423
-0.09436012 -0.13496134 -0.069721885 0.24657719 -0.17947836 0.053424094 -0.18290497 -0.356192
-0.38833192 0.0041581737 0.023345252 -0.1348604 0.4552214 -0.06325417 -0.060351923 -0.11391975
-0.10094392 -0.041156523 0.017842975 0.066637866 -0.15482527 0.060730465 -0.14571793 -0.18860622
-0.16355248 -0.06006877 0.014567748 -0.06756379 -0.045697197 -0.09773442 0.08860961 -0.12462588
0.048449736 0.038466953 0.027614782 -0.040116683 -0.0023063289 -0.01535062 0.10402535 -0.14501779
0.01762159 -0.037853453 -0.117724925 0.23418543 -0.03906799 -0.0520683 0.086942345 0.09133088
0.006267288 0.042816866 0.051201094 -0.20769675 0.020950953 0.1313081 -0.20677583 -0.26961106
0.48012567 0.13727868 -0.12666641 -0.43834126 0.2501325 -0.08670356 0.24796507 -0.02554887
00000000: 747e 003e 0e61 fb3d 1563 17bd a214 e13d
00000010: 97f6 8e3e 2ab1 e6bc cef1 0ebd 2c12 22be
00000020: b339 ab3e afe5 32be f9e3 00bf 1768 56be
00000030: a924 a23e 16f0 483e cedd 113e 06cf 8dbd
00000040: 44b1 9ebb eba8 883d 11ba 043e 970f 87bd
00000050: 1612 5f3d 8b36 2a3d 914a 313e 10b5 3e3d
00000060: 80d1 7abd 1a6f 41be b46e 323e 55b2 2a3d
00000070: 63aa bd3e 23f9 2b3c 0d68 1f3d ca67 ed3d
00000080: cf87 553c 6cab d33c 3394 c93e bd72 c93d
00000090: fbbc 2a3e 825c b33d d150 2dbe cc1d a43c
000000a0: 649c ce3e b036 4cbe c79a 48be 1c40 8cbe
000000b0: 602e 203e 3594 96be e614 9e3e 74ba 8b3d
000000c0: 183d c2bc 0250 0c3d bea8 b2bd a86f 46be
000000d0: 0b30 18be 6d48 e9bd 1758 c73e 613e 11be
000000e0: 3394 58bd 4571 eabe 1456 b43e 4d5c d9bc
000000f0: e6fe c63e ad79 293e cd3f 41be fb54 6f3e
00000100: a055 c93d 7bad e0bd 35a1 a6bd 9153 3a3e
00000110: f4ca 1f3d 321c 813d 1598 313d 9692 7abd
00000120: 4e7a a33b 7db2 343d 2833 1d3e 063d 193d
00000130: a18d 7b3c 6c57 bdbb 6cad 883d daae e93d
00000140: e13a 853d 0fd5 5dbd 4375 cdbc 5d0f 463d
00000150: f0c2 ce3d 99d8 883c 918d ca3c 7655 aebb
00000160: 5c57 d23b 7a78 373e 2ee3 e0bc d446 4fbd
00000170: c618 c83c 9dd0 673d 7419 d8bb 5a09 3fbd
00000180: 35c2 e1bc b186 773d d927 393c 699a 583d
00000190: e347 013c 89ba 343d 0244 02bd 6b72 233d
000001a0: 22e7 3f3b a7a5 8fbd c1eb 7dbd 0017 243c
000001b0: 48a9 a0bb 77e9 073c 5579 533d 75fe b93c
000001c0: 2990 983d 4932 01bd 6229 dbbd 5c38 e93b
000001d0: 0bd7 083e 750b 8e3c 06c8 71bd 5409 bcbd
000001e0: 5ff8 83bd 2b37 7cbd 593e 3e3e 81a9 68bd
000001f0: 5478 d0bc f4df 29bc 32cc a83b 86a5 8abc
00000200: e1dc 863a 8d7e 123c a5f3 da3c cfa0 27bd
00000210: 9488 7dbd e0f7 853c 2017 173d dd5f 8c3d
00000220: 5ab0 a3bd 9eb0 d73d eddc 023e 9170 59bd
00000230: 030b 23bd d66d 0fbd 06d8 6f3d 70b0 5839
00000240: 2b10 1ebd bd86 bfbb c72b 94bd 3ef1 303d
00000250: 27b5 90be 0739 973b 6823 3cbd 3678 9c3d
00000260: 2dc0 013c 64bd 08be dce2 f6bd 2426 663d
00000270: d19c 6cbd 0ed7 2fbd 2dae 623d b6ad b83d
00000280: 16ce 123e 8133 4abe b32b 0bba 12a6 74bd
00000290: 4881 c73d 0a6e fbbc 1e7f 6abd 7129 da3e
000002a0: 5801 9cbd 7454 203e 02a0 1fbe 4e03 0b3f
000002b0: e5a8 2e3c dfe7 7abc 914a 143e 9e6c 643e
000002c0: cb57 95bd e025 713e 19af 903c a1bb b03d
000002d0: 3cf5 40bd 7519 923d ed49 113c 229b 91bc
000002e0: 762e c4bd ca99 933d cc13 773e e781 1c3e
000002f0: d292 2c3c 6f7f 673d 6820 e8bd 9821 9dbd
00000300: e13f c1bd 4e33 0abe 59ca 8ebd bb7e 7c3e
00000310: 2dc9 37be 39d3 5a3d 714b 3bbe cc5e b6be
00000320: 71d3 c6be 4a41 883b 8b3e bf3c d818 0abe
00000330: c812 e93e 678b 81bd 9433 77bd c24e e9bd
00000340: b0bb cebd be93 28bd 6e2b 923c 6f79 883d
00000350: 848a 1ebe 82c0 783d 1537 15be fd21 41be
00000360: 4d7a 27be ac0a 76bd 90ad 6e3c e25e 8abd
00000370: fc2c 3bbd fc28 c8bd f578 b53d da3b ffbd
00000380: 3b73 463d 868f 1d3d 6538 e23c 6451 24bd
00000390: c725 17bb 2b81 7bbc 3e0b d53d 8b7f 14be
000003a0: 275b 903c 390c 1bbd c419 f1bd 4ece 6f3e
000003b0: c205 20bd 9245 55bd d40e b23d af0b bb3d
000003c0: d25d cd3b bd60 2f3d 3db8 513d 75ae 54be
000003d0: 55a1 ab3c a175 063e 0bbd 53be 760a 8abe
000003e0: 08d3 f53e c892 0c3e d7b4 01be 446e e0be
000003f0: 5e11 803e a391 b1bd 8eea 7d3e dd4b d1bc

transformer_encoder.layers.0.self_attn.out_proj.bias f4 [16]
-0.11953814 0.0034720255 -0.09392689 -0.08481747 0.042700477 0.02360425 -0.018930059 0.007982858
-0.006408341 -0.022701355 0.1228342 -0.010165268 -0.10075931 -0.013969289 0.0055627762 -0.12588002
00000000: 6ad0 f4bd ec8a 633b be5c c0bd c8b4 adbd
00000010: b2e6 2e3d b35d c13c 3613 9bbc 89ca 023c
00000020: 10fd d1bb 31f8 b9bc 7f90 fb3d 398c 26bc
00000030: e65a cebd 72df 64bc f347 b63b b1e6 00be

transformer_encoder.layers.0.linear1.weight f4 [64, 16]
-0.19234298 0.033253957 0.20985392 0.49632698 -0.2832694 -0.087413624 0.05202735 0.017668888
0.06912563 0.22955742 -0.5889253 -0.40407208 0.016054811 -0.21539225 0.1447886 0.16714804
0.57328254 -0.0016355587 -0.20702283 0.3317429 -0.25197765 0.0044072643 -0.43256366 0.11692952
-0.02561208 -0.09071842 -0.73691356 0.01736411 0.1929162 -0.23480685 -0.19764057 0.34138152
0.20001885 0.119714946 0.03684459 0.20964406 -0.086844966 -0.19224244 0.4585174 0.18926105
-0.108615324 0.093895964 -0.919787 -0.2046524 0.19147968 0.07219325 -0.17831223 0.00796407
-0.41305637 -0.124616124 -0.09450002 -0.19772683 -0.26752338 0.17430197 -0.25637004 0.20728044
0.5357495 -0.06859367 0.38485992 0.50872207 -0.16028106 -0.30300185 0.012780127 -0.052472137
0.17532404 0.16841967 -0.18634507 0.10343184 -0.5716823 -0.32744443 0.13872385 0.2673503
-0.37015402 -0.19738604 -0.26899627 0.29503885 0.27626342 0.25827032 -0.16002136 0.42741394
-0.2321101 -0.3491058 -0.3836393 0.007233068 -0.6079373 -0.30682454 -0.19363913 0.29843885
0.14679785 -0.4544167 -0.08057563 0.25942206 0.36929226 0.44293258 0.33315518 0.06238211
-0.08522764 -0.027088478 -0.17981932 -0.19283332 0.29158103 -0.14234854 -0.026405426 0.24223116
0.6718562 -0.55893767 -0.20041937 0.35428226 0.3030098 -0.5780495 -0.48122302 -0.069601655
0.27010205 -0.22444002 0.10511392 -0.09237339 -0.4410635 0.416697 -0.030982956 -0.14199919
0.028257573 0.40316895 -0.037877183 0.31179753 -0.18194821 -0.090614036 0.22730856 0.16140081
0.01853183 -0.51989305 -0.107325606 -0.26800847 -0.558748 -0.113099106 -0.21870191 -0.21721958
-0.210807 -0.047414634 0.045553625 0.011652073 -0.19987284 0.5320085 0.56797004 0.4403966
-0.012465778 0.035887014 0.34097534 0.55162674 0.0064512575 -0.2680023 -0.41283378 -0.0072363447
-0.18512428 0.1152507 -0.27754766 -0.11091048 -0.06688381 -0.29834175 -0.4411749 0.06725306
-0.1760279 -0.43908975 -0.3264639 0.0671395 -0.02606482 -0.12165197 0.3492281 0.1169378
0.30133164 0.1690876 0.28412366 0.55294806 0.0017654697 0.09768111 0.38104275 -0.20132576
0.014105055 0.09906263 -0.096715145 0.314417 0.34500563 -0.52979964 -0.39287356 0.1408493
0.1177106 -0.18241668 0.120186195 0.23987174 0.051728476 -0.36523157 -0.15818281 0.25876775
0.3345506 -0.05610962 0.082520954 -0.044416696 0.33294165 -0.25050446 0.08470887 0.17271724
0.53977996 -0.5330089 -0.05562111 0.2593745 0.11460514 -0.5346402 -0.36656186 0.100415446
0.17660023 0.07023637 0.0055409796 0.47495267 -0.54388446 -0.13133578 -0.3907924 0.073158264
0.3833069 -0.12082821 -0.4259468 0.14672492 0.40235808 0.26988164 -0.12455371 0.23564667
0.38779405 -0.32203153 0.3485519 -0.37098822 -0.5230398 0.04320838 0.28183037 0.5716527
-0.0437312 0.037596475 -0.36806512 -0.08140279 0.04193452 -0.011625758 -0.06306546 0.6643702
0.30304173 -0.15678838 -0.10576528 -0.042091288 0.16685754 -0.2445408 -0.014372071 0.3833772
0.813727 -0.3434007 -0.06424444 0.5263141 0.3915883 -0.36578515 -0.28073618 -0.050957784
00000000: 8ff5 44be 4d35 083d f2e3 563e 921e fe3e
00000010: b008 91be ea05 b3bd a11a 553d 58be 903c
00000020: bd91 8d3d 1a11 6b3e cfc3 16bf 89e2 cebe
00000030: 6185 833c c98f 5cbe 7643 143e db28 2b3e
00000040: a5c2 123f 3e60 d6ba cbfd 53be 35da a93e
00000050: 3703 81be d06a 903b fc78 ddbe bf78 ef3d
00000060: 6dd0 d1bc 94ca b9bd 5ea6 3cbf 2e3f 8e3c
00000070: d38b 453e 3571 70be 4a62 4abe 8fc9 ae3e
00000080: bed1 4c3e 1c2d f53d 5aea 163d efac 563e
00000090: c6db b1bd 34db 44be cbc2 ea3e a6cd 413e
000000a0: b671 debd 874c c03d 2977 6bbf 6690 51be
000000b0: 4013 443e 0eda 933d 7b97 36be bb7b 023c
000000c0: 207c d3be bd36 ffbd 3a89 c1bd e778 4abe
000000d0: d3f8 88be 377c 323e ef42 83be 5341 543e
000000e0: e126 093f d77a 8cbd 5c0c c53e 9c3b 023f
000000f0: b820 24be 0f23 9bbe bd63 513c 06ed 56bd
00000100: 2588 333e 3576 2c3e 3ed1 3ebe 13d4 d33d
00000110: c559 12bf cca6 a7be a00d 0e3e 23e2 883e
00000120: d484 bdbe 911f 4abe e1b9 89be 550f 973e
00000130: 6672 8d3e 023c 843e a4dc 23be 00d6 da3e
00000140: 45ae 6dbe ffbd b2be 5f6c c4be 5f03 ed3b
00000150: c7a1 1bbf 1b18 9dbe 5649 46be facc 983e
00000160: 2d52 163e 4ea9 e8be d604 a5bd f8d2 843e
00000170: e013 bd3e 0fc8 e23e 5193 aa3e 6284 7f3d
00000180: d48b aebd a8e8 ddbc 8e22 38be 1976 45be
00000190: 1c4a 953e d1c3 11be 3150 d8bc 720b 783e
000001a0: c5fe 2b3f 8a16 0fbf bc3a 4dbe 7c64 b53e
000001b0: 1a24 9b3e 0dfb 13bf dd62 f6be 508b 8ebd
000001c0: d14a 8a3e 9bd3 65be f845 d73d 432e bdbd
000001d0: 13d3 e1be 4f59 d53e f8cf fdbc 3c68 11be
000001e0: 6d7c e73c 296c ce3e 1b25 1bbd eda3 9f3e
000001f0: a250 3abe da93 b9bd 93c3 683e 4146 253e
00000200: 10d0 973c b617 05bf 87cd dbbd 6838 89be
00000210: 1c0a 0fbf 81a0 e7bd 65f3 5fbe cf6e 5ebe
00000220: cadd 57be d935 42bd 7096 3a3d 56e8 3e3c
00000230: 77ab 4cbe b631 083f 7c66 113f aa7b e13e
00000240: 433d 4cbc 43fe 123d 5294 ae3e 6937 0d3f
00000250: 1265 d33b 9937 89be f35e d3be dc1e edbb
00000260: 3891 3dbe 8f08 ec3d ba1a 8ebe 0925 e3bd
00000270: 61fa 88bd 40c0 98be ade1 e1be f9bb 893d
00000280: a840 34be 5fd0 e0be 4726 a7be 6f80 893d
00000290: e485 d5bc ab24 f9bd 07ce b23e 167d ef3d
000002a0: 2448 9a3e 4d25 2d3e a878 913e 018e 0d3f
000002b0: 5567 e73a 090d c83d 0918 c33e 5728 4ebe
000002c0: e318 673c 59e1 ca3d 9712 c6bd 44fb a03e
000002d0: 94a4 b03e f3a0 07bf b926 c9be cd3a 103e
000002e0: 4112 f13d 70cb 3abe 2e24 f63d f0a0 753e
000002f0: 3de1 533d a2ff babe adfa 21be 357d 843e
00000300: 374a ab3e 33d3 65bd bf00 a93d 48ee 35bd
00000310: 5477 aa3e 1f42 80be d87b ad3d cadc 303e
00000320: 052f 0a3f 4573 08bf f6d2 63bd bccc 843e
00000330: 1ab6 ea3d 2ede 08bf ffad bbbe 9da6 cd3d
00000340: b1d6 343e 16d8 8f3d 1b91 b53b ff2c f33e
00000350: 033c 0bbf e37c 06be f115 c8be 00d4 953d
00000360: cd40 c43e c874 f7bd b315 dabe 0f3f 163e
00000370: e101 ce3e ed2d 8a3e 0416 ffbd 5c4d 713e
00000380: f18c c63e 51e1 a4be 6575 b23e 2bf2 bdbe
00000390: f0e5 05bf 45fb 303d 124c 903e d557 123f
000003a0: 7d1f 33bd c3fe 193d 0873 bcbe 82b6 a6bd
000003b0: 88c3 2b3d f779 3ebc 7728 81bd 2a14 2a3f
000003c0: 4928 9b3e 228d 20be 789b d8bd ea67 2cbd
000003d0: b4dc 2a3e e768 7abe d678 6bbc 044a c43e
000003e0: 6a50 503f 37d2 afbe 9792 83bd 85bc 063f
000003f0: 437e c83e 3148 bbbe a7bc 8fbe 1cb9 50bd

transformer_encoder.layers.0.linear1.bias f4 [64]
-0.3920626 -0.14081292 -0.3260621 0.004221552 -0.05626538 0.120393716 -0.088851534 -0.36548346
-0.35174987 -0.22492662 -0.2375188 -0.29588228 -0.16563185 -0.38524872 -0.012694441 0.0024212522
-0.16093591 -0.38393417 -0.054116793 -0.2318744 -0.23095283 -0.04351998 -0.571495 -0.11448568
-0.3145916 -0.26734254 -0.3795646 -0.20908909 -0.20401216 -0.35843983 -0.28967682 -0.36815262
0.088262044 -0.15971474 -0.38845277 -0.5558374 -0.41647568 -0.3428357 -0.22501181 0.14608325
-0.4114446 -0.15949842 -0.11094505 -0.39150724 -0.14547925 -0.08721326 -0.22475252 -0.18926479
-0.08953857 -0.51805484 -0.076617725 -0.32977054 -0.5063119 -0.3225781 -0.1834138 -0.38066033
-0.25067377 -0.2394009 -0.18695472 -0.3893206 -0.4237283 -0.20637423 -0.14462188 -0.14549524
00000000: 6ebc c8be 4331 10be 9df1 a6be f254 8a3b
00000010: 8776 66bd fb90 f63d cbf7 b5bd a620 bbbe
00000020: 8f18 b4be 2a53 66be 2138 73be e27d 97be
00000030: 659b 29be 523f c5be 58fc 4fbc dfad 1e3b
00000040: 62cc 24be 0593 c4be 92a9 5dbd 7c70 6dbe
00000050: e67e 6cbe 0242 32bd 7f4d 12bf 7877 eabd
00000060: 2612 a1be 1fe1 88be 4b56 c2be 731b 56be
00000070: 90e8 50be 6d85 b7be 8550 94be 807e bcbe
00000080: bbc2 b43d 438c 23be 48e3 c6be 5c4b 0ebf
00000090: 4d3c d5be 2988 afbe 7f69 66be d996 153e
000000a0: dea8 d2be 8e53 23be 2937 e3bd a373 c8be
000000b0: 83f8 14be de9c b2bd 8625 66be a1ce 41be
000000c0: ff5f b7bd 3e9f 04bf c1e9 9cbd afd7 a8be
000000d0: a89d 01bf f528 a5be d4d0 3bbe e9e5 c2be
000000e0: 5058 80be 8225 75be 0f71 3fbe 0855 c7be
000000f0: eaf2 d8be c453 53be c217 14be b4fc 14be

transformer_encoder.layers.0.linear2.weight f4 [16, 64]
0.122627355 0.10703713 0.3034311 0.2971958 -0.40332532 -0.88528985 0.056165718 0.21449433
0.33024046 0.35150483 0.07634965 0.12036073 -0.06182354 -0.6491683 -0.068858445 -0.28581697
-0.34415945 0.4433896 -0.34098524 0.3964904 -0.07051427 -0.051467057 -0.3201462 0.32881808
-0.34840158 0.4025703 -0.09411095 0.98085105 -0.2971276 -0.17036326 -0.13568638 -0.5599694
0.057982244 0.51678836 0.8920806 0.21105841 0.102168486 0.57847136 0.20268922 -0.09130914
0.090500064 0.7973713 -0.6034461 0.41514105 -0.37191278 0.08149814 -0.071022294 0.2491065
0.0039072474 0.07058691 -0.33176488 0.08933519 -0.0658787 -0.0020093187 -0.76548344 -0.14699733
-0.30354655 0.26838502 -0.3260554 0.14314233 0.36595666 -0.20498051 -0.13142467 -0.17205606
0.27302843 -0.37795064 0.2901031 -0.022110641 0.11639286 -0.16992249 0.023990536 0.16715892
-0.028895913 0.2058119 0.009817253 0.13649651 0.14311208 0.08473492 -0.20554924 0.16845292
-0.40259922 0.14734164 0.036188446 0.24378689 -0.039028063 -0.12703252 0.05677408 0.021534216
0.107440844 -0.13011022 -0.02804847 -0.22170717 0.19206814 -0.10400551 -0.046756994 0.17836118
-0.021560881 -0.02783217 0.033509705 0.4545133 0.07921896 0.17901331 -0.03724877 0.09110939
0.033042744 -0.24057151 -0.1462225 -0.10225631 -0.062149834 0.04354926 0.20395249 0.06307548
-0.1503741 0.21512687 -0.09321634 -0.097092986 -0.20563552 -0.042918947 -0.18869422 -0.0025961127
-0.16739994 0.29145366 0.24077652 0.31212854 -0.017122356 0.018343095 -0.03512479 -0.019399164
0.2537192 0.51470685 0.27956644 0.11083791 -0.4248935 0.13023357 -0.3803467 -0.24927068
-0.26396155 0.16570136 0.5547745 0.22631888 -0.17260501 -0.19488132 0.68142855 -0.14298804
-0.19599491 0.22481988 0.110219486 -0.24951555 0.24495554 0.08642334 -0.03128652 -0.3465285
-0.50720036 0.18803208 0.1500497 0.18736793 -0.41700995 0.32552996 0.6824622 0.32729784
0.052569326 -0.16969201 0.3235966 -0.16632082 -0.11787652 0.07570358 -0.25146148 0.061264187
-0.40146473 0.41333935 0.4809243 0.4269286 -0.073584296 0.43736908 -0.31501058 -0.025763657
-0.19219127 -0.28634626 -0.13769358 0.2019237 -0.16557412 0.3407192 0.2732645 0.20808676
0.30859402 0.14546481 -0.2703083 -0.6054764 0.031635787 -0.4010451 0.42768714 -0.2492707
-0.17465284 0.15791468 -0.15024643 -0.34335285 -0.38476303 -0.22582182 -0.8677655 0.16140845
0.41083837 0.3168098 0.0799964 0.33942553 -0.4661954 0.24564937 -0.6727023 -0.4769234
-1.0008202 -0.0042376416 -0.3831864 0.3416591 -0.40329763 -0.5149338 0.016758524 -0.23304299
-0.11942248 0.43207738 -0.15224442 0.3221467 -0.49253422 0.058959257 -0.44130272 -0.12293929
0.09103173 0.5466067 0.74481386 0.002173496 0.31698632 0.014701664 0.29428312 -0.3488608
0.009552809 0.36870256 -0.45262206 -0.29815847 -0.64725965 -0.3743715 -0.32686275 0.1106511
-0.11313646 0.015801251 -0.46720597 0.27756354 -0.70879114 -0.117393374 -0.57028335 -0.26984528
0.0698818 0.26072097 -0.34837332 0.2800152 0.34743074 -0.14802824 -0.34547815 -0.2623237
00000000: 0d24 fb3d 4836 db3d 525b 9b3e 0c2a 983e
00000010: a880 cebe 5ba2 62bf 060e 663d 67a4 5b3e
00000020: 4715 a93e 71f8 b33e 355d 9c3d b07f f63d
00000030: ae3a 7dbd e52f 26bf a805 8dbd 9a56 92be
00000040: ab35 b0be f603 e33e 9e95 aebe ca00 cb3e
00000050: c969 90bd 1fcf 52bd 34ea a3be d85a a83e
00000060: b161 b2be b21d ce3e 3ebd c0bd 0e19 7b3f
00000070: 1c21 98be b573 2ebe 5ff1 0abe 285a 0fbf
00000080: ca7e 6d3d 3e4c 043f 655f 643f b21f 583e
00000090: b63d d13d b316 143f c38d 4f3e 4900 bbbd
000000a0: 1958 b93d 8720 4c3f 727b 1abf 5e8d d43e
000000b0: 5a6b bebe 7fe8 a63d 2374 91bd c615 7f3e
000000c0: 5e08 803b df8f 903d 16dd a9be 5ef5 b63d
000000d0: 69eb 86bd c6ae 03bb b9f6 43bf 7886 16be
000000e0: 746a 9bbe c369 893e bcf0 a6be e793 123e
000000f0: ac5e bb3e 69e6 51be 3094 06be 772f 30be
00000100: 62ca 8b3e bf82 c1be 6588 943e 6021 b5bc
00000110: 615f ee3d 2900 2ebe cd87 c43c b52b 2b3e
00000120: 1fb7 ecbc 5bc0 523e 8bd8 203c bec5 0b3e
00000130: f98b 123e 8089 ad3d 807b 52be ec7e 2c3e
00000140: 7c21 cebe bae0 163e 563a 143d 45a3 793e
00000150: e4db 1fbd d014 02be f08b 683d 8668 b03c
00000160: f209 dc3d 9d3b 05be e8c5 e5bc 3407 63be
00000170: 83ad 443e d700 d5bd 4384 3fbd 50a4 363e
00000180: 72a0 b0bc 4a00 e4bc 7941 093d f8b5 e83e
00000190: 8d3d a23d 444f 373e 2b92 18bd 8f97 ba3d
000001a0: d457 073d 6158 76be 5abb 15be c26b d1bd
000001b0: d390 7ebd b560 323d ecd8 503e b82d 813d
000001c0: abfb 19be 384a 5c3e 35e8 bebd b0d8 c6bd
000001d0: 1e92 52be c7cb 2fbd 0f39 41be 8b23 2abb
000001e0: e46a 2bbe 6a39 953e 1f8e 763e 50cf 9f3e
000001f0: 2f44 8cbc 4244 963c 03df 0fbd ffea 9ebc
00000200: 7ce7 813e d4c3 033f 5523 8f3e fcfe e23d
00000210: a48b d9be f35b 053e cdbc c2be d040 7fbe
00000220: f825 87be 9ead 293e b405 0e3f 23c0 673e
00000230: 5ebf 30be f88e 47be 1a72 2e3f 756b 12be
00000240: e4b2 48be 2f37 663e c1ba e13d 0181 7fbe
00000250: a0d5 7a3e b8fe b03d 4b26 00bd 2f6c b1be
00000260: e2d7 01bf 7b8b 403e a1a6 193e 61dd 3f3e
00000270: 5482 d5be ddab a63e d8b5 2e3f 9593 a73e
00000280: ef52 573d bec3 2dbe 74ae a53e 0150 2abe
00000290: 3f69 f1bd 7b0a 9b3d 8fbf 80be 28f0 7a3d
000002a0: c98c cdbe 37a1 d33e b63b f63e 6396 da3e
000002b0: 5db3 96bd d7ee df3e 1149 a1be 4e0e d3bc
000002c0: cacd 44be fa9b 92be 8cff 0cbe 16c5 4e3e
000002d0: 438c 29be bf72 ae3e 53e9 8b3e b214 553e
000002e0: 0900 9e3e baf4 143e d965 8abe 8000 1bbf
000002f0: 8794 013d c955 cdbe cff9 da3e d240 7fbe
00000300: 32d8 32be 63b4 213e 33da 19be f2cb afbe
00000310: a9ff c4be d63d 67be e125 5ebf 4248 253e
00000320: 6859 d23e e534 a23e 27d5 a33d 2fc9 ad3e
00000330: 2ab1 eebe 828b 7b3e 3836 2cbf 4e2f f4be
00000340: e01a 80bf eadb 8abb 0231 c4be f1ed ae3e
00000350: 077d cebe b4d2 03bf 2c49 893c d2a2 6ebe
00000360: c693 f4bd 3f39 dd3e f6e5 1bbe 6af0 a43e
00000370: 722d fcbe 437f 713d 6ef2 e1be 98c7 fbbd
00000380: d86e ba3d 6bee 0b3f 1fac 3e3f 3671 0e3b
00000390: 084c a23e 40df 703c 47ac 963e e29d b2be
000003a0: 6383 1c3c 95c6 bc3e 14be e7be 3aa8 98be
000003b0: cfb2 25bf 9fad bfbe 8e5a a7be 0b9d e23d
000003c0: 17b4 e7bd a071 813c 9f35 efbe cf1c 8e3e
000003d0: 5673 35bf f06b f0bd 17fe 11bf 2929 8abe
000003e0: 301e 8f3d 387d 853e fd5d b2be 275e 8f3e
000003f0: 71e2 b13e b794 17be 83e2 b0be 4b4f 86be

transformer_encoder.layers.0.linear2.bias f4 [16]
0.051536635 -0.02979588 0.019760435 0.006311971 -0.079365164 -0.025878651 -0.007488901 0.039684646
0.042868022 0.28417018 0.017646259 -0.14965694 -0.09159515 0.0123029575 -0.012969254 0.045985106
00000000: 1418 533d 7d16 f4bc a3e0 a13c a7d4 ce3b
00000010: 348a a2bd 77ff d3bc 7465 f5bb 5e8c 223d
00000020: 6196 2f3d c17e 913e e38e 903c ab3f 19be
00000030: 3d96 bbbd 5892 493c fe7c 54bc e15a 3c3d

transformer_encoder.layers.0.norm1.weight f4 [16]
0.31433675 1.2075539 0.49448034 0.42132872 1.177152 1.2139843 1.5443046 1.6045291
1.1289054 0.9220931 0.62682986 0.71935 0.5620448 0.7407797 1.2779161 0.38058963
00000000: bff0 a03e 2091 9a3f 872c fd3e 66b8 d73e
00000010: ebac 963f d663 9b3f c6ab c53f 3661 cd3f
00000020: f97f 903f 4b0e 6c3f ec77 203f 5227 383f
00000030: 2be2 0f3f bda3 3d3f c192 a33f a5dc c23e

transformer_encoder.layers.0.norm1.bias f4 [16]
-0.2961273 0.21562868 0.2972198 0.0118274195 -0.04137394 0.2677796 0.12524794 0.24791977
-0.20477803 0.24256572 0.059428487 -0.15124807 -0.17689049 0.30115685 -0.13554306 0.037210386
00000000: ff9d 97be c4cd 5c3e 322d 983e cbc7 413c
00000010: b877 29bd 681a 893e ff40 003e aede 7d3e
00000020: 55b1 51be 2663 783e 496b 733d c6e0 1abe
00000030: c822 35be 3b31 9a3e cdcb 0abe eb69 183d

transformer_encoder.layers.0.norm2.weight f4 [16]
0.1553537 0.84293884 0.41898242 0.029750537 0.48293185 0.9134731 0.9969559 0.93616575
0.68049806 0.1055362 0.49789318 0.52488977 0.54381883 0.28218588 0.7006308 0.34491414
00000000: 0a15 1f3e d7ca 573f dd84 d63e 66b7 f33c
00000010: d842 f73e 60d9 693f 8038 7f3f 8fa8 6f3f
00000020: 1f35 2e3f 5d23 d83d dbeb fe3e 2d5f 063f
00000030: b637 0b3f ab7a 903e 8a5c 333f 9698 b03e

transformer_encoder.layers.0.norm2.bias f4 [16]
0.06761252 -0.36065388 0.019555483 0.013717759 -0.24272361 -0.06792087 -0.08998775 -0.2222855
0.18887159 0.11153694 -0.14941442 -0.06384122 0.11773994 -0.17493907 0.58112764 0.054890085
00000000: 6f78 8a3d a0a7 b8be d232 a03c 74c0 603c
00000010: 8a8c 78be 191a 8bbd 7f4b b8bd cf9e 63be
00000020: 8e67 413e 7b6d e43d 1800 19be 30bf 82bd
00000030: a321 f13d 3a23 33be c8c4 143f 6dd4 603d

embedding.0.bias f4 [16]
0.17020081 -0.71448016 -0.81702745 -0.054398615 -0.93701845 -0.6804161 -1.2571472 -0.16751078
0.37309748 -1.1373239 -0.35677743 0.95017743 0.37744012 1.0620219 0.14592949 0.8591748
00000000: 1f49 2e3e 2ce8 36bf b628 51bf 15d1 5ebd
00000010: 71e0 6fbf c02f 2ebf 33ea a0bf f287 2bbe
00000020: a206 bf3e d493 91bf 88ab b6be d43e 733f
00000030: d53f c13e 55f0 873f 8a6e 153e e1f2 5b3f

embedding.0.weight_g f4 [16, 1]
0.44416952 0.5270605 0.16799377 0.081518844 0.60355806 0.27811012 0.39868206 0.19602652
0.2722388 0.19096494 0.2071106 0.7605605 0.6043255 0.5726444 0.19663541 0.7651631
00000000: 306a e33e 70ed 063f 8f06 2c3e 5af3 a63d
00000010: c882 1a3f 7364 8e3e 0e20 cc3e 2dbb 483e
00000020: e262 8b3e 508c 433e cd14 543e 18b4 423f
00000030: 13b5 1a3f d398 123f cb5a 493e bbe1 433f

embedding.0.weight_v f4 [16, 1]
-0.5044522 0.7765595 0.23046233 -0.20107156 0.35791636 -0.97561795 0.6578956 -0.18632382
-0.35823736 -0.35877505 0.16657622 -0.94988424 0.61315084 0.57088846 -0.4072141 -0.9504515
00000000: c823 01bf 9acc 463f 51fe 6b3e b4e5 4dbe
00000010: d040 b73e 19c2 79bf d96b 283f accb 3ebe
00000020: e36a b7be 5db1 b7be f592 2a3e 9d2b 73bf
00000030: 74f7 1c3f bf25 123f 5e7e d0be ca50 73bf

embedding.1.bias f4 [16]
0.43173146 -1.2286617 -0.45645025 -0.4370055 1.1655697 -0.76542795 0.8448118 0.35197464
1.6770906 -0.858232 0.42271 1.9011627 -0.78361416 0.20705405 -0.5054056 -2.115039
00000000: e80b dd3e c944 9dbf d9b3 e9be 2fbf dfbe
00000010: 6331 953f 16f3 43bf 9645 583f 0536 b43e
00000020: e8aa d63f 18b5 5bbf 726d d83e 4d59 f33f
00000030: f09a 48bf fa05 543e 4362 01bf cd5c 07c0

embedding.1.weight_g f4 [16, 1]
0.90435153 0.4276356 1.1628714 1.053632 -0.030060092 0.5363774 0.3449166 0.7891987
0.7977953 0.8490854 0.03145793 0.3797962 0.02666647 0.69761103 0.567026 0.95164
00000000: 9583 673f 0ef3 da3e f8d8 943f 6add 863f
00000010: 9540 f6bc 0750 093f e998 b03e ed08 4a3f
00000020: 503c 4c3f a95d 593f 08da 003d a674 c23e
00000030: a473 da3c a396 323f 9e28 113f ae9e 733f

embedding.1.weight_v f4 [16, 1]
0.57078534 0.6253348 -0.641986 0.9125114 -0.46046466 -0.82473636 0.70949006 0.77182746
-0.58700293 -0.507611 0.15304224 -0.50667655 -0.19250232 -0.74851775 0.7825924 -0.54673713
00000000: fd1e 123f f115 203f 3259 24bf 599a 693f
00000010: 06c2 ebbe ec21 53bf 24a1 353f 7c96 453f
00000020: d345 16bf cbf2 01bf 1bb7 1c3e 8eb5 01bf
00000030: 541f 45be dc9e 3fbf fa57 483f f7f6 0bbf

embedding.2.bias f4 [16]
-0.14045578 0.50504637 -0.9613112 -0.8444702 -0.8870477 -1.0161836 1.2959359 0.55636936
-0.342107 -1.0555488 0.7306546 -0.5176991 -0.8571702 -0.18834227 0.15220815 -0.93587226
00000000: a4d3 0fbe b84a 013f 7e18 76bf 332f 58bf
00000010: 8f15 63bf 4e12 82bf 3ae1 a53f 396e 0e3f
00000020: a628 afbe 391c 87bf 2e0c 3b3f ee87 04bf
00000030: 826f 5bbf ccdc 40be 74dc 1b3e 5395 6fbf

embedding.2.weight_g f4 [16, 1]
0.39311397 -0.13904378 0.5727918 0.20023377 0.6674626 -0.052120123 0.956188 0.8446901
0.53383684 -0.13326083 0.6547614 0.55674654 0.3646526 0.30614254 0.75085336 0.5246721
00000000: 3c46 c93e 7e61 0ebe 7ca2 123f 150a 4d3e
00000010: d4de 2a3f e97b 55bd bdc8 743f 9c3d 583f
00000020: 88a9 083f 8775 08be 719e 273f f186 0e3f
00000030: bfb3 ba3e b7be 9c3e ed37 403f e950 063f

embedding.2.weight_v f4 [16, 1]
0.4611627 0.20312816 -0.8355315 0.26729688 0.65077794 -0.048427 -0.8654754 -0.82796174
-0.4777899 -0.17394902 -0.7967269 0.90329975 -0.65416044 0.2833859 -0.98538166 0.5402624
00000000: 841d ec3e d400 503e 64e5 55bf 23db 883e
00000010: 6299 263f 645b 46bd cc8f 5dbf 4df5 53bf
00000020: e1a0 f4be b11f 32be 4bf6 4bbf a73e 673f
00000030: 0f77 27bf f517 913e f941 7cbf a34e 0a3f

embedding.3.bias f4 [16]
0.92547154 0.0671551 -1.8720905 -1.1690665 0.9053821 -1.5752852 -0.6094503 0.1603937
1.513525 -1.6845472 -0.3440827 1.2966636 1.796473 -1.8568773 -1.4269559 0.5456591
00000000: b4eb 6c3f 9d88 893d a9a0 efbf f9a3 95bf
00000010: 1fc7 673f f2a2 c9bf ef04 1cbf 3f3e 243e
00000020: 30bb c13f 3e9f d7bf 9c2b b0be 13f9 a53f
00000030: d4f2 e53f 28ae edbf 7ea6 b6bf 51b0 0b3f

embedding.3.weight_g f4 [16, 1]
0.22104838 -0.016160188 0.5264945 0.85081494 -0.024792833 0.29488096 0.44929713 0.62831026
0.949198 0.28532082 0.57490015 -0.1830915 1.0412349 0.6082245 0.57454056 1.454214
00000000: 825a 623e 5f62 84bc 58c8 063f 02cf 593f
00000010: 571a cbbc a3fa 963e 460a e63e f1d8 203f
00000020: a4fe 723f 9215 923e a82c 133f 577c 3bbe
00000030: 2f47 853f 9ab4 1b3f 1715 133f af23 ba3f

embedding.3.weight_v f4 [16, 1]
-0.054120976 0.18129481 -0.27787015 0.42094687 -0.045039717 -0.22661859 -0.8393664 -0.67451805
-0.8581288 -0.5634904 -0.871966 0.38314328 -0.78153354 -0.5185954 0.3444961 -0.87978244
00000000: f5ad 5dbd 59a5 393e ff44 8ebe 5986 d73e
00000010: 917b 38bd b40e 68be b7e0 56bf 37ad 2cbf
00000020: 54ae 5bbf e840 10bf 2a39 5fbf 5b2b c43e
00000030: 9512 48bf abc2 04bf cb61 b03e 6c39 61bf

embedding.4.bias f4 [16]
0.18737113 0.2218691 0.4437754 0.593838 0.9074625 -0.7947784 -0.31929702 -1.7421988
-0.5841924 -0.9312599 1.0007676 -0.06800016 -0.23397887 -0.49317998 1.3170133 0.23473509
00000000: 38de 3f3e a731 633e 8736 e33e c405 183f
00000010: 764f 683f 9976 4bbf e67a a3be 5f00 dfbf
00000020: a28d 15bf 0c67 6ebf 2719 803f ab43 8bbd
00000030: 2898 6fbe 1682 fcbe e493 a83f 655e 703e

embedding.4.weight_g f4 [16, 1]
0.037558135 0.10373269 0.04591481 0.20338528 0.19292414 0.14761029 0.29107818 0.85673684
0.62518084 0.8765634 0.03643406 0.5216772 0.5603577 0.45607066 0.42379135 0.2921101
00000000: 8fd6 193d ce71 d43d 2b11 3c3d 3b44 503e
00000010: e88d 453e 2727 173e 3308 953e 1b53 5b3f
00000020: da0b 203f 7566 603f e23b 153d a38c 053f
00000030: 9a73 0f3f 1882 e93e 2efb d83e 748f 953e

embedding.4.weight_v f4 [16, 1]
0.74407065 0.716212 -0.09045846 0.5545332 -0.2773779 -0.3308968 0.57892483 0.6918105
-0.8357261 0.8879671 0.107169434 0.935726 0.9106799 0.5903219 -0.22069196 -0.3940175
00000000: 6a7b 3e3f ab59 373f 4942 b9bd e3f5 0d3f
00000010: 7a04 8ebe 4e6b a9be 6b34 143f 7e1a 313f
00000020: 25f2 55bf d051 633f a67b db3d bd8b 6f3f
00000030: 5122 693f 561f 173f 13fd 61be a9bc c9be

embedding.5.bias f4 [16]
0.6508398 -0.94577444 0.7051947 -1.0100124 -0.5363091 -0.1745855 0.35615757 0.0057296082
1.1289904 0.064610004 1.0020096 0.65373665 0.2739194 -0.66806346 -0.58266896 0.55777264
00000000: 709d 263f 461e 72bf a487 343f 1648 81bf
00000010: 8e4b 09bf 8bc6 32be 495a b63e 70bf bb3b
00000020: c282 903f 4052 843d da41 803f 495b 273f
00000030: 2a3f 8c3e 3506 2bbf cb29 15bf 30ca 0e3f

embedding.5.weight_g f4 [16, 1]
-0.0062090433 0.2700175 0.8442803 0.7333454 0.58096445 0.47285837 0.15229148 0.7164458
0.8973305 0.72002137 0.70035684 0.23769511 0.4558829 0.50049096 0.42711386 0.6111614
00000000: 3b75 cbbb bc3f 8a3e c122 583f 86bc 3b3f
00000010: 16ba 143f 7e1a f23e 4cf2 1b3e fe68 373f
00000020: 74b7 653f 5253 383f 964a 333f 5966 733e
00000030: 7c69 e93e 2d20 003f abae da3e 1375 1c3f

embedding.5.weight_v f4 [16, 1]
0.23229998 0.37765184 0.78181237 -0.75186956 0.93098766 -0.41067755 0.5535008 0.74600226
-0.9665296 -0.7149078 0.81709415 -0.33938837 -0.43777618 0.8015179 -0.7101014 -0.44407287
00000000: 0ce0 6d3e 955b c13e db24 483f 867a 40bf
00000010: 3555 6e3f 5444 d2be 3ab2 0d3f 01fa 3e3f
00000020: 7c6e 77bf 3304 37bf 152d 513f 50c4 adbe
00000030: 3324 e0be 4730 4d3f 35c9 35bf 855d e3be

embedding.6.bias f4 [16]
0.6107779 0.34405652 0.50679845 -0.5040036 0.6907834 0.7364208 -0.25940785 0.18281153
-0.06913229 -0.701637 0.01288912 -0.28413755 -0.6837004 0.8695882 -0.49295205 0.036191493
00000000: f15b 1c3f 2d28 b03e 8bbd 013f 6106 01bf
00000010: 2ed7 303f 1386 3c3f 1bd1 84be f232 3b3e
00000020: 3b95 8dbd 7c9e 33bf e32c 533c 7a7a 91be
00000030: fd06 2fbf 559d 5e3f 3664 fcbe 883d 143d

embedding.6.weight_g f4 [16, 1]
0.5000221 0.02218674 0.25284618 0.70690465 0.69889015 0.64162016 0.60559595 0.027519003
0.3008627 0.4774884 0.13040672 0.16481602 0.65730727 0.9787907 0.40992042 -0.16794965
00000000: 7301 003f f7c0 b53c 0e75 813e b4f7 343f
00000010: 77ea 323f 3841 243f 5608 1b3f 886f e13c
00000020: ad0a 9a3e 5c79 f43e 5789 053e 88c5 283e
00000030: 4a45 283f 0792 7a3f 17e1 d13e fefa 2bbe

embedding.6.weight_v f4 [16, 1]
-0.4537333 0.25334868 -0.14922394 0.6799939 0.39936 -0.16530731 0.60316736 0.015724886
-0.75940967 0.20861141 0.5003802 -0.25526974 -0.62708366 0.8444832 0.6633968 0.3883514
00000000: bb4f e8be ebb6 813e 29ce 18be 1514 2e3f
00000010: ea78 cc3e 5246 29be 2d69 1a3f 7ad1 803c
00000020: ac68 42bf 3b9e 553e eb18 003f b7b2 82be
00000030: 8e88 20bf 0d30 583f 5fd4 293f ffd5 c63e

embedding.7.bias f4 [16]
-1.2976202 0.4773418 1.4735421 0.49999058 0.5988246 0.18881907 0.534748 0.58963686
0.8194332 -0.2198823 0.16760057 -0.18206525 -1.1875012 -0.2008859 -0.74426407 0.2253723
00000000: 6b18 a6bf 2566 f43e 079d bc3f c4fe ff3e
00000010: 924c 193f c959 413e 3fe5 083f 71f2 163f
00000020: 60c6 513f d328 61be 7c9f 2b3e 506f 3abe
00000030: 0a00 98bf 09b5 4dbe 1788 3ebf ffc7 663e

embedding.7.weight_g f4 [16, 1]
0.48255968 0.24633923 0.89190316 0.9948144 0.6648198 0.024001027 0.60486937 0.99957
0.26952532 1.2254761 0.050619125 0.7694502 0.78720576 0.03781866 0.42610005 0.81771094
00000000: 1012 f73e 5a40 7c3e c453 643f 28ac 7e3f
00000010: a131 2a3f cd9d c43c b8d8 1a3f d2e3 7f3f
00000020: 39ff 893e 67dc 9c3f 0056 4f3d b0fa 443f
00000030: 5186 493f bde7 1a3d c929 da3e 8155 513f

embedding.7.weight_v f4 [16, 1]
-0.9604903 -0.6354188 -0.76659036 0.76460844 0.9281552 0.16381475 0.6331939 -0.80327445
0.48584244 -0.9369027 -0.08823679 0.9046813 -0.68977857 0.592727 -0.907816 -0.79793614
00000000: b1e2 75bf ceaa 22bf 443f 44bf 61bd 433f
00000010: 949b 6d3f 0ebf 273e ff18 223f 65a3 4dbf
00000020: 57c0 f83e dbd8 6fbf 7db5 b4bd 3299 673f
00000030: 5495 30bf f5bc 173f a166 68bf 8b45 4cbf

embedding.8.bias f4 [16]
0.11254884 -0.47097412 0.119057916 -0.27267957 0.27518663 0.8688282 0.024815936 0.59046835
0.8335629 0.7901914 0.7492609 0.585664 -0.27477735 -0.54390633 0.0497899 0.9899865
00000000: 0280 e63d 8523 f1be a3d4 f33d a89c 8bbe
00000010: 43e5 8c3e 866b 5e3f ca4a cb3c ef28 173f
00000020: 6164 553f fc49 4a3f 90cf 3f3f 13ee 153f
00000030: 9eaf 8cbe 723d 0bbf 7ff0 4b3d c16f 7d3f

embedding.8.weight_g f4 [16, 1]
-0.5283365 -0.89064246 1.6461173 1.6717166 1.8885764 1.4972979 0.59766084 0.60511273
-0.11448373 -0.2503286 1.5617092 1.1230773 0.7395481 1.2417475 -0.04824019 0.5929609
00000000: 1041 07bf 2501 64bf f9b3 d23f cffa d53f
00000010: dfbc f13f 75a7 bf3f 4d00 193f abe8 1a3f
00000020: 7276 eabd 122b 80be 16e6 c73f ffc0 8f3f
00000030: 0653 3d3f 95f1 9e3f 8197 45bd 49cc 173f

embedding.8.weight_v f4 [16, 1]
0.31442463 -0.15553236 0.841186 0.9237877 -0.8628442 -0.22897746 0.1303108 0.31985408
0.29578286 0.01886763 -0.82089746 -0.46646133 -0.0958929 -0.7024434 -0.09054471 -0.043399073
00000000: 44fc a03e e043 1fbe f757 573f 5a7d 6c3f
00000010: 5ce3 5cbf 1179 6abe 3270 053e eac3 a33e
00000020: da70 973e 4a90 9a3c 5626 52bf 05d4 eebe
00000030: 7f63 c4bd 55d3 33bf 816f b9bd 3ac3 31bd

embedding.9.bias f4 [16]
-0.042605743 0.510365 -0.5254941 0.4677449 0.78681284 0.7920261 0.10638106 0.09323982
0.1357441 -0.77721316 -0.54543084 -0.13580547 0.40310386 0.42908272 -0.8409523 0.54676884
00000000: 5c83 2ebd 48a7 023f c886 06bf 427c ef3e
00000010: 916c 493f 39c2 4a3f 50de d93d 85f4 be3d
00000020: 8000 0b3e 71f7 46bf 5ba1 0bbf 9710 0bbe
00000030: a163 ce3e bbb0 db3e a648 57bf 0bf9 0b3f

embedding.9.weight_g f4 [16, 1]
0.9373444 0.5647423 1.3097129 0.6244465 0.8767479 1.2633681 -0.32656908 0.7786542
0.36569828 1.0552427 1.06839 0.53411275 0.058857664 -0.01103722 0.99297726 1.5907706
00000000: cdf5 6f3f f492 103f aca4 a73f badb 1f3f
00000010: 8d72 603f 0cb6 a13f 1034 a7be e255 473f
00000020: ce3c bb3e 3112 873f 01c1 883f 9dbb 083f
00000030: bc14 713d 75d5 34bc c233 7e3f 5f9e cb3f

embedding.9.weight_v f4 [16, 1]
-0.3028771 -0.3714298 0.9465698 0.26727384 -0.3539066 -0.44312793 -0.35717374 0.31176206
0.5158663 -0.6157484 -0.5628591 0.7803034 0.6590433 0.23746824 0.59681803 -0.7403316
00000000: b512 9bbe 0c2c bebe 6652 723f 1ed8 883e
00000010: 3f33 b5be aae1 e2be 7adf b6be 479f 9f3e
00000020: d00f 043f b0a1 1dbf 8917 10bf f7c1 473f
00000030: 10b7 283f e02a 733e 11c9 183f 5f86 3dbf

embedding.10.bias f4 [16]
0.18265615 0.77308905 -0.3700315 -0.34348434 0.39297068 0.49797556 -0.7771397 0.22689582
-0.85995966 0.4246552 0.49137297 -0.475732 -0.346302 0.7599151 -0.30791578 -0.252837
00000000: 370a 3b3e 2ae9 453f c574 bdbe 2edd afbe
00000010: 7433 c93e a7f6 fe3e a1f2 46bf 6157 683e
00000020: 5126 5cbf 686c d93e 3d95 fb3e 2593 f3be
00000030: 7f4e b1be cc89 423f 23a7 9dbe da73 81be

embedding.10.weight_g f4 [16, 1]
0.49972966 0.8608416 0.21504766 0.029789863 -0.08171743 0.8307434 1.1959254 0.44271216
0.7231261 -0.121778145 -0.17147174 0.21351911 -0.18764488 0.12039146 0.061248224 0.6693877
00000000: 91dc ff3e 1d60 5c3f 7435 5c3e df09 f43c
00000010: 785b a7bd 99ab 543f 1514 993f 2bab e23e
00000020: cb1e 393f d266 f9bd 4a96 2fbe c1a4 5a3e
00000030: fb25 40be cc8f f63d 6bdf 7a3d fe5c 2b3f

embedding.10.weight_v f4 [16, 1]
-0.082827814 -0.41527173 -0.50972176 0.03558153 -0.18783347 -0.6159032 0.8627563 -0.2934373
0.26414183 -0.05952428 0.05469398 -0.64594024 -0.18000983 0.4187496 -0.16397493 -0.87620527
00000000: a1a1 a9bd 7f9e d4be 207d 02bf f0bd 113d
00000010: 6b57 40be d5ab 1dbf 99dd 5c3f 6a3d 96be
00000020: 993d 873e bbcf 73bd cb06 603d 575c 25bf
00000030: 7f54 38be 5966 d63e 0be9 27be fd4e 60bf

embedding.11.bias f4 [16]
-0.35043433 0.10022414 0.17372298 -0.3361244 0.637205 -0.3058505 -0.23725025 -0.9863225
0.54325086 -0.036545645 -0.33744064 -0.48104513 0.07801226 -0.2000347 0.7042468 -0.6336182
00000000: 216c b3be 5042 cd3d 70e4 313e 7f18 acbe
00000010: de1f 233f 7098 9cbe bbf1 72be a27f 7cbf
00000020: 7d12 0b3f e3b0 15bd 05c5 acbe 8c4b f6be
00000030: e4c4 9f3d e5d5 4cbe 8549 343f cd34 22bf

embedding.11.weight_g f4 [16, 1]
1.454527 -1.7705556 0.5240529 2.4311776 -0.0069426945 0.22384581 -0.845628 2.6629164
2.5039077 -1.3580436 0.7087732 2.8723521 0.904389 2.530259 3.0764594 -1.1078545
00000000: f12d ba3f 91a1 e2bf 5528 063f 6a98 1b40
00000010: 8b7f e3bb d637 653e 147b 58bf 396d 2a40
00000020: 0640 2040 5fd4 adbf 2972 353f 9ed4 3740
00000030: 0a86 673f c3ef 2140 b6e4 4440 2dce 8dbf

embedding.11.weight_v f4 [16, 1]
0.10453746 0.07585106 0.30707926 -0.54868996 0.74896294 0.8135924 -0.9823186 0.087716736
0.8758653 0.7228033 -0.17313887 0.855558 -0.22965561 -0.8210364 -0.95151097 0.0661233
00000000: bc17 d63d cd57 9b3d 7e39 9d3e f276 0cbf
00000010: 09bc 3f3f 9747 503f 3b79 7bbf d5a4 b33d
00000020: b538 603f a309 393f 514b 31be d905 5b3f
00000030: d72a 6bbe 712f 52bf 3996 73bf a76b 873d

embedding.12.bias f4 [16]
-0.13231222 -0.88050073 -0.35008663 -0.35023233 -0.33680403 -0.21158037 -0.7492282 0.31332204
0.6971423 0.264943 0.23533334 -0.5142846 0.5004055 -0.9273234 -0.0402356 -0.8233949
00000000: db7c 07be 7f68 61bf 8e3e b3be a751 b3be
00000010: 9471 acbe 86a8 58be 6bcd 3fbf bf6b a03e
00000020: eb77 323f 9ca6 873e 39fb 703e 28a8 03bf
00000030: 931a 003f 1165 6dbf 16ce 24bd 02ca 52bf

embedding.12.weight_g f4 [16, 1]
0.24343373 1.963543 0.71833605 1.8147458 -0.90079546 1.4743274 1.0265651 -0.33262154
1.8680406 -0.2825954 -0.56084955 0.1578584 1.4387026 0.22447155 0.069897845 0.49362123
00000000: b146 793e 6155 fb3f dfe4 373f 9749 e83f
00000010: 889a 66bf c3b6 bc3f 7c66 833f 5f4d aabe
00000020: f41b ef3f 58b0 90be d693 0fbf a2a5 213e
00000030: 6827 b83f dfdb 653e 9a26 8f3d ecbb fc3e

embedding.12.weight_v f4 [16, 1]
0.7289676 0.7658321 0.29228893 0.8230443 -0.20133598 -0.12551802 0.51560175 0.058366966
-0.8193421 -0.7983801 0.9738961 0.054730967 -0.45409885 0.34881398 0.20082368 -0.12694806
00000000: 9f9d 3a3f 930d 443f e5a6 953e 08b3 523f
00000010: 052b 4ebe cc87 00be 7afe 033f 3312 6f3d
00000020: 67c0 51bf a362 4cbf 4151 793f 942d 603d
00000030: a57f e8be bf97 b23e b9a4 4d3e acfe 01be

embedding.13.bias f4 [16]
-0.41088215 0.14648469 -0.20170757 0.5067628 0.9717636 -0.34004027 0.12756822 0.17648265
0.10685852 -0.57436395 -0.3379888 -0.27285674 0.21760911 -0.17523776 -0.5244315 0.20614605
00000000: 255f d2be 1500 163e 6e8c 4ebe 35bb 013f
00000010: 80c5 783f c219 aebe 3ea1 023e deb7 343e
00000020: a4d8 da3d 8409 13bf de0c adbe e1b3 8bbe
00000030: ecd4 5e3e 8771 33be 2541 06bf f317 533e

embedding.13.weight_g f4 [16, 1]
0.4868148 0.7492639 -0.03378057 0.3105801 1.0926325 1.1094217 0.2653483 1.1918312
-0.23204325 0.66636455 -0.07195761 0.24086884 0.79902583 1.1101931 1.3039112 0.35995913
00000000: ca3f f93e c2cf 3f3f 7f5d 0abd 5b04 9f3e
00000010: 62db 8b3f 8801 8e3f bbdb 873e ed8d 983f
00000020: bf9c 6dbe de96 2a3f 835e 93bd 52a6 763e
00000030: f58c 4c3f cf1a 8e3f 90e6 a63f 904c b83e

embedding.13.weight_v f4 [16, 1]
0.2617828 -0.9885993 -0.54893446 -0.25228432 -0.53113526 0.9881328 -0.100833595 -0.7579119
0.30775604 0.14128989 -0.09605109 0.67798877 -0.34013012 0.74855155 0.7751898 0.7849599
00000000: 6508 863e d814 7dbf f886 0cbf 692b 81be
00000010: 7bf8 07bf 45f6 7c3f d881 cebd 8406 42bf
00000020: 3392 9d3e 4cae 103e 6fb6 c4bd ac90 2d3f
00000030: 8925 aebe 13a1 3f3f d772 463f 22f3 483f
