bank/Models/nn/0.9012_1/params.pt (torch_old, 53354 bytes, 7 tensors)

linears.0.weight f4 [128, 19]
00000000: f643 183e b2a7 83bd 4ede 763c 0b9c e1bb
00000010: 7946 e23d 9c11 a53d b7ae 753e fce7 58bb
00000020: 26b3 b33d 9d34 5dbe 15b5 4abe b5e4 e13c
00000030: 825c 6a3e 1626 8ebe 8259 4bbb bd9e ecbd
00000040: 5a82 15be dff8 8c3e ba18 be3e 9384 f4bd
00000050: ba04 49bd 333d 4cbe f235 06be 31dd cbbd
00000060: 5487 41bd d8d5 163e bf98 a1bd 8f2b 213d
00000070: 1ef5 3bbe 4272 e5bd 480f de3c 690d bebd
00000080: 95af 373e d817 5fbd 7144 3b3e b81f a33d
00000090: 1b92 903d 1a47 74be d4f4 c83d 1fc8 2fbe
000000a0: df53 613e 08be 8d3d feb8 01be 47d0 8e3d
000000b0: a61f 3ebc fbdd 3cbe 61eb f73c a3c0 ee3c
000000c0: 4d68 a23d 3cce a53d c9bd 50be 9c0e cabd
000000d0: 0e23 85be 08b6 673d 3949 6539 3601 93be
000000e0: 8078 6abe f015 4c3d fec5 3bbe 25bf d83d
000000f0: aa9c 1b3e f777 9fbd 1f7b 33bd a839 283e
00000100: d664 ba3d bdb9 06bd 5dae 8abe 12dc eb3d
00000110: 8124 243e 8738 1a3e 346a b33d 6dd7 9f3d
00000120: 7697 833d 62c4 4bbe 5add 80bd c1d3 7b3e
00000130: e94d 043e 902a 1a3e d96e 123e ca9c 85bc
00000140: 3e13 94be 67e6 133e ec19 163e ada8 88be
00000150: 52ae 6abd 50de 66bd a25f 8abd a024 933d
00000160: c27f 55be 35f3 c4bd 6639 90be 1850 ffbd
00000170: cd2d dcbd 4414 4dbe 7919 163d b81d ecbc
00000180: 45fe 2dbe 0ae2 08be fe29 913d 8612 dcbd
00000190: 3774 493e f65b bd3d 5ef4 09be d124 25be
000001a0: 7676 b8bd 7c59 3dbe f9a2 1a3e 2a9f 3abe
000001b0: 629e f53d 4500 f0bd 6202 9b3d 6c84 493d
000001c0: 2275 d73d 3e90 d53d fec5 093e f846 1b3e
000001d0: 7ce1 3a3e 0c95 0bbc e459 0cbe 8ece 6bbc
000001e0: 6f00 d33c d2bd b5bc f649 e0bd 14d7 91be
000001f0: 37d3 cfbd 8a93 dc3e f418 953e 3d0d 43be
00000200: e327 663e 9406 1abe 9a13 1dbe 69d5 0dbe
00000210: 3040 b13e 19fa 4ebe 06c3 993d 474a 43be
00000220: 2186 743e af26 2cbe 44df 0c3e d936 20be
00000230: e5f5 813d 8e5c 083e 13c5 f23d 17e9 bdbc
00000240: 14cb c93e 7ffb 843e 9700 083e 40f2 673e
00000250: 0261 aabd 664a 80bd 02cd c6bd 1b00 1e3e
00000260: dc05 053e b219 be3d 1b85 febd 925b a8bc
00000270: a8e6 2b3e a25e 15be f05d ad3e fc8a 0cbd
00000280: 398f 6cbc 36ca 9dbd 2c07 98bd 1e28 113d
00000290: d195 223e ca7f f5bd 671f 943e 76f8 81bc
000002a0: 308f 60bd f597 753e 8334 cb3e e840 35be
000002b0: 04ce 9dbd e0ca 2dbd a594 4c3e 00e7 f5bc
000002c0: dc80 60bd 1ccf d3bd 9002 7ebd 8147 5ebe
000002d0: 1c42 57be daf1 c03d e0df 9cbb a332 65be
000002e0: c81a a23c 7672 a2bd aac9 da3d 8f59 253e
000002f0: 096c 4d3e 4ac5 803d 94f3 493e c96a 2d3e
00000300: e2c2 eabd 95fb 5cbe 58e7 a2bd 1f47 303e
00000310: f943 e33b 0c94 c2bd 9117 80bd f1b6 073e
00000320: 5c4f 173e 83a6 383d 530a 103d 985c b539
00000330: cbc4 68be ed63 373e 5757 d2bd 236a 3abe
00000340: d630 cbbd c46a f83b 8540 45be c1ae 043e
00000350: 5b47 153e 80f3 b2bc d056 34bd d3da 773d
00000360: 728b 013e f778 083e 8dd8 94be 926a cdbd
00000370: 7e4a 533e 583f c2bd 1cd0 93be 761c 133e
00000380: 28a4 20be 5377 a1be 07f1 903e 420f a23b
00000390: 113d 24be 9ed5 503d fa9a 0bbe 18f2 603e
000003a0: 62c6 0e3d d22d 50bd 649a ac3d f4f8 0bbe
000003b0: 273c 81bc 3c78 2e3e d23a 6d3e ba4d b4bd
000003c0: e322 623e 91ab 39be 455f ef3d 725f 11be
000003d0: 81d1 1bbd 2929 23be 851b 5c3e e0a0 9f3d
000003e0: f222 743a 04b8 583e 358e 6abe 10f7 0fbe
000003f0: 6c61 233e 034e 343d 546f b63d 805b c1bd
0.14869675 -0.0642847 0.01506765 -0.006885057 0.11048598 0.08059999 0.2399243 -0.0033097258
0.08774404 -0.21602102 -0.1979564 0.027574876 0.22886851 -0.27763432 -0.0031028693 -0.115537144
-0.14600506 0.27533624 0.3712824 -0.11939349 -0.049076773 -0.1994522 -0.13106516 -0.09954298
-0.0472482 0.14730012 -0.07890462 0.03934818 -0.18355224 -0.112034336 0.027106896 -0.092799015
0.17938073 -0.0544661 0.18287827 0.07965034 0.070591174 -0.23855248 0.09812322 -0.17166184
0.2200465 0.06921011 -0.12668225 0.069733195 -0.011604225 -0.18444054 0.030263605 0.02914459
0.0793005 0.08095977 -0.20384897 -0.09866068 -0.26003307 0.056570083 0.0002186642 -0.2871186
-0.2289753 0.04982561 -0.18337247 0.10583333 0.15196481 -0.07786553 -0.04381859 0.16428244
0.09101264 -0.032891978 -0.27086154 0.115165845 0.1602955 0.15060626 0.08760491 0.07804761
0.06425373 -0.19899133 -0.062922195 0.24592496 0.12920345 0.15055299 0.14300098 -0.016310114
-0.2892093 0.1444336 0.14658326 -0.2669119 -0.05729515 -0.056364357 -0.06756522 0.0718472
-0.20849517 -0.096167006 -0.28168792 -0.124664485 -0.10750923 -0.20027262 0.036645386 -0.028822765
-0.16991527 -0.13367477 0.070880875 -0.107457206 0.19673239 0.09246056 -0.13472125 -0.16127326
-0.0900697 -0.18491167 0.15101232 -0.18224779 0.119931 -0.117188014 0.07568814 0.049198553
0.10520388 0.10427903 0.13454434 0.15163791 0.18250078 -0.008519422 -0.13706166 -0.014392508
0.025757043 -0.02218524 -0.10951607 -0.28484404 -0.10147708 0.43081313 0.291206 -0.19048019
0.22476153 -0.15041572 -0.15339509 -0.13850941 0.34619284 -0.20212592 0.07507901 -0.19071303
0.23879291 -0.16811632 0.13757044 -0.15645923 0.06345729 0.13316557 0.11853995 -0.023182435
0.3941275 0.25973126 0.13281475 0.22651005 -0.08319284 -0.062641904 -0.09707071 0.15429728
0.12990516 0.09282245 -0.124277316 -0.020551477 0.16787207 -0.14586881 0.3386073 -0.034312233
-0.014438444 -0.07704584 -0.07423243 0.03543865 0.15877463 -0.119872645 0.28930208 -0.015865546
-0.054824054 0.23983748 0.396885 -0.17700541 -0.0770531 -0.042429805 0.19978578 -0.030017376
-0.05481039 -0.10342237 -0.062014163 -0.21706964 -0.21021312 0.094211295 -0.00478743 -0.22382598
0.01978816 -0.07931988 0.106829956 0.16147445 0.20060743 0.0628763 0.19721824 0.16935267
-0.11462952 -0.21580346 -0.079542816 0.1721463 0.006935593 -0.09500894 -0.06254495 0.1325338
0.14776367 0.045080673 0.035166096 0.00034591998 -0.2273132 0.17909212 -0.10270565 -0.1820455
-0.09921424 0.007581087 -0.19262893 0.12957288 0.14578001 -0.021844625 -0.044028103 0.06051142
0.1265085 0.13327394 -0.29071465 -0.10030092 0.20633885 -0.09484738 -0.28869712 0.14366326
-0.1568762 -0.3153635 0.2830889 0.0049456665 -0.1603892 0.05098497 -0.13633338 0.21967351
0.03485716 -0.050824948 0.08427885 -0.13669187 -0.015775753 0.17038053 0.2316697 -0.08803888
0.2208362 -0.18131854 0.11688093 -0.14196566 -0.038041595 -0.1593367 0.21494873 0.07794356
0.00093130686 0.21163946 -0.2290581 -0.1405909 0.15955132 0.04401971 0.08907953 -0.0944128

linears.0.bias f4 [128]
00000000: 9f83 f13d 98b5 e73d 99bf c2bc 89a7 4ebe
00000010: 60a0 a73d 1671 54be 115f ce3d a883 1c3d
00000020: b149 093e e4d6 aebd acbd ecbd 5952 00be
00000030: 2454 d1bc 6bbc b13c 6c1c 3f3d d232 0d3e
00000040: b52f f9bd d097 053d 6924 8ebd 446c 2abe
00000050: 579e 223d 4e09 05bd 07a3 07be 34bd 3cbe
00000060: aed5 2bbe f9ca 343e 9725 98bd 9d83 c6bd
00000070: 9cbc 91bd d15d 3dbe c0cf 553e b4e7 293e
00000080: d8ac 25be d7df f9bd 8032 bf3d f30f 3cbe
00000090: 897e 633e 72eb 0d3e 35df bf3d dd84 5bbe
000000a0: 1a14 47be 2d1e 043b cf50 303e 5c17 b0bd
000000b0: f523 2d3e e739 e7bd e3c4 6abe 4f40 d0bd
000000c0: 44cf debb 7c08 0bbe 0615 d43c f8eb 203e
000000d0: 53e7 653d 5e69 f03c 3910 09bd c14a 8a3e
000000e0: fd1d 5d3e 9807 563d 05d0 203e 78d1 1c3e
000000f0: 03d5 f73d c8cf 5cbe 84ce a83d 4af7 523d
00000100: 9c2e 3f3d 7926 fdbc 32c4 253e f95e c6bd
00000110: cd33 eabd 1e5f afbd 6971 01be 3240 8ebe
00000120: e611 1a3e 001f 3a3c 5f87 cdbd fcc6 33bd
00000130: 12dd 333d 8cc6 053d 0d13 a43c 9587 77be
00000140: ea6c 323d 7219 5ebe bf55 9ebd ed48 6a3e
00000150: 6771 12be 9ea3 10be 9dad e33d 34c2 033d
00000160: 5724 f2bd b09e bd3d a358 77be a401 e43c
00000170: c1da 29be 1036 72be ca27 ffbd 1f76 153e
00000180: 4267 b43d 9433 5dbb a20b 19be 2e64 b83c
00000190: 704f 113e 0525 d53d d09d 003e 81f8 bf3d
000001a0: b47a 05be 6518 453e 8192 4b3d 1ae7 313e
000001b0: 8d0d 393e 87af 893d 5337 113e 561c d13d
000001c0: a60d 8ebd fae9 1b3e 57ab ca3d 62df 043d
000001d0: 04dd 5b3e 0cf5 cd3d 04db fdbb 684f 603e
000001e0: 34b8 6bbe 7a6d 10bc 4fe2 053d 793a 293d
000001f0: c542 26be 695d 7fbe 643a 313d c3c3 b43c
0.11792683 0.11313933 -0.023773002 -0.20181097 0.08184886 -0.20746264 0.10076726 0.038211495
0.13407017 -0.08537081 -0.115596145 -0.12531413 -0.025552817 0.02169629 0.046657965 0.13788918
-0.121673025 0.032615483 -0.069405384 -0.16642863 0.039701786 -0.032479577 -0.13245784 -0.1843155
-0.16780731 0.17655553 -0.07429045 -0.09693072 -0.071160525 -0.1849282 0.20880032 0.16592294
-0.16179216 -0.12200897 0.09335804 -0.18365459 0.22216238 0.13859347 0.09368745 -0.21437402
-0.19441262 0.0020159588 0.17218326 -0.085982054 0.16908248 -0.11290341 -0.22926669 -0.10168516
-0.0067996103 -0.13577455 0.025888931 0.15715015 0.05612881 0.029347118 -0.033462737 0.27010158
0.21593471 0.052253336 0.15704353 0.15314281 0.12101176 -0.21563637 0.08242515 0.051505364
0.04667531 -0.030902134 0.16188124 -0.09686083 -0.114356615 -0.08563064 -0.12640919 -0.27783352
0.1504589 0.01135993 -0.100355856 -0.04389094 0.043912 0.032660052 0.020028615 -0.24172814
0.0435609 -0.21689394 -0.077311985 0.22879381 -0.14301072 -0.14124915 0.111170985 0.03216763
-0.118233375 0.09258783 -0.24154906 0.027832814 -0.16587354 -0.23653436 -0.12458761 0.14595841
0.08808757 -0.0033752667 -0.14945844 0.022508707 0.14190459 0.104074515 0.125602 0.0937357
-0.13035089 0.19247587 0.049700264 0.17373314 0.18071575 0.06722932 0.14181261 0.10210483
-0.06936197 0.15225974 0.09895962 0.032439597 0.2147103 0.100565046 -0.007747056 0.21905291
-0.23019487 -0.008815164 0.032686528 0.04131553 -0.16236408 -0.24937977 0.043268576 0.022066003

linears.1.weight f4 [64, 128]
00000000: 20e8 103e af6d 2dbd f5ba f0bd d41d 06bd
00000010: 7e42 3fbc b8a3 713c a8ff 49bd b783 da3d
00000020: ce35 e83d 137d 973d 2c16 dc3a 6e28 dd3d
00000030: 9164 813d 00e2 d4bc 0f47 20bb 8442 42bd
00000040: c391 e43d 59be dc3c 666c b139 3b90 6c3d
00000050: 3ae0 373d 2f87 bdbd d591 623d 9b79 a4bc
00000060: 0344 07bd 950f 4dbd ec2c c6bb 0b9d a2bd
00000070: abbe 793d e88f 0a3e 760b cfbd 2f9a 093c
00000080: def8 2ebd 9bd0 9fbd 2fe3 2cbd f8d3 363c
00000090: 11b8 ee3c 957f 7d3d ec4a 133e 9c15 8d3c
000000a0: 3179 8eba 6289 773d 71f9 ad3d 5be5 b33c
000000b0: a05c 783d e5cb 303d 8d3c 7b3a 4563 b03b
000000c0: 5917 583d b177 713d 9685 433d 9850 06bd
000000d0: 8adf 2cbd f9ec 923d 874b 08be 6c07 c13d
000000e0: 4e7b 3b3d 413c e33d 6166 80bd e750 c93d
000000f0: 803c ac3c 46ca 12bd 66c5 edbc 9d73 383d
00000100: 81ce 2b3d 366c f83c 7030 09bc 802b c73d
00000110: f45b 1f3d a69d 193d 58e3 acbc 9207 60bd
00000120: de5e 3cbc e22d 8e3d 4b9f d13b c1ec 123d
00000130: 3dba 29bc b550 8b3d e742 c13d 902c 763d
00000140: 06b5 35bd 4b38 db3c 917f dbbc eb6c 04bd
00000150: 5cb3 433d cc4c ccbd 7bc0 793d 174e 9b3d
00000160: 325c 06bb 45d2 543d 31e4 093d d4f2 f0bc
00000170: 119d 9e3d d20e 6c3d e62c 1f3d 132e c4bd
00000180: f642 d03d 44ab 683d 30ab af3d 9bad 083e
00000190: dcab 88bd db27 17bd 9dda dabc e4ae 2bbc
000001a0: 978b 433d 11d5 c63d 3dac a7bd d94d e3bc
000001b0: 4a6a b93d 1d77 6fbc 7615 aabd 2f4a 7b3c
000001c0: ac41 8bbd 943e ac3d 6282 a2bd 8ed6 5e3d
000001d0: 8930 f2bd 018a e03b 815c 833c 223e 303e
000001e0: cb25 813c 869d 813d 3227 0e3e 2548 143c
000001f0: e78e 58bd 95f6 48bd 7a75 46bd 6d14 39bd
00000200: c25c aebc 3689 a23d 712d 5a3d 08f1 87bd
00000210: 8fc5 87bd 1848 c2bc 760d a33d 305d d03d
00000220: c2e4 7fbd 7f48 953d 6926 e53c 4296 a03d
00000230: 7a2b 7c3d 762d acbd e285 8dbd 996d d1ba
00000240: a6a1 8c3d 94a2 9f3c df86 24bd c11e a93c
00000250: 63a1 963d 90d3 9e3d cecc acbd d5d9 a6bd
00000260: 836a 573d ac16 42bd 2c80 2e3d bab6 cc3c
00000270: 245d ff3d 21b5 463c 9210 e4bd 19f0 113d
00000280: ccf2 88bd 74e5 d23d b64d d53d 5cb6 adbd
00000290: 52f4 06bd 7850 41bd bfaf 1f3e 9e44 98bd
000002a0: b2c4 843a cb7d b13d 5f60 e93d 3e73 43bd
000002b0: bb08 5c3d 6bf7 f03b 0ba1 72bc 858e 98bd
000002c0: de05 ddbd 2510 753d ffc6 933b 6e31 97bd
000002d0: b761 933c 1c8c 593d 51db 6b3c 7a06 8d3d
000002e0: 7886 5cbd fe5d 313d 86c9 e8bb 5f20 273e
000002f0: bb74 483c 9b80 943d 968d 98bd e32b 90bb
00000300: dd9d 98bb 24ba cabd 581d fc3d 704d 0a3d
00000310: 0203 263d cb26 23bd fa1d 693d 69ac 02bd
00000320: b0ed cebc b9cb 5bbd ad24 a8bd d934 583d
00000330: adf9 62bd 4770 a93d a3e0 94bd 9c67 5ebd
00000340: 29d8 4bbd 8ff6 7ebd 1d57 e53c 6980 8c3d
00000350: c466 66bd 85ab b1bd f423 8f3d f493 ae3d
00000360: e958 48bd d623 84bd 595b d23c 6315 e93c
00000370: 008f 69bb e29b 62bd 7e9c c5bd 6394 3dbc
00000380: b650 f93b 146a dabc 7336 753d 1fa2 113e
00000390: 799c 6a3d f465 8dbd 10e6 2f3d 837d 52bd
000003a0: eca5 ad3d 4dbb 46bd 7e0c 60bd 0ddd 533d
000003b0: 653f 643c 9206 6db8 d24f a8bd 9bc3 663b
000003c0: a83b c4bd 6c23 1a3e d78e a83c 8b14 96bb
000003d0: 96c5 0ebe 53e3 0fbd b1bc fa3d b7a5 073e
000003e0: ac1d a0bd 0eff 253c 6692 c83d 331f 7b3d
000003f0: e664 9e3d 5084 62bd 0467 3b3d 87e6 003d
0.14151049 -0.04234093 -0.11754409 -0.03274329 -0.011673568 0.014748506 -0.04931608 0.10669654
0.113383874 0.07396903 0.0016791276 0.10798727 0.0631801 -0.025986671 -0.0024456417 -0.047426715
0.11160614 0.026946234 0.00033840834 0.057754736 0.044891573 -0.092543 0.055314858 -0.020077517
-0.033023845 -0.05006369 -0.0060478356 -0.0794011 0.06097285 0.13531458 -0.10109608 0.008398577
-0.042717807 -0.0780346 -0.042208847 0.011158936 0.029140504 0.06188925 0.14384049 0.017222218
-0.0010869858 0.060433753 0.08494843 0.021959951 0.06063521 0.0431632 0.0009583913 0.0053829276
0.05275664 0.058952037 0.04773482 -0.032791704 -0.04220537 0.07174105 -0.13310061 0.09425244
0.04577189 0.11095477 -0.06269527 0.09829884 0.021024942 -0.035837434 -0.029024791 0.045032132
0.041944984 0.030325036 -0.008373365 0.09725094 0.038906053 0.03750386 -0.0211045 -0.05469472
-0.0114972275 0.06942345 0.006397163 0.035870317 -0.010359344 0.06802503 0.09436589 0.06010109
-0.04436209 0.026760241 -0.026794227 -0.032330435 0.047778472 -0.09975585 0.06097458 0.07583254
-0.002050173 0.05195834 0.033664886 -0.029412664 0.07744802 0.05763132 0.038861178 -0.095791005
0.10169022 0.056803957 0.08577573 0.13347475 -0.066734046 -0.036903244 -0.026715571 -0.010478709
0.047740545 0.09708608 -0.08187149 -0.027747082 0.09053476 -0.014615801 -0.083048746 0.015337511
-0.06799635 0.08410373 -0.07935025 0.054403834 -0.118256636 0.006852389 0.01603532 0.17211202
0.015765091 0.06328873 0.1388214 0.009050404 -0.052870657 -0.049063284 -0.048451878 -0.045185495
-0.021284465 0.07936327 0.053265993 -0.0663777 -0.06629478 -0.023716018 0.07961552 0.10174024
-0.06247402 0.07289218 0.027972417 0.078411594 0.0615649 -0.084071085 -0.06910302 -0.0015978097
0.068667695 0.019486703 -0.040167686 0.020644547 0.07355001 0.07755196 -0.08437501 -0.08147017
0.052591812 -0.047384903 0.042602703 0.024989475 0.12468937 0.012128145 -0.11135973 0.035629366
-0.06686935 0.10297671 0.10415213 -0.08482048 -0.032947846 -0.04719588 0.15594386 -0.07434963
0.001012942 0.08666571 0.113953345 -0.047717325 0.053719264 0.0073537133 -0.014808903 -0.074490584
-0.10792135 0.05982985 0.004509806 -0.07382475 0.01799093 0.053112134 0.014395551 0.06886001
-0.053839177 0.04330253 -0.0071041016 0.16320942 0.012234862 0.07251092 -0.074488804 -0.004399763
-0.0046574906 -0.09898785 0.123102844 0.033765256 0.040530212 -0.039831918 0.056913354 -0.031902704
-0.025259823 -0.053661082 -0.0821012 0.052784774 -0.05541389 0.08273368 -0.072694086 -0.05429803
-0.049766693 -0.062246855 0.02799564 0.0686043 -0.05625035 -0.08675293 0.069892794 0.085243136
-0.048912916 -0.06452148 0.025678324 0.02845258 -0.0035638213 -0.055324443 -0.09648989 -0.011571023
0.0076084984 -0.02666191 0.05986638 0.14222 0.05727813 -0.06904212 0.042944014 -0.05138923
0.08478913 -0.048518468 -0.054699413 0.051724482 0.01393113 -5.6511322e-05 -0.082183495 0.0035211805
-0.09581691 0.15052575 0.020575924 -0.0045800856 -0.1394256 -0.035128903 0.12243021 0.13246809
-0.078181595 0.010131611 0.09793548 0.06130905 0.077340886 -0.055301964 0.04575254 0.031469848

linears.1.bias f4 [64]
00000000: 3638 3fbd 9878 42bd 612e 66bd 74b2 c83c
00000010: 8f0b af3d 86af 1c3d a96a a6bd 5e9f c63c
00000020: f5a3 a43d b3de ebbc e75d bf3c 1974 9cbd
00000030: 201b 613c 0271 813d 51cf 1dbd ce92 963d
00000040: b4c4 49bb f23a 503d 53bc 4c3d 2a20 cbba
00000050: 79f5 78bd 9bb4 94bd b0c3 503d 2c0b 90bd
00000060: 6955 fc3b 46a4 6a3d 19c2 5bbd 5a0c dcbb
00000070: db08 eebb f408 a6bd 4c82 493d 0e1f 6bbc
00000080: 7c54 60bd 0c11 8dbd 12be e13c 993a 8abd
00000090: 16a2 9e3d 754e 593d 113e 283d 2452 b8b6
000000a0: 2319 69bd 6e09 69bd 83c7 1b3d a017 91bc
000000b0: 8de2 83bd d033 28bd 05d2 bf3d 6516 c0bc
000000c0: 3e56 17bd e4cb 123c 9ee9 86bd 8dbe adbc
000000d0: 7145 d7bc c12b 8c3d 4cb8 9abd 9583 623d
000000e0: 2f83 c4bd c4a8 b03d 4f32 43bd c5ed eb3c
000000f0: e681 ae3d afe2 44bd 13f2 2fbc 9dc5 3a3c
-0.046684466 -0.04747829 -0.056196574 0.024499156 0.085471265 0.03825333 -0.081258126 0.024245914
0.08039085 -0.028792715 0.023360206 -0.07639331 0.013739377 0.06320383 -0.03852779 0.073522195
-0.003078741 0.050837465 0.049984287 -0.0015497257 -0.060780976 -0.0726101 0.050967872 -0.07033381
0.0077006114 0.05728557 -0.053651903 -0.0067153396 -0.0072642392 -0.081071764 0.049196526 -0.014350666
-0.05476807 -0.06888017 0.027556453 -0.06749458 0.07745759 0.053053338 0.041074816 -5.4931897e-06
-0.056908738 -0.05689376 0.038032066 -0.01771146 -0.064396955 -0.041065037 0.0936623 -0.023448179
-0.03694748 0.008959744 -0.06587528 -0.021209026 -0.02627823 0.06844283 -0.07554683 0.055301268
-0.09595334 0.086259395 -0.0476554 0.0287999 0.0852087 -0.048067745 -0.010738867 0.011399654

linears.2.weight f4 [32, 64]
00000000: ab30 18be 2671 0ebe e6e6 bebd 1570 f13c
00000010: 16f1 69bd 98fe b13d d9f9 6ebc 1646 9f3d
00000020: b4c4 b73d af06 433c 08c2 04bc 88c8 66bd
00000030: 3885 cc3d 1e11 0b3e 7077 c8bd 1e80 853c
00000040: 1ee4 2e3d e69e 013d eff0 483d eb5c 013e
00000050: 2e27 f7bd 8916 b33d f631 d4bd a640 6cbb
00000060: 4da2 a8bd b52b b2bd 7268 343d 15fa 363d
00000070: 9c89 78bd cc02 213d b2f1 843c 4264 d03d
00000080: 3b2f 493d b598 663d 7f0b abbd c410 43bd
00000090: 7e7b 5c3b 26c1 033c 5c14 51bd 636a ae3d
000000a0: 256f c6bc dc96 dcbd dc1c 79bd fd36 6b3d
000000b0: a9f1 11be 23a9 a4bd 1a80 27bc 74e5 e93d
000000c0: 54fa 9c3d 5244 063d 00e0 31bd 0be6 783d
000000d0: 0cce 94bd 8c38 5f3d d850 9ebb 1cf8 c8bd
000000e0: 5766 ac3d a82b 783d ce0a 67bc efec 343d
000000f0: c94f cb3d 0159 7fbd b419 153d b5ce a93d
00000100: 99de e63d 9e59 b3bc f0a3 903d 10b0 c4bd
00000110: a763 053e 1163 dfbd bbb6 b5bc 92f0 3b3d
00000120: a2fc debd a089 5bbd 0413 98bd 10a9 28bd
00000130: fa0f 99bc 55aa 65bd 23d7 38bd 1544 0c3e
00000140: 4a18 1fbd 9b52 d6bd fedb 993d d25a d23d
00000150: 6e3c bcbc 5262 bbbd 945d 3e3b 39a4 0ebd
00000160: 9afe 773d a826 ac3d 32e9 d9bd 6c85 0b3e
00000170: 2117 28bd a8d9 42bc 45b4 e53d 03de abbd
00000180: 4e2a 853d 99e3 a0bd 6e0d 22bd 5049 20bb
00000190: efd0 61bd 011c 1bbb 0c1e c23d b310 75bd
000001a0: 4cee 61bd df2d d3bc bcba 373d b301 cfbd
000001b0: eaf1 c13d 53b6 e23c 6b50 dc3c c2f6 a5bd
000001c0: 5ae1 94bd 9b50 8ebd f593 31bd b587 d43d
000001d0: 5a0a 8bbd 9f5a dd3d ca30 5e3c 6387 623d
000001e0: d564 8ebc d6b4 edbd 3e81 983d aada fcbc
000001f0: 0461 523d 75f1 e5bc 13cc 8c3d f416 0f3e
00000200: 454b 8fbc c6c7 86bd 2131 e3bd 9117 523d
00000210: 56bc 24bd f3f6 cfbd 5df5 813d 528a 323d
00000220: 8894 d73d f29c 633d c003 923d 19a5 d8ba
00000230: 9cd1 f2bc 9f0e 12be 9dbe bcbd 3948 373d
00000240: 2925 443c 8147 f43d 9a31 37ba b4f8 cabd
00000250: 8ac2 963d eed3 b6bd 69f3 b9bd cd34 253d
00000260: 7c94 5c3d 45d5 56ba 0bcd a73d 223f f83d
00000270: 7e1c a6b8 f497 523d 69e5 103e cff5 3fbd
00000280: 0b8e 97bc e3fa 293d 3c08 873d 7791 b43d
00000290: c2ce f3bc 6cb6 3f3d bba2 ab3c 0b43 abbd
000002a0: 7786 28bd d5a5 81bb 832c e4bd 0147 5b3d
000002b0: 84e4 0ebd 0798 d3bc 9491 663d cce9 7bbc
000002c0: d7f2 ba3d 62cc 003d 5446 00bd 9753 ca3d
000002d0: 0a8d 10bd cc63 f83d 9d5f f53b e82d a83d
000002e0: a1c1 b73d 8264 15be 5d96 abbb f69b 0bbc
000002f0: 7d6c b73d 66ac dfbb d329 d8bc 15b6 c13c
00000300: a7e7 40bd 2bd8 073e 9882 eb3d 765e 8dbd
00000310: 4ae4 1d3e b2ac f83d fc81 b1bd b012 1b3e
00000320: bb51 abbc b026 f4bd 11d4 fb3d 4008 cdbc
00000330: 58a0 95bd f82b 3dbd aff9 dcbc e278 afbd
00000340: fb8f 193d 3b16 e53c c843 eb3c 5184 93bd
00000350: 739e b53b f616 6ebd 4e77 103d 3bab 95bd
00000360: 0ec2 933d 6094 3ebd be77 82bd 5734 cf3c
00000370: 9b90 f0bd b11e 163e 4d80 d93d 7054 debd
00000380: 8cd7 c5bd 3480 f83d 5863 b6bd 18d7 05bd
00000390: e788 1c3d 94ea e1bd 7f7a 093d cab3 9b3d
000003a0: 1b0e 873d 575a 733c 8cc5 b43d e085 c5bd
000003b0: b49e 6abd d379 653d c4f3 8d3d 602c 37bb
000003c0: e459 a1bd a496 8c3d 76af ba3d 7d31 08be
000003d0: 5c57 eabd ffd4 b2bc 00fb 88ba 9b8f 12bd
000003e0: 58e0 f2bd 0c61 b5bd eb76 353d 70e5 ed3c
000003f0: 6774 c63d d00f 88bc 2537 da3d b2ab 89bd
-0.14862315 -0.1391035 -0.09321384 0.02947239 -0.057114683 0.08691138 -0.0145859355 0.0777704
0.08973065 0.011903449 -0.008102901 -0.056343585 0.09986347 0.13580748 -0.09788406 0.016296443
0.04269802 0.031645678 0.049057897 0.12633102 -0.1206802 0.087445326 -0.10361092 -0.0036049276
-0.082340814 -0.08699743 0.04404492 0.04467209 -0.06067811 0.039309308 0.01622853 0.10175373
0.049117308 0.056297977 -0.08351802 -0.04762341 0.0033642943 0.008041656 -0.051044807 0.085163854
-0.02422292 -0.10770962 -0.060818538 0.057425488 -0.14252342 -0.08040073 -0.010223413 0.11420718
0.07664934 0.03278 -0.043426514 0.06076626 -0.07265863 0.054497287 -0.0048314147 -0.09812948
0.08417957 0.06058851 -0.014101697 0.04417127 0.09927327 -0.06234074 0.036401466 0.08291379
0.11272926 -0.021893319 0.070625186 -0.09603894 0.13026296 -0.10907567 -0.02218186 0.045883723
-0.1088803 -0.053598046 -0.07425502 -0.041176856 -0.018684376 -0.056070644 -0.045127045 0.13697846
-0.038841523 -0.104649745 0.07512663 0.10271229 -0.022978034 -0.091496125 0.0029047476 -0.034824584
0.06054554 0.084058106 -0.106401816 0.13625115 -0.041037682 -0.011892714 0.11216024 -0.08391955
0.065022096 -0.07855911 -0.03956359 -0.002445776 -0.055130895 -0.0023667815 0.09478387 -0.05983038
-0.0551589 -0.025778709 0.04485582 -0.10107746 0.094699696 0.02767483 0.026893815 -0.08103706
-0.07269545 -0.06948968 -0.043353993 0.103774466 -0.06789084 0.108083 0.013561437 0.055304896
-0.017382065 -0.11606757 0.07446526 -0.030865986 0.051362053 -0.028069237 0.068748616 0.139736
-0.017491946 -0.065810725 -0.11093355 0.051292006 -0.040218674 -0.10154524 0.063456275 0.043588944
0.10526377 0.055569597 0.071296215 -0.0016528695 -0.029640965 -0.1426339 -0.09216044 0.04474661
0.01197175 0.11927701 -0.0006988287 -0.099107176 0.07361324 -0.08927141 -0.0907963 0.040333558
0.053852543 -0.0008195232 0.08193406 0.12121417 -7.920804e-05 0.051414445 0.14150013 -0.04686528
-0.018500349 0.04149903 0.065933675 0.08816808 -0.029761676 0.04680483 0.02095162 -0.08362397
-0.04114386 -0.0039565363 -0.111413024 0.05353451 -0.0348859 -0.025829328 0.056291178 -0.015375566
0.09128349 0.031444915 -0.03131707 0.09879225 -0.035290755 0.1212841 0.0074882046 0.08211881
0.08972479 -0.14589122 -0.0052364306 -0.008521071 0.08956239 -0.0068259714 -0.02638713 0.023646394
-0.04709592 0.13266055 0.11499518 -0.069027826 0.15419117 0.12142314 -0.08667371 0.15143847
-0.020912996 -0.119214416 0.12296308 -0.025028348 -0.07305974 -0.04618451 -0.026974527 -0.085679784
0.037490826 0.027964702 0.028718844 -0.07202972 0.0055425703 -0.058127366 0.035270028 -0.0730805
0.07214747 -0.04652822 -0.06370495 0.025293512 -0.11746331 0.14660145 0.106201746 -0.10855949
-0.09660253 0.12133828 -0.08905667 -0.032675833 0.038216498 -0.1103107 0.033564087 0.076026514
0.06594487 0.014853082 0.088267416 -0.09644675 -0.057280257 0.056024384 0.0693126 -0.0027950034
-0.078784734 0.0686467 0.09115498 -0.13300128 -0.11442444 -0.02183008 -0.001045078 -0.035781484
-0.118591964 -0.08856401 0.044302862 0.029040068 0.09690171 -0.016609102 0.10655049 -0.067222014

linears.2.bias f4 [32]
00000000: 832c fbbd ffe0 033e 00d9 6c3d 218d a93c
00000010: b8f9 bc3c 9a9e e73d 0eca a83d c077 913c
00000020: a875 d73d 64fe 0a3e 51dd 61bc 7490 71bd
00000030: 8365 623d 5aa1 3f3d 2ed8 6cbd 7f05 a3bc
00000040: c35e 2c3c 851d 3fbd fee2 a23b 6611 a7bd
00000050: a4a9 84bd 2442 063e c542 fcbc f125 623d
00000060: b785 96bd b540 77bd 5d69 f83d bd87 61bc
00000070: 5eea db3c c375 0f3d a40d 663d 0830 563d
-0.12264349 0.12878798 0.057824135 0.020697178 0.023068294 0.11309548 0.08241664 0.017757297
0.10520488 0.13573605 -0.013785676 -0.05897565 0.05527259 0.046784736 -0.057823353 -0.019900082
0.01052064 -0.04665901 0.0049709072 -0.08157615 -0.06477669 0.13111168 -0.030793557 0.055211965
-0.07349723 -0.060364444 0.121294715 -0.013765273 0.026845153 0.035024416 0.056165352 0.0522919

output.weight f4 [1, 32]
00000000: 8c9e 033e 2b61 0dbe 0d2a eebd 9648 86bd
00000010: c877 123e a2c3 2cbe dcbd 19be 6636 a23d
00000020: de8f 33be b09c 283e 4bf2 04be 7ed4 a83d
00000030: 69bc 26be cd80 523e a7a3 5abd debb 193e
00000040: 3b26 9c3e 3250 1abe 77f2 1d3e b65f e03d
00000050: e69e e03d a175 173c 15da 50bd 8bca 05be
00000060: 8448 323a 68c5 a7bd fc90 0bbe 72c4 db3d
00000070: d220 33bc 3336 1ebc 9e28 22be 079b 0fbe
0.1285345 -0.13806598 -0.11629114 -0.065568134 0.14303505 -0.16871503 -0.15013832 0.07920532
-0.1753535 0.16466022 -0.12983052 0.08243655 -0.1628281 0.20556946 -0.053378727 0.15013072
0.30497918 -0.15069655 0.15424524 0.109557554 0.109678075 0.0092443535 -0.05098923 -0.13065545
0.0006800967 -0.08191949 -0.13629526 0.10730828 -0.010933118 -0.009656477 -0.15835807 -0.14023982
