adult/Models/transformer_v4/0.8534_1/params.pt (torch_old, 15305 bytes, 55 tensors)

transformer_encoder.layers.0.self_attn.in_proj_weight f4 [24, 8]
00000000: 96b7 b0be 0dff 15be 6975 26be 1be6 e93e
00000010: 226d b53e 260a 8bbe 2d18 95be 8b91 e03e
00000020: 491a d53d 4569 533e 878b 2d3f 4035 f43d
00000030: b67e 31be 2f52 fe3e 03ee 57be 735d bb3e
00000040: 2e78 d93d 9d54 b63e 0611 5e3f 5678 ab3e
00000050: 0e02 b7be bc73 5c3e 4936 07bf 0983 613d
00000060: eca9 823e 49cb 543e 786e fabb dc2f fd3e
00000070: f4c5 aa3d d2b3 b23e 2e07 303d 0616 02be
00000080: 7d08 e03d fa31 9dbe 9df9 05be ed18 fcbd
00000090: aded d43d dcb0 d8bd 3bc2 2bbe 6ebd 4fbe
000000a0: 2f7d 05bf 569b b3be 5e0f debe 0b7b d9bc
000000b0: 111e 1b3d 2312 c8be 88bf aa3e 3ca4 69be
000000c0: 0248 7fbd 2ead 15bc 8928 4ebe aace 33bf
000000d0: 9f62 f1bb ddce d6bc e9e9 663e 3aef cdbd
000000e0: c80f 263f 306b cb3e d187 813e b20e 0c3e
000000f0: 32b2 e4be 6c36 da3e 36fb ca3e 63d3 263e
00000100: 904e 61be 80e5 a7be 7129 a4be dcd8 9dbe
00000110: 51f0 393f 33c7 64be 8fa4 ac3d 487d 06bf
00000120: d85f 98be 614d 7ebe a3ab 983e 0aa6 16be
00000130: 61e7 dd3e 3256 cc3e e071 d1be 2de6 a03e
00000140: 4f26 123d db11 2abf 18af bcbc d56d 5bbc
00000150: 2092 c03d 5690 82be 03b3 4b3e 9257 063f
00000160: f824 bcbe 0e72 d1be e88b d33d 896f 54be
00000170: 9f70 c4be 2eff 743e 1f12 af3d 6b9b 513e
00000180: 2eec 0f3e 6ccc e33b 1131 3bbe b3ab 71bd
00000190: 7a33 08bf f5f8 adbe 2453 1f3d 0fb2 3a3e
000001a0: 190b 41be 9819 d83e 504b dc3e b2ac b63d
000001b0: e775 793e 2ea8 c8bd e08a ff3e 4cc5 70bd
000001c0: cd29 b43e 03bd fb3e 8acd d8bc 1657 323e
000001d0: 5e62 c73e 1cdf a5be bcba cbbe ffca 08be
000001e0: b618 d23e 6550 e93c 2764 80be 21f1 26be
000001f0: b9e2 35bf 1f72 193f 2b0f 3bbf e6d1 d83e
00000200: 2845 663e 3b35 4bbd 439e b93e 8c26 443e
00000210: 98de febd df56 253d 625b 633e da7e 41bd
00000220: ad3c aebe 46b0 cb3d c59e a5bd ce70 03be
00000230: 9bf6 803e 349a 8d3e 61f0 153e 122f ba3e
00000240: 5ab1 d33d 7604 b4bd 36a3 78bd 423d 283e
00000250: 656c c7be b5fe a6be 5473 99bc 079c ae3e
00000260: e06f 14be b2d7 853e b701 ccbd 22fb 813e
00000270: 417f 45be 1c3f 283e 524b 503e d8fc 573e
00000280: 85c5 3a3c 5b9d 7d3e bce6 6cbe 4c2d 89be
00000290: 7090 323e 3468 753e 8097 6e3e 6014 7bbe
000002a0: 49b8 833e e606 5cbd 5988 523e aa8f b73e
000002b0: c9f1 99be d203 50bd 1774 973e a441 193e
000002c0: 5d6c 0abc 1587 bcbd d1fa 503e c0cd d53c
000002d0: 62df 2cbe c5f6 4dbe 1a99 23be 9ed3 c9be
000002e0: eafa 7c3d a444 9f3e 8eea f23d f69c 1abe
000002f0: c6db a0be 9b5e 58bd bb96 9d3c a1b9 c2be
-0.34515065 -0.14648075 -0.16255726 0.4568337 0.35434824 -0.2715618 -0.29120007 0.4386104
0.10405404 0.20645626 0.67791027 0.11924219 -0.17333493 0.49672076 -0.21086888 0.36594734
0.106186256 0.3561143 0.86744726 0.33490247 -0.35743755 0.21528524 -0.5281721 0.055056605
0.25520265 0.20780672 -0.0076425634 0.49450576 0.08338538 0.34902817 0.042975597 -0.12703714
0.10939119 -0.30702192 -0.13083501 -0.12309442 0.103968956 -0.10580608 -0.16773312 -0.20287105
-0.5214414 -0.3507945 -0.433711 -0.02654793 0.03787047 -0.39076337 0.33349252 -0.22816557
-0.06232453 -0.009135528 -0.2013265 -0.7023722 -0.007366493 -0.026221687 0.22550167 -0.100553945
0.6486783 0.39730215 0.25298932 0.13677481 -0.44667202 0.42619646 0.39644784 0.16291575
-0.22002625 -0.32792282 -0.32062867 -0.30829513 0.7263232 -0.22341613 0.084298246 -0.52534914
-0.29760623 -0.24834205 0.29818448 -0.14711776 0.4334059 0.39909512 -0.40907192 0.3142561
0.035681065 -0.66433495 -0.02303271 -0.013392885 0.09402871 -0.25500745 0.19892506 0.5247737
-0.36746955 -0.4090733 0.103294194 -0.20745672 -0.38367173 0.23925468 0.08548378 0.20469444
0.14054939 0.006951859 -0.18280436 -0.059001636 -0.53203547 -0.33979002 0.03889765 0.18231986
-0.1885189 0.42207026 0.4302621 0.08919658 0.24361382 -0.09797703 0.4991064 -0.058781907
0.3518814 0.49167642 -0.026465196 0.17416033 0.38942236 -0.3239678 -0.39790905 -0.13358687
0.41034478 0.028480718 -0.2507641 -0.16302921 -0.71049076 0.5993976 -0.7307002 0.4234764
0.22487319 -0.04961131 0.36253557 0.1915533 -0.124448 0.04036605 0.22202829 -0.047240116
-0.34030667 0.09945731 -0.080869235 -0.12836 0.25188145 0.2765671 0.14642479 0.36364037
0.103365615 -0.08789913 -0.060702525 0.16429618 -0.38949886 -0.326162 -0.01873175 0.34103414
-0.14495802 0.26141125 -0.099612646 0.25386912 -0.19286825 0.16430324 0.20341232 0.21092546
0.011399631 0.24767058 -0.23134893 -0.2679237 0.17437911 0.23965532 0.2329998 -0.24519491
0.25726536 -0.053717516 0.20559825 0.35851794 -0.3006728 -0.050784893 0.29580757 0.14966446
-0.008448687 -0.09205452 0.20408179 0.026099086 -0.16882089 -0.20113666 -0.15976372 -0.39419264
0.061762728 0.31107056 0.11861144 -0.15098938 -0.31417674 -0.052824598 0.019236913 -0.3803225

transformer_encoder.layers.0.self_attn.in_proj_bias f4 [24]
00000000: b373 44be ec74 f23d 9152 a43b f8b8 1bbd
00000010: e3e4 50bb 7230 b4bd 365e d9bd af4b 5d3e
00000020: 023c 833c 71b6 583b f990 e73b 44dc b6bb
00000030: fc0e 29bb 1616 753b c393 5fbb ca65 bbbb
00000040: 911d 7a3d 40f9 4bbc 51d1 493d 2979 86bc
00000050: 9378 4bbd 9640 513c 3503 0a3d d116 593d
-0.19184761 0.11838707 0.0050147255 -0.038018197 -0.0031874708 -0.08798303 -0.106136724 0.21610902
0.016019825 0.0033067728 0.0070668426 -0.005580457 -0.0025796285 0.0037397197 -0.0034115172 -0.0057189213
0.061063353 -0.012449563 0.049271885 -0.016415196 -0.049675535 0.012771746 0.033694465 0.053000275

transformer_encoder.layers.0.self_attn.out_proj.weight f4 [8, 8]
00000000: 37eb bc3d 249a 3fbd d3bb 51be 6bcc e53e
00000010: 7dce 953e be50 873d 9619 08be 25e1 943e
00000020: 4987 b03e 6483 273c 42e4 8b3e 0f26 83be
00000030: 2c4d 833d 7331 3a3e 1d26 a5be 7961 993d
00000040: 6619 ce3d c258 54bd c4a3 03be bad2 24bd
00000050: eb20 5a3d adb9 55bd a37c 6ebe 76c1 7dbd
00000060: 42de 65be ad1d 743e 4145 a9bd b0f5 203d
00000070: 2822 b73d 4535 613a 78ae 09be 1ff0 a0be
00000080: dd8f 80bc c86a 9abd a53a f2bd dba6 b83c
00000090: 81cc eb3d fdd7 f73c de57 b73c 2545 dcbd
000000a0: 6499 8dbd 1241 df3d ed38 50be 4965 803e
000000b0: c115 a83d 6597 1e3e 7c2b bd3e ebe2 92be
000000c0: d39f 72bc e225 053d 1b79 29be aad5 fb3c
000000d0: 16b1 b13d 7efe a53d 5867 b73e 6ec8 a1bd
000000e0: ec89 d8bd 229e dc3d fbc0 65be 1076 c8bc
000000f0: 578b ee3e 046d 9dbe 33eb c4bd 37e9 943e
0.09224551 -0.04677786 -0.20481806 0.4488252 0.292591 0.06607197 -0.1329101 0.29078022
0.34478214 0.010224197 0.27322584 -0.25614974 0.06411204 0.18182926 -0.3225564 0.074892946
0.10063438 -0.05184246 -0.1285544 -0.040240027 0.05325405 -0.052179027 -0.23289733 -0.061952077
-0.22448066 0.23839445 -0.08265162 0.039296806 0.08942062 0.00085910066 -0.13445461 -0.31433198
-0.0156936 -0.07539898 -0.11827592 0.0225405 0.115136154 0.030254358 0.022380766 -0.10755376
-0.069140226 0.10901083 -0.20334215 0.25077274 0.08207274 0.1548744 0.36947238 -0.2868875
-0.014808613 0.03250683 -0.16550104 0.030741531 0.086763546 0.08105181 0.35821033 -0.07899557
-0.105731815 0.10772349 -0.22436897 -0.02447036 0.46590683 -0.30747235 -0.09615173 0.2908418

transformer_encoder.layers.0.self_attn.out_proj.bias f4 [8]
00000000: 2e81 50be 4ac8 a83c 49ed debc d435 8bbb
00000010: 030f b33a b1d2 113d 42bd a63c 6fcf 3e3c
-0.20361778 0.020603318 -0.027212756 -0.00424836 0.001366109 0.03560132 0.020353917 0.011646136

transformer_encoder.layers.0.linear1.weight f4 [32, 8]
00000000: 8051 47be 764b ec3e ed46 c1be 9461 64bd
00000010: 7fb1 2e3d eeec 8c3e ae24 243e cc47 d93e
00000020: 7e30 54bd 5023 333e fbe3 aabd f81d ab3d
00000030: e215 69be e4ab fd3e c356 d6be d7d2 8b3e
00000040: 2b54 08bd d843 57be b624 4bbe bfd5 e13e
00000050: 52f1 90bd b1d3 ba3c e6d9 ea3e 6dbd 543e
00000060: e8f7 013d 963a 13be 0914 00be 07f9 9c3d
00000070: 5086 aa3e c3fb 1bbe 0cba 043e 0a56 c33e
00000080: 52db 133e b0bf 92be b65d 87be 36ef 08be
00000090: 96e6 043e 8445 27be 485d 983e f82c 093e
000000a0: b5be 123e dba6 32be b5d3 493e a3c8 9a3e
000000b0: 2a58 f6be f6e4 bfbd d8f6 d03c f4ba 6dbe
000000c0: 2f94 313e 1908 ecbe f7e7 2a3f 69e3 10bd
000000d0: 57ec cfbc e89d c23e 087d cd3d 4940 0c3d
000000e0: 25c9 b13e cded b3be 17ba 46bd 29a2 b9bb
000000f0: 8a6d 40be 7f6b 863d 8d40 6abe 1b0d 8a3e
00000100: 304c 32be 5df4 853e 0224 6bbe 8ba5 de3d
00000110: cb1a d03e 50f9 5cbe dee6 aabd f053 633d
00000120: 843c a73d b524 cabd 11a5 063f 75b3 363d
00000130: ba7b fcbe bf05 9a3e 0c98 8abe 9f81 cfbd
00000140: 3fed 4d3e 91a0 3c3e 41d6 293f 0d74 9e3c
00000150: 7a7b 81be b2c3 fabc 5046 aabe a65f 17be
00000160: 99c8 223e 3f82 abbe 93d8 e73d dff7 7c3e
00000170: 4801 02bf 4ed1 cbbc 7048 5d3f 35af cfbc
00000180: 776b 13bd fcb5 41be db2c 613d df03 a9be
00000190: e0cf 25be ae51 94be bb45 e4be aac0 f43d
000001a0: 6193 883e 0640 7f3d 0c0e ad3e 500f 023f
000001b0: 0953 723c 1978 8abe 6404 db3d 8b47 80be
000001c0: 19d7 8d3c d4a7 a0be 4e2a 16be b0b9 49be
000001d0: 2f59 dabe 832f 1dbe 5558 b23e c247 a5bd
000001e0: 1106 db3d e83d d23e 47fa f33e 694e 223e
000001f0: 0cfb 11bf 869a 7bbe cb66 313e 10f6 02bf
00000200: c0ca 863e e627 0d3e d35e 103e 89f5 c2bd
00000210: 86b3 c03d e40e e13e 95d0 81be d95a ebbc
00000220: d0e0 b7bd ab04 8dbe 91cc 053e 1e07 afbd
00000230: b3f0 d43e 38fe bdbe df21 413d e080 28be
00000240: 6156 00be be9a 1c3e 4ccc 86bc 4728 0b3d
00000250: 0bfe 5e3e f3ac b8be 1ddb e83e 8c3a 193d
00000260: 1f8d 98bd 5b0f 2f3e a3c2 153e 89b4 823e
00000270: 6150 08bf 36f1 13bf d586 913d 0396 b03e
00000280: c10f 2ebe dbd8 003d 9017 143d 45b2 193e
00000290: fb3f 303e bb9e b4be 24de 093e 0a16 7abe
000002a0: 7d8c c0be 4949 a0bd 266b a0be 7651 a43e
000002b0: 3a85 d23d 20fc bf3d 8553 113f 24ed 953e
000002c0: c8a1 763d 08fb 4fbe ae05 6e3e ebae b53e
000002d0: aae4 49bf 2e4b 88be c897 183f 5fac 6bbe
000002e0: b4ab 443e 95ab 19be afc0 b63c bc2e d0bd
000002f0: a94d 9ebe 0ad7 bc3d 73ca 8bbc fafe be3e
00000300: 2cf9 05bd f055 cfbc 9073 90be bb09 8bbe
00000310: d352 ba3d 1cce 87bd e1e6 523e f9d2 453e
00000320: 04fa 393e afa3 93bd 9af4 60be 2dd2 9fbe
00000330: fae0 9d3c fc4e ac3d 05e0 49be b9d0 a7be
00000340: 6576 813e 0bc7 34be 81c1 cd3e a8cd a33d
00000350: 7cb7 02bf 286a aebe 7159 2a3e 31ce c4be
00000360: 07db 473e 4364 213c 78cb 6f3e 5907 263f
00000370: 3147 433e 5af4 67be 8a5e 9e3e dd4d 57be
00000380: 499c 503e 9d35 70bc 82b8 55be a518 07be
00000390: ae09 3ebb 075a acbe f6f6 d83d d201 9dbd
000003a0: 00a4 89be f3f3 3c3e 03e3 c73e 8808 743e
000003b0: 168a aebe f019 763e 970a 603f 7879 b8be
000003c0: e44e e63d 7e07 393e 4c01 513e 04b1 1ebe
000003d0: 4f92 84bd 2b40 0abe 0acf 02bf 5cfe b53e
000003e0: b48a febd ae73 8dbe aa0e 1d3e c31d 29be
000003f0: 1de3 483e 45cc b5be 92b6 fa3e 3388 83be
-0.19464684 0.46151322 -0.37749425 -0.05575712 0.042649742 0.27524513 0.16029617 0.4243759
-0.05180406 0.1749394 -0.08344265 0.083553255 -0.22762254 0.49545205 -0.4186307 0.27309296
-0.033283394 -0.21021974 -0.19838223 0.44108388 -0.07077278 0.02280602 0.45869368 0.20775385
0.031730562 -0.14377818 -0.12507643 0.07664686 0.33305597 -0.15232758 0.12961596 0.3815158
0.14439133 -0.2866187 -0.26438683 -0.13372502 0.12978587 -0.16335112 0.29758668 0.1339606
0.14330561 -0.17446463 0.19709666 0.302312 -0.4811414 -0.09369843 0.02550833 -0.23215848
0.17341684 -0.46099928 0.667602 -0.035373125 -0.02538125 0.38011098 0.100336134 0.034240995
0.34723774 -0.35142365 -0.048517313 -0.005665083 -0.18791786 0.06563472 -0.22876187 0.26963124
-0.17411876 0.26162997 -0.22962955 0.108714186 0.4064544 -0.2157948 -0.08344816 0.05549997
0.08165839 -0.098702826 0.5259562 0.044604737 -0.49313146 0.3008251 -0.27069128 -0.10132145
0.20110033 0.18420626 0.6634255 0.019342447 -0.25289518 -0.030610893 -0.3325677 -0.1478258
0.15896834 -0.33497807 0.11320605 0.2470393 -0.50783205 -0.024880078 0.86438656 -0.0253521
-0.03599116 -0.18917078 0.054974418 -0.33010766 -0.1619258 -0.28968567 -0.4458445 0.1195081
0.2667494 0.062316917 0.3379978 0.50804615 0.014790305 -0.27044752 0.10694197 -0.25054583
0.01731448 -0.31378043 -0.14664575 -0.1969974 -0.42646167 -0.15350156 0.34833017 -0.08070327
0.106945165 0.41062856 0.47651884 0.15850224 -0.5702369 -0.24570665 0.17324369 -0.5115671
0.2632656 0.13784751 0.14098673 -0.09519488 0.094092414 0.43956673 -0.25354448 -0.028729843
-0.089784265 -0.27542624 0.13066317 -0.08546279 0.4158989 -0.37108016 0.047151443 -0.16455412
-0.12532951 0.15293404 -0.016454838 0.03397396 0.21776597 -0.3606945 0.4547967 0.03740935
-0.07448792 0.17095701 0.1462503 0.25528362 -0.5324765 -0.57789934 0.07105795 0.3448945
-0.16998197 0.03145681 0.036155283 0.1500941 0.17211907 -0.35277352 0.13463646 -0.2442247
-0.37607184 -0.07826478 -0.31331748 0.320934 0.10279317 0.09374261 0.56768066 0.29282486
0.06021288 -0.20310605 0.23244354 0.35485014 -0.7886454 -0.26619858 0.596066 -0.23014973
0.19206125 -0.1500686 0.022308676 -0.10165164 -0.30918625 0.09220703 -0.017064309 0.37303907
-0.032708332 -0.025309533 -0.28213167 -0.2715586 0.09097829 -0.06631109 0.20595886 0.19318761
0.1816178 -0.072089545 -0.21968308 -0.3121504 0.019272316 0.084135026 -0.19714363 -0.3277643
0.2528564 -0.17654054 0.40186694 0.0799821 -0.51061225 -0.34065366 0.16635682 -0.38438562
0.19517146 0.009850564 0.23417461 0.6485496 0.19070126 -0.22651806 0.30931503 -0.21025796
0.20372118 -0.01466122 -0.20871165 -0.13192995 -0.0028997469 -0.33662435 0.10593979 -0.07666363
-0.26882935 0.18452434 0.39040384 0.2383138 -0.34089726 0.24033332 0.8751616 -0.36030173
0.11245516 0.18069264 0.20410651 -0.15497214 -0.06473219 -0.1350104 -0.51097167 0.35545623
-0.12428799 -0.2762732 0.15337625 -0.1651526 0.19617887 -0.35507408 0.48967415 -0.2568985

transformer_encoder.layers.0.linear1.bias f4 [32]
00000000: bdf4 98be 3bd1 8cbe 5ab7 f1be 46bd 283d
00000010: 877e b4be abaa 023d 4759 96be f937 e5be
00000020: d6e2 e1be 2b85 edbe a48e 223d 7181 5739
00000030: c79a aabe af1d 3dbc 29bf babe af03 b63d
00000040: b191 07bf 4681 dabe 9ce8 0cbc 435d 83be
00000050: f484 b5be e226 c73b d1ca 89bd 74cb 40be
00000060: 812c 9c3c 5c66 89be 7a25 a13c 1045 8ebd
00000070: a6d7 c8be 7b67 6cbe 2c48 92be 3601 afbd
-0.2987422 -0.2750338 -0.472102 0.04119613 -0.35252783 0.031901043 -0.29364988 -0.44769266
-0.44118375 -0.46390662 0.039686814 0.00020552218 -0.3332121 -0.011542722 -0.3647397 0.08887421
-0.5295668 -0.42676753 -0.00860038 -0.2565709 -0.35452998 0.0060776332 -0.06728137 -0.18827611
0.01906419 -0.26835907 0.01967119 -0.069467664 -0.39227027 -0.2308635 -0.28570688 -0.08545153

transformer_encoder.layers.0.linear2.weight f4 [8, 32]
00000000: 2873 d43e 32d3 99bd 4565 153d 9a7d 073e
00000010: 66e4 62bd ce3e 85be 766d b03e e846 47be
00000020: ad67 da3b 821b fdbe e3ee 70be febd 7dbd
00000030: 4a69 c13e fbc7 73bb c4f7 bd3d e62e 39bf
00000040: 0def 1ebe db12 093d e25c 183d 428f 60bd
00000050: 2ef1 54be 09f6 1ebc cfb9 b0be 1fa7 4a3e
00000060: cff4 d43d d01e 413e 7c50 77be 59ac c5bc
00000070: 8c73 cdbd a134 4bbe fa6a 9e3e 117a 43be
00000080: 5c11 86bd 16d0 d43d 96f4 39be 0474 97b9
00000090: b496 8cbc f991 b3bc 2f97 703d d0c0 bfbd
000000a0: d798 2e3d 501b 17bf 9548 a2be c2f6 b23d
000000b0: 9dd5 efbd 212a 3cbd 7dce 873e 794e cb3e
000000c0: ed91 153f 1c09 773d 87e7 7f3c 75f5 bc3d
000000d0: b4b7 bdbc eb14 e5bd 5181 0bbe 4026 28be
000000e0: fb75 3c3c deb1 11be 5a3e 763e 0d00 b33d
000000f0: a48e 91bd f73b 5bbe d9db 1abe 17b5 b13d
00000100: 2eff 93bc 2db7 15be dfa3 10be a569 8fbd
00000110: 97c7 063d b50b 563e e15c f83d cd42 6ebe
00000120: 5641 95be 2b85 903e 718f d6bd f5a9 36bb
00000130: 5b09 41be f797 033e a218 02bd 6415 fc3e
00000140: afee 48bc cca3 02bd 76eb b5bd 6aef c73e
00000150: 32f9 e13d 7fa0 9ebc 3e47 153e 97b4 803d
00000160: 8b23 02bd 9432 583c f952 ee3e 14dd 723e
00000170: ea68 543c 26cc 39be d939 b1be 89c2 b2bd
00000180: 3758 47bf 771d 6a3e f681 1a3e 40c1 9cbd
00000190: b380 a03e cad3 94be be58 583e 3fcd 773e
000001a0: 1f74 fcbd 72d7 b83e 1c76 2b3e d48b 08be
000001b0: be1d 093b 5409 01be 381e 47be 8bcd 743e
000001c0: 4b90 833e 8854 b4be 25cd fd3d d9b9 84be
000001d0: fb3a 8b3e aabc 8cbe 604c a9bd 59c1 21bd
000001e0: 39a3 39be a549 983e 3be0 8ebe e69e 9ebd
000001f0: 87c9 d43c 9a09 d5bd 6f51 073e 0fa7 ad3d
00000200: 32de efbc d8e0 1abd 6487 503e d566 a63d
00000210: 04d6 57ba 97dc 00bd 4d96 3fbb 31f8 4d3d
00000220: 1554 8d3e 998b b83d 0ab9 6ebd 71c2 f2bd
00000230: 0adc 163e 118a 91bc 5e50 f83d e642 dabe
00000240: 25b1 5dbd 1201 073f fb01 af3c 6889 893c
00000250: c017 48bd f4e4 1a3e fdc4 6ebe 6e79 e03d
00000260: 1e66 483d 134e 8c3c 83f3 7abe 53da 22bc
00000270: 548b 23bd 9429 15bf 2027 f8bc b41c ac3d
00000280: 7c44 b6bd 3e48 4abe c80d 0c3e 0842 5bbc
00000290: e855 973e 015d 9a3e 54de 1dbf f5cb 1bbd
000002a0: 9aca 22bd 8fde 163e 23d4 4fbe 7883 85bd
000002b0: 6195 1c3e 28d5 6c3d 7424 75be 3559 b6be
000002c0: a4d9 b13e e52d 62be b508 84bd b25e a03e
000002d0: b867 d9be 031f 053e 125a 4ebe 91c5 2abe
000002e0: 8128 84bd 3c3a 603b 8b22 37bf aba8 9cbe
000002f0: 1670 873e fd5b 12be 7932 b33d 2a8f 0bbe
00000300: 11ee b13e 4a54 a13e 8811 3a3f 0afa 8fbd
00000310: 74f2 20be 1ab6 993e 0282 81bd d50a 543c
00000320: f4e7 8a3e 276a 13be 83e7 c63b 0a9d 3e3f
00000330: 172d bb3d 90d1 01be 7c2f e73e 5157 3b3e
00000340: 1e4d 853d ba0f 183d 0914 a73d d032 2fbe
00000350: bed8 74be 8699 dcbd 788f 1b3f b017 0bbe
00000360: 6211 f1bd dbd1 e23d 1c13 94bd 95ef 74be
00000370: c047 99bd 162c 013f 92b5 403e 0d2f 7f3e
00000380: da1e e63d ee28 81be 082f 50be 2948 b43d
00000390: d2b7 97be 1368 27be 45eb f0be c1c1 ab3e
000003a0: 56b5 9bbd 5e9c aabe f399 9cbe c629 7dbe
000003b0: 126b ce3e 0367 363f 7df6 a3be 0bed 2a3e
000003c0: df80 dcbe d02a 81be 1e1e 0dbe 0a9e 1fbf
000003d0: dd9d 333e 1dd2 273e 6fe3 a7be f335 843e
000003e0: e90f 3c3d 1c6e 0cbe 48d7 a93e 5ff4 ec3e
000003f0: a4f1 e0be 2d81 023f d323 253e f7ca f03d
0.41494107 -0.075109854 0.03647353 0.13231507 -0.0553936 -0.2602448 0.34458512 -0.19460642
0.006665191 -0.4943505 -0.23528628 -0.06194877 0.37775642 -0.0037198055 0.09275773 -0.72337186
-0.15520878 0.033465248 0.037197955 -0.05482412 -0.20795128 -0.009702214 -0.3451676 0.19790314
0.10398256 0.1885941 -0.24151796 -0.024130033 -0.100318044 -0.19844295 0.30940992 -0.19089533
-0.0654628 0.10391252 -0.18159708 -0.00028887403 -0.017161705 -0.021920191 0.05873793 -0.09362948
0.04262623 -0.5902605 -0.31696 0.087384716 -0.117106654 -0.045938615 0.26524726 0.39708307
0.5842579 0.06031142 0.015619165 0.09226505 -0.023158886 -0.111856304 -0.13623549 -0.16420841
0.011502738 -0.14228007 0.24047223 0.08740244 -0.07107285 -0.21409594 -0.15122928 0.08677118
-0.018066015 -0.14620657 -0.14125012 -0.07002572 0.032905187 0.20902903 0.1212709 -0.2326767
-0.2915141 0.282266 -0.10476578 -0.0027872298 -0.18851225 0.12850939 -0.031761773 0.4923507
-0.012263938 -0.03189449 -0.08882801 0.39049846 0.11033858 -0.01936364 0.14577958 0.06284445
-0.031772178 0.0131956525 0.46547678 0.23717147 0.012964467 -0.18144283 -0.34614447 -0.08728511
-0.7786898 0.22862802 0.15088639 -0.07654047 0.3134819 -0.29067832 0.21127602 0.24199389
-0.12326836 0.36101872 0.16744274 -0.1333459 0.0020922269 -0.12601215 -0.19445121 0.23906533
0.25696024 -0.35220742 0.12392644 -0.2592304 0.27193436 -0.2748769 -0.082665205 -0.03949103
-0.18128671 0.29743686 -0.2790545 -0.07745151 0.025975002 -0.10402222 0.13214658 0.084791295
-0.029280756 -0.037812084 0.20364147 0.081250824 -0.000823349 -0.03146037 -0.0029233873 0.050285522
0.27603212 0.09011001 -0.058281936 -0.11853493 0.14732376 -0.01776603 0.12124704 -0.42629164
-0.054124016 0.5273601 0.021363249 0.016789153 -0.048850775 0.15126401 -0.23317333 0.10960661
0.04892551 0.017127072 -0.24506955 -0.009939748 -0.039927796 -0.5826657 -0.030292094 0.08403912
-0.08899781 -0.1975412 0.13677132 -0.013382442 0.2955773 0.3014908 -0.6166737 -0.038036305
-0.039743997 0.14733337 -0.20295767 -0.06519216 0.15291359 0.05782047 -0.23939687 -0.35614935
0.3473636 -0.2208782 -0.06446973 0.31322247 -0.42461944 0.13000111 -0.20151547 -0.16676928
-0.06453038 0.0034214398 -0.71537083 -0.30597433 0.26452702 -0.14292903 0.08749861 -0.13628832
0.34751943 0.3150962 0.72683 -0.07030113 -0.15717489 0.30021745 -0.06323625 0.012942036
0.2713009 -0.14395963 0.006070079 0.7445837 0.091394596 -0.12677598 0.45153415 0.18295027
0.065088496 0.037124373 0.08158118 -0.17109227 -0.23910806 -0.1077147 0.6076579 -0.13583255
-0.11770894 0.11075183 -0.07230207 -0.23919518 -0.07484388 0.50457895 0.18819264 0.24920292
0.11236353 -0.2522654 -0.20330441 0.08802826 -0.2963243 -0.16348295 -0.47054496 0.3354626
-0.076029465 -0.33322424 -0.30586204 -0.24722967 0.40316063 0.71250933 -0.32023993 0.16691987
-0.4306707 -0.25227976 -0.1378102 -0.62350523 0.17540689 0.16388746 -0.32790706 0.2582241
0.04591361 -0.13713878 0.3317206 0.4628019 -0.43934357 0.50978357 0.16126947 0.117574625

transformer_encoder.layers.0.linear2.bias f4 [8]
00000000: a423 843d a097 083e 2cc8 40bd aebf 433d
00000010: bf29 85bc 1cc3 873d 6b5d b6bd 7e59 073d
0.064521104 0.1333909 -0.0470659 0.047790222 -0.016255258 0.06629011 -0.08904537 0.03304433

transformer_encoder.layers.0.norm1.weight f4 [8]
00000000: 0d38 eb3e 5a59 aa3e b89e a93f bdd3 5b3f
00000010: e630 b73f b2e9 843f 980c c23f 67b5 063f
0.459412 0.33271295 1.3251562 0.8586996 1.4311798 1.0383818 1.5160093 0.5262055

transformer_encoder.layers.0.norm1.bias f4 [8]
00000000: d353 093e 5b39 5bbd ed84 a8be 843b cdbd
00000010: c045 b13e 015d 63be 166a 04be 8f75 d53e
0.13410883 -0.053521495 -0.32913914 -0.10021117 0.34623528 -0.22203447 -0.12931094 0.41691253

transformer_encoder.layers.0.norm2.weight f4 [8]
00000000: b664 123f f2b7 833f c0de 8b3f 83cf 893f
00000010: e373 9a3f 2b01 8f3f 54e2 873f a088 3d3f
0.5718492 1.0290511 1.0927353 1.0766453 1.2066616 1.1172231 1.0615945 0.740366

transformer_encoder.layers.0.norm2.bias f4 [8]
00000000: c60d bcbe c774 bb3d fe3d 773e 8125 f83d
00000010: f76f 73be 77a0 193e 55ad 0c3b 23d6 9cbd
-0.36729258 0.09153133 0.24144742 0.12116528 -0.2377318 0.15002619 0.0021465619 -0.07658031

embedding.0.bias f4 [8]
00000000: 5e28 9d3f 0eb4 eebe b514 0cbf 0d2f 103f
00000010: 6591 e6be e67e e0be 7d06 eebd 4505 4fbe
1.2277944 -0.46621746 -0.54719096 0.56321794 -0.45032802 -0.43846816 -0.11622331 -0.20216854

embedding.0.weight_g f4 [8, 1]
00000000: 999d 873e c18b b93e 4ca2 023f af72 2b3f
00000010: 7bb1 5f3e c6a1 66be 1c7f 7a3f 60b2 3f3f
0.26487425 0.36239436 0.51028895 0.6697187 0.21845047 -0.22522649 0.97850204 0.74881554

embedding.0.weight_v f4 [8, 1]
00000000: c268 58bd fd60 24bf 96a8 2e3f 5eac 21be
00000010: c71d 9e3c fa05 173c fc8a 723f c60f 263f
-0.05283428 -0.6421049 0.6822599 -0.15788409 0.019301308 0.0092177335 0.94743323 0.6486782

embedding.1.bias f4 [8]
00000000: 78ad a8bd 00e7 febe a699 33bf 81b4 21bf
00000010: 3a80 a73f 8fc9 a1bf 017c 363f 3070 94bf
-0.082362115 -0.49785614 -0.70156324 -0.6316605 1.3086007 -1.2639636 0.71282965 -1.1596737

embedding.1.weight_g f4 [8, 1]
00000000: 0ead ab3e 668d 483f c7ed 3a3c 014f 623f
00000010: f726 293e fd62 d73e f68c 633f 58dc 883f
0.33530468 0.78340757 0.01140923 0.884018 0.1651877 0.4206771 0.88886964 1.0692244

embedding.1.weight_v f4 [8, 1]
00000000: 8a58 31be ecd4 2b3f 37c3 0fbe eb3f 633f
00000010: 31a8 84be f107 22be df77 573f 1b2a 44bf
-0.17318931 0.6712177 -0.14039312 0.88769406 -0.2590957 -0.15823342 0.84167284 -0.7662675

embedding.2.bias f4 [8]
00000000: a02a e23e 0822 8c3e 1ff1 ce3d 4d1a f63e
00000010: 5c2e 323d a534 0c3e 669f c93e 4bfb 5bbf
0.44173145 0.27369714 0.10104584 0.4806694 0.043501243 0.13691957 0.39379424 -0.8593032

embedding.2.weight_g f4 [8, 1]
00000000: 1457 cf3e 9c24 0d3f 8e7b 7a3f b0fd 4f3f
00000010: 0693 a63e 0c2e 163f 4304 943f 9377 053f
0.40496123 0.55133986 0.9784478 0.8124647 0.32534045 0.5866401 1.15638 0.5213558

embedding.2.weight_v f4 [8, 1]
00000000: a054 573f 5426 60bf 08ec 70bf 51d1 583f
00000010: 3de6 d53e 739c 253f e007 75bf fb7a 033f
0.841135 -0.87558484 -0.94110155 0.8469439 0.4177722 0.6469185 -0.9571514 0.5135953

embedding.3.bias f4 [8]
00000000: ad47 033f 9885 a93f 6ef7 b23c 88ae ae3e
00000010: 4a54 08bf 06e1 e23e 2175 583f 012f 72be
0.51281244 1.3243895 0.0218465 0.34117532 -0.53253615 0.44312304 0.84553725 -0.23650743

embedding.3.weight_g f4 [8, 1]
00000000: eabf 43bd 9eb7 1c3f 8761 333f 7b69 9e3e
00000010: b7ba 673f 89b3 bc3f 9bd4 083f 27bc 94be
-0.047790445 0.6121768 0.7007069 0.3093985 0.9051928 1.474229 0.5344941 -0.290498

embedding.3.weight_v f4 [8, 1]
00000000: 2f49 2d3e f63f 8f3e 8b9e 253f f485 28bf
00000010: dd6e 1b3f 1e08 49bf 6b28 143f 5617 233e
0.16922449 0.27978486 0.6469504 -0.65829396 0.6071604 -0.7852801 0.5787417 0.1592687

embedding.4.bias f4 [8]
00000000: da14 833e 07b3 3bbc efc5 db3d f70c 8a3d
00000010: 42b9 6b3f f99e 163e a012 a1bd 2c4d eb3e
0.25601846 -0.011456258 0.10731112 0.06740754 0.92079556 0.14709081 -0.078648806 0.45957315

embedding.4.weight_g f4 [8, 1]
00000000: 714a 183f f03c 063f 4b58 0b3e 635c 5e3f
00000010: 86d3 4e3f 75b7 c73e 498b b63d 7e77 923e
0.5948859 0.52436733 0.136079 0.8685972 0.8079151 0.39007154 0.08913285 0.2860679

embedding.4.weight_v f4 [8, 1]
00000000: 8a04 263f 0354 083f 77a2 2ebe 614c 78bf
00000010: fe64 26bf f9f0 9e3e 4327 20bf 8b96 c4be
0.64850676 0.5325319 -0.17054163 -0.96991545 -0.6499785 0.31043223 -0.6255991 -0.38396105

embedding.5.bias f4 [8]
00000000: e95a a4be 21c9 893f a38a 0ebf b1ee 9bbf
00000010: e793 d7be 9711 113f 6193 223f bbf9 0ebf
-0.3210061 1.0764505 -0.5568029 -1.2182218 -0.42105028 0.56667465 0.6350613 -0.5584981

embedding.5.weight_g f4 [8, 1]
00000000: 3bf2 683e 61a2 8bbe 106b 533e 4d0c d73e
00000010: 9042 62be a6c4 d83e 44fe 78bc eb75 9a3b
0.22748654 -0.27272323 0.2064631 0.42001572 -0.22095704 0.4233753 -0.01519734 0.004713764

embedding.5.weight_v f4 [8, 1]
00000000: a031 74be 1b97 35be 7846 153e 1921 d23e
00000010: b58d 85bd ccfc e3be 0777 823e 64e7 443e
-0.23847055 -0.17733423 0.14577663 0.41040877 -0.06521169 -0.44528806 0.25481436 0.19228894

embedding.6.bias f4 [8]
00000000: a2e0 f53e 1e2b 55be a8b2 11bf 0692 d1bc
00000010: 0a5f 13bf a2cf 0c3f 7a01 073f a2bf b23d
0.48022944 -0.20817229 -0.5691323 -0.025582325 -0.57566893 0.5500432 0.5273663 0.08727957

embedding.6.weight_g f4 [8, 1]
00000000: f748 ef3e ac5b a63e a3cf 963e 384a 543f
00000010: 7401 1c3f 438e 623f cb00 853f e326 a23e
0.46735355 0.32491815 0.2945529 0.8292575 0.6093972 0.88498324 1.0390867 0.31670293

embedding.6.weight_v f4 [8, 1]
00000000: dbb1 92be 6ff6 debe 4403 1c3f 0a92 21bf
00000010: b57d e43e 67cd 47bf fc9c 49bf e86b 83be
-0.28651318 -0.4354739 0.6094248 -0.6311346 0.44627157 -0.78047794 -0.78755164 -0.25668263

embedding.7.bias f4 [8]
00000000: c2e5 8bbe 2a9d 86be 49a9 783f e83c 5e3f
00000010: aeed 343f b29b d93e 9fd1 443f 8d24 67bf
-0.2732373 -0.26291782 0.9713331 0.86811686 0.7067517 0.425016 0.76882356 -0.9029015

embedding.7.weight_g f4 [8, 1]
00000000: de12 843f 1232 2e3f c176 273f ca28 d63e
00000010: 7df8 42b9 f93b 5d3f 994f 9d3f c7a2 213f
1.0318258 0.6804515 0.6541558 0.41827995 -0.00018593851 0.86419636 1.2289916 0.63139004

embedding.7.weight_v f4 [8, 1]
00000000: 543f 83bf 0f44 693f 4580 2abf fc67 9abe
00000010: b703 183d c376 7dbf 0bfd 6a3f 880b 2fbf
-1.0253701 0.91119474 -0.66601974 -0.3015746 0.037112918 -0.9900934 0.9179236 -0.6837697

embedding.8.bias f4 [8]
00000000: 0042 1cbf d7cf adbe 0942 373f 1825 49bf
00000010: df24 2cbe 7023 593f f406 bf3d 5a92 e43e
-0.6103821 -0.33947632 0.71585137 -0.78572226 -0.1681094 0.848197 0.09327498 0.44642907

embedding.8.weight_g f4 [8, 1]
00000000: 6d4c df3e 0750 c53e 595f d33f 61cf 503f
00000010: bf0f 9bbe f8bb 1a3f 9797 683f 69fe 2e3e
0.43612996 0.3853762 1.6513473 0.81566435 -0.3028545 0.6044307 0.9085631 0.17089237

embedding.8.weight_v f4 [8, 1]
00000000: d328 d0be f9d6 333e 35fa 70bf 42a7 3dbe
00000010: fc1d f4bd 35d7 a7be 1900 3abd a2f7 c1be
-0.40656146 0.17562474 -0.94131786 -0.18520835 -0.119197816 -0.32781377 -0.04541025 -0.3788424

embedding.9.bias f4 [8]
00000000: af3c 90bf c00b 973e 8818 48bf d598 6c3e
00000010: 98c7 1abf 5b71 1abf 6b97 6c3e 7683 d63e
-1.1268519 0.29501152 -0.7816243 0.23105176 -0.60460806 -0.60329217 0.23104636 0.41897172

embedding.9.weight_g f4 [8, 1]
00000000: 0d74 6c3f 8033 e43e 7b51 b93f 043f 933f
00000010: 435a 423f c707 8e3f 2085 923f 2d3c 0740
0.9236458 0.4457054 1.4477991 1.1503606 0.7591898 1.1096123 1.1446877 2.1130478

embedding.9.weight_v f4 [8, 1]
00000000: 8861 ad3e 7417 4a3e 4b8e 4e3f 85e7 613f
00000010: 3f6b 40be 3920 15be 886b 7a3f 9992 7dbf
0.33863473 0.19735509 0.8068587 0.88243896 -0.18790911 -0.14563073 0.9782033 -0.99051815

embedding.10.bias f4 [8]
00000000: e081 c63d b5ee 033f abf7 053f 854b 183f
00000010: 14ae 843c ac69 523f 19d0 35be 2364 e3be
0.096927404 0.51536113 0.52331036 0.59490234 0.016196288 0.8219249 -0.17755164 -0.44412336

embedding.10.weight_g f4 [8, 1]
00000000: 58b5 043f 5e72 94bd c5c7 d63e 63e2 453f
00000010: da47 2b3f e038 d93e 14a3 99be 030c 3c3f
0.5183921 -0.07248376 0.41949287 0.77298564 0.6690651 0.42426205 -0.3000723 0.7345583

embedding.10.weight_v f4 [8, 1]
00000000: 019c d2be 54fc 2a3e 2d38 f5bd d1a3 a8be
00000010: d1b6 0e3f a4ac 82be baa8 0abe f520 57bf
-0.41134647 0.16697818 -0.11973605 -0.32937482 0.55747706 -0.2552234 -0.13540927 -0.84034663

embedding.11.bias f4 [8]
00000000: 601a 363f 5b3f adbe d66a c3bd e644 703e
00000010: 5ea1 5b3e 9447 203f 6d2a a4bc 15a2 29bf
0.71133995 -0.338374 -0.09541862 0.23463783 0.21448275 0.6260922 -0.020039761 -0.6626294

embedding.11.weight_g f4 [8, 1]
00000000: 141d 2640 1b14 9f3e f46e 2c40 b732 8b3f
00000010: 1da8 0d40 7cd4 3740 c995 4040 1af5 0340
2.5955248 0.31070027 2.694272 1.0874852 2.2133858 2.872344 3.0091422 2.0618348

embedding.11.weight_v f4 [8, 1]
00000000: 731f 0ebf 839f 7a3e 1c8c 3b3f af9a 4a3f
00000010: 8042 51be 3405 28bf 4f0b 693f 0000 80bf
-0.5551674 0.24474911 0.73260665 0.7914228 -0.20435524 -0.6563294 0.9103288 -1.0

embedding.12.bias f4 [8]
00000000: 9eef 81bf def6 1cbf 4a59 19bf 3430 08bf
00000010: 6fa8 cbbd 2302 763c 2c0f 123e eabc 8cbd
-1.015125 -0.6131419 -0.5990187 -0.5319855 -0.099442355 0.015015158 0.142636 -0.0687197

embedding.12.weight_g f4 [8, 1]
00000000: ad7e b43f 8caa c0bf c84c a93f dd00 ce3f
00000010: b652 e83e 0852 9f3f 9245 943f cf5e 1740
1.4101158 -1.5052047 1.3226557 1.6094013 0.45375603 1.2446909 1.1583731 2.3651617

embedding.12.weight_v f4 [8, 1]
00000000: e7fa 063f 4774 55be df6b 613f 0e98 243f
00000010: 1a0a ed3d 50ce 003f cb03 f0be 6ac6 69bf
0.52726597 -0.20845138 0.88055223 0.6429452 0.11574192 0.5031481 -0.46877894 -0.9131838

embedding.13.bias f4 [8]
00000000: 5ca2 7c3f b8a7 803f d4d8 b4be 6147 193e
00000010: 3c6e 4bbf be7d fabe f809 6cbe 6d4d adbe
0.9868524 1.0051184 -0.35321677 0.14968635 -0.7946508 -0.4892406 -0.23050678 -0.33848134

embedding.13.weight_g f4 [8, 1]
00000000: be45 293f f57d a13f 3564 963f b700 003e
00000010: 1b8a 5d3f 6992 8e3c 65c7 9d3c 061d 7c3f
0.66122043 1.2616564 1.1749331 0.12500273 0.8653886 0.017403798 0.019260118 0.98481786

embedding.13.weight_v f4 [8, 1]
00000000: b96d c9be 73c6 77bf 7474 6cbf 7cc7 2c3f
00000010: a082 d03e bd52 a33c fe0c 73be 2663 65bf
-0.39341524 -0.96787184 -0.92365193 0.6749189 0.4072466 0.019936914 -0.23735425 -0.89604414

decoder.weight f4 [1, 112]
00000000: 7b20 c03d c6ed 8a3d e594 c9bd d042 8e3c
00000010: 62cd a0bd 68ae 42bc 4915 8bbc 1d85 c93c
00000020: cc4b cd3c 85c3 07bc d512 183c e0f8 a3bc
00000030: f30f 52bc 85bc 04bd 5d64 0e3d b7c8 be3c
00000040: bcc3 f63c e4ca 98be 3cdf a5bd e2b7 5c3d
00000050: 1e39 793d 1ab3 2d3e 8649 79be 7c1c 943e
00000060: 9260 453e bf15 d43d 485c cbbd 7066 47be
00000070: db13 1c3e 1a96 40bd 4a33 683e 32a5 1bbe
00000080: c812 b8bb feae adbd 5dee f1bd b8ad bfbd
00000090: c8c4 193e 2f91 b9be fd65 4cbd 75e2 3c3e
000000a0: 56a6 5bbb 2475 8ebd f67e 263d b442 4ebb
000000b0: 4052 34bc 3542 96bd ce8d 02bd 80c1 bfbb
000000c0: b543 b93d ac68 593d a5d9 973b 233f 0abd
000000d0: a1b6 013d c309 08bd 8364 89bd f40f a53d
000000e0: e470 9ebd 5e14 f5bc d206 a73d d9df 41bc
000000f0: d04d a73c d766 43bd 1141 993d 3737 153d
00000100: e5e2 b13d f8fd a83e 9537 bbbe 57d3 3dbe
00000110: 4186 573e 8d31 f0bc 4ee4 89bb b331 183e
00000120: f4d3 9bbd 00d3 babd e534 34bd 20b9 a6bc
00000130: 3ed4 dfbd d3f5 a6bd fb45 1dbd d050 01bb
00000140: 5d85 233e 235e 17be f3cd d4be fdc2 fabe
00000150: f2c7 2f3e 9f49 b2be 1b14 073e 4d6b 203b
00000160: 7121 a2be ec61 493e 4b0e c53e 48f9 cabd
00000170: c5de 09bf dc05 aebe b6c3 3b3f 28d0 6c3e
00000180: 7ac7 5fbe 7578 5d3e 21f9 4e3e 23bf 373e
00000190: 542b e3bc 5a9b 5d3e 3199 e4bd 50fe 22be
000001a0: 6a8c 763e f578 8cbe 4d71 27be 0d7b 87bd
000001b0: 2932 873e 9da7 bf3d 4fa0 8b3d d44a b13d
0.09381195 0.06783633 -0.098428525 0.017365843 -0.07851674 -0.011882402 -0.016977923 0.024599606
0.025060557 -0.008286362 0.009281834 -0.020016134 -0.012821185 -0.03240635 0.034763683 0.023289068
0.03012263 -0.29842293 -0.08099219 0.0538863 0.060845487 0.16962853 -0.24344453 0.28927982
0.1927512 0.1035571 -0.099297106 -0.1947267 0.1524195 -0.047018148 0.22675815 -0.15199736
-0.0056174733 -0.08480643 -0.11813042 -0.09359306 0.15016472 -0.3624358 -0.04990195 0.18445762
-0.0033515892 -0.069559366 0.040648423 -0.0031472864 -0.011005938 -0.07336847 -0.031873517 -0.0058519244
0.09046117 0.05307834 0.0046340995 -0.033751618 0.03166831 -0.033212435 -0.06708624 0.080596834
-0.07736376 -0.029916938 0.08155598 -0.011833155 0.020422846 -0.047705498 0.074831136 0.03642961
0.08685855 0.33006263 -0.36565843 -0.18537651 0.21047308 -0.029320503 -0.0042081242 0.14862709
-0.07608786 -0.09122276 -0.043995757 -0.020351946 -0.10929154 -0.08152356 -0.038396817 -0.0019732006
0.15968843 -0.14782004 -0.41563377 -0.4897689 0.17166117 -0.34821793 0.13191263 0.0024478019
-0.3166614 0.1966626 0.38487467 -0.09910828 -0.53855544 -0.33988845 0.73345506 0.2312628
-0.21853438 0.21627982 0.20212223 0.17944007 -0.027730621 0.21641293 -0.111620314 -0.15917325
0.24077001 -0.27436033 -0.16351815 -0.06615267 0.26405457 0.093581416 0.06817686 0.086568505
