mixture 2/Models/transformer_v4/0.8305342479640456_1/params.pt (torch_old, 333129 bytes, 74 tensors)

transformer_encoder.layers.0.self_attn.in_proj_weight f4 [384, 128]
00000000: 311c 85bc 8eea efbd e4a5 7f3b a396 b3bd
00000010: 36bf a2bc b987 6f3d 9c94 c2bd 9cd6 453d
00000020: 4c90 22bd aef6 b5bd 285b d63d 583f 11be
00000030: 2ec5 243c 83cd b1bd 1acd 01be 9c4c 7fbd
00000040: 36f6 e23d e297 aebc dbcc 143e 4631 f2bb
00000050: b608 fabd 6f4f a1bd d285 953d 215d 2ebd
00000060: 9105 06bd d840 823d 0c8a 533d 4361 47bb
00000070: b8c2 dd3d 3714 d0bd ceb8 d93d 0976 893d
00000080: 6afd 1e3d 1f9c 923d 3f6e 8a3d 888b cabd
00000090: d650 8fbd 4200 af3d 51f0 2d3c 7027 04bd
000000a0: 7ee2 cfbd d21b 0bbd cc17 c43d d9b0 f6bc
000000b0: acfa af3d 2786 a93d b9fc e8bd 4283 43bd
000000c0: 2b54 07bd 86e5 563d 7658 01be 660e 923d
000000d0: f135 d03d f80d 36bd 27e9 963d 4baf 0fbb
000000e0: 1f8c 4dbd 2b4e dfbd b2c7 13be 1db6 b33d
000000f0: a156 cdbd 814f 2a3d 73a3 76bd 935d 083d
00000100: 92b6 783c d9cb b5bc d703 143d 6f0f 00bd
00000110: b9de d93d 8e6c d6bc f70f 37bd dd3e 0ebe
00000120: 8be1 b5bd efbc e0bd a0b9 82bd 26d7 41bd
00000130: 00bf b23d 480b c73d 79dd 283e f69b 583d
00000140: 1202 413b 6eb3 da3d 0778 87bd bfed ed3d
00000150: 5316 43bc 715c 313d 9ca9 b83d 861a 5b3d
00000160: b2c4 fabc 63a6 823d c8c1 a83d 7f79 8e3d
00000170: fbf2 9f3d 7e0c 4cbd c330 113e 9ae4 093e
00000180: 2446 72bd 1c5e 4bbd f889 85bc 75b6 373c
00000190: a95c d9bd 5da8 eebc 692a 55bd c585 4c3a
000001a0: a1d6 90bc b055 32bc 77f0 173d eaef 863c
000001b0: 2972 8ebd 505a 023d 20d5 9b3d 7480 e23d
000001c0: 9bdb 943d 89ad adbc 39d1 cb3d 2051 f2bc
000001d0: 29e4 c23d fd36 98bd 8b6f 18be 800c d93c
000001e0: b4bc 3cbc fc27 c03d 021a 6b3d 6c07 e6bd
000001f0: 7293 1a3e 81d0 17bc ce40 8f3d 9649 5bbd
00000200: ae37 51bd 288e 86bc 139a bbbd b2eb ebbd
00000210: 0c24 75bd 36b3 8ebc cdcd 89bc 0e89 0bbc
00000220: b577 dfbc 03f4 373c cf76 f0bb b888 a2bd
00000230: a4e6 10bd e11d e5bd 9750 a5bd 878b fcbd
00000240: bd70 07be b0e9 c5bc 688e a23d a4fa a8bd
00000250: 723e 5abc 8460 b83d a009 28bd 5421 5bbd
00000260: da26 0a3d d7e3 a93d c5d6 e03d 03c1 8fbd
00000270: a052 a6bd 52d8 57bd 29bf 02be 5c9f 813d
00000280: c4ac b53d 3562 edbd eefc ea3c 3899 65bd
00000290: 0373 0abe 99fb 043e 2855 063c 5631 b8bc
000002a0: 47eb bb3d 49f0 a5bd dfa1 013d b361 673d
000002b0: 7db7 98bd 9a5e a53d 5fc6 fc3d e417 6bbd
000002c0: 8c93 953c 0d38 843a 2a03 1f3e d2a2 803d
000002d0: 9e06 313c 0581 81bd 4b6c f4bc e53c 3dbd
000002e0: f7cf dcb8 f949 1ebd a810 a23c dc9c 0cbe
000002f0: 3060 6dbd ab08 cbbd 4c77 e4bc 88d8 e9bb
00000300: 7128 0c3e 87ee 203d 987c b2bc 4842 7bbd
00000310: 0b89 833d 5b93 bd3d a83d da3c e80a 4cbc
00000320: 4efa 2abd 7b4f e33d 6b9d cabd 039c 60bd
00000330: dd80 3dbe 29f4 07bd d4c2 abbd c348 373c
00000340: 2ad7 febd 304a 593c dddb 8ebc f810 32bd
00000350: 97cc 8cbc da4f 593b e6e1 ab3c d732 103c
00000360: d310 fbbd 5c25 9ebd 45d8 05bc f8b0 383d
00000370: fac8 223d 5039 603c d507 34be dc58 283d
00000380: e731 7abd ff46 6bbd 2e23 95bd 6220 ce3c
00000390: b032 05be f8ef c23d 4906 1abe a7fe 9a3d
000003a0: 2553 42bd 4842 b93d 8937 373a 1946 a73d
000003b0: c46e 88bd b4e4 9fbd 180c cfbd 731d a1bd
000003c0: 9ffa 8bbc 7ae5 753d f0cf ad3c 3540 e7bc
000003d0: 5cbd 47bd 9da5 a8bd 9d37 183e 6331 d9bb
000003e0: 7c60 01be 4f94 4a3c 74e4 71bd 58b8 d4bd
000003f0: 8f8d dabd 73bc b4bd 8662 eb3d 39d1 5cbd
-0.016248794 -0.1171466 0.003900879 -0.08768966 -0.019866567 0.058479045 -0.09501001 0.04830037
-0.039688393 -0.08884941 0.104666054 -0.1418432 0.010056777 -0.086817764 -0.12675896 -0.06232892
0.11082117 -0.021312658 0.14531271 -0.0073911278 -0.12208693 -0.07876479 0.07300915 -0.042569283
-0.032720152 0.06360024 0.051645324 -0.0030422963 0.10828155 -0.10160106 0.10630952 0.067119665
0.038815893 0.07158684 0.06759309 -0.09889895 -0.0699784 0.08544971 0.010616378 -0.032264173
-0.10150622 -0.03396208 0.095748514 -0.030113624 0.08592734 0.08277541 -0.11376328 -0.0477326
-0.033039253 0.052464984 -0.12631401 0.071316525 0.101665385 -0.044446915 0.07368689 -0.002192455
-0.050182458 -0.10903581 -0.14431646 0.0877497 -0.10026289 0.041579727 -0.06021447 0.033292364
0.015180247 -0.022191929 0.036136474 -0.03126472 0.10638184 -0.02617481 -0.04469296 -0.13891168
-0.088809095 -0.10973536 -0.063830614 -0.047324322 0.087278366 0.097189486 0.16490735 0.05288311
0.0029450697 0.10678755 -0.0661469 0.11617612 -0.011907178 0.04330105 0.090167254 0.05349209
-0.03061137 0.06379392 0.08240086 0.06956767 0.07810017 -0.0498166 0.14178757 0.13466111
-0.059148923 -0.049650297 -0.01630114 0.011212935 -0.10613377 -0.029133016 -0.0520424 0.00078019156
-0.017680468 -0.010884687 0.03709456 0.016471822 -0.06955368 0.03182441 0.0760901 0.11059657
0.07268449 -0.021200912 0.099520154 -0.029579699 0.09516174 -0.07432363 -0.148863 0.026495218
-0.0115196 0.093826264 0.05739785 -0.11231884 0.15095308 -0.00926602 0.069947824 -0.053536974
-0.05107849 -0.016425207 -0.09160247 -0.11519565 -0.05984883 -0.017419439 -0.016821766 -0.008516563
-0.02727876 0.0112276105 -0.007338382 -0.07936233 -0.035376206 -0.111873396 -0.08072012 -0.123313
-0.132266 -0.024159282 0.07937318 -0.08250931 -0.013320552 0.09002784 -0.041024804 -0.05349858
0.033728458 0.0829541 0.10978464 -0.07019236 -0.08121228 -0.052696534 -0.12768234 0.063292235
0.08870843 -0.11590997 0.02868506 -0.056054324 -0.13520436 0.12986602 0.008199014 -0.022484463
0.09175735 -0.081024714 0.031648513 0.056489658 -0.074568726 0.080746844 0.12342524 -0.05739583
0.018258832 0.0010087505 0.1552855 0.062810555 0.0108048 -0.06323437 -0.029836794 -0.04620065
-0.00010529154 -0.038644765 0.019783333 -0.13731712 -0.05795306 -0.09913763 -0.027888916 -0.0071364082
0.13687302 0.039289977 -0.021787927 -0.061342508 0.06422623 0.092566215 0.026640728 -0.012453772
-0.041742615 0.11099144 -0.09893306 -0.054836284 -0.18506189 -0.033191834 -0.0838677 0.011186781
-0.12443383 0.013262317 -0.017438823 -0.043473214 -0.0171874 0.0033159168 0.02098174 0.008801184
-0.12259068 -0.077219695 -0.008169238 0.045090646 0.039742447 0.013685539 -0.17581113 0.041100368
-0.061082747 -0.057440754 -0.072821006 0.025161926 -0.13007617 0.09518427 -0.1504146 0.07568102
-0.047442574 0.09045845 0.00069891714 0.08167667 -0.06661752 -0.078072935 -0.101097286 -0.07866945
-0.017087279 0.0600333 0.021217316 -0.028228858 -0.04876457 -0.08234713 0.14864965 -0.006628202
-0.12634462 0.012364461 -0.05905576 -0.10386723 -0.106715314 -0.08825006 0.11493401 -0.053910468

transformer_encoder.layers.0.self_attn.in_proj_bias f4 [384]
00000000: e77c 50bc 670c 053d 9c66 c63b d6ab 6e3c
00000010: 995b 503c 1939 513c c35b 283c 676b ee3c
00000020: 4527 553b 5808 c13c b676 3abd fbbd a5bb
00000030: fef8 edbc cfb9 13bb aa01 333b 4b03 88bc
00000040: e6d7 033c 2a4f 27bd e545 2abc 4a38 00bd
00000050: 1955 bfbc af76 94bd 25de 08bb 2213 be3c
00000060: 3f50 a63c 898f 81bb 7a8e 283c ccf8 593b
00000070: df26 e53b 3f20 67bb 1601 7d3c fba5 e8bc
00000080: 3d65 d83c 0fe1 d33b a13f 21bb 68ee 3e3d
00000090: 61f5 1bbd 44d0 6c3c bcef b03c c060 8a3b
000000a0: c278 483c 4fe2 19bd b53f c5bc 80ea 6b3c
000000b0: c004 b3bc 4ead a3bb ff34 a0bb 16b9 d7bc
000000c0: 4816 eabb e16a a5bc 578b 98bc cef0 87bc
000000d0: a3ee c63c d6a3 fa3a 5b4e a6bc c6d7 e5bc
000000e0: a6a7 7ebc 2f34 37bc 96a1 92bc 6c80 223b
000000f0: cdaa 783c 3c09 a13b da59 47bd a986 2cbd
00000100: a9ae 543b c54f a33c 51e5 ee3b aeb3 ecbc
00000110: 74e1 a53c 548c dcbc bb6b e0bc 0dcf 0b3c
00000120: e3c4 f53a f16c 8a3b 0a02 8eba c7b6 93ba
00000130: 30ba dabb 15fe 003d c75b b33b cbcf 203d
00000140: ce36 22bb 2561 87bb 30b5 5a3c e0ea 3d3d
00000150: 2845 5bba 5603 473b a158 fb3c 40b4 913c
00000160: a104 273c 8dc0 afbc b4bd e0ba 6e4d 8dbc
00000170: 3575 4bbc 1537 093d 61bb b03b 4970 febc
00000180: 53ef c8bb fa31 87bc b525 173c 0a1d 483c
00000190: c821 7b3c 8550 99bc 1a31 ba3b d788 933c
000001a0: d12b 323d dddf 60bc 200b 25bb 3cbe 51bb
000001b0: 1f86 93bc fba2 31bc c928 a6bc 5b99 0f3d
000001c0: e847 dfbc fc1e a5bb a990 7a3c 4efc 2aba
000001d0: 0c74 823b 612a 9c3b c962 72bc 8afd 293d
000001e0: 67db 24bd 32eb 94ba a8d0 8c3b cd98 aa3c
000001f0: 6c34 593d d967 c23c 5002 2b3c 9094 553b
00000200: d42c 7a39 3c65 a7b9 a6bd 1d3a 6b7c b039
00000210: 0ca8 31ba cf11 9cba a010 233a e3e9 1dba
00000220: 53bc 2f3a 197c e0ba e98e 8e39 f334 913a
00000230: 2d8e c7ba bd48 e1b9 b96c bdb8 bd6c f6b9
00000240: 09ee 5439 4c7d cfba 6be7 92ba fc30 97b9
00000250: 940e 1b3a 9b2d 92b6 b14b 4cb9 d6ff 0339
00000260: 830b 40b9 03dd 03ba 22df 54b9 2a75 d838
00000270: 4117 fa39 4220 e0b9 6612 38ba 6888 3cba
00000280: 8bad 77ba aac0 a7b9 8734 37ba f7e8 b03a
00000290: 4565 da39 5e45 bf38 9026 ae39 5a74 f939
000002a0: abb8 e4ba d8fa 04ba 6e4d 9bba 3aa5 c939
000002b0: 8f4b 2b39 3526 ef39 df67 2aba ea40 b4ba
000002c0: b886 ffb9 c67f a4b9 140f 31ba 2274 6cba
000002d0: 69a4 443a 362b e7b8 8ca2 3137 a375 95ba
000002e0: 2044 a4ba 430f 1c39 bfd1 cb37 6c92 263a
000002f0: 13b0 af39 c041 2039 41ba adb8 f327 e4b7
00000300: 7437 1e39 34d1 233a 01d8 d2b9 ab25 983a
00000310: 8b77 df39 ef93 5aba 271a 61b8 3d0b 95ba
00000320: 1b94 30b5 e786 d23a ee29 5cba f7c6 79ba
00000330: 91b5 efb9 5996 453a f91a 40ba 84c0 3b3a
00000340: f81f 07b9 7b74 9b38 f979 483a bc33 5b3a
00000350: 8855 8eba e12b e3b9 d5f0 2439 27f0 5a3a
00000360: 0bad 87ba c163 bbb9 b90b 2a3a 3f1b 0b3a
00000370: 1ed9 db37 2b6b a1b9 31ab 6839 6756 50ba
00000380: 6bb5 413a 7001 94ba 50ea b837 449d 243a
00000390: ab18 9a38 2dec 9539 4465 153a 91e2 da3a
000003a0: 36b3 753a b2a8 9039 05ed 603a 6ef3 2bb9
000003b0: 146f 50ba 4444 f1b9 484a 8738 2cc9 7c38
000003c0: 2e9a dbb9 56d8 6a3a 4a01 e3b8 2eb0 a939
000003d0: 9740 bf39 1f1a 1f37 2c31 41b9 5e05 663a
000003e0: deff 0d3a 9eaa 13ba a460 dbb9 7515 163a
000003f0: 7b54 923a 55da b037 3a24 8439 6f89 ed38
-0.012725092 0.03248253 0.0060547125 0.014567336 0.012717151 0.012769961 0.010275784 0.029103948
0.0032524627 0.023563549 -0.045523368 -0.005058048 -0.029049393 -0.002254117 0.0027314224 -0.016603133
0.00804708 -0.04084698 -0.010392641 -0.03130368 -0.023356007 -0.072491996 -0.0020884362 0.023202483
0.020301936 -0.0039538783 0.010287875 0.0033259867 0.006993159 -0.0035267023 0.015442153 -0.028399458
0.026415462 0.006466038 -0.0024604576 0.04661408 -0.03807581 0.014453951 0.02159869 0.0042229593
0.012235822 -0.03756934 -0.02407823 0.014399171 -0.02185285 -0.0049950248 -0.00488913 -0.026333373
-0.0071437694 -0.020192565 -0.01862113 -0.016594317 0.024283713 0.0019122313 -0.020301035 -0.02805699
-0.0155429 -0.011181875 -0.017899316 0.0024795784 0.015177441 0.004914431 -0.048669674 -0.04212061
0.0032452738 0.019935498 0.0072905202 -0.028894272 0.020249106 -0.026922382 -0.02739512 0.0085332515
0.0018750693 0.0042244126 -0.0010834348 -0.0011269682 -0.0066750273 0.03149231 0.005473587 0.039260667
-0.0024751904 -0.0041314536 0.0133488625 0.046366572 -0.0008364492 0.0030366979 0.03068191 0.017786145
0.010193975 -0.02145412 -0.001714638 -0.017248835 -0.012418081 0.033499796 0.005393431 -0.031059401
-0.0061320453 -0.016503323 0.009225299 0.012213955 0.015327878 -0.018715153 0.005682123 0.018009586
0.043498818 -0.013725248 -0.0025183633 -0.0032004258 -0.01800829 -0.01084208 -0.02028312 0.03505836
-0.027255967 -0.005039094 0.015293279 -0.00065225817 0.003981119 0.004765794 -0.01479406 0.04150156
-0.0402483 -0.0011361598 0.0042973347 0.020824814 0.05302851 0.023731159 0.010437563 0.003258977
0.00023858558 -0.00031928148 0.00060173345 0.00033662035 -0.0006777055 -0.0011907163 0.0006220434 -0.00060239265
0.0006703783 -0.0017126828 0.00027190827 0.0011078402 -0.0015224867 -0.00042969538 -9.0324735e-05 -0.00047001793
0.0002030657 -0.0015830188 -0.0011207884 -0.0002883746 0.0005914953 -4.3564482e-06 -0.00019483153 0.0001258844
-0.00018314835 -0.0005030187 -0.00020301019 0.00010321506 0.0004770104 -0.00042748643 -0.00070217845 -0.0007191957
-0.0009448162 -0.00031996268 -0.0006988723 0.0013497163 0.00041655652 9.1205104e-05 0.00033216598 0.0004757967
-0.0017450055 -0.0005072779 -0.0011848637 0.0003846081 0.00016335979 0.000456141 -0.00065004634 -0.0013752256
-0.00048737763 -0.00031375716 -0.0006754261 -0.00090199907 0.00075013057 -0.00011022987 1.0587868e-05 -0.0011402856
-0.001253251 0.00014883005 2.4297156e-05 0.0006354216 0.00033509787 0.00015283283 -8.283975e-05 -2.719832e-05
0.00015088712 0.000624913 -0.00040215257 0.0011607906 0.0004262294 -0.0008338084 -5.3668537e-05 -0.0011371147
-6.578063e-07 0.0016061933 -0.0008398582 -0.0009528244 -0.0004572091 0.0007537357 -0.0007328238 0.0007162171
-0.00012886513 7.412672e-05 0.000764757 0.0008361896 -0.001085923 -0.00043329506 0.00015729976 0.00083518255
-0.0010351253 -0.00035741742 0.0006486732 0.0005306489 2.6207937e-05 -0.0003078816 0.00022189018 -0.0007947445
0.0007389399 -0.0011291932 2.204362e-05 0.0006279538 7.347887e-05 0.0002859546 0.00056989887 0.0016699602
0.0009372713 0.00027591508 0.00085802405 -0.00016398515 -0.0007951122 -0.00046017964 6.4511376e-05 6.0268838e-05
-0.00041885808 0.0008958628 -0.000108244436 0.00032365456 0.00036478482 9.48322e-06 -0.00018424232 0.00087746035
0.00054168503 -0.0005633029 -0.00041842938 0.0005725243 0.0011164093 2.1082504e-05 0.00025203993 0.0001132664

transformer_encoder.layers.0.self_attn.out_proj.weight f4 [128, 128]
00000000: 254c cabd 7673 1d3c 8c36 1d3e 354e 9cbd
00000010: 8cf8 35bd 7e9a e63b 46f9 dfbc 6168 89bd
00000020: 6c1c c53b 4f45 3b3d be5c 3dbd a63b ee3c
00000030: 53e7 a9bd 21ea e2bb e46e a93d 435c 9cbc
00000040: 8a26 8bbd e29c 0e3d cbeb 693d 3379 74bc
00000050: 2bad 4d3d 0c78 bb3c 6bc9 8c3a 5d30 253d
00000060: f66c c23d 8605 23bd d832 b43c 0c4a 743c
00000070: 54fd a83b 740e 9a3d 9e03 f53b a278 5ebd
00000080: a252 12bd dc22 113c 606f a03d 61a9 8abd
00000090: 1915 c03d a7c5 aebd 8269 10bc e7dd 28bd
000000a0: 3e40 9fbd fda8 2b3e 84fa 26bd 229d cabd
000000b0: a4ce 2dbd 2572 213b 63f8 dabc 0f97 b83c
000000c0: 34f9 02bd 329e fabb f4cf 153d 90d6 8abc
000000d0: 3466 febc 01db 56bd 0610 13bd 2fc7 ce3c
000000e0: 1aa4 853c 73da 7e3b 0b39 363d ff58 613d
000000f0: 5924 113e 124f b8bd 5c76 8abd 4120 8abd
00000100: 03ce e83d 99ab f23c 2583 e4bd 899e fabc
00000110: 09dc 413c e319 5a3d 2234 1c3e 5b3c 03be
00000120: 4c48 f53c bbec c83d f929 473d a5f9 e4bc
00000130: f6dd 0c3d 2860 063d 677a 933c 2d96 d23d
00000140: ccf7 a9bd 111d 9cbd 4011 b2bd 0984 8bbd
00000150: af16 1c3e b06d b53d c548 893d 0b7b babd
00000160: 3030 efbd 18ca a03c 8c49 75bd 9aa0 3abb
00000170: 3944 67bd 3dc0 52bc bf65 6f3d 0e8f 333d
00000180: ee2d 463d 949a 31bd f115 573d 935c 8c3d
00000190: 965c 063e 9f23 7b3d ea5c 3f3a 9c4a a6bd
000001a0: ca63 85bd afa1 b2bd 0060 d03c 7411 babd
000001b0: 8c17 afbc 0a29 45bd 3edc 76bc 84f2 3cbd
000001c0: 189d cd3c 6dcf f03d bf3a 09be e5c4 22bc
000001d0: 5973 c63d 359f 063e d758 fa3b 6516 adbb
000001e0: e66c bebc 7ae8 e63d 8263 a6bb 36e0 023d
000001f0: 572b 253d b4b4 c3bd 8863 1f3d b442 8fbd
00000200: 0bc3 4a3c 6967 18bc 18e8 8a3d 0dad dc3d
00000210: af6f aabd d4fa 9fba daab 5dbc 839b a2bd
00000220: 9310 83bc 553c b4bc e359 c6bd cdaa 27bd
00000230: 7ee8 42bc 68b9 ce3c a6f8 fc3d 62aa 673d
00000240: 0427 36bc ae9e ccbc 891b b7bb 0b9e 1d3d
00000250: 2b7e 723d ed66 81bd 8117 2f3d 2829 c73d
00000260: 1102 87bd 93ab 263d cb1b 73bc 4648 4cbd
00000270: aaed a03d 4559 9f3d 389d 12bd 451c 8e3b
00000280: cde7 b53d 9f53 8bbc c9ca eabb 011f bb3a
00000290: 9f5e fdbb e04b 993c 448a edbc 0eb1 34bd
000002a0: a3dc 4cbd e28a 5b3d d5dc 93bd fa25 b3bb
000002b0: 034d 8ebd ce48 3f3b ded8 95bd 9ec4 503d
000002c0: 9576 aa3d 5540 d3bd 2074 37bd 5473 c2bb
000002d0: 510b f73d 1541 2d3c 9828 74bd 8a85 e13d
000002e0: a457 123d 3fce a1bd 9d56 afbc 38b9 773c
000002f0: b807 263c 63f9 f2bc 7393 84bd ca98 16bd
00000300: 875f 023d 5d38 b4bb 0575 443d e780 e23a
00000310: cdea ee3c e84b 71bd 57ec 62bc d044 53bd
00000320: 90fd da3b 965b d33c dd24 b93d e26d 813d
00000330: 9893 60ba d193 a73d cb74 35bd 3a68 213c
00000340: 414e dcbd 5a28 cf3c 3cd1 a23b 23f3 8e3c
00000350: e1fc dabc d8fb cd3d b437 0a3e 145b 24bd
00000360: a949 8c3d 17b6 ea3c ec0c 163d 8624 9b3d
00000370: ff9c b5bc 1266 823d 775f 90bd 3624 3bbd
00000380: 2f9b f83d 95ab 84bd 9f98 dcbd 2f15 173d
00000390: 6afc 303d 9002 8a3d 3a6b 5abd c4bc 383d
000003a0: 8b99 0a3c 6739 4bb9 9cf0 85bd 11c7 9e3d
000003b0: 4404 a13c 8a78 ef3c 872a 7ebd 62ee 8d3b
000003c0: e532 be3c 764c d13d ae48 873b 7bba 30bc
000003d0: f2fe 15bd af73 47bd d1fd 5ebd e6c2 fb3c
000003e0: 9286 9dbc b321 7d3c b7c1 b8bd 769a f43c
000003f0: 3e1f 973c ac15 5e3d c6b8 8b3d 747a afbd
-0.09877805 0.009610048 0.15352839 -0.07632104 -0.044426486 0.00703746 -0.027340543 -0.06709362
0.006015351 0.045720395 -0.046231024 0.029081177 -0.08296075 -0.006924883 0.08273104 -0.019086963
-0.0679446 0.034817584 0.057109635 -0.014921474 0.050213974 0.022884391 0.001074118 0.040329326
0.09493439 -0.03980019 0.0219969 0.014910232 0.005157152 0.07522288 0.007477238 -0.054314263
-0.035723336 0.008858409 0.07833743 -0.06770588 0.09379024 -0.08533793 -0.0088142175 -0.041227248
-0.07775925 0.16763683 -0.040766254 -0.09893252 -0.042433396 0.0024634686 -0.026729768 0.022532968
-0.03197594 -0.007648253 0.036575273 -0.016948014 -0.031054594 -0.052454952 -0.035903953 0.025241463
0.016313601 0.003888753 0.044487994 0.055016514 0.14174022 -0.089994565 -0.067608565 -0.06744433
0.113674186 0.02962284 -0.11157826 -0.030593174 0.011832246 0.053247344 0.15254262 -0.12815993
0.0299417 0.09810778 0.048624013 -0.027951071 0.034391366 0.032806545 0.018002702 0.1028255
-0.08299217 -0.076227315 -0.086946964 -0.06812293 0.15243028 0.08858812 0.06703333 -0.091055
-0.11679113 0.019627616 -0.059884593 -0.0028477074 -0.056461547 -0.012863216 0.058446642 0.0438376
0.048383646 -0.043360308 0.05251116 0.06853595 0.13121256 0.061313268 0.0007299917 -0.08119699
-0.06513174 -0.08722245 0.025436401 -0.0908536 -0.021373533 -0.04813484 -0.015067158 -0.04612972
0.025099322 0.11758313 -0.13401316 -0.009934639 0.096899696 0.1314667 0.007639985 -0.0052822107
-0.023245286 0.1127481 -0.00507778 0.031952105 0.040324535 -0.09555951 0.03891328 -0.069951445
0.012375603 -0.009301999 0.067825496 0.10775194 -0.08322083 -0.001220549 -0.013529742 -0.07939818
-0.015999114 -0.022001425 -0.09685113 -0.040934373 -0.011896251 0.025234893 0.123521134 0.056558974
-0.0111177005 -0.024978008 -0.0055879992 0.0384808 0.059202354 -0.0631846 0.042747024 0.09724647
-0.06592191 0.04069097 -0.014838169 -0.049873613 0.07857831 0.07780699 -0.035794467 0.004336866
0.08882103 -0.017007647 -0.007165287 0.0014276208 -0.007732227 0.018712938 -0.028996594 -0.044114165
-0.050015103 0.053599246 -0.07219855 -0.0054671736 -0.069482826 0.0029187682 -0.07316755 0.05096876
0.08323399 -0.10315005 -0.04478848 -0.0059341583 0.12062705 0.010574599 -0.059609026 0.11011799
0.035728112 -0.079006664 -0.021403605 0.015119843 0.010133676 -0.029659932 -0.06473436 -0.036766805
0.031829383 -0.005499883 0.04796316 0.0017280848 0.029164696 -0.05891028 -0.013850293 -0.051579297
0.006683059 0.025800508 0.09040234 0.063197866 -0.0008566915 0.081824906 -0.044300836 0.00985151
-0.10757113 0.025287796 0.0049687903 0.017449921 -0.02673191 0.10057801 0.13497812 -0.04012592
0.06849987 0.02865128 0.036633417 0.07575326 -0.022169588 0.063671246 -0.070494585 -0.04568883
0.12138974 -0.06478039 -0.10771298 0.036885437 0.04320947 0.0673877 -0.053324915 0.045101896
0.008459459 -0.00019380973 -0.06540033 0.07752813 0.019655354 0.029232282 -0.062052276 0.004331396
0.023217628 0.10219662 0.004128537 -0.010786648 -0.036620088 -0.04869431 -0.054441277 0.030732583
-0.019229207 0.015449929 -0.09021323 0.029858809 0.018447515 0.054219887 0.06822352 -0.08568278

transformer_encoder.layers.0.self_attn.out_proj.bias f4 [128]
00000000: e82b 55bc 16f8 373c 87a3 90ba a179 0bbc
00000010: 19b5 8b3c c6b0 05bd 5295 183c d02f e33b
00000020: b516 95bc 5e11 a33c 4eee 92bc f43a 72bb
00000030: b4ef 0dbd c93a 26bb 3de9 cd3a 76c5 043c
00000040: ceec a43b 9389 23bb f362 f1b8 f74b ffba
00000050: d901 203c 0234 90bb aef1 f03b 99ce 89bc
00000060: dbb6 ae3c 1bf8 4abb d20d e7bb 364d 0b3c
00000070: ea3d 47bc 31a0 2b3c 23cd e13b 2912 793c
00000080: 8f98 a63a c846 1b3c 051e 3bbb 1060 9f3c
00000090: 6e84 183c 7d7c 143b e577 07bd eb17 d33b
000000a0: 5e76 9a3c 36df 06bc c876 f3bb ebc6 f0ba
000000b0: 8363 6dbb 7f8c 973b 3966 913c 15bb 62bb
000000c0: 16f6 cb3c 9bbb d4bb 54b2 66bc eb5f fbbb
000000d0: ed85 1abb 9489 263c cb51 c1bb f6b8 0e3b
000000e0: 8905 863b 417f 87bc e0c7 913a e56c 2fbc
000000f0: c742 693b 6601 443c 119a 0cba 7d11 9bbb
00000100: 7c49 94ba e2c4 fdbb d623 ffba 47fc af3b
00000110: c859 c33a f50e b3bb c74b 50bb b67a 8bba
00000120: 6701 fdb9 d5a9 30bc 1d90 803b 76b1 8b3c
00000130: c904 7c3c 8e50 b5bb ac82 4b3c 64e4 813b
00000140: 0d74 dcbb cbbc ce3b cf3c 933c 0bbf e43b
00000150: 9af2 e5bb 02a5 8bbb 2327 e7bb 167d 073c
00000160: 93a7 5c3b aaf8 fe3b 1f42 843c 67ca 6d3c
00000170: a96f f03a a0a6 0ebb da26 07bc 355e 0abc
00000180: ef1f 9638 ab26 fdb9 bfb8 003c 99f8 1e3c
00000190: 2502 0e3c 13bf a7bc b655 3a3c 13ef 93bc
000001a0: 7cc5 0fbc d58c d7bb cba1 5c3b fc2a 5cbc
000001b0: 56e8 913c e394 bbba e658 3f3c c4c7 9f3c
000001c0: dfac 363b 674a fdbc d0eb 1e3a 4ef9 223c
000001d0: ad00 76bc 91f8 c2ba a4d2 e43b bc00 8bbc
000001e0: 269a 7b3b b8dc 80bc 085a 12bd 57f0 50bb
000001f0: 8058 c03b 7380 cbb8 7d29 56bc 808a 08bc
-0.013010956 0.011228582 -0.0011035063 -0.008512885 0.017054128 -0.032639287 0.0093129445 0.00693319
-0.018199304 0.019905742 -0.017935898 -0.0036961408 -0.034652427 -0.0025364629 0.0015709769 0.008103719
0.005033112 -0.0024953827 -0.00011510206 -0.0019477595 0.0097660655 -0.004400731 0.007353029 -0.016822146
0.021327427 -0.0030970636 -0.007051208 0.008502295 -0.012160758 0.010475204 0.0068909093 0.015202084
0.0012710261 0.009477325 -0.0028551829 0.019454986 0.009308917 0.0022657209 -0.033073325 0.00644206
0.01885527 -0.008231929 -0.0074299313 -0.0018369829 -0.0036222644 0.0046249027 0.017748939 -0.0034596373
0.024897616 -0.006492091 -0.014080603 -0.0076713464 -0.002357836 0.010164637 -0.005899643 0.0021777726
0.0040900153 -0.016540172 0.001112219 -0.010707115 0.003559278 0.011963224 -0.0005363534 -0.0047323094
-0.0011313404 -0.0077444175 -0.0019465636 0.00537065 0.0014904076 -0.0054644295 -0.0031783448 -0.0010641429
-0.00048256965 -0.010782679 0.0039234296 0.017052393 0.015382 -0.0055332845 0.012421291 0.003963994
-0.0067277015 0.006309127 0.017973332 0.006980782 -0.0070174458 -0.004261614 -0.007054226 0.008269569
0.0033669218 0.007781108 0.01614481 0.0145135885 0.0018343824 -0.0021766797 -0.008249009 -0.008445312
7.1585055e-05 -0.0004828473 0.007856547 0.009702825 0.0086675035 -0.020476853 0.011372974 -0.018058335
-0.008775111 -0.006578068 0.0033665772 -0.013437983 0.017810982 -0.001431134 0.01167891 0.019504435
0.0027874035 -0.030919267 0.00060623605 0.009947134 -0.01501481 -0.0014875104 0.006983118 -0.016968124
0.003839144 -0.015730247 -0.03573039 -0.0031881535 0.005869925 -9.70372e-05 -0.013071415 -0.008333802

transformer_encoder.layers.0.linear1.weight f4 [2, 128]
00000000: 577e db3d f237 423b 90fa dd3a e95a 393d
00000010: 0ff4 2d3d 7eea b83c ffc4 50bd 0669 c0bd
00000020: ebd2 c5bd 60f5 debd 55e9 933c 111e 01bd
00000030: 3567 ce3d 9547 c13d deef 3c3d c10c 003d
00000040: 0214 d53c 6c30 1fbc 1e98 a1bd cbd0 c0bd
00000050: e194 c53d 11b2 f83c faae 8dbd 008c 65bd
00000060: 6572 75bd 889a 2e3b 7b20 193d 37f2 da3c
00000070: 1a04 e1bd f0b2 843d 2fb1 ccbd 4f5f 81bd
00000080: 9ae1 583d 4c8b fbbc 4fb9 c13d 345f c8bc
00000090: 1dec b93d d358 8d3b efb7 503d a1dd c5bd
000000a0: 787c f13c 696a 1d3d 89b1 5dbc 5904 9a3d
000000b0: 2749 bc3d bd96 77bd 3b57 c43c 441b 5ebd
000000c0: b935 20bd caa2 ec3c cd3c 383d 9c13 493d
000000d0: e82d b7bc b213 03be e05b 9ebd 10bd 80bd
000000e0: d141 35bc c590 783d 4672 303d 385e 25bd
000000f0: d327 82bc c33d bebd c007 3b3d 733e 31bd
00000100: 94b0 613d ab21 b03c 7de3 b2ba e8a5 963c
00000110: 23ed 9c3d 1bad d4bc 5948 5ebd b96d f33c
00000120: af64 7fbd 2177 563d 0087 353c a51c 7dbd
00000130: 1e5d 6abc 565a c23d a08a a3bd 3602 05bd
00000140: d924 963d 0ee5 c23c 2b24 75bd 6a34 b83d
00000150: c0ef c53d e4d1 32bd ff47 b53c a680 8e3d
00000160: ae3c b63c c82d 843d 8d02 333d 6626 09bd
00000170: 9332 ae3d 987d 093d 4196 bf3d 9e37 5e3c
00000180: b721 013d d5db 8bbb a8a7 acbd 8c03 283d
00000190: 776a e7bd d382 e33d 13f0 56bd 7fb9 e23c
000001a0: 2c9c eaba 52d8 3b3d 622f 8a3d 1409 04bd
000001b0: e3be 4ebd 53d6 36bd b601 c63d 1a69 03bd
000001c0: 2d08 21bc b15e 87bc ccfe 81bd 26ca 833c
000001d0: f5c0 393c 1a0f 2d3d d510 de3c 682d 873d
000001e0: ea3c 81bc 19f5 a93d 2639 6ebd 742f 073d
000001f0: 12b0 6dbc e86b 593d 0bb2 343d 986d e7bb
00000200: 349b 1e3d c5f6 89bb 31b3 20bd fcc1 b2bd
00000210: 159f 2b3d 2f70 0cbb 2bbb c43d 8221 243d
00000220: 3e60 bbbd bd8f ec3d 747b 0f3d 0b8f 733d
00000230: c166 843a 5ff9 06bc 0729 aa3d 0450 a33b
00000240: 61ab 4d3d 8a00 003e a06a e63c 720c 4bbd
00000250: b42c d73d 8a54 9d3d 85ac b63c c268 6dbd
00000260: 6f24 8bbb b6f4 813d 846a e7bd 4e4c 96bd
00000270: e6dd 5ebd e7f2 71bd 2fbc 823c e541 a3bd
00000280: 0428 c8bd 3e52 5a3d b6a9 ba3d 88c8 88bd
00000290: dd89 d53d 5e9d c3bd 6d95 88bc 286c 5ebd
000002a0: 4706 1f3c 59c8 2fbd 6a47 9dbd e5b9 d6bc
000002b0: 3484 ed3c a028 45bd 3444 4c3c 664c 263b
000002c0: 68d2 50bc 75ff 9abd 3e38 18bd 3734 91bd
000002d0: 575e a8bd 32cb c5bd a402 bc3d de69 4b3d
000002e0: 39d8 e03d a8c0 4c3c f2ab a8bd 89ec dd3a
000002f0: dbd2 823d 3b52 f13c c19a d03d e1fd d4bb
00000300: e66a e93d 0140 5abd 8670 933c b8c6 883d
00000310: 112c 11bd f7a7 463c dfd5 273c c6fd bdbc
00000320: ff3f 8c3d 54dd edbd 734c 15bd dc76 f53c
00000330: be7d 223c 0a74 45bd 7980 96bd de85 40bd
00000340: c27d afbd 047a 89bc 7d3f db3c 7a7e 57bd
00000350: 6bae c4bc 6930 70bd c35a 233d 2b99 793d
00000360: 7c36 4bbd a24e 313d f83e a33d a1a6 b4bd
00000370: 6070 a0bd e22c 663d 4edc 47bd d006 343d
00000380: 7d34 9e3c 853b 8bbd 5162 6137 b5a3 173d
00000390: c4bc 9abb 2e72 93bd e169 6dbd 1cdd 66bd
000003a0: e615 d9bd 9593 9cbb 8a80 8b3c 6dc0 82bd
000003b0: f028 9a3d 47c1 60bb c6b9 ba3b b937 ae3d
000003c0: b0e3 02bd 1241 fcbc e863 5e3c e903 bb3c
000003d0: d2e8 b7bb 073c c73d b141 043b e9d8 92bd
000003e0: bea9 943c d41f 223d 4e78 d1bc deeb 99bc
000003f0: 19e0 d3bc 0ee9 07ba f7c0 043d e09f e23c
0.10717457 0.0029635397 0.0016935635 0.045252714 0.04246908 0.022572752 -0.05096912 -0.09395032
-0.0965937 -0.10886645 0.018055597 -0.031522814 0.10078279 0.09437481 0.046127193 0.031262163
0.026010517 -0.0097161345 -0.07890342 -0.09414824 0.09647537 0.030358346 -0.0691814 -0.056041718
-0.05992355 0.00266424 0.03738449 0.026726825 -0.109871104 0.06479442 -0.099947326 -0.06317007
0.052949525 -0.03070607 0.09459173 -0.024459459 0.09078238 0.004313567 0.050956663 -0.09661413
0.029478297 0.03843156 -0.013531097 0.075203605 0.0919364 -0.06044649 0.023967376 -0.05422522
-0.039113734 0.028886218 0.04497986 0.049090967 -0.022360757 -0.12800482 -0.077323675 -0.06286061
-0.011063055 0.060684938 0.04307773 -0.040373057 -0.01588813 -0.09289124 0.045661688 -0.043272447
0.05510004 0.02150043 -0.0013648119 0.018389657 0.07662418 -0.02596145 -0.054268215 0.029715406
-0.06235188 0.052359704 0.01107955 -0.061794896 -0.014304427 0.094898865 -0.07985425 -0.03247281
0.07331247 0.023790862 -0.059848946 0.08994372 0.09664869 -0.0436572 0.022129057 0.069581315
0.022245731 0.064540446 0.043703604 -0.033483885 0.0850574 0.03356704 0.093548305 0.013563065
0.031526294 -0.0042681494 -0.084304154 0.041019008 -0.112996034 0.11108937 -0.052475046 0.027676342
-0.0017899326 0.045860596 0.06747319 -0.03223522 -0.050475013 -0.04463799 0.09668295 -0.032082655
-0.009828609 -0.016524645 -0.06347427 0.016087603 0.011337508 0.04225073 0.027107636 0.066004574
-0.015776116 0.08298702 -0.05815997 0.03300424 -0.01450731 0.053081423 0.044115108 -0.007062625
0.038722232 -0.0042103254 -0.03923339 -0.08728406 0.04189976 -0.0021429171 0.09606012 0.040071018
-0.09149216 0.115508534 0.035029843 0.05946259 0.0010101424 -0.008238166 0.083086066 0.004983904
0.050212268 0.12500206 0.028127015 -0.049572416 0.10506573 0.0768214 0.02229906 -0.057961233
-0.0042462866 0.06345503 -0.11299613 -0.07338773 -0.054410838 -0.05906954 0.015958874 -0.07971553
-0.097732574 0.05330109 0.09114401 -0.06678873 0.10426686 -0.095515 -0.016672814 -0.054302365
0.0097060865 -0.042915676 -0.07679637 -0.026211688 0.028993703 -0.048134446 0.012467433 0.0025375127
-0.012745477 -0.07568256 -0.03716301 -0.07090037 -0.08221119 -0.09657897 0.09180191 0.04966151
0.10978741 0.012497105 -0.08235921 0.0016931455 0.06387874 0.029458156 0.10185767 -0.0064999913
0.113973424 -0.053283695 0.017997991 0.066785276 -0.035442416 0.012125007 0.010243862 -0.023192298
0.06848144 -0.116144806 -0.03644986 0.029963903 0.009917675 -0.048206367 -0.07348723 -0.047002666
-0.08568908 -0.016781814 0.026763672 -0.05261085 -0.02400895 -0.058639918 0.03988148 0.060937088
-0.049612507 0.04328788 0.07970995 -0.088208444 -0.07833934 0.056195147 -0.048794083 0.04395181
0.019312138 -0.06798462 1.3433936e-05 0.037021358 -0.0047222096 -0.071995124 -0.057962302 -0.05636321
-0.1059988 -0.0047783353 0.017029066 -0.063843586 0.075273395 -0.003429489 0.0056984155 0.08506722
-0.03195542 -0.030792747 0.013573624 0.022829013 -0.005612471 0.09728246 0.0020180757 -0.071702786
0.018147346 0.039581135 -0.025570061 -0.018789228 -0.025863694 -0.0005184569 0.032410588 0.027664125

transformer_encoder.layers.0.linear1.bias f4 [2]
00000000: a704 d2bb fc1f dc3b
-0.006409246 0.00671768

transformer_encoder.layers.0.linear2.weight f4 [128, 2]
00000000: a692 e93c c2ea 03bf 9ea4 edbe 0a0b f6be
00000010: d455 1c3f 4121 b0be 931d 0b3f fc88 103f
00000020: 48b8 1abf 8b8e 103f d622 113e e121 5abd
00000030: 10a1 a2bd ac5a 8e3e 08b6 34be 9d74 283f
00000040: 9665 b73e 7671 cf3e 91a4 15be c6dc 16bf
00000050: 5007 253f e96b 2bbe fee5 15be 23ef d93e
00000060: b99b 243f 754d 5ebe a0fa 273f 0682 cd3d
00000070: 85eb 21bf 00a3 2fbf 489c fa3d 2128 223f
00000080: 42d0 f43e 86af 0c3f e960 22bf fca1 ae3b
00000090: e575 7b3e 9dc1 083e f26b 9e3e 82e3 683d
000000a0: 60a4 0fbf 871e e0be dde4 febd b8d7 223f
000000b0: 7ed5 183f 665e 983e 87e3 1f3f e948 043f
000000c0: 6479 6a3e 93db 2a3f 4cfa 063d 31a5 7a3c
000000d0: fe4b 21bf ce94 173f f075 313f 5113 e3be
000000e0: 3c09 a93c f416 32bf e97d ef3d 8e84 fd3e
000000f0: 189c 36bf f132 0f3f 10a9 25bf c568 1a3f
00000100: 9a8f 233f 61b3 073e 66d4 00be b3e3 31bf
00000110: d804 f8be 1e14 49be ecf6 97be 2018 4cbe
00000120: bcd5 0ebe b5fe 95be af2a 82bd 4fd2 01bf
00000130: 3a2c b3be 0c9b 193f 6f7c b73a 6d2d 1dbe
00000140: 8255 70be eac4 0d3e 21c8 fcbe 7284 70be
00000150: b6eb e53e 793a 06be 2877 4e3e 4e5f 863e
00000160: 142c 0ebd 5316 fc3e 2640 0a3f 72d4 cb3d
00000170: 4516 2fbf c817 193f aa5f f43e 7e3c 413e
00000180: c796 1d3e d18f f33c 2e6c 1ebe 3093 fb3e
00000190: 69ba dd3d 6d92 d93e 7501 16bf 1d09 3abf
000001a0: dc87 1abf d43a 15bf 9b7c 323e 8935 bc3c
000001b0: dfff 16bf f871 133f a668 0abf 7bde c43e
000001c0: 85e7 2cbf 2381 5c3e a5a0 e1be c98b 1b3d
000001d0: 6de2 243f e3d2 adbe c202 663d 20ba 29bf
000001e0: 0499 e63d dd02 20be 76d0 f9be da95 3abe
000001f0: 9190 953e 6593 2a3e c6cd c2be be21 383e
00000200: f4da d13c 0d39 23bf 69b3 103f bf8e a23e
00000210: 93fe 2a3f 5af2 bebe d724 d33e b263 afbe
00000220: 11a3 b7be eba4 343f eb9c 103f 2483 17be
00000230: d841 9dbe faf0 84be 2450 623d 97c2 d73e
00000240: ed05 05be e6d2 e03e a77a eebe 28ed e9be
00000250: 1ca1 21bf 523e 9dbe d370 2f3d c4bc e1be
00000260: 6f06 003f af0a 4e3e 40e7 f9be 2328 f53e
00000270: 9b4b 193f 85f8 8dbe c3cc a3bd 6696 303f
00000280: b03e babe ca12 a33e 8b66 40be fe7a 043f
00000290: 728c f33e 9063 103d 2143 23bf 7cca eebe
000002a0: 52c1 dfbe a4f5 26bf b512 293c 1edc d7be
000002b0: b052 e6bd 644a c43e bd0b 0e3c ea2b 09bf
000002c0: af65 963e bb61 c3be caa8 febe ed79 983e
000002d0: 82a6 e53d 880e 3c3e 0942 08bf 96b9 f5bd
000002e0: c077 a93e 1f7a 2d3e dc81 b33e af61 5bbe
000002f0: e868 a93e ac68 0a3f 7d7e f23e 6625 2bbe
00000300: 8834 febe 0a83 223f a4a1 b93c 7809 363f
00000310: c8f6 ee3e e5dc 2c3f 3910 083e 1239 e7bd
00000320: e825 9bbe 8111 95be f5b9 b63e 169e 293f
00000330: 10d6 323d e4ab 90be 17cf c63e ed7f 103f
00000340: 95e9 303f af7d 813e 35fe 17bf 4cfe d1be
00000350: b269 31bc 93cb 343f 740e 8fbd 183e 213d
00000360: 9c51 193f 7dad 6c3e 80b0 fd3e 5698 dcbd
00000370: b918 aebe b59c 74be 1b1c 00bf 8970 473e
00000380: bcec d8bd 3ca3 0f3f e142 bd3e 1446 9c3e
00000390: 43bd 123f c5a6 1e3f 29cf 553e 589a 193e
000003a0: 6e6d d63d 08d0 97bd 5219 503e 93f3 92be
000003b0: 9cb4 cf3e a1ba b13e fbc8 e83e 7a6b 153f
000003c0: fc63 61be e6e0 2cbe 6ac2 d93e 0326 613e
000003d0: 1c7f ad3e 7638 513e a9fb 263e 3461 bfbe
000003e0: aa5e 28bf 6891 99be 9cca c4bd 2f71 0f3f
000003f0: f0e3 2b3e 8116 a63e a7dc 463d 865d 1c3f
0.02851231 -0.51530087 -0.46414655 -0.48055297 0.61068463 -0.3440037 0.54342 0.5645902
-0.6043744 0.56467503 0.14173445 -0.053254966 -0.079408765 0.27803552 -0.17647564 0.6580294
0.3581969 0.4051625 -0.14613558 -0.58930624 0.64464283 -0.16740383 -0.14638516 0.4256526
0.64300114 -0.21709235 0.656168 0.10034566 -0.6325 -0.68608093 0.122368395 0.6334248
0.47815138 0.5495533 -0.63429123 0.0053293686 0.24556692 0.13355108 0.3094173 0.056857593
-0.5611019 -0.4377329 -0.12445996 0.6361041 0.59700763 0.2975952 0.62456554 0.5167375
0.2289787 0.66741294 0.032953545 0.015298174 -0.6300658 0.5921143 0.69320583 -0.44350675
0.020634286 -0.69566274 0.11693937 0.49515194 -0.7133193 0.55937105 -0.64711094 0.60316116
0.63890994 0.13252021 -0.12581024 -0.69488066 -0.48441195 -0.1963658 -0.29680574 -0.19931078
-0.1394872 -0.2929589 -0.063557975 -0.5071153 -0.3499468 0.6000221 0.0013998876 -0.1534936
-0.23470119 0.13844648 -0.49371436 -0.23488024 0.44906396 -0.13108243 0.20162642 0.26244587
-0.034710005 0.49235782 0.5400413 0.0995263 -0.68393356 0.5980191 0.47729236 0.18870732
0.15389548 0.029731663 -0.15470955 0.49135733 0.108265705 0.42494527 -0.58595973 -0.72670156
-0.60363555 -0.5829289 0.17430346 0.022974746 -0.5898418 0.5759578 -0.5406593 0.3845099
-0.6754077 0.21533637 -0.44067875 0.037975106 0.64408 -0.33949956 0.056154974 -0.6629963
0.11259654 -0.15626092 -0.48791856 -0.18221226 0.29211858 0.16657789 -0.38047618 0.17981622
0.0256171 -0.6375893 0.5652376 0.31749532 0.667947 -0.37294275 0.41239044 -0.3425575
-0.35866597 0.70564145 0.5648944 -0.1479612 -0.30714297 -0.259651 0.05525221 0.42140648
-0.12990542 0.43910903 -0.4657795 -0.45688748 -0.6313646 -0.3071161 0.042832207 -0.4408933
0.50009817 0.20121263 -0.48809242 0.47882184 0.5988099 -0.27728668 -0.079980396 0.6897949
-0.36375952 0.31850272 -0.18789117 0.5175017 0.4756809 0.0352512 -0.63774306 -0.46638858
-0.4370218 -0.6521857 0.0103194015 -0.42160124 -0.1124624 0.38338006 0.008669791 -0.5358263
0.29374453 -0.381605 -0.4973815 0.29780522 0.112133995 0.18364918 -0.5322576 -0.11998288
0.33099174 0.16941117 0.35060012 -0.21423982 0.3308785 0.54065967 0.47362128 -0.16713485
-0.49649453 0.634812 0.022660084 0.711082 0.46672654 0.6752456 0.13287438 -0.11290182
-0.30302358 -0.29114917 0.3568875 0.66256845 0.043661177 -0.28256142 0.38829872 0.564452
0.6910642 0.252912 -0.59372264 -0.41014326 -0.010828422 0.7062313 -0.069851786 0.039365858
0.5989015 0.23113056 0.4954872 -0.10771243 -0.34003237 -0.23887904 -0.50042886 0.19476523
-0.105920285 0.5610845 0.36965087 0.30522215 0.5732004 0.6197322 0.20879807 0.15000284
0.10470091 -0.07412726 0.20322159 -0.28701457 0.40567482 0.347127 0.45465836 0.5836712
-0.22010797 -0.16882667 0.4253114 0.21987157 0.3388604 0.20431694 0.16306938 -0.37378848
-0.65769446 -0.2999375 -0.09608957 0.5603208 0.1678617 0.32439044 0.048550274 0.61080205

transformer_encoder.layers.0.linear2.bias f4 [128]
00000000: c8ff 123f 5193 053f 0559 243e 2320 283f
00000010: 3bfd 4a3e f9ab a9be 42fc 28bf e58b a33e
00000020: 2015 d0bd 4f0e abbe b96d 693e 14b2 68bd
00000030: 0a5d d73e bc0d 01be 2664 d43d aa0a c83e
00000040: e925 ed3d 4338 c33e ac6d ea3e 724f 673e
00000050: 14fc 26be cf11 253f 6131 24bf 9aad 033e
00000060: c3a0 19bf c386 1c3f 0da4 883e 44f4 e3be
00000070: 2db5 7e3e a637 98be 8b1d 6b3d 0774 25bf
00000080: ae0e 8abe 949b 76be 7fd2 9e3e a936 bf3e
00000090: 4efa e83c 1f37 febd 14bc 003f e939 bc3b
000000a0: 6ece 1d3f a905 06bf 1f18 12be 323b 2bbf
000000b0: 5b48 863b 523d f4be 1d64 fcbe 92e9 14bf
000000c0: a16b 07bc 565c f33e 5c21 213e b1bd fc3e
000000d0: e5e1 0c3f 90b3 1dbf 4c5f 263f 5db2 b5be
000000e0: 09c7 a3be a454 bdbd 3c4d 0ebe 5dca 4bbe
000000f0: 1284 e73e f5b4 393e 10b4 11bf 7f31 c4be
00000100: 7c98 853e e2fe 0a3f 9fcd f63e 7f65 e83e
00000110: 67ba 873e 7805 a93e b836 c1be 8a70 20bf
00000120: 3414 243f 4085 a2bd 9590 593e f900 043e
00000130: 7cc2 16be 8215 203f cdd9 ebbe 64b4 9d3d
00000140: 6ef8 e93e bde1 a5be 17d6 25bf a8d6 d9be
00000150: fe89 7cbc 3c27 11be 886b e9be 5727 5a3e
00000160: 4ee0 e53e 5da9 b23e 160b 22bf 6c3b c7bc
00000170: e6ee c3be 25c9 2dbe a364 a13e 0b22 2ebf
00000180: 0b57 0cbf a259 13bf 2d33 113f 8445 983e
00000190: ca9a ee3e cc7b b2be c678 29bf 504a d0be
000001a0: 2ea9 3f3e b45b 12bf 8af3 23bd 359d f2be
000001b0: 10d6 87be 92e6 953d 5855 e63d 5661 f1be
000001c0: 050f 1cbf 6d73 d43e a43c 65be 3555 9e3e
000001d0: 02b6 db3e d9a6 483e f068 f1be 2a60 703e
000001e0: 77da 96be 003f 0fbf 4960 9dbe 80a3 02bf
000001f0: ad1f 94be 42c3 2abf a2ad 033e 516f 01be
0.5742154 0.5217791 0.16049583 0.65674037 0.19823162 -0.33139017 -0.66009915 0.3194267
-0.10160279 -0.33409354 0.22795762 -0.056810454 0.4206317 -0.12602895 0.10370664 0.39070636
0.115794964 0.38128862 0.45786798 0.225889 -0.16307098 0.644803 -0.64137846 0.12859192
-0.6001093 0.6114313 0.2668766 -0.44522297 0.248738 -0.29729956 0.05740122 -0.6463017
-0.26964325 -0.24082786 0.3101997 0.3734639 0.028439667 -0.12412857 0.50286984 0.005744208
0.6164311 -0.52352387 -0.14267014 -0.668872 0.004097981 -0.47703034 -0.4929513 -0.581689
-0.008265407 0.47531384 0.15735382 0.49363473 0.5503219 -0.61602116 0.6498916 -0.35487643
-0.3198779 -0.092446595 -0.1389665 -0.19901414 0.4521795 0.18135436 -0.5691538 -0.38319013
0.260929 0.5429517 0.4820375 0.45389935 0.265094 0.33011985 -0.3773706 -0.6267172
0.6409333 -0.07935572 0.2124656 0.12890996 -0.14722627 0.6253282 -0.46064606 0.077004224
0.4569735 -0.32398787 -0.647798 -0.42546582 -0.015413759 -0.14175123 -0.45589852 0.2130407
0.44897693 0.3489484 -0.63298166 -0.024320327 -0.38268203 -0.16971262 0.31522092 -0.68020695
-0.5482032 -0.57558644 0.56718713 0.29740536 0.4660247 -0.34860075 -0.6619991 -0.40681696
0.1871688 -0.5717118 -0.04002718 -0.47385564 -0.26530504 0.073193684 0.11246747 -0.47144574
-0.6096042 0.41494313 -0.22386414 0.30924383 0.42912298 0.19594897 -0.47150373 0.23474184
-0.2946355 -0.55955505 -0.30737522 -0.5103073 -0.28930417 -0.6670419 0.12859204 -0.1264012

transformer_encoder.layers.0.norm1.weight f4 [128]
00000000: d70c 803f 7640 7b3f 471b 793f 6ca4 863f
00000010: 6e57 843f d748 7c3f 3f78 7e3f cb64 7d3f
00000020: 9970 7b3f f0d1 803f 82e5 7d3f 282c 7d3f
00000030: 47a3 7d3f a0b0 7c3f 7ea6 7d3f c5e9 813f
00000040: 1a98 7d3f 0126 803f 1f0d 7e3f f4fd 793f
00000050: bcd0 803f 2c1c 813f 95ec 7f3f 4497 7b3f
00000060: b028 7c3f 69d9 803f b018 783f f5db 803f
00000070: 6b5a 803f 7996 7c3f 094b 823f dba0 7e3f
00000080: 76c1 7e3f d701 7f3f 7d1b 833f 2eb9 7b3f
00000090: ec65 803f 9c65 7f3f 5228 7e3f b60f 7f3f
000000a0: e8a0 813f 639b 803f ff97 803f 5b45 803f
000000b0: 3f27 783f 470e 7e3f 03a2 7f3f fe37 7f3f
000000c0: e2a6 6f3f b1d2 7d3f 4d75 7b3f 8787 7a3f
000000d0: dcbd 7b3f d5d2 813f b7d9 7e3f cd3b 753f
000000e0: 0e20 7f3f 9204 803f 8369 7e3f c9e8 7b3f
000000f0: d328 7e3f 3a07 7e3f 5cbe 7e3f bcf4 7f3f
00000100: 41b7 7e3f c933 803f 434d 773f 4f34 833f
00000110: 8f00 7e3f edd1 7d3f d9f6 7d3f 8836 7b3f
00000120: 3c11 7f3f 6eaa 813f 7819 7a3f 0b4b 843f
00000130: fa7d 773f 1f3d 813f 3422 803f 80c8 7d3f
00000140: b456 7f3f 181c 803f abf0 783f 79f5 803f
00000150: bb1e 7e3f ffb4 7a3f 723e 7b3f 2f50 7f3f
00000160: 6540 783f 15d0 7f3f c733 803f f49d 7f3f
00000170: 3322 803f 2fb3 813f addc 803f 7d37 823f
00000180: ea9c 7d3f 6a8c 813f 2e42 853f c700 7b3f
00000190: 0ac9 7b3f a423 813f 91b9 833f f6d0 803f
000001a0: addf 803f 8df8 7f3f 4e4a 7e3f 7319 7b3f
000001b0: ce55 713f a918 7a3f 464b 7d3f a828 7e3f
000001c0: c9d7 7a3f 198e 803f c8d3 743f 254d 793f
000001d0: 3706 7c3f b6d5 7d3f 4876 803f d067 813f
000001e0: 7bd2 7c3f 35b9 7b3f f3ce 793f 0763 813f
000001f0: dbfc 783f 7caf 793f 0724 783f 85f4 7c3f
1.0003918 0.98145235 0.97307247 1.0518928 1.0339181 0.98548645 0.9940223 0.9898192
0.98218685 1.0064068 0.99178326 0.988955 0.99077266 0.9870701 0.9908217 1.0149466
0.99060214 1.0011598 0.9923877 0.97653127 1.0063701 1.0086722 0.9997037 0.9827769
0.98499584 1.0066348 0.9691267 1.0067126 1.0027593 0.98667103 1.0179149 0.99464196
0.9951395 0.9961218 1.0242764 0.98329437 1.0031104 0.9976442 0.99280274 0.9963335
1.012723 1.004742 1.0046386 1.0021166 0.96934885 0.99240535 0.99856585 0.9969481
0.9361402 0.99149615 0.9822586 0.9786305 0.9833658 1.0142466 0.99550956 0.95794374
0.99658287 1.0001395 0.9937975 0.98402077 0.9928104 0.99229777 0.99509215 0.9998281
0.99498373 1.0015804 0.9660227 1.0250338 0.992196 0.99148446 0.99204785 0.98130083
0.9963567 1.0130136 0.9769511 1.0335401 0.966766 1.0096778 1.0010438 0.99134064
0.99741673 1.0008574 0.9724223 1.0074912 0.9926564 0.9793243 0.9814216 0.99731725
0.9697326 0.99926883 1.0015801 0.9985039 1.0010437 1.0132807 1.0067345 1.0173184
0.99067557 1.0120976 1.0410821 0.9804806 0.98353636 1.0089002 1.0291005 1.006377
1.006826 0.99988633 0.9933213 0.9808571 0.9427155 0.9769388 0.98942983 0.99280787
0.9798551 1.0043365 0.9563565 0.9738334 0.98446983 0.9915422 1.0036097 1.0109806
0.9875867 0.9832948 0.97581404 1.0108346 0.97260827 0.9753339 0.96929973 0.9881061

transformer_encoder.layers.0.norm1.bias f4 [128]
00000000: 4bbf 63bd 77cc 063b 3576 1abb 3b7c 8ebc
00000010: bacd 03bc 7253 4dbc 8e44 693c 6fdd 1a3b
00000020: b909 fbbb 5e78 aa3c 8309 66bc 4c5f babb
00000030: 8b87 08bd 3f27 80bc 5375 b03a 916a 80bc
00000040: c4fb d7bb 02d3 c2bb 7f1e c339 3962 a63b
00000050: 7c81 773b d6cb b5bc c25e 863c f832 b8bb
00000060: 1442 e53c 98be 99bc a5d4 1dbc 12c1 e73b
00000070: 1ad7 a53c ac87 333b aeab 1e3c 1f55 863c
00000080: 23e5 c2ba ec26 283c a3e7 e2bb 0b5a 863c
00000090: 7fb7 193b 371d b43b bf28 08bd b721 8b3c
000000a0: c3ab a3bb 36ec 0f3c defd b13a 56c2 6fba
000000b0: 4275 92bc aacc 943c 1d16 b03b 9dfd b83c
000000c0: b60e 433c 0478 19bc b076 b7bc ec81 13bb
000000d0: 72dd 653b edb2 983c 1c00 68bc f6a5 5d3b
000000e0: 2c83 263c c9ff 18bc 0b3e 0b3b 9d45 8f3c
000000f0: 8844 52bb 931c 4b3c 214b 16bc 714f 63ba
00000100: 0cde 7bbb febd 75bc 2a8d ddba 4660 86bc
00000110: 738b 14bc 2935 05bb ade1 4d3c 9f5a 2b3c
00000120: 2ab2 3c39 16ae 08b8 5b91 453c 9a99 8d3c
00000130: 6d40 473c ffb1 8cbc 96ad 9e3c 16b4 a9b8
00000140: b4ec f1bb eb40 81bb 9510 d03c ee48 193c
00000150: eef0 96ba a4e0 0cbc 2edf 0a3b 47f5 d4bb
00000160: adf3 efb9 b031 e8bb 6834 03bc 4527 b93c
00000170: 8c3b 48bb 64a9 42bc 9d4b 9cbc 4d34 393c
00000180: 6cfc 143b 1542 9dbb 3ea0 093b 0a0d 99bc
00000190: a61d 483c 7edc 14bd 5a16 de3c dd19 66bc
000001a0: 997c c5bb fd7f 283b 1f98 78bc 4a1e bc3c
000001b0: 4a40 7dba 08fd 833b d3c2 4f3b 49c8 bc3b
000001c0: 97c1 f73c 0d3e 49bc 93c7 6c3c 74be 31bc
000001d0: fa01 94bc 0be0 23bc 59db 29ba 03f5 84bc
000001e0: eb95 e83b 676b 88bc d522 dabb 9695 383c
000001f0: ad3d 1d3c 734b 493b a244 c8bc cb65 57bc
-0.055602353 0.0020568648 -0.0023568992 -0.017393222 -0.0080446545 -0.012532102 0.014237536 0.002363052
-0.007661071 0.020809349 -0.014040354 -0.00568763 -0.03333239 -0.015643714 0.00134627 -0.015675815
-0.006591292 -0.0059455642 0.0003721602 0.005077627 0.0037766388 -0.022191923 0.016402606 -0.0056213103
0.02798561 -0.01876764 -0.009633218 0.0070725763 0.02024417 0.00273941 0.009684486 0.01639801
-0.0014869313 0.010263186 -0.006924586 0.016400358 0.002345532 0.0054966467 -0.033241984 0.01698385
-0.004994841 0.008784344 0.0013579687 -0.0009146085 -0.017878179 0.018163998 0.00537373 0.02258187
0.011905363 -0.009366993 -0.022395462 -0.002250786 0.0035074619 0.018640006 -0.014160182 0.0033820844
0.01016311 -0.009338328 0.0021246697 0.017489249 -0.0032084305 0.012396949 -0.009173186 -0.00086712005
-0.003843191 -0.014998911 -0.0016903032 -0.016403329 -0.00906645 -0.0020325875 0.012566012 0.0104586175
0.00017995448 -3.2587057e-05 0.012058581 0.017285157 0.012161356 -0.017174719 0.019369882 -8.0920916e-05
-0.0073829535 -0.0039445064 0.025398532 0.009355767 -0.0011515894 -0.00859848 0.0021190154 -0.006498966
-0.00045767185 -0.0070860013 -0.0080081 0.022601733 -0.003055307 -0.011881206 -0.019079024 0.011303973
0.0022733463 -0.0047991374 0.0021000053 -0.018682975 0.0122141 -0.03634309 0.027110267 -0.014044252
-0.006026816 0.0025711053 -0.015172987 0.022963662 -0.0009660764 0.0040279664 0.0031701818 0.0057611805
0.030243678 -0.01228286 0.014451879 -0.01084863 -0.018067349 -0.0100021465 -0.0006479524 -0.016230112
0.0070979497 -0.016652776 -0.0066569843 0.011266133 0.009597224 0.0030715137 -0.02444679 -0.013146828

transformer_encoder.layers.0.norm2.weight f4 [128]
00000000: 5fe4 753f c216 753f a0d2 753f 6629 813f
00000010: 50b5 803f 1570 6c3f 2d62 753f bf36 773f
00000020: 27da 793f ed2a 7c3f a932 7a3f 9869 763f
00000030: 7442 6e3f ba59 7b3f b232 7c3f 70f2 703f
00000040: 548a 773f 70f3 793f 6319 773f afa8 6c3f
00000050: 87da 6b3f 7d02 753f 85c4 633f ec3b 703f
00000060: 89ad 6d3f 8d2e 793f 629a 6b3f b715 783f
00000070: a1a3 7b3f 0ad5 783f d3ff 783f 6c6b 743f
00000080: b3f7 773f 75a0 7b3f 082a 7c3f 1b31 763f
00000090: 4464 773f 6fd6 713f c195 7a3f 9887 793f
000000a0: 98a9 773f 9783 6d3f 199b 763f 8bcd 773f
000000b0: fab5 6f3f 1c09 763f 5cc9 7c3f 150c 7a3f
000000c0: f050 6c3f 7f66 793f 894f 733f 7088 783f
000000d0: c172 743f 48b5 703f cd54 703f 6048 783f
000000e0: 1312 7a3f 64a2 7a3f a178 703f abcd 613f
000000f0: 7448 7a3f 62e9 623f 5794 743f b118 6c3f
00000100: d707 793f 695f 763f fe29 793f 5041 753f
00000110: a52a 6f3f 2bee 7a3f 8fe6 763f 1cce 6c3f
00000120: 8d1e 773f 83f3 763f d0d5 773f 9337 803f
00000130: dbd6 753f cb83 763f 1d06 7e3f b855 7b3f
00000140: 9b14 6c3f e944 763f 5747 723f 3020 613f
00000150: baf8 763f c4e1 783f 5fd0 763f 79a1 793f
00000160: da39 603f 6441 783f e3e9 783f ba4a 7c3f
00000170: 1b4b 7c3f 6ef7 7a3f 600f 6f3f d564 773f
00000180: 7e36 7d3f 1d70 7a3f 338b 5e3f c8f5 783f
00000190: 763f 793f bafa 6b3f 935d 7f3f bf9b 763f
000001a0: 3e56 793f 8cfd 703f c1a4 773f 84b3 773f
000001b0: 2c68 673f 0782 783f 5506 783f 1c43 6d3f
000001c0: ce1a 703f c998 753f ba57 763f a646 763f
000001d0: c87f 713f 5e0a 783f 425a 7c3f 4d91 713f
000001e0: f1d2 793f 7ab7 713f 1693 773f 7f13 6e3f
000001f0: d8e4 763f e953 6c3f b383 6f3f 6e26 7a3f
0.9605159 0.9573785 0.96024513 1.0090759 1.0055332 0.92358524 0.9585293 0.9656791
0.975985 0.98503 0.9773355 0.96254873 0.9307015 0.98183787 0.98514855 0.9411993
0.96695447 0.9763708 0.9652311 0.9244489 0.9213032 0.9570692 0.8897174 0.93841434
0.9284292 0.97336656 0.92032444 0.96908134 0.9829655 0.9720007 0.97265357 0.9547641
0.96862334 0.98291713 0.98501635 0.9616868 0.9663737 0.94467825 0.97884756 0.97472525
0.96743155 0.92778915 0.9633041 0.9679801 0.9363705 0.9610765 0.9874475 0.97674686
0.92311 0.9742202 0.95043236 0.9708319 0.954876 0.94026613 0.93879396 0.96985435
0.9768383 0.9790404 0.93934065 0.8820445 0.97766805 0.88637364 0.9553885 0.92225176
0.9727759 0.96239334 0.973297 0.95802784 0.93424445 0.98019665 0.96445554 0.92502
0.9653099 0.9646532 0.96810627 1.001696 0.9603097 0.9629485 0.9922808 0.9817767
0.9221894 0.961989 0.94640106 0.8793974 0.96473277 0.9721949 0.964117 0.9751201
0.87588274 0.9697478 0.9723188 0.98551524 0.985521 0.980338 0.93382835 0.9663823
0.98911273 0.9782732 0.8693115 0.9725003 0.9736246 0.92179453 0.9975216 0.963314
0.9739722 0.9413688 0.9673577 0.96758294 0.9039333 0.97073406 0.9688466 0.92680526
0.937909 0.95936257 0.9622761 0.9620155 0.94335604 0.9689082 0.9857522 0.94362336
0.97587496 0.9442059 0.9670881 0.929985 0.9644294 0.92315537 0.9356033 0.9771489
