adult/Models/mixture_v1/0.8512_1/params.pt (torch_old, 21901 bytes, 59 tensors)

attention_mechanism.in_proj_weight f4 [24, 8]
0	0xbe936379	-0.2878683
1	0xbf0e9f35	-0.5571168
2	0xbf120c87	-0.57050365
3	0xbf3bd46c	-0.73371005
4	0xbee2085d	-0.44147006
5	0x3eb5336c	0.35390794
6	0xbf340f84	-0.70336175
7	0x3f19fafd	0.601486
8	0xbdb2ecdc	-0.087365836
9	0xbd35a080	-0.044342518
10	0x3eeff624	0.46867478
11	0xbdfad100	-0.12246895
12	0x3d5c2442	0.053745516
13	0x3f1d74e3	0.6150648
14	0xbf0fd1ab	-0.561793
15	0x3e602d79	0.21892346
16	0x3e8a2bd7	0.26986572
17	0x3d983ee6	0.07433872
18	0xbef70bb6	-0.48251122
19	0x3eff4587	0.49857733
20	0xbe52101d	-0.20513959
21	0xbe71fb13	-0.23630933
22	0xbe0b4ba2	-0.1360307
23	0xbe8346ee	-0.25640053
24	0x3df58934	0.1198906
25	0xbf7a290b	-0.97718877
26	0xbfae0979	-1.3596641
27	0x3df56333	0.119818114
28	0xbd0eec83	-0.034893524
29	0xbd09a91e	-0.03360855
30	0xbea2b538	-0.31778884
31	0xbe786d2f	-0.242604
32	0xbf83a6fe	-1.0285337
33	0xbef29bc8	-0.47384477
34	0xbf3ab22e	-0.7292813
35	0x3f00f4c8	0.50373507
36	0xbd2c6040	-0.04208398
37	0xbf4f42b7	-0.80961174
38	0xbc536dd2	-0.012904601
39	0xbe862b72	-0.2620502
40	0x3e284062	0.1643081
41	0x3f05d4e7	0.5227799
42	0x3ed0e124	0.4079677
43	0x3f26f5dd	0.6521891
44	0x3eaa3065	0.33240047
45	0xbf0dca26	-0.5538658
46	0x3ef60887	0.4805338
47	0xbf03d74e	-0.51500404
48	0x3f734f26	0.95042646
49	0x3fc0fc75	1.5077044
50	0x3e02f530	0.12788844
51	0x3f132642	0.5748025
52	0x3ed042e0	0.40676022
53	0x3f1a35c5	0.60238296
54	0x3d719055	0.058975536
55	0x3df95b6b	0.1217564
56	0xbf38957e	-0.72103107
57	0xbc7cd4b1	-0.015431569
58	0x3eee5a91	0.46553472
59	0xbe2907ac	-0.16506833
60	0xbedce7a3	-0.43145475
61	0x3f619652	0.88119996
62	0x3db65976	0.08903782
63	0x3e171f44	0.1475802
64	0x3f53eca1	0.8278294
65	0x3d32bf03	0.043639194
66	0xbdb32129	-0.08746559
67	0x3f19a784	0.60021234
68	0xbf15cc3e	-0.58514774
69	0xbef5f41a	-0.48037797
70	0x3f1e27da	0.6177956
71	0xbe305854	-0.17221195
72	0x3e87aa74	0.26497233
73	0xbd778c6c	-0.06043665
74	0x3db03ce9	0.08605368
75	0xbef773d6	-0.48330563
76	0xbea91890	-0.33026552
77	0xbf0eb78a	-0.5574881
78	0x3f142c95	0.57880527
79	0xbec208fb	-0.37897477
80	0xbbfb8ca6	-0.0076766787
81	0x3a9ab62f	0.0011803563
82	0xbe8d4e35	-0.2759873
83	0xbe4ac5fa	-0.19802085
84	0x3efd7c7b	0.49509034
85	0x3e357ffc	0.17724603
86	0x3e98e6b7	0.2986352
87	0xbec127fa	-0.37725812
88	0x3f70d9e4	0.94082475
89	0x3f898c1d	1.0745884
90	0xbe33b1f8	-0.17548358
91	0x3f933239	1.1499702
92	0x3e7c2f95	0.24627526
93	0x3ebb4095	0.3657271
94	0xbd72ae29	-0.059248123
95	0xbf14793b	-0.57997483
96	0x3e7c5dfd	0.24645229
97	0x3f93dff4	1.155272
98	0xbed85ca2	-0.42258173
99	0x3f448916	0.76771677
100	0x3f89c40d	1.0762955
101	0xbf7761ec	-0.9663379
102	0xbf3121ed	-0.6919239
103	0xbf2f36f9	-0.68443257
104	0xbf8e9461	-1.1139032
105	0xbef95e60	-0.48704815
106	0xbeed379b	-0.46331486
107	0xbf54727e	-0.829872
108	0x3f563c81	0.8368607
109	0x3ef5d2c8	0.48012376
110	0x3e24cdba	0.16094103
111	0x3f76f5d0	0.9646883
112	0x3e82a295	0.25514665
113	0xbf5ee37c	-0.87065864
114	0xbd4c0a7b	-0.049814682
115	0xbed0128a	-0.40639144
116	0x3e872367	0.26394197
117	0x3f43dea7	0.76511616
118	0xbf40ebe5	-0.75359946
119	0xbf0451d0	-0.51687336
120	0xbee4ad34	-0.44663393
121	0xbed302bb	-0.4121302
122	0x3e85f2e3	0.2616187
123	0x3c84e860	0.016224086
124	0x3d543b18	0.05181417
125	0xbef21721	-0.4728327
126	0x3e5ebce0	0.21751738
127	0xbf122127	-0.57081836
128	0x3d9c89c7	0.076434664
129	0xbe540693	-0.20705633
130	0x3e4e509a	0.20147935
131	0xbef22cee	-0.47299904
132	0xbd9ab049	-0.07553155
133	0x3e739991	0.2378905
134	0x3f0bd877	0.54627174
135	0xbe67e2a4	-0.2264505
136	0x3eab7e9f	0.33495042
137	0xbedfdc65	-0.43722835
138	0xbdf8517c	-0.12124917
139	0xbde8d486	-0.11368661
140	0x3e5ac3b5	0.21363719
141	0x3c8f890e	0.017521407
142	0xbf205925	-0.62636024
143	0xbf2fdde2	-0.6869794
144	0xbd5d1f36	-0.053984843
145	0x3ee12dd8	0.43980289
146	0xbe9902d1	-0.2988496
147	0x3bc3390e	0.005957729
148	0x3d955d0c	0.07293138
149	0xbf3b49ee	-0.7315968
150	0x3fbfcfa1	1.4985238
151	0x3e642b3f	0.22282122
152	0xbf32dba2	-0.69866383
153	0x3efe2817	0.4963996
154	0x3e96a425	0.29422107
155	0x3eb63723	0.3558894
156	0x3ecfd0f1	0.40589097
157	0x3e33eaef	0.17570089
158	0x3eb71d76	0.35764664
159	0xbf18958a	-0.5960318
160	0xbe45d8d7	-0.19320999
161	0x3ed767a4	0.4207126
162	0xbe3aeb58	-0.18253839
163	0x3e012938	0.1261338
164	0xbecae529	-0.3962796
165	0x3d8be2bf	0.06830358
166	0x3f0b3ceb	0.5438983
167	0x3f37e21e	0.718294
168	0xbedb3a98	-0.4281814
169	0x3e8654ca	0.26236564
170	0x3e2df038	0.16986167
171	0x3e211b14	0.15732986
172	0xbefb160d	-0.4904026
173	0x3edd61a5	0.4323856
174	0xbe8c3a33	-0.27388152
175	0x3ee96958	0.45588183
176	0x3db836bb	0.08994814
177	0xbca0433a	-0.019563306
178	0xbc133e99	-0.008987092
179	0xbeba3b37	-0.36373302
180	0x3e89390b	0.26801333
181	0x3ce34c64	0.027746387
182	0xbf0d663c	-0.5523412
183	0xbf0d2776	-0.5513834
184	0x3f2225e2	0.63339055
185	0x3df89858	0.12138432
186	0x3e3cd2ad	0.18439741
187	0x3db1028d	0.08643065
188	0x3e8a686a	0.27032787
189	0x3d3f1541	0.04665113
190	0x3e74e51b	0.23915522
191	0x3e3d28cd	0.18472596

attention_mechanism.in_proj_bias f4 [24]
0	0x3e09c824	0.13455254
1	0x3d029b56	0.03188642
2	0xbe99d891	-0.3004804
3	0x3ecd542b	0.40103278
4	0x3e977b06	0.29586047
5	0xbf215fbc	-0.63036704
6	0xbe10be4c	-0.14135092
7	0xbceddaba	-0.029034961
8	0x3db8a960	0.09016681
9	0x3d0dbf0a	0.034606017
10	0x3e06e2ec	0.13172501
11	0x3d97cc51	0.07412017
12	0xbd01fc6b	-0.031734865
13	0xbd872178	-0.065981805
14	0xbe0980a5	-0.1342798
15	0x3d68ab2d	0.05680387
16	0x3f861d4c	1.0477691
17	0x40215b8c	2.5212126
18	0xbd516702	-0.051123627
19	0x402dbd35	2.7146733
20	0x3fb9b9fd	1.4509884
21	0x4028c8fd	2.6372674
22	0xc002571f	-2.0365674
23	0xc054d468	-3.3254642

attention_mechanism.out_proj.weight f4 [8, 8]
0	0x3da3c51d	0.07996581
1	0x3e84017f	0.2578239
2	0x3f4c9ab5	0.79923564
3	0xbec6fedf	-0.38866326
4	0xbeb027ea	-0.34405452
5	0xbf2edbcb	-0.6830413
6	0x3e968bc9	0.29403523
7	0x3ea4df53	0.32201633
8	0x3c00e675	0.007867445
9	0x3ec3d16c	0.38245714
10	0x3dee4a4d	0.116352655
11	0x3eeb4c6e	0.4595675
12	0xbe5b5bbf	-0.21421717
13	0x3ecd8866	0.40143126
14	0xbd64853c	-0.055791125
15	0xbf29988d	-0.662484
16	0xbf046361	-0.5171414
17	0xbec0e299	-0.3767288
18	0xbb540372	-0.0032350686
19	0xbeef6d16	-0.46762913
20	0x3f75b8c3	0.9598505
21	0x3f481ffb	0.781738
22	0xbf2562eb	-0.6460406
23	0xbdcf3182	-0.10116865
24	0x3e92a8a3	0.28644285
25	0x3f03e950	0.5152788
26	0x3f3aad1c	0.72920394
27	0x3e4cd107	0.20001613
28	0x3e9ad07b	0.30237183
29	0xbf15a726	-0.58458173
30	0xbf3b2f62	-0.73119175
31	0xbc16d1bd	-0.009205279
32	0x3e6ca1ed	0.23108645
33	0xbf94acfe	-1.1615293
34	0x3e9ab6ed	0.30217686
35	0xbe8f5fa5	-0.28002658
36	0x3e5208f5	0.2051123
37	0x3e247a6a	0.16062322
38	0xbece5450	-0.402987
39	0x3e3fdacf	0.18735813
40	0xbf120374	-0.5703652
41	0xbe228337	-0.15870367
42	0x3d327a67	0.043573763
43	0x3ef67feb	0.4814447
44	0xbd1fbaa7	-0.038996365
45	0xbe3945f2	-0.18093088
46	0xbe18439d	-0.14869542
47	0x3f0e0bac	0.5548656
48	0xbdafea3e	-0.085896
49	0xbec15b5b	-0.3776501
50	0x3e3a86ac	0.18215436
51	0x3d653817	0.055961695
52	0xbe69a3cb	-0.22816388
53	0xbf425832	-0.75915825
54	0x3ed0803e	0.4072284
55	0x3e8900c4	0.26758397
56	0x3e892ff2	0.26794392
57	0xbe98a232	-0.29811245
58	0x3f29adc1	0.6628075
59	0x3f373e40	0.7157936
60	0x3f2044ed	0.6260517
61	0x3f11e8d8	0.56995916
62	0xbec2a28d	-0.3801464
63	0xbeffa359	-0.49929312

attention_mechanism.out_proj.bias f4 [8]
0	0x3da80855	0.08204714
1	0xbc58f2dd	-0.013241497
2	0x3d62cc43	0.05537058
3	0xbd920a4a	-0.07130869
4	0x3cac8b1b	0.021062424
5	0x3d418ca0	0.04725325
6	0x3c4c16ba	0.01245659
7	0xbdb16c95	-0.086632885

embedding.0.bias f4 [8]
0	0x3f995c18	1.198123
1	0xbfecd208	-1.8501596
2	0xbfbbdac1	-1.4676133
3	0x3e566c70	0.20939803
4	0xbf8f2d5d	-1.1185719
5	0xbeb0520c	-0.34437597
6	0xc01678d4	-2.3511248
7	0xbf8e9869	-1.1140262

embedding.0.weight_g f4 [8, 1]
0	0x3f8deaa4	1.1087232
1	0x3e872746	0.2639715
2	0xbf4ab67c	-0.791847
3	0x3fa9ed75	1.3275591
4	0x3fd4090a	1.6565259
5	0x3e17b821	0.14816333
6	0x3f87d01a	1.0610383
7	0x3f2365da	0.6382729

embedding.0.weight_v f4 [8, 1]
0	0xbf11ed5a	-0.57002795
1	0xbe83df07	-0.25756094
2	0x3ef9bc0f	0.4877629
3	0x3f51ac47	0.819035
4	0xbf4df41d	-0.8045061
5	0xbef4e502	-0.4783097
6	0xbef60805	-0.48052993
7	0x3f6c20cd	0.9223755

embedding.1.bias f4 [8]
0	0x3f91525d	1.135326
1	0xbf53035c	-0.82427
2	0xbe73cae7	-0.2380787
3	0xc01d8ef1	-2.4618495
4	0x404c23ed	3.1896927
5	0x3f215254	0.6301625
6	0xc010b7a1	-2.2612078
7	0xc0076f02	-2.1161504

embedding.1.weight_g f4 [8, 1]
0	0x3cf4b5f9	0.029871928
1	0x3e3f430e	0.18677923
2	0x3ec648fb	0.38727555
3	0x3ed70e8c	0.42003286
4	0x3f2cc15a	0.6748253
5	0x3e926db6	0.28599328
6	0x3e24d699	0.16097488
7	0x3f6c1e70	0.92233944

embedding.1.weight_v f4 [8, 1]
0	0xbd27aed4	-0.040938213
1	0x3e000000	0.125
2	0x3daf9761	0.08573795
3	0xbf81618e	-1.0107896
4	0x3f4a74b7	0.7908434
5	0xbf191206	-0.59793127
6	0xbe800000	-0.25
7	0x3f95073b	1.1642832

embedding.2.bias f4 [8]
0	0xbbb44833	-0.005501771
1	0xbfe4d059	-1.7876083
2	0xbfde4b8d	-1.7366806
3	0x3de459da	0.1114995
4	0xbf8f43b0	-1.1192532
5	0xbf5a6182	-0.85305035
6	0xbeeff33b	-0.46865258
7	0xbe4605f6	-0.19338211

embedding.2.weight_g f4 [8, 1]
0	0x3ab24ef8	0.0013603857
1	0xbea57a1f	-0.32319734
2	0x3f7f596f	0.9974584
3	0x3df792ad	0.12088523
4	0x3faed3a6	1.365834
5	0x3f5ea569	0.86971146
6	0x3fb80cfa	1.437896
7	0x3f0bdeec	0.54637027

embedding.2.weight_v f4 [8, 1]
0	0xbda9041c	-0.08252737
1	0xbe14a5d9	-0.14516391
2	0x3f481905	0.78163177
3	0x3dcaa344	0.09894422
4	0xbf195e73	-0.59909743
5	0x3e8b8228	0.2724774
6	0xbf256ce5	-0.64619285
7	0x3c49c74d	0.012315583

embedding.3.bias f4 [8]
0	0x3dbafe34	0.09130517
1	0x3fcca874	1.5988908
2	0x3f9b59d0	1.2136784
3	0x3f89fa69	1.0779544
4	0xc01be55a	-2.4358735
5	0x3fc381fd	1.5274044
6	0xbf2bf0e0	-0.6716442
7	0x3fc03de7	1.5018891

embedding.3.weight_g f4 [8, 1]
0	0x3f0d2c2d	0.5514553
1	0x3fc1d726	1.5143783
2	0x3f458a0c	0.7716377
3	0x3fb2c025	1.3964888
4	0x3f92c8bb	1.1467508
5	0x3f7af841	0.98035055
6	0x3f910e15	1.1332422
7	0x3ee34a67	0.44392702

embedding.3.weight_v f4 [8, 1]
0	0x3ef86f42	0.48522383
1	0xbf2c1f0d	-0.6723488
2	0x3f54624a	0.8296248
3	0xbf022298	-0.50834036
4	0xbf5ab212	-0.85427964
5	0x3f377a7e	0.71671283
6	0x3f312c0a	0.69207823
7	0xbea7ccb1	-0.32773355

embedding.4.bias f4 [8]
0	0x3e612960	0.2198844
1	0x3f0483a8	0.5176339
2	0xbef50fb7	-0.47863552
3	0xbeabd73b	-0.33562645
4	0x3f847684	1.0348668
5	0xbf034311	-0.5127421
6	0x3ff2e4ac	1.8976035
7	0x3fb66ec5	1.4252554

embedding.4.weight_g f4 [8, 1]
0	0x3f8f6252	1.120188
1	0x3db008b0	0.08595407
2	0x3fa53fb0	1.2910061
3	0x3f2762ff	0.6538543
4	0x3f553fe0	0.8330059
5	0x3e0fb0b2	0.14032248
6	0x3f6a85a6	0.9161018
7	0x3f1abee7	0.60447544

embedding.4.weight_v f4 [8, 1]
0	0x3e3e03f5	0.18556197
1	0x3f6f924a	0.93582594
2	0xbf843239	-1.0327827
3	0x3f8ed0c7	1.1157464
4	0x3f0df6f6	0.5545496
5	0x3e859e98	0.2609756
6	0xbe9925db	-0.29911694
7	0x3f3a38a3	0.7274267

embedding.5.bias f4 [8]
0	0x3e61e707	0.22060786
1	0x3f1af189	0.60524803
2	0xbf0123ed	-0.50445443
3	0x3a963d77	0.001146241
4	0x3e2cac70	0.16862655
5	0xbe8724fd	-0.26395407
6	0xbecf7131	-0.40516046
7	0x3f6404e3	0.89069957

embedding.5.weight_g f4 [8, 1]
0	0x3f29009c	0.66016555
1	0x3f5dba3f	0.86612314
2	0xbd996fa7	-0.07491999
3	0x3f68e5b7	0.9097552
4	0xbe043844	-0.12912089
5	0xbd83bd00	-0.06432533
6	0x3dc59831	0.09648169
7	0x3f51fca0	0.820261

embedding.5.weight_v f4 [8, 1]
0	0xbf5463eb	-0.8296496
1	0xbf64818d	-0.8926018
2	0x3dee474e	0.11634694
3	0x3f2f934d	0.6858414
4	0x3e7743a4	0.24146897
5	0x3e1b7eb5	0.15185054
6	0xbdae4603	-0.085094474
7	0xbf84e461	-1.0382196

embedding.6.bias f4 [8]
0	0x3e9f7644	0.31144917
1	0xbe4573e3	-0.19282489
2	0xbedf8df1	-0.4366298
3	0x3c94bb60	0.018155754
4	0xbe1b56b8	-0.151698
5	0x3c3b94ae	0.011449022
6	0xbfd91dac	-1.696218
7	0x3f7b5ab0	0.98185253

embedding.6.weight_g f4 [8, 1]
0	0x3fd9c3c7	1.7012872
1	0x3f68c62b	0.9092738
2	0x3eb95ca7	0.362035
3	0xbdfccded	-0.12343965
4	0xbeb88100	-0.3603592
5	0x3faa79fc	1.3318477
6	0xbd40a886	-0.047035716
7	0x3d7d420b	0.06183056

embedding.6.weight_v f4 [8, 1]
0	0x3ee116e9	0.43962792
1	0x3f6b68e3	0.9195692
2	0xbea8f621	-0.3300028
3	0x3e67acb2	0.22624472
4	0x3e6bc607	0.2302476
5	0x3f4e085f	0.80481523
6	0x3f0ec2c3	0.5576593
7	0x3e71129b	0.23542254

embedding.7.bias f4 [8]
0	0x3f58b10f	0.8464517
1	0xbf33d561	-0.70247465
2	0xbc681f2c	-0.014167588
3	0xbf5d14c5	-0.86359817
4	0xbfc80acb	-1.5628294
5	0x3cded28a	0.027200002
6	0x3fca83b0	1.5821438
7	0x3fa937fc	1.322021

embedding.7.weight_g f4 [8, 1]
0	0xbcc4a9b5	-0.024006704
1	0x3e03b07e	0.12860295
2	0x3e6b5df6	0.22985062
3	0x3f1d5dc5	0.61471206
4	0x3ea252f9	0.31703928
5	0x3e1e0456	0.15431342
6	0x3cb15a42	0.021649484
7	0xbab68f9d	-0.0013928298

embedding.7.weight_v f4 [8, 1]
0	0xbdbd00a5	-0.092286386
1	0xbeaaaad0	-0.33333445
2	0x3f36124e	0.7112168
3	0xbf496d84	-0.7868273
4	0xbf069975	-0.52577907
5	0xbe797a50	-0.24363065
6	0x3e060146	0.13086423
7	0xbd959e86	-0.073056266

embedding.8.bias f4 [8]
0	0x3ec37f23	0.38182935
1	0x3edd191b	0.43183216
2	0x3edeb76f	0.43499324
3	0xbd98de47	-0.07464271
4	0xbe449908	-0.19199002
5	0xbf10629e	-0.5640048
6	0xbf8703d8	-1.0548048
7	0xbe0bf9b1	-0.13669468

embedding.8.weight_g f4 [8, 1]
0	0x3fb3177f	1.3991545
1	0xbd47b142	-0.04875303
2	0x3f5131de	0.81716716
3	0xbef9c8e5	-0.48786083
4	0xbf5f5b1c	-0.87248397
5	0xbe13ebaa	-0.14445367
6	0x3f21a32b	0.631396
7	0x4002be57	2.0428674

embedding.8.weight_v f4 [8, 1]
0	0xbf2d1ada	-0.676191
1	0x3eef7822	0.46771342
2	0xbea58ae6	-0.32332534
3	0xbe5018c2	-0.20321944
4	0xbe4a22a6	-0.1973978
5	0x3f5d0487	0.86335033
6	0x3f54fce7	0.831984
7	0xbf6509b5	-0.89467937

embedding.9.bias f4 [8]
0	0xbf673644	-0.9031718
1	0x3f39c176	0.7256082
2	0x3ff746dc	1.93185
3	0x3f8e9816	1.1140163
4	0xbf8948e6	-1.0725372
5	0x3f27d879	0.65564686
6	0x3ec57dcd	0.3857254
7	0xbf2bcb28	-0.67106867

embedding.9.weight_g f4 [8, 1]
0	0x401e3efc	2.4725943
1	0xc0171938	-2.3609142
2	0xc024f300	-2.5773315
3	0xbd25f0ac	-0.040512726
4	0xbffd093c	-1.9768443
5	0x3f77dd26	0.9682182
6	0x3ff70e3c	1.9301219
7	0x3ea226c6	0.31670207

embedding.9.weight_v f4 [8, 1]
0	0xbecaf935	-0.39643255
1	0x3e6c8980	0.23099327
2	0xbed7bec2	-0.42137724
3	0x3f550b4e	0.83220375
4	0xbf3484a2	-0.7051488
5	0x3f627ddb	0.8847329
6	0xbecfee40	-0.40611458
7	0x3e206eb0	0.15667224

embedding.10.bias f4 [8]
0	0xbe09de81	-0.13463785
1	0xbee92a74	-0.45540202
2	0x3ec4ff87	0.38476202
3	0x3ed28fbc	0.41125286
4	0xbe61b823	-0.22042899
5	0x3f306732	0.68907464
6	0x3e7be368	0.24598467
7	0x3f377b00	0.7167206

embedding.10.weight_g f4 [8, 1]
0	0x3f0795e4	0.5296309
1	0x3e3caef8	0.1842612
2	0xbb6a1cf6	-0.0035722828
3	0x3fa7302d	1.3061577
4	0xbdf27abe	-0.118398175
5	0x3f7e37aa	0.99303687
6	0x3e15c923	0.14627509
7	0xbefe663b	-0.4968737

embedding.10.weight_v f4 [8, 1]
0	0x3eea69a6	0.45783728
1	0x3e83dd04	0.2575456
2	0x3ef7ef48	0.48424745
3	0x3f347e2d	0.7050503
4	0x3d8b5be1	0.06804634
5	0xbeba6a1f	-0.3640909
6	0xbebd4637	-0.36967632
7	0x3e103e50	0.1408627

embedding.11.bias f4 [8]
0	0xbc5e9a58	-0.013586603
1	0x3e455e55	0.19274266
2	0xbf5812c6	-0.84403646
3	0xbd8eac81	-0.06966496
4	0x3d24010c	0.04004006
5	0x3f61dad3	0.88224524
6	0x3f5205f0	0.8204031
7	0xbedc3859	-0.4301174

embedding.11.weight_g f4 [8, 1]
0	0x40d19040	6.5488586
1	0xc061b41f	-3.5266187
2	0x4030c465	2.761987
3	0x408d8baf	4.423301
4	0x40638f86	3.555635
5	0x40632bd5	3.5495503
6	0x404c9298	3.1964474
7	0x40a2b634	5.0847416

embedding.11.weight_v f4 [8, 1]
0	0x3e91d84c	0.28485334
1	0xbea52665	-0.32255855
2	0x3f010f73	0.504142
3	0x3f000000	0.5
4	0xbee79fef	-0.45239207
5	0xbe1fa81e	-0.15591475
6	0x3f071432	0.5276519
7	0xbf73d813	-0.9525158

embedding.12.bias f4 [8]
0	0xbf34bed2	-0.7060367
1	0xbf5b1afc	-0.8558805
2	0xbf761b2d	-0.96135217
3	0xbf0717fc	-0.5277097
4	0xbf2e0385	-0.6797412
5	0xbda0c3d6	-0.07849853
6	0xbec9216a	-0.39283305
7	0x3e88013b	0.2656344

embedding.12.weight_g f4 [8, 1]
0	0xbf05406c	-0.52051425
1	0x3ffd518f	1.9790515
2	0x401a8033	2.4140747
3	0x3eae4aa4	0.3404132
4	0x3f959668	1.1686525
5	0x3fe7c395	1.8106562
6	0xbff30732	-1.8986571
7	0xbe54355b	-0.20723478

embedding.12.weight_v f4 [8, 1]
0	0xbf233f7a	-0.6376873
1	0x3f0c7443	0.548649
2	0x3f89f27a	1.0777123
3	0x3f57cce2	0.84297
4	0x3ec76e2f	0.3895125
5	0x3f74fb27	0.9569573
6	0xbedf59b5	-0.4362313
7	0xbd43ab2d	-0.047770668

embedding.13.bias f4 [8]
0	0x3ec88e98	0.3917129
1	0x3ebc3c0e	0.36764568
2	0xbe1c0405	-0.15235908
3	0x3f9867fb	1.1906732
4	0xbe0872ee	-0.13325092
5	0x3eca79e2	0.39546114
6	0x3e71c700	0.23611069
7	0xbfab94a3	-1.3404735

embedding.13.weight_g f4 [8, 1]
0	0x3f6aa99d	0.9166506
1	0x3f5e498e	0.86830986
2	0x3f71151d	0.9417284
3	0x3f9a6068	1.2060671
4	0x3ee19fe5	0.44067302
5	0x3f423cf7	0.75874275
6	0x3f6a05bb	0.91414994
7	0x3ee5627a	0.44801694

embedding.13.weight_v f4 [8, 1]
0	0xbf46fa93	-0.77726096
1	0xbec4dd36	-0.3845002
2	0x3f3f09e5	0.7462447
3	0xbf591f11	-0.8481303
4	0x3f395154	0.7238972
5	0x3ea7a81e	0.3274545
6	0xbf50e502	-0.8159944
7	0x3d9297c4	0.07157853

representation.0.weight f4 [16, 112]
0	0x3ebb7e16	0.36619633
1	0x3e893f7b	0.26806244
2	0xbf6ac6eb	-0.91709775
3	0x3ecacbad	0.39608517
4	0xbf81b174	-1.0132279
5	0x3e09a0ab	0.13440196
6	0x3e43bb0e	0.19114324
7	0xbe75f82b	-0.2402045
8	0xbe290eb5	-0.16509517
9	0xbf10c432	-0.5654937
10	0xbe3c2b1c	-0.1837582
11	0x3ea662bc	0.32497203
12	0x3ea7973c	0.3273257
13	0x3d89795f	0.06712603
14	0x3c2ef9db	0.010679687
15	0xbe745712	-0.2386134
16	0xbf2fb287	-0.68631786
17	0x3f4690b0	0.77564526
18	0xbf5afb62	-0.8553983
19	0x3e8d8727	0.27642176
20	0xbf0e2c8e	-0.55536735
21	0x3e8c9d33	0.27463683
22	0x3e5bf5f4	0.21480542
23	0x3e7ad301	0.24494554
24	0x3e556b9e	0.20841834
25	0xbe92eb3a	-0.2869509
26	0xbec28ce5	-0.3799812
27	0x3ec71a2f	0.38887164
28	0x3e0f3999	0.13986816
29	0xbe1159c3	-0.14194398
30	0x3d393082	0.045212276
31	0xbe50f006	-0.20404062
32	0xbdcfa058	-0.10138005
33	0xbe503dee	-0.20336124
34	0xbc21a358	-0.009865604
35	0xbf17b9bd	-0.5926779
36	0x3d026da1	0.03184283
37	0xbee10de1	-0.439559
38	0xbe7d3ba6	-0.24729785
39	0xbf0e2e80	-0.55539703
40	0xbc8287cd	-0.015933895
41	0x3cfaceec	0.030616246
42	0xbc88752c	-0.016657434
43	0xbcd92ec6	-0.026511561
44	0xbe958b6a	-0.29207927
45	0xbcef67af	-0.029224245
46	0xbe83e024	-0.25756943
47	0xbba83ffa	-0.0051345797
48	0x3d2acfae	0.041701965
49	0x3cd4c265	0.0259716
50	0x3e5cba0b	0.21555345
51	0x3f069c7e	0.5258254
52	0x3dc67bb9	0.09691567
53	0x3d42bfeb	0.04754631
54	0xbded7566	-0.115946576
55	0x3e213f08	0.15746701
56	0xbeae2ce8	-0.34018636
57	0xbe1e5659	-0.15462627
58	0xbd2c5915	-0.042077143
59	0xbcd1f2d5	-0.025628487
60	0xbbabd718	-0.005244147
61	0x3d3e7695	0.046499807
62	0xbceeb6c9	-0.029139893
63	0xbe00f56a	-0.12593618
64	0xbe9ed0bd	-0.3101863
65	0x3f222863	0.63342875
66	0x3ef47990	0.47748995
67	0x3ee7252e	0.45145553
68	0xbe925e16	-0.28587407
69	0xbed98206	-0.42482013
70	0xbf3a8d3c	-0.72871757
71	0x3e5bab74	0.21452123
72	0xbe13bd19	-0.14427604
73	0xbe429d13	-0.19005232
74	0x3d252a74	0.04032369
75	0x3e959dd5	0.2922198
76	0x3d97dcc9	0.07415158
77	0x3da86b7d	0.08223627
78	0x3dcb2828	0.099197686
79	0x3e633cc8	0.22191155
80	0xbdd65812	-0.10466017
81	0xbeb48dbb	-0.35264382
82	0x3ecddb00	0.40206146
83	0xbecdf4f3	-0.40225944
84	0x3ed47e57	0.4150264
85	0x3dbb8b21	0.09157396
86	0x3e533ad4	0.2062791
87	0x3c1443cd	0.009049368
88	0x3f5ba19c	0.8579347
89	0xbf7ac43b	-0.97955674
90	0xbe556b0a	-0.20841613
91	0xbfd1a0a5	-1.637715
92	0x3e80c28f	0.25148436
93	0xbc976128	-0.018478945
94	0x3f52da9c	0.8236482
95	0xbfd36c4c	-1.6517425
96	0x3cdce96b	0.026966771
97	0x3e3cba01	0.1843033
98	0xba97e6e0	-0.0011589192
99	0xbe1be720	-0.15224886
100	0xbe6410c9	-0.22272028
101	0xbec4bef0	-0.38426924
102	0xbde2aa2a	-0.110676125
103	0xbd8e665a	-0.06953116
104	0xbecea3c0	-0.40359306
105	0x3edd33d6	0.4320361
106	0x3eec5b29	0.461633
107	0xbd9b441d	-0.07581351
108	0xbec8a3ca	-0.3918746
109	0x3d9575c9	0.07297856
110	0x3e2b655a	0.16737881
111	0x3df91d86	0.12163834
112	0xbe019a5e	-0.12656543
113	0xbdaa3e5b	-0.083126746
114	0x3e24015d	0.16016145
115	0xbf1ce45d	-0.61285955
116	0xbd9be775	-0.07612506
117	0xbe457413	-0.1928256
118	0xbe1949fd	-0.1496963
119	0xbd8e6fcf	-0.069549195
120	0x3d547d60	0.05187738
121	0x3e1462b6	0.1449078
122	0x3e29fcce	0.16600344
123	0x3c2388a4	0.009981308
124	0xbe4be140	-0.19910145
125	0x3cbdb447	0.023157252
126	0xbe0fc854	-0.14041263
127	0x3eaaf8bf	0.33392903
128	0xbe8eb837	-0.2787492
129	0x3ea177a8	0.31536603
130	0xbdbdeb89	-0.092734404
131	0xbef1de45	-0.4723989
132	0xbe5b9b45	-0.2144595
133	0x3d98bdf3	0.07458105
134	0xbe7abac2	-0.24485305
135	0x3da7c879	0.08192534
136	0xbe9991c6	-0.2999403
137	0x3d804eb5	0.06265012
138	0x3d8c3ab2	0.06847133
139	0x3d5620db	0.052277427
140	0x3dd8882d	0.105728485
141	0xbcb8b68f	-0.022547988
142	0xbe87fece	-0.26561588
143	0x3e25c58d	0.16188641
144	0xbe019b4f	-0.12656902
145	0xbd90cbfc	-0.07070157
146	0x3ea22dd9	0.31675604
147	0xbe93a30c	-0.28835332
148	0x3ea0bb71	0.31393006
149	0xbe3cd70a	-0.18441406
150	0xbd9452ec	-0.072423786
151	0xbe965ea6	-0.29369086
152	0x3d495439	0.049152587
153	0xbe1f16a1	-0.15535976
154	0x3e88b40b	0.26699862
155	0xbdeb1758	-0.11479062
156	0x3da61765	0.08109931
157	0x3db15927	0.086595826
158	0x3dc37407	0.09543615
159	0xbd664c2b	-0.056224983
160	0x3ea63a72	0.32466465
161	0xbeb32a6c	-0.34993303
162	0xbdc20690	-0.09473908
163	0xbd17ebfb	-0.037090283
164	0x3d198e65	0.037489314
165	0xbe2d78ff	-0.16940688
166	0x3c22eb1a	0.009943748
167	0xbeabb7d9	-0.33538702
168	0x3bb22306	0.005436304
169	0xbd299048	-0.041397363
170	0xbe0b1676	-0.13582787
171	0xbd6f3ff3	-0.058410596
172	0x3e0e5445	0.13899334
173	0x3bc77626	0.0060870824
174	0xbe3c00ca	-0.18359676
175	0xbcaca35c	-0.02107399
176	0x3f047994	0.51748013
177	0xbe815bf7	-0.25265476
178	0x3d75ea0d	0.06003766
179	0xbbe80140	-0.007080227
180	0xbf0b6a25	-0.5445884
181	0x4025bf3d	2.5897973
182	0x3ffd5e9b	1.9794496
183	0xbf21b79e	-0.631708
184	0xbe05826b	-0.13038032
185	0xbe21fa3b	-0.15818112
186	0xbe22f846	-0.15915021
187	0xbd57fd72	-0.05273194
188	0xbd184dc4	-0.037183538
189	0x3c869b99	0.016431617
190	0x3bba6bc0	0.0056891143
191	0xbced6f17	-0.028983636
192	0x3de704a2	0.112801805
193	0xbea1f386	-0.31631106
194	0xbdaac14e	-0.08337651
195	0xbe47aff5	-0.19500716
196	0xbf33684e	-0.7008103
197	0x40166f96	2.3505607
198	0x3f48433b	0.78227586
199	0xbec75c44	-0.3893758
200	0x3ec72f4d	0.38903275
201	0xbdd405be	-0.10352658
202	0xbf0fa827	-0.56115955
203	0xbea0bdfb	-0.31394944
204	0xbf6c20a4	-0.92237306
205	0xbd9fcd5b	-0.0780284
206	0x3e8ca2b0	0.2746787
207	0xbf4c1354	-0.7971699
208	0x3e92074b	0.2852119
209	0xbc61c2b2	-0.013779329
210	0xbd87cb7d	-0.06630609
211	0xbec1a99d	-0.37824717
212	0xbd1cdbe7	-0.038295653
213	0xbf33efc9	-0.7028776
214	0xbecdedfe	-0.40220636
215	0xbec010e8	-0.37512898
216	0xbe078cdd	-0.13237329
217	0x3df11415	0.117714085
218	0x3f3da5fd	0.74081403
219	0x3f05e2bb	0.5229909
220	0x3d4f7480	0.050648212
221	0xbd9b72f5	-0.07590286
222	0xbf5f0639	-0.8711887
223	0x3ef6253d	0.48075286
224	0xbe8d69c4	-0.27619755
225	0xbc94c6d8	-0.018161222
226	0x3eadb6b6	0.3392846
227	0x3e7f3a02	0.24924472
228	0x3edb5ddb	0.42845044
229	0xbdc1356e	-0.09434019
230	0xbe8d0e74	-0.2755009
231	0x3eafd061	0.34338668
232	0xbe833dc2	-0.25633055
233	0xbdab8ada	-0.08376093
234	0xbd88c834	-0.06678811
235	0xbe4e4d5f	-0.20146702
236	0xbe236ef8	-0.159603
237	0x3d7f4009	0.062316928
238	0xbe659122	-0.22418645
239	0xbda3b461	-0.07993389
240	0xbeb1e5b3	-0.3474556
241	0x3f4e3ba5	0.8055976
242	0xbf46d7f9	-0.776733
243	0x3e2c2f92	0.16815022
244	0xbde715f8	-0.11283487
245	0xbe7ef331	-0.24897458
246	0xbe97a606	-0.29618853
247	0x3f2a9c32	0.66644585
248	0xbed991f8	-0.42494178
249	0x3e2b636f	0.1673715
250	0xbe3e7858	-0.18600595
251	0xbe23afae	-0.15984985
252	0xbd2d4d7b	-0.04231022
253	0x3de765ac	0.11298689
254	0xbe093b50	-0.13401532
255	0x3c58535e	0.01320347

representation.0.bias f4 [16]
0	0x3caa6858	0.020801708
1	0xbced812a	-0.028992254
2	0xbb5f4fe9	-0.003407473
3	0x3d1e8d0f	0.038708743
4	0xbcecf3ed	-0.028924907
5	0x3db807fd	0.08985899
6	0x3c8e8b06	0.017400276
7	0x3db48e16	0.08816163
8	0x3cb22e03	0.021750456
9	0xbdd80d31	-0.10549391
10	0xbd96c12c	-0.07361063
11	0xbd961c3b	-0.07329603
12	0x3d47a729	0.0487434
13	0xbd78bcd4	-0.060726956
14	0xbdc018a9	-0.093797036
15	0x3d2b948d	0.041889716

representation.1.weight f4 [16]
0	0x3f4a376c	0.7899082
1	0x3f3e8b22	0.7443105
2	0x3f128006	0.572266
3	0x3f4105df	0.75399584
4	0x3f3eeb60	0.74577904
5	0x3f1a93dc	0.60381866
6	0x3f54f2a2	0.8318273
7	0x3f187859	0.59558636
8	0x3f2d947c	0.67804694
9	0x3f111f88	0.5668874
10	0x3f05c75c	0.52257323
11	0x3f24ff2a	0.6445185
12	0x3f170769	0.5899568
13	0x3f3b82e0	0.73246574
14	0x3f4af026	0.7927269
15	0x3f146a68	0.57974863

representation.1.bias f4 [16]
0	0xbe87fff9	-0.2656248
1	0xbee8fd96	-0.4550597
2	0xbe3e71a9	-0.18598045
3	0xbee59e37	-0.4484727
4	0x3edc1c9c	0.42990577
5	0xbf1514a3	-0.58234614
6	0xbea3b74c	-0.31975782
7	0x3ea2bd35	0.31784979
8	0x3ea11f5b	0.31469235
9	0x3f118235	0.56839305
10	0x3ddaedb3	0.10689869
11	0x3ec1b3da	0.37832528
12	0xbe9fb9e6	-0.31196517
13	0x3ecf149d	0.40445414
14	0x3ee8cdbd	0.45469466
15	0xbf05efb7	-0.523189

representation.1.running_mean f4 [16]
0	0xc08cd0db	-4.400495
1	0xc1917542	-18.182255
2	0xc0ca1424	-6.3149586
3	0xc0d2a47b	-6.582578
4	0x41a01122	20.008366
5	0x41a66af1	20.802217
6	0xc1598925	-13.595983
7	0xc18eafe0	-17.835876
8	0x3e2bbcae	0.16771194
9	0xc1ade7a7	-21.738111
10	0x40a9da8b	5.3079276
11	0x4161da62	14.115816
12	0xc1d7415d	-26.906916
13	0x41547e07	13.280768
14	0xc1a96695	-21.175089
15	0x41a67147	20.805311

representation.1.running_var f4 [16]
0	0x437fe580	255.89648
1	0x443c4855	753.1302
2	0x43b01434	352.15784
3	0x444c708f	817.7587
4	0x442dc646	695.098
5	0x43b938f4	370.44495
6	0x439f66a7	318.80197
7	0x437bd2f5	251.82405
8	0x438c766c	280.92517
9	0x438f8c2b	287.09506
10	0x43baf38a	373.90265
11	0x4459dbcf	871.4345
12	0x44244fc3	657.2463
13	0x445a426b	873.0378
14	0x4393a844	295.31458
15	0x43887e89	272.98856

model_weighting.0.weight f4 [3, 14]
0	0xbe829c3d	-0.25509825
1	0x3de9917e	0.114047036
2	0xbe3f14a8	-0.18660223
3	0x3ea509ac	0.32233942
4	0x3e2cadb3	0.16863136
5	0x3d01a330	0.03164977
6	0xbdb762fd	-0.089544274
7	0x3d9d96de	0.07694791
8	0xbd8a1756	-0.06742732
9	0xbeaa796f	-0.3329577
10	0x3d5837e1	0.052787665
11	0x3c0004ad	0.007813615
12	0x3d2e9ccb	0.04263
13	0xbe9b0610	-0.30278063
14	0xbee4be74	-0.44676554
15	0x3e0d7cd1	0.13817145
16	0xbe2bb89d	-0.16769643
17	0xbc358b3d	-0.01108056
18	0xbf35a516	-0.70955026
19	0x3d6fb3dc	0.058521137
20	0xbd9d2188	-0.07672411
21	0x3d931066	0.07180862
22	0xbdca47c2	-0.09876968
23	0xbeba9556	-0.3644206
24	0x3d08caf5	0.03339668
25	0xbe94fe69	-0.2910035
26	0x3d15553a	0.03645823
27	0x3def3e90	0.11681855
28	0xbe2c33e0	-0.16816664
29	0x3ded8553	0.11597695
30	0xbe3a10e5	-0.18170507
31	0xbe7c8086	-0.24658403
32	0x3e3c0281	0.1836033
33	0x3d254041	0.04034448
34	0xbda7624d	-0.08173046
35	0x3d91b387	0.0711432
36	0xbd92e37c	-0.071722955
37	0xbea0de44	-0.31419575
38	0x3d34da0c	0.04415326
39	0xbdeffd3e	-0.11718224
40	0x3ce9ff20	0.028564036
41	0xbe2fc046	-0.1716319

model_weighting.0.bias f4 [3]
0	0x3aa40332	0.0012513159
1	0x3d5c241b	0.05374537
2	0x3ed45011	0.41467336

models.0.weight f4 [1, 16]
0	0xbe1d4d69	-0.15361561
1	0x3d6426a6	0.05570092
2	0xbb92a25e	-0.004474922
3	0x3e00dfe6	0.1258541
4	0xbdc97730	-0.09837186
5	0xbdd994f1	-0.106241114
6	0xbd1a39e7	-0.037652876
7	0x3ec60110	0.38672686
8	0x3e9f9fdb	0.31176648
9	0x3e40ef63	0.18841319
10	0xbe687755	-0.22701772
11	0xbe2d32a5	-0.1691385
12	0x3e036916	0.12833056
13	0xbdbc1b00	-0.09184837
14	0x3eb08f3a	0.34484273
15	0xbe002bb7	-0.12516676

models.1.weight f4 [1, 16]
0	0x3f5b6622	0.8570272
1	0x3ed85f40	0.4226017
2	0x3f1fa732	0.62364495
3	0xbc332904	-0.010935072
4	0xbf0e7457	-0.5564627
5	0xbe3c17ad	-0.18368407
6	0x3f5d4cfd	0.864456
7	0x3f3d0a81	0.7384415
8	0xbf4c3896	-0.79773843
9	0x3dac291a	0.08406277
10	0xbe85af20	-0.26110172
11	0xbe446322	-0.19178441
12	0xbd8cb5a3	-0.06870582
13	0xbf185b58	-0.5951438
14	0xbc842ad8	-0.01613371
15	0xbf270c84	-0.6525347

models.2.weight f4 [1, 16]
0	0xbc4c89e8	-0.012484051
1	0x3e95fd24	0.29294693
2	0x3e261adf	0.16221188
3	0x3eb1d7bc	0.34734905
4	0xbe9efeb8	-0.3105371
5	0x3ebd1bbb	0.3693522
6	0x3b54a74c	0.003244835
7	0xbe267f9c	-0.16259617
8	0xbd74caed	-0.059763838
9	0xbea63bdb	-0.3246754
10	0xbe076d24	-0.13225228
11	0xbe52dbb7	-0.20591627
12	0x3e8527ae	0.26006836
13	0xbe950568	-0.29105687
14	0xbe09df61	-0.13464119
15	0x3ed647ba	0.41851598

aggregator.weight f4 [14, 14]
0	0x3f97f365	1.1871153
1	0xbdd3c7bc	-0.10340831
2	0x3faa5613	1.3307518
3	0x3e363432	0.17793348
4	0x3e869431	0.26284936
5	0x3f11d7d8	0.56969976
6	0x3ea1ec85	0.31625763
7	0x3d8da4f3	0.06916227
8	0x3d12c5af	0.035833057
9	0x3f27f4db	0.65607995
10	0xbf7d29cd	-0.9889191
11	0xbf9fb044	-1.2475667
12	0x3f12c384	0.57329583
13	0x3f2c89e7	0.6739792
14	0xbf907623	-1.1286052
15	0x3e97a07c	0.29614627
16	0xbf1ce495	-0.6128629
17	0x3ed49005	0.41516128
18	0x3d85fbe0	0.06542182
19	0xbcb3d13c	-0.021950357
20	0xbf37a7ca	-0.717404
21	0x3dab3c6c	0.08361134
22	0x3e6c88f6	0.23099121
23	0xbf24dac8	-0.64396334
24	0x3d840f65	0.06448249
25	0x3ff4164c	1.9069304
26	0xbf545778	-0.82945967
27	0xbd8b55cd	-0.068034746
28	0x3f164e0b	0.58712834
29	0x3dc8445c	0.097786635
30	0xbd9b1b2f	-0.07573544
31	0xbd7d8659	-0.061895702
32	0x3d175984	0.036950603
33	0x3b88d364	0.0041755904
34	0xbd56baf7	-0.052424397
35	0x3c17bbc9	0.00926108
36	0xbd5e85d2	-0.05432684
37	0x3e8d6296	0.27614278
38	0xbe3c9116	-0.18414721
39	0xbf3e1416	-0.742494
40	0x3dd9e41b	0.10639211
41	0x3e97a01e	0.29614347
42	0xbe278279	-0.16358365
43	0x3e2ad88c	0.16684169
44	0xbf55b2c2	-0.8347589
45	0xbe24f032	-0.16107252
46	0xbf43f426	-0.76544416
47	0x3ec01d71	0.37522462
48	0xbc23aa7b	-0.009989376
49	0xbe13e713	-0.14443617
50	0x3e3e872a	0.18606248
51	0xbecb52ca	-0.397116
52	0x3f87e224	1.0615888
53	0x3f89390d	1.0720536
54	0xbd1d43fe	-0.03839492
55	0xbf36998f	-0.7132806
56	0x3fa1a7f0	1.2629375
57	0xbece8d20	-0.40342045
58	0x3f88f247	1.0698937
59	0x3de1c705	0.11024288
60	0x3d44fc88	0.048092395
61	0x3f20e096	0.6284269
62	0x3fb7a6e2	1.4347804
63	0xbe15e63d	-0.1463861
64	0x3ebc0d81	0.36729053
65	0x3f79086d	0.9727848
66	0xbd061921	-0.03273881
67	0xbfcf93fd	-1.6217037
68	0x3faa6850	1.3313084
69	0x3eedf738	0.46477675
70	0x3dbf7ff1	0.09350575
71	0xbe20d110	-0.15704751
72	0x3e97d7e2	0.29656893
73	0xbde0c51e	-0.10975097
74	0xbd8a7b6f	-0.06761824
75	0xbe0c8648	-0.13723099
76	0xbe0895bb	-0.13338368
77	0xbd1fedf1	-0.039045278
78	0xbe1064ae	-0.14100906
79	0x3e5baeaf	0.21453355
80	0xbeabd0c0	-0.335577
81	0xbf72dbfc	-0.9486692
82	0xbe48b267	-0.19599305
83	0x3f0059da	0.501371
84	0x3e2d77d0	0.16940236
85	0xbdc33935	-0.09532396
86	0x3d295bc0	0.041347265
87	0x3cbb5611	0.022868188
88	0xbdc0464b	-0.09388407
89	0x3dfa3e47	0.1221891
90	0xbecbc155	-0.39795938
91	0xbc8cb05f	-0.017173944
92	0xbe4c46d3	-0.19948892
93	0x3db67a64	0.08910063
94	0xbe163ce7	-0.1467167
95	0xbe13b35f	-0.14423893
96	0xbeee8401	-0.46585086
97	0x3e1d8027	0.15380917
98	0xbd036960	-0.032082915
99	0xbe94e86c	-0.29083574
100	0xbe3b4129	-0.18286575
101	0xbcc5df55	-0.024154345
102	0xbd12b259	-0.035814617
103	0x3e4f71ae	0.20258209
104	0x3c4c29f4	0.012461174
105	0xbd8a711a	-0.06759854
106	0x3da9e26f	0.08295142
107	0xbe37b147	-0.1793872
108	0x3f0c8469	0.5488954
109	0xbefdeb6b	-0.49593672
110	0x3c68f142	0.014217677
111	0xbe4d45e9	-0.200462
112	0xbd909f13	-0.07061591
113	0xbc84ebbc	-0.016225688
114	0xbf11987f	-0.56873316
115	0x3e785dc3	0.24254517
116	0x3d223dd3	0.03960974
117	0xbc8b194d	-0.016979838
118	0x3da23349	0.07919938
119	0x3e376dbb	0.17912953
120	0x3d65ba1a	0.056085683
121	0xbb3dde11	-0.0028971473
122	0x3f400bc0	0.7501793
123	0x3f188be2	0.59588444
124	0xbe42ae95	-0.1901191
125	0xbe86252f	-0.26200244
126	0x3f962992	1.1731436
127	0xbd7d5384	-0.061847225
128	0x3f1c2874	0.60999227
129	0xbe1d7bda	-0.15379277
130	0x3d8c4769	0.06849558
131	0x3dcba9da	0.09944506
132	0x3f4e51b8	0.8059344
133	0x3e40652b	0.18788593
134	0x3de170e1	0.11007858
135	0x3e88e6f1	0.26738694
136	0xbee870b1	-0.45398477
137	0xbfe6e7c4	-1.8039479
138	0x3f429674	0.76010823
139	0xbe502502	-0.20326617
140	0x3e1117fc	0.14169306
141	0xbd642200	-0.055696487
142	0xbe9f27f1	-0.3108516
143	0xbac50504	-0.0015031402
144	0xbc3e9800	-0.011632919
145	0xbd828a69	-0.06374056
146	0x3e77b4ca	0.2419006
147	0xbcbff6d0	-0.023433119
148	0xbc66df48	-0.01409132
149	0x3d194c79	0.037426446
150	0x3e17a579	0.14809217
151	0xbf21cedd	-0.63206273
152	0x3e7d2b36	0.24723515
153	0xbe83b558	-0.25724292
154	0x3ef9bb3a	0.48775655
155	0x3d36d701	0.044638637
156	0x3dc69eff	0.09698295
157	0xbdd3b4dd	-0.10337231
158	0xbeecfc4f	-0.46286246
159	0x3ed0c3a0	0.4077425
160	0x3f273419	0.6531387
161	0x3deedfb8	0.11663765
162	0x3efea4d4	0.4973513
163	0x3f810af3	1.0081466
164	0x3f69ca93	0.9132473
165	0xbefc27d8	-0.49249148
166	0x3f5835df	0.844572
167	0x3c0f45c3	0.00874466
168	0xbe0ee0a8	-0.13952887
169	0x3b11eb90	0.002226565
170	0x3e19736b	0.14985435
171	0xbe01fefd	-0.12694927
172	0xbcabd96f	-0.020977704
173	0x3dc1c24b	0.094608866
174	0x3c8da347	0.01728977
175	0xbdd88291	-0.105717786
176	0xbd0b7a15	-0.034051973
177	0x3e130b3b	0.14359753
178	0xbe385042	-0.17999366
179	0xbe3e0608	-0.18556988
180	0x3e1b9cfa	0.151966
181	0x3d1c3e34	0.03814526
182	0xbf27d981	-0.6556626
183	0xbde7d5d7	-0.113200836
184	0xbe463f71	-0.19360138
185	0xbe86e514	-0.26346648
186	0x3e69f109	0.22845854
187	0xbf23d958	-0.64003515
188	0xbf85b438	-1.0445623
189	0xbdeb21a8	-0.11481029
190	0xbf11349f	-0.5672092
191	0xbf412b44	-0.75456643
192	0xbf455b83	-0.7709276
193	0x3f937218	1.1519194
194	0xbfa78c3e	-1.3089674
195	0x3dcbc6ee	0.09950052

aggregator.bias f4 [14]
0	0xbdea5b53	-0.114432
1	0xbda1bb91	-0.078971036
2	0xbd215657	-0.03938898
3	0x3d38538a	0.045001544
4	0xbc1aff50	-0.009460285
5	0x3d80ea81	0.06294728
6	0x3d6aa8f6	0.05729004
7	0x3d89ed1a	0.06734677
8	0xbda3d967	-0.080004506
9	0xbda529ff	-0.08064651
10	0x3d1322be	0.035921805
11	0x3ba11ebc	0.004916994
12	0x3d4d5461	0.050129298
13	0x3d08eb55	0.033427555
