bank/Models/transformer_v3/0.9018_1/params.pt (torch_old, 20931 bytes, 41 tensors)

transformer_encoder.layers.0.self_attn.in_proj_weight f4 [48, 16]
00000000: 887b d1be bcf3 2b3e 1f08 d8be 7c95 b2bc
00000010: d550 0b3e ae83 cdbd 1364 013e d069 d7be
00000020: 3d9b 573e 5e68 62be 4bbf 5f3a bdb6 033d
00000030: 0778 55be 8825 f8bd 1bd1 bd3e 9139 e5bd
00000040: 3fa4 babd 6f82 513e e2fe 9fbd 12f6 2dbe
00000050: 1172 5dbe 0431 163e 1f4b 4e3e 14c3 97be
00000060: df8b 77be a1c6 313e c0d5 3b3c 341f 903e
00000070: 8ce8 fa3c 98cc ccbd cd90 83be cf42 58be
00000080: f0cc 0b3e d893 6e3e 44e8 80bd c845 42be
00000090: 0b57 e4bc 8893 b43e 91de 823e 41e3 24be
000000a0: ea78 3a3d be5d d4be e142 07be 106f cbbe
000000b0: 006d b33c 6a6e c73d 908c c93e e6eb 683d
000000c0: 094e 3d3e 7f3e 433e 9ef9 bebd e736 db3e
000000d0: 1994 23bd 1e24 0abd 041d 6abe 26ed d9bd
000000e0: f226 75be 4ac4 9cbe 9a42 173e 79ad 99bd
000000f0: a9d3 8e3c 4fa4 49be f4eb 193e ebac 30bd
00000100: 315c 093e 85f8 cf3d 752a 4dbe 0f63 07bd
00000110: 04b3 27bd 52b4 50bc 06dd 803e cc60 f7bd
00000120: bfff a83e a9e8 57be 7ef0 de3e 64be 4d3d
00000130: 6648 a63d 4bcb a1bd 8a87 26be 9e85 71be
00000140: 6029 bebe 7ccf f93d f30f ab3e ad4c 103d
00000150: 431f 4dbd f155 9d3c ef13 373c 5f94 83be
00000160: c4d4 bcbe 4546 423e f2ec 30be 9605 ce3c
00000170: 4bbd 8abe 7856 003e 8733 82be 4bb0 66bd
00000180: e4f3 b73e 5e71 c63e d2ee 883e b573 a8bd
00000190: e47a 22bd 077c 803e 2559 913e 5b6e d83d
000001a0: 18e4 2abc cb37 57bd a8f9 4c3e 0fbc 223e
000001b0: 27c3 6d3d 607f 3bbe e487 aebe 9c70 9bbe
000001c0: 6c67 0dbe 81d7 81bd 8b11 7bbe 8dcb 9cbe
000001d0: b5ae 8ebe c4e8 583e a6b2 c7bd 3084 cbbb
000001e0: 24dc 2e3d 8db2 e9bd 9706 11bd 1b17 3fbe
000001f0: 31ba 5cbe d61e 18be 9a75 69be 9053 34bd
00000200: ee9e 3d3e eb7e c83e 71e0 e9bd c944 663e
00000210: 5747 313d 44ff a1be a848 c5bd a7e3 3ebe
00000220: 2080 49be b622 91be 5d31 1a3e 5855 abbe
00000230: 7b47 31bd acdf bfbe b0c7 e83e cc91 313e
00000240: b531 2ebe f009 843e d527 f7bd a698 c53e
00000250: 1e69 9f3c b6f7 303b d8c9 913e 4381 343e
00000260: 1d3f 2f3e 80dd 963d 21ec 45be 4fde d53e
00000270: 77bf 3dbd a151 80be 9a72 0abd 6aa3 1ebe
00000280: dbfc 0ebe 347f 1f3d 02ff 6e3e 2ddd 89bd
00000290: 776a 79be 7a49 673e 6548 bebd a694 af3d
000002a0: 9376 0f3d 0c1e 9a3e 4dac 273e 6c65 f5bd
000002b0: 0232 c9bd f3e6 633d 3de0 97be b708 433e
000002c0: 5b17 29be e404 6b3c 92ec a1be b939 083e
000002d0: 7ea3 bc3d 50dd 6dbe 3d92 893e 0113 87be
000002e0: 3f3a de3d eba2 f53d 68fb aabe da38 8b3e
000002f0: d70f 963e 8051 443b f401 e5bc 12dd dc3d
00000300: f10e f4bd b909 72be bf7e 993e eb07 93be
00000310: fbc5 ad3d 6bfd c73c 1ba0 933e 226e ad3e
00000320: 4922 64be f255 6f3e 2adb f3bd 659d a03e
00000330: 91ee 733e 027e 00bd e9bd 32be 2c5f 1abd
00000340: b22d 88be b50b 053e 8539 e8be 863e 613e
00000350: 9b2b 113e 43b9 91be 75fc da3d f1c9 9e3e
00000360: 1605 81be 362e b03d cef6 14be 6874 853e
00000370: 2341 e0be 9e27 883e 7064 c63d 6bea f13e
00000380: ec8a 88be c3a9 3abd 9311 483e 55b0 d63d
00000390: 0002 633e 1fc0 583e 1780 f8bd e707 13be
000003a0: 1f84 3dbc 9582 283f 78ae 5f3e 3137 00bd
000003b0: 4c15 303e b16a 8b3e b3df 92be 916d 3a3e
000003c0: ba5d 223d 51fe 0e3e 618f 93be 4c13 12bd
000003d0: b4ad 603e 54c1 493e d123 20be 7f12 9cbd
000003e0: 18a9 a53e 3044 77be 8168 0b3d 313b 953d
000003f0: 5eac b33e 73dc 3c3e 301a 22be 77d7 b6be
-0.4091456 0.16792196 -0.42193696 -0.021799795 0.13605054 -0.100348815 0.12635832 -0.42072916
0.21055312 -0.22110125 0.000853528 0.032156695 -0.20846568 -0.121165335 0.37073597 -0.111926205
-0.09113359 0.20459913 -0.07812287 -0.169884 -0.21625544 0.14667135 0.20145844 -0.2964102
-0.2417445 0.17360927 0.011464536 0.28148806 0.030628465 -0.09999961 -0.25696412 -0.21119235
0.13652396 0.23298585 -0.06294301 -0.18971932 -0.027873537 0.35268807 0.2556043 -0.16102315
0.04552547 -0.4147777 -0.13209106 -0.3973317 0.021902561 0.09737857 0.39365053 0.056865595
0.184868 0.19066809 -0.093249545 0.42815325 -0.03993616 -0.03372585 -0.22862631 -0.106409356
-0.23940638 -0.30618507 0.147715 -0.075037904 0.017434912 -0.19691585 0.15031415 -0.043133657
0.13414074 0.10154823 -0.20035727 -0.033053454 -0.040942207 -0.012738304 0.25168628 -0.120790094
0.3300762 -0.21084847 0.43542856 0.0502304 0.08119278 -0.07900103 -0.16262642 -0.23586127
-0.37140942 0.12197778 0.33410606 0.035229374 -0.05007864 0.01920602 0.011174186 -0.25699136
-0.36881077 0.18972118 -0.17277887 0.025149148 -0.27097544 0.12532985 -0.25429937 -0.05632047
0.3592826 0.38758367 0.26744705 -0.08225194 -0.03966798 0.25094625 0.28388324 0.10567924
-0.010430358 -0.052543443 0.20017111 0.15892051 0.05804744 -0.18310308 -0.3408805 -0.30359352
-0.13808984 -0.06339932 -0.24518411 -0.30624047 -0.27867666 0.21182543 -0.09750871 -0.0062108263
0.04269041 -0.11411009 -0.035406675 -0.18661158 -0.21555401 -0.14855513 -0.22798768 -0.044025004
0.18517658 0.3915933 -0.11419762 0.22487177 0.043280926 -0.31640065 -0.09632999 -0.1864153
-0.19677782 -0.28346795 0.15057893 -0.3346355 -0.04328106 -0.37475336 0.4546485 0.17340773
-0.17011149 0.25788832 -0.12068144 0.38593024 0.019459303 0.0027003116 0.28474307 0.17627434
0.1711392 0.073664665 -0.19328357 0.4177117 -0.046325173 -0.25062278 -0.0338007 -0.15492025
-0.13963644 0.03893967 0.23339465 -0.06731639 -0.2435702 0.22586623 -0.09291152 0.08573274
0.03502519 0.3010105 0.16374321 -0.11982235 -0.09823991 0.055640172 -0.29663268 0.19046293
-0.16512816 0.014344428 -0.316258 0.1330327 0.09210871 -0.23228955 0.26869383 -0.26381686
0.10850953 0.11993965 -0.33394933 0.27191812 0.2930896 0.0029955804 -0.027955033 0.10784353
-0.11916912 -0.23636521 0.29979512 -0.28716978 0.084850274 0.024412831 0.28833088 0.33873087
-0.22278704 0.2337263 -0.119070366 0.31370082 0.23821475 -0.03137017 -0.17455257 -0.03768842
-0.26597363 0.12992747 -0.45356384 0.21996507 0.1417679 -0.28461656 0.106926836 0.31013444
-0.25199193 0.08602564 -0.14547274 0.26065373 -0.43799695 0.26592726 0.09687126 0.4724916
-0.2666849 -0.045572054 0.19537954 0.104828514 0.22168732 0.21167038 -0.12133806 -0.14358483
-0.011567145 0.6582425 0.21843898 -0.031302635 0.17195624 0.27229837 -0.28686294 0.18205859
0.039640166 0.13964202 -0.28820327 -0.035662934 0.21941262 0.19702655 -0.15638663 -0.07620715
0.3235557 -0.24147105 0.03403521 0.072866805 0.35092443 0.1844347 -0.15830302 -0.35711262

transformer_encoder.layers.0.self_attn.in_proj_bias f4 [48]
00000000: c50e 55bd 78c6 c73d 0d8a de3c 1347 4abd
00000010: 3ffc a63c 6db4 87bc 8d5e 733d 7e88 0abe
00000020: 4666 c43c e006 143d 40cd f93c 9270 daba
00000030: fa65 6a3c d0fb 44be 02f5 30bc 114d a53d
00000040: efcb cb39 ee93 233b f699 a5b9 c170 3aba
00000050: f5a9 8f3a 903b 923a ec07 d53a 1e1c 6639
00000060: 33e7 8839 907d 4dba 8090 9739 a991 f1b9
00000070: e12a 9dba 9f1c 473a 50af 05ba 9eda c63a
00000080: 5f24 ca3c 31a3 13bc f803 353d a8aa b3bd
00000090: 48cc cdbb abdc 39bd 6472 e6bc cb71 7b3c
000000a0: 4eaf 49bd 0542 27bd ea49 09ba 607d fcbc
000000b0: d088 6cbd a936 22bd fdc6 67bd 31b7 8fbd
-0.05201604 0.09754652 0.027165437 -0.049384188 0.020383952 -0.016565526 0.059416343 -0.1352863
0.023974549 0.03613937 0.030493379 -0.0016665629 0.01430654 -0.19236684 -0.010800602 0.0807134
0.0003887112 0.002496 -0.00031585962 -0.00071121386 0.0010960685 0.0011156667 0.0016252971 0.00021944984
0.00026112198 -0.00078388397 0.00028908625 -0.00046075627 -0.0011990928 0.00075955124 -0.0005099671 0.0015171354
0.024675546 -0.009011076 0.044193238 -0.087727845 -0.0062804557 -0.04537646 -0.028130718 0.015346955
-0.04923945 -0.040834446 -0.00052371493 -0.030821502 -0.057747662 -0.03960291 -0.056586254 -0.07017363

transformer_encoder.layers.0.self_attn.out_proj.weight f4 [16, 16]
00000000: e03f b4bd 0c6e e7bd ccb4 3f3d 75c3 a43e
00000010: e47f 3c3e 8839 83bd cec6 08bd aaff e6bd
00000020: 408f c93e 5b0b 85bd b86f 7fbe b083 c53e
00000030: 0ea6 91bd bbf7 473e a4fb df3c 518d 3c3e
00000040: 00aa 7ebe eba8 4e3e 9ecf 443e e625 03be
00000050: 01cc fb3d 9227 c23d c04c 8dbe bfc3 0a3e
00000060: 5dfc a3be 946f 91bd fbf2 7ebe 839c 59be
00000070: caa6 b8bd 3846 13be 5c32 89be 0a92 09be
00000080: a94d 80be 6d6e b5be f96a adbe da49 cabd
00000090: 6cd7 58be febb d0bb 4253 94be 684f b4be
000000a0: 96ee 7ebe 6a0f b03e 1ef3 02be 3ccc acbd
000000b0: 9fc6 603e 1ca9 3cbe 630a 683d a7bd 2f3e
000000c0: 1f78 7b3e 2697 54be 349d 5a3b 4f52 21be
000000d0: adaa 083e ab03 b0bc ec4f 723e 1884 21bc
000000e0: 9c02 d0be 3b9c 83bc 9dcf 67be 8fa8 80be
000000f0: 79fd 3dbe b377 b2bd f47b 23be 323e 4abe
00000100: fd2c af3e f90f c43c 747e 72be 1a44 fdbb
00000110: c876 533e c309 383d ab37 51be 7210 1d3d
00000120: 0048 4bbd 65ef d83d b95a cbbe a164 5dbe
00000130: d137 fb3d e566 2b3e 1293 27be 0251 943d
00000140: 5fee 85bd 1f96 98be 5dad a1bd 17d6 923e
00000150: 3bab 173b 0c32 403c 5d21 0f3e 4e79 093d
00000160: 5c6a c63d e5a8 8fbc 251a 913e e47b bd3e
00000170: 003c 5d3e 4c8c 9d3e 1e7f 413e 992d 4d3e
00000180: d3df 0b3e 8616 f0bd 6367 28be 68c4 883d
00000190: 5647 6a3e d609 953e d494 dd3d 3bbd 1dbe
000001a0: 89b6 ebbc 4d22 3e3d ebac c03e bb94 3b3e
000001b0: 020d 18be 4095 9b3e 1ef4 773e 2aa7 e2bd
000001c0: 81b6 1bbe f989 ea3d 7026 63be 4983 b83e
000001d0: 4212 a3bd 1ca4 bbbd 2221 febd 7748 80be
000001e0: bd08 943e 2708 0dbd 216b 2cbe a3ad b23e
000001f0: 9c47 963d 63ca 223c 628d 29be 0530 0ebe
00000200: cb44 8ebe ad22 463e f046 1abd 6263 8abb
00000210: 8ee2 733e 7d81 163e 1a73 8dbe 6ebc a83d
00000220: 586a 4bbe e9f4 15bd 3566 243d 924a a63a
00000230: 3fa4 69bc 6138 d7bd 7909 993d bb0e 50be
00000240: 9a82 45bd bfbf 333e 9de0 433e 6d4c 083e
00000250: ca09 3fbd 5d29 c33c 9232 58be 8431 7cbd
00000260: 2635 c83e 0c7a 963d 1215 a23d 6cc2 38bd
00000270: 0dda 34be 19cc 2d3d 0fb4 e9bd 506c 8cbd
00000280: c0ef 46be fa90 693e 3f9a 7e3e b025 a8be
00000290: 788d 083e a2f9 203e 3fbd 88bd f7d3 933e
000002a0: a998 62be a9b2 f2be 80ce 353e 81bb 40be
000002b0: bf2c a7be 7f5b 5abe 2506 e9bd 4cf1 193e
000002c0: b277 11be dd54 2bbe 5ea3 603d 4c8e 51be
000002d0: 5ec3 cd3d 336d 4ebb cfd1 8d3e 3fd7 30be
000002e0: f56e c13d 5ded b03b d420 c83d 399a 8b3d
000002f0: 228d 5b3d 19fa 8cbd 0a13 003e b9fe 8fbc
00000300: 91de d63c 37f5 4f3e ef90 023d 0533 ebbd
00000310: f50c 0abd 47c5 28be c8ef 603d d1b6 303e
00000320: 9b8a 403d 8008 43bd c752 9dbe 810d e3bd
00000330: 2711 483d 38a1 6bbe 0d9d 6e3e f94f 31bd
00000340: bdf7 9e3d cee9 2d3e 4813 293e 6702 96bd
00000350: a091 3d3e 4b64 003e 5de9 533e 0ddd a5bc
00000360: 8243 553e 93cd 49be 2d19 343d 651d dcbd
00000370: 2e32 243d 96cb e43e f3ce 8abe c974 d5bd
00000380: 0d1e afbd f6b2 87be de78 413e b01c a4be
00000390: cac7 71be 372b 73be a85f eebd af5d a6be
000003a0: 7c3a e7be 02ed a33e 0f3b ef3c 1047 babd
000003b0: 0b69 823e c042 35be 4ed3 113c 9cfc 36be
000003c0: 76ce 4e3e f536 10be 1766 afbd a6c8 8c3d
000003d0: b3ef eebd 8c26 b3bd 9ef6 823c 28d2 dabd
000003e0: 5577 7dbd 3521 ccbd 45ff 3bbe ac11 933e
000003f0: 563e 543e 4153 2fbe 60ca 9cbe 0dce b43c
-0.08801246 -0.11300287 0.04680328 0.32180372 0.18408161 -0.064074576 -0.03339272 -0.11279233
0.39367104 -0.064963065 -0.24944961 0.38577032 -0.071117505 0.19528095 0.027341671 0.18413283
-0.24869537 0.20181625 0.19219825 -0.12807426 0.1229477 0.09480204 -0.27597618 0.13551234
-0.32028475 -0.0710136 -0.24897377 -0.2125111 -0.090161875 -0.14382255 -0.26796234 -0.13434616
-0.2505925 -0.3543581 -0.33870676 -0.09877367 -0.21175927 -0.0063700667 -0.2896977 -0.35216832
-0.24895701 0.3438676 -0.12788054 -0.08437392 0.21950768 -0.18423885 0.05665053 0.1716219
0.24557541 -0.20760784 0.003335786 -0.15754054 0.13346358 -0.021486124 0.236633 -0.009858154
-0.4062699 -0.016065707 -0.22637792 -0.251286 -0.18553723 -0.08714237 -0.15965253 -0.19750288
0.3421401 0.023933398 -0.2368105 -0.0077290656 0.2065078 0.044931185 -0.20431392 0.03834576
-0.04962921 0.10592536 -0.39717653 -0.21620418 0.122665055 0.1673847 -0.16364697 0.072420135
-0.06539606 -0.29802033 -0.078943945 0.28678963 0.0023142833 0.011730682 0.13977571 0.03356295
0.09688255 -0.01753659 0.2834026 0.37008584 0.2160492 0.307711 0.18896148 0.20036925
0.13659601 -0.11723046 -0.16445689 0.066780865 0.22878775 0.29109067 0.10819402 -0.15404217
-0.028773563 0.04641943 0.37631926 0.18318455 -0.14848712 0.30387306 0.24214217 -0.1106704
-0.15206338 0.114520974 -0.22182631 0.36037663 -0.07962467 -0.09162161 -0.12408663 -0.25055286
0.28912917 -0.034431603 -0.16837741 0.348981 0.07337877 0.009935948 -0.1655784 -0.13885505
-0.2778686 0.19349165 -0.037665308 -0.004223273 0.23816893 0.14697833 -0.27626878 0.08239065
-0.19864786 -0.036610518 0.040136535 0.0012687019 -0.014260351 -0.105088 0.0747251 -0.20318119
-0.048220254 0.17553614 0.19128652 0.13310404 -0.046640195 0.023823434 -0.21113041 -0.06157066
0.3910305 0.07347497 0.07914175 -0.04510729 -0.17661305 0.04243097 -0.114112966 -0.068565965
-0.19427395 0.2280921 0.24863528 -0.32841253 0.13335216 0.15720227 -0.06676721 0.28872654
-0.22128548 -0.47401932 0.17754555 -0.18821527 -0.32651326 -0.21323965 -0.11378125 0.15033454
-0.14205816 -0.16731592 0.0548433 -0.20464438 0.10047029 -0.0031498193 0.27699134 -0.1726961
0.094449915 0.0053993897 0.097718865 0.06816525 0.05360139 -0.0688364 0.12507263 -0.017577516
0.026229175 0.20308386 0.0318765 -0.114843406 -0.033703763 -0.16481505 0.054916173 0.17257239
0.047007184 -0.047615528 -0.30727217 -0.1108656 0.048844483 -0.23010719 0.23302098 -0.04328916
0.07762096 0.1698372 0.16511261 -0.07324677 0.18512583 0.12538259 0.2069449 -0.020247007
0.20826533 -0.19707327 0.043969322 -0.10747794 0.040086918 0.44686574 -0.27111015 -0.104226656
-0.085506536 -0.26503724 0.18893763 -0.32053137 -0.2361137 -0.23746954 -0.11639339 -0.3249335
-0.45161808 0.3201676 0.029202966 -0.09095585 0.25470766 -0.17701244 0.008900477 -0.178698
0.20195946 -0.14083464 -0.08564394 0.06874208 -0.11666813 -0.087475866 0.015986737 -0.106846154
-0.061881382 -0.09967271 -0.18359096 0.2872442 0.20726904 -0.17121603 -0.3062315 0.022070909

transformer_encoder.layers.0.self_attn.out_proj.bias f4 [16]
00000000: 7d27 7bbd 3230 a8b8 8fc5 88bd 50ec 223d
00000010: 8466 253d 28c4 433d 65bf a9bb a0dd edbc
00000020: 19f2 493c 9ac9 6abc 17a4 823d 142f 1e3d
00000030: 2090 54be 5ba4 813d 6db3 a23c b062 663e
-0.061316956 -8.019841e-05 -0.06678306 0.039776146 0.04038097 0.04779449 -0.0051802867 -0.029036343
0.012325787 -0.014330292 0.06378954 0.038619116 -0.20758104 0.063301764 0.019860948 0.22498584

transformer_encoder.layers.0.linear1.weight f4 [16, 16]
00000000: 1c40 2cbe 5c70 2a3e 39cd 073d 43d6 b03e
00000010: 74a8 4e3e 2fbf 11be 229b 763c dafd 98be
00000020: 0cae bcbd 3ca4 fbbe f4ea 283e 3f54 323e
00000030: 6172 563e 9001 c93d 8e3f b43e 9952 3c3e
00000040: c8c9 293e c566 afbd 9ae9 b6bd 0083 a43d
00000050: e9d8 3bbe f365 80be 9678 5bbd c02f b2bd
00000060: 8c4a 6cbd 83c7 9bbe 2b43 42bd 9fdb 403e
00000070: 92e4 29bd 43dc c73c 8191 b3bd 3af1 2abe
00000080: c8d1 16bd 564c b93d cd38 75be 346e 033e
00000090: f210 653e 50e4 c6bd 2d79 17be 3b65 d43d
000000a0: 3153 5ebe b356 593e 145e 54be a047 443e
000000b0: bc48 9fbe ec93 023e 74ae e53d ab46 e9bd
000000c0: f091 22be 4c8e 67be 9ce3 e73d 6666 313e
000000d0: 43a3 d3bd 34ba 7e3d 7c08 a9bd 0c7b a6be
000000e0: e4eb 043e 834a f3bc 83b0 8bbe 47d4 ebbd
000000f0: 8578 1abd bb58 913e 9149 c1bd f5a6 98bd
00000100: cc02 81be e158 c9bd 037a debb 65eb 483e
00000110: dcd5 193e e000 f43d 8cda 833c b3dc ae3d
00000120: 4178 c0bd ce9d acbe 552a 243e ff07 893e
00000130: 80b1 b9bd caf6 9dbc a7b7 b23e 21ab e23d
00000140: a189 143e 3c1d 98bd 91a2 e23d e2bf 88bd
00000150: 2a38 663d 7cf3 4a3e bf2f b6bd 437e e3bd
00000160: 7fd3 70bd 20fb 98be 1ff1 53be 55f8 73bd
00000170: 323e 283e 85b2 4cbe afc5 71be ffc1 843e
00000180: 3cb0 403e 1c31 11be ab15 f3bd 9e97 4b3e
00000190: 5fa4 613e b2c8 12be 1e35 5b3e 63e7 243e
000001a0: 67eb 693e 6597 203e 5419 8d3d d8b5 2fbe
000001b0: 0502 303e ecdf 193e a2be 31be 0ee0 5dbe
000001c0: 3ae1 7fbe 48a2 dfbb f793 9d3e f72d 823b
000001d0: 7150 7ebd 1101 6a3d bbc5 38be 9a9c b53d
000001e0: 80e2 40bd 1685 aebd 802e afbe 3daa 11bd
000001f0: 86ad 2f3e 1ef2 aebd 0200 123e eec8 75be
00000200: fe08 9e3c 652c eabd ac81 4e3e a4da 523e
00000210: 7248 acbd 700e 8a3e f342 18be aac3 babb
00000220: b38c 2fbd 06c1 ec3d 7b42 83be 89fa d4be
00000230: 6f6c 0abe 1133 3abe ce27 b8bd 69f2 fa3d
00000240: 8ef4 7b3c 637f 86be f2bc 27be fc60 503e
00000250: 500e 773d b8b5 06be 57d6 183b bea4 743e
00000260: fb9b 753e c4e2 34be 93fe a9be ca2b da3d
00000270: 795d 843e dd24 a33b d375 b43d 9f0c a33c
00000280: 11b6 cd3e cd4b 39be 4059 433e bc10 56be
00000290: 20a3 6c3d 6480 27be 2134 173e fb7c f9bd
000002a0: 9580 ea3c e8ad 5fbe dd84 71bc 158c 63be
000002b0: 13e3 093d 118a 8cbe bd59 6c3b ee85 dd3d
000002c0: 4df2 9fbd 06e2 5a3e 0ede 943c d53d fa3d
000002d0: c3c9 fd3c d0b9 27be aca6 7fbd 4505 0dbe
000002e0: 9c7a 85bd ce1e dcbe 9bec 12be a828 023e
000002f0: 136e c0bd 7973 0d3e 6eb8 933d 73e6 4d3d
00000300: 6d21 da3c 1705 04be 912f 08be 673e 65bd
00000310: 8610 4a3d a213 26be 3a9a 423e 0852 393e
00000320: b80d 903d 7127 92bd a7d3 84bd abb2 ce3e
00000330: e500 be3c e1b4 b23d a541 23be ad60 403d
00000340: 74f3 6dbe a06c 1fbe 16aa 73bd 589f 86bd
00000350: 9cef 803b a6be c5bd c364 66be 9115 17be
00000360: 4976 7cbe fa7d 46be 578d b0bc 5824 6b3e
00000370: e733 f43d d63b 09be cbcf 2c3e b911 febc
00000380: b1a4 9b3e cbd6 81be 38eb 83bd e6e7 343d
00000390: 0045 be3d 3971 5d3c 35e7 663e 25b3 2abc
000003a0: e163 283c b433 ca3d a18c 8fbe 585b a3bd
000003b0: a5cd 0dbe aef9 ac3d f0ac d93d c6db f73d
000003c0: fa7d 99be 8c67 573e 1769 2b3d bd92 b23e
000003d0: e740 a53d 97d8 1fbe 0ba7 d9bb 8b13 6dbe
000003e0: 4f7b 3e3c 07eb b6bb 71ba 303e d004 853e
000003f0: d159 633d 46cb 123d 2083 313e 9265 cebc
-0.16821331 0.16644424 0.0331547 0.3453847 0.20181447 -0.14233087 0.015051635 -0.29881173
-0.09212884 -0.49148738 0.16495878 0.1741495 0.2094207 0.09814751 0.35204738 0.18390884
0.1658088 -0.085645236 -0.08931275 0.08032799 -0.18344463 -0.2507778 -0.053581797 -0.08700514
-0.05768828 -0.30425653 -0.047427338 0.18833779 -0.041477747 0.024397021 -0.08767987 -0.16693583
-0.036821157 0.09047763 -0.23947449 0.12835008 0.22369745 -0.09711516 -0.14792319 0.10370871
-0.21711423 0.2122448 -0.20739013 0.19167948 -0.3111018 0.1275174 0.11214915 -0.11390432
-0.15875983 -0.22612876 0.1132271 0.17324218 -0.10333874 0.062189296 -0.082535714 -0.32515752
0.1298061 -0.029698616 -0.27283105 -0.11515098 -0.037712593 0.28388008 -0.0943786 -0.074537195
-0.25197446 -0.098314054 -0.0067894473 0.19621046 0.15022987 0.119142294 0.016095422 0.08538189
-0.093979366 -0.33714145 0.16031773 0.26763913 -0.090670586 -0.019282717 0.3490574 0.110677965
0.14505626 -0.07427451 0.11066163 -0.06677224 0.056205906 0.19819444 -0.088958256 -0.11108067
-0.05879545 -0.29879093 -0.20697449 -0.059563 0.16429976 -0.19989975 -0.23610567 0.25929257
0.18817228 -0.1417889 -0.11869367 0.19882056 0.22035359 -0.14334372 0.21406981 0.16103892
0.22843705 0.15682752 0.068895966 -0.17159212 0.1718827 0.15026826 -0.17357877 -0.21667501
-0.24988261 -0.0068247654 0.3077695 0.0039727646 -0.062088434 0.057129923 -0.18044178 0.0886776
-0.047091007 -0.08521478 -0.34215164 -0.035562743 0.17156038 -0.08542274 0.14257815 -0.2400243
0.019291397 -0.11434249 0.20166653 0.20591217 -0.08412255 0.2696414 -0.14869289 -0.0056995945
-0.04285879 0.11560254 -0.25636658 -0.41597393 -0.13517927 -0.18183543 -0.08991967 0.12253267
0.015378131 -0.26269063 -0.1638067 0.20349497 0.060316384 -0.13155258 0.0023321116 0.23890969
0.23985283 -0.17664629 -0.33202037 0.10652883 0.25852564 0.0049787597 0.08811536 0.01990348
0.40177968 -0.18095322 0.19077015 -0.20904821 0.057772756 -0.16357571 0.1476598 -0.12182041
0.028625766 -0.21843684 -0.01474115 -0.22221406 0.03366382 -0.27449086 0.003606423 0.10816561
-0.07809887 0.21375284 0.01817229 0.12218825 0.030979997 -0.16379476 -0.06241481 -0.13771541
-0.065175265 -0.42992252 -0.1434807 0.12710822 -0.09395995 0.1381358 0.072129115 0.0502686
0.026627267 -0.12892567 -0.13299395 -0.055967715 0.049332164 -0.16218427 0.19004145 0.18097699
0.07033867 -0.07136429 -0.06485682 0.40370688 0.023193786 0.08725906 -0.1594301 0.046967197
-0.23237401 -0.15568781 -0.05948838 -0.06573361 0.0039348137 -0.09655504 -0.22499375 -0.1475432
-0.24654497 -0.19383994 -0.021551771 0.22963083 0.11923962 -0.13401732 0.16876142 -0.03101431
0.30399087 -0.25359187 -0.06441349 0.044166468 0.092905045 0.013515764 0.22549136 -0.010418688
0.010277719 0.09873143 -0.2803698 -0.07976407 -0.13847978 0.0844606 0.10628688 0.12102465
-0.29978925 0.21035594 0.04184827 0.34877577 0.0806902 -0.15609966 -0.0066422275 -0.23151986
0.011626079 -0.0055822167 0.17258622 0.25980234 0.055505577 0.035838388 0.17335176 -0.025194917

transformer_encoder.layers.0.linear1.bias f4 [16]
00000000: e121 02bd 6458 083e f9d7 353e 0987 dcbc
00000010: 6514 e43d 9cd7 c73d d83d 78be 0cef 86be
00000020: 1c2e 92be b36c 0fbe f7e5 ed3d 4915 3b3d
00000030: 7c4a c83d c26d 4bbe 916c 573e f9e0 96bc
-0.03177059 0.13314968 0.17758168 -0.026919859 0.111367024 0.09757921 -0.24242342 -0.26354253
-0.28550804 -0.14006309 0.11616128 0.045674596 0.09779832 -0.19866088 0.21037509 -0.018417822

transformer_encoder.layers.0.linear2.weight f4 [16, 16]
00000000: 6e77 83be 11e1 5bbe 1617 2b3e 90f8 9d3e
00000010: 40eb 39be f434 24bb 43fc 85be 9dc5 1b3e
00000020: 09b7 c33d 8406 fdbd 4235 403d 8e31 bb3c
00000030: 66fc 083e 0855 a3bd 1e2f ebbc 97f2 1a3c
00000040: a900 113e 44ef 4dbe 4dfa 88bd 2edb 383d
00000050: 26b4 0dbe 868b 8e3d 52b7 b6bd 5263 803e
00000060: 1235 61be 6d0a 263e 34e7 97bd 3122 3f3e
00000070: 4018 d43d 5688 6c3d 00cd 0a3e 1c54 183e
00000080: 15c8 2abe 1028 3fbe 14cb c9bd 666e 57be
00000090: f7d6 ccbd e69d 813e 35a6 d6be b8b6 36bc
000000a0: 1b6d 543d 20a1 76be 1810 ae3e 73a9 51bd
000000b0: 3cc0 b2be 8c24 3ebe 9699 e5bd db57 a93d
000000c0: 06cb 7d3c 0d99 133e 9f3c 08be 8150 92be
000000d0: 33bc 333d f23b eabd c27d 7e3d db5b 633e
000000e0: f751 2bbe 60c7 293d 634f fd3d 1a75 b83c
000000f0: b2cd 5e3e dd07 a53e 8cd2 e0bd 18d2 663e
00000100: 2651 9abe 9bae 203e dfe8 a93d ebdd 05bd
00000110: 41d0 8e3e e15c 0cbd 7658 7cbd d3e1 533e
00000120: a515 843d 640c 183e dfa2 6dbe 2779 8b3c
00000130: e9fb 3abe b940 b1bc 15fb ad3c 78e1 f5bd
00000140: 9d88 c2be 4a0f d93d 5389 acbd 35ca d6bd
00000150: eee1 f8bd 89e4 51bb a673 443e 2a6e 0a3d
00000160: 88d1 7a3e 1eea 813c dd2b 3d3c ffcb 65be
00000170: 4846 97bb 1c7a 183d 5254 aa3d 8ecb e4bc
00000180: 65ee 5bbe 2981 45be a8df cb3c 99e6 943e
00000190: 20b7 e8bd b300 213e a50a 013e 4a0a 8a3d
000001a0: c0b3 6c3c f34b e2bd 5492 01be ae1c 55be
000001b0: 349e e6bd 7340 8ebe 9a43 d8bd 7c74 d1bd
000001c0: c28d f13d 1168 1c3e 9dad 61be 0490 f5bd
000001d0: e0d8 34be 9c39 813e 76e8 193d e450 2e3e
000001e0: af77 95be 2471 543d f8c5 683e d19d a4bd
000001f0: e1df 72bd 9523 293e 6865 40be dfe8 b6bd
00000200: 3194 8b3e 1e73 10be ffda 953d b2e8 9ebd
00000210: f4a1 603d 1293 903c 0020 79bc 09c0 babe
00000220: ba5a 53bd a3fa cdbd 02d8 053e 0015 42bd
00000230: e4e3 523e d89e 953c a7f4 543c 1177 a53e
00000240: 7765 823c ad6f df3c bc31 e5bd 2fc0 1a3e
00000250: be4e 683d 488c 6bbe b98c 893d bf40 523c
00000260: 7b9c e0bd 4115 213e fdec 51be af9c 60be
00000270: d4d3 b6bd 59f8 b6bd fbec 4abe 0746 90bd
00000280: 8e91 063e 0ea6 153e e69c b43e f34e 573e
00000290: 6a40 9b3e d95f d2bc a99a 893b a0f8 5d3d
000002a0: bdde c4bd 0ced 443e 5a80 05be a8b1 8a3d
000002b0: be21 b83e d72a 0d3e ab20 883e c570 b03e
000002c0: 84f2 8cbe 8012 8a3d 5784 913c ce38 743d
000002d0: 35ea 333d 82b9 62be b894 313e c53d 4e3c
000002e0: e853 dfbd b992 653e e5a5 5f3d e042 01be
000002f0: 7f27 bf3d 4e71 2fbd c86e 95bd 699d 28be
00000300: 8882 18be db04 8ebd 35c6 b3bd 52e9 85be
00000310: 4cbf 2fbc f35a fdbd e184 ccbb 6449 933a
00000320: 393d 69bd 99ca 473e 9681 ebbd 2142 11bd
00000330: 38eb 3abd fb71 35be 87d7 1ebe 81f0 c23d
00000340: d6ec babe 04dc babd cd8d 553e f208 e33e
00000350: c2ba 29be 6054 81bd 38f3 d93d 11d8 d43e
00000360: cee1 943e 6471 d0bd 5d43 3bbd 04c0 acbe
00000370: a8f8 52bd 42a9 82bc eac7 003c 3188 80be
00000380: d706 c33e ef2a 823c 7cc7 2ebe fbb0 71be
00000390: faed 173e 52aa b73e e9d0 2ebd 1e59 51be
000003a0: 06c5 313d 7ded 3f3e 7bf9 813e 5a74 263d
000003b0: e009 c63d 5178 ab3d 0f89 a23d 2382 c4bd
000003c0: c59e ca3e cc7f 4e3e 0f32 573a 946f 3a3d
000003d0: 6aba 413c 8d50 8ebc 639f e13d ebe1 51be
000003e0: 02a0 313e bbd6 cd3d 611d 893e 9be7 39be
000003f0: 3bb3 a1bd 3a89 163e 129a 35be eb7c 8d3d
-0.25677055 -0.21472575 0.16708025 0.308537 -0.18156147 -0.0025055977 -0.26169023 0.15212102
0.095563956 -0.123547584 0.04692579 0.022850778 0.13377532 -0.07975203 -0.02870899 0.009457252
0.14160408 -0.20110804 -0.06688366 0.0451309 -0.13838252 0.06960206 -0.08921684 0.25075775
-0.21992901 0.16214915 -0.07417145 0.18665387 0.10356188 0.057747208 0.13554764 0.14875835
-0.16677888 -0.18667626 -0.09853187 -0.21038207 -0.10001939 0.2531578 -0.4192368 -0.011151962
0.051861864 -0.24084902 0.33996654 -0.05118699 -0.34912288 -0.18568629 -0.11210935 0.0826871
0.015490299 0.14413853 -0.13304375 -0.28577045 0.043880653 -0.11437215 0.06213165 0.22203009
-0.16730486 0.041449904 0.123686574 0.022516776 0.21758154 0.32232562 -0.10977659 0.22541082
-0.30140036 0.15691607 0.0829637 -0.03268234 0.2789326 -0.034268264 -0.0616078 0.20691614
0.06449441 0.14848477 -0.23206662 0.017025543 -0.18260159 -0.021637307 0.02123789 -0.120058954
-0.37994853 0.10598619 -0.0842463 -0.10487787 -0.12152468 -0.0032027087 0.19184741 0.033796467
0.24493992 0.015858706 0.011546102 -0.224411 -0.0046165325 0.037225828 0.08316864 -0.027929094
-0.21477659 -0.19287552 0.024886921 0.29082182 -0.11363053 0.15722923 0.12601717 0.06740244
0.014447153 -0.110496424 -0.12653476 -0.20811722 -0.112606436 -0.27783546 -0.10559769 -0.10227296
0.11794616 0.15274073 -0.22038884 -0.119903594 -0.17660856 0.25239265 0.037575208 0.17023045
-0.29192874 0.05186571 0.22731769 -0.080379136 -0.05929554 0.1651748 -0.18788683 -0.089311354
0.272615 -0.14106414 0.07317161 -0.07759227 0.05484195 0.017648254 -0.015205383 -0.36474636
-0.051600195 -0.10057571 0.13070682 -0.04738331 0.20594746 0.01826422 0.012997783 0.32317403
0.015917523 0.02727493 -0.11191127 0.15112375 0.05671572 -0.23002732 0.06716294 0.0128328195
-0.10967346 0.15730764 -0.2050056 -0.2193477 -0.08927122 -0.08934087 -0.19816963 -0.07044607
0.13141462 0.14614126 0.35275954 0.2102621 0.30322582 -0.02568047 0.004199345 0.054192185
-0.096127965 0.19231051 -0.13037243 0.067721665 0.35963243 0.13785873 0.26587424 0.34461036
-0.27528775 0.0674181 0.0177633 0.059624486 0.04392453 -0.22141078 0.17341888 0.012587969
-0.10904676 0.22419252 0.05460157 -0.12623167 0.09333705 -0.042832665 -0.072965205 -0.16466297
-0.14893544 -0.0693452 -0.08778039 -0.26154572 -0.010726761 -0.12370863 -0.0062414263 0.0011237082
-0.056943152 0.19510879 -0.11499326 -0.035463456 -0.04563448 -0.17719261 -0.15511905 0.09518529
-0.36508816 -0.09123996 0.20854874 0.44342762 -0.16575149 -0.063149214 0.106420934 0.41571096
0.29078525 -0.101778775 -0.04571854 -0.33740246 -0.05150667 -0.015949849 0.007860163 -0.25103906
0.38091156 0.015889613 -0.17068285 -0.23602669 0.14836875 0.35872132 -0.0426797 -0.20444152
0.043400787 0.18742938 0.2538565 0.040638305 0.09669852 0.08372558 0.07936298 -0.09595134
0.39574257 0.20165938 0.00082090584 0.045516565 0.01182423 -0.017372394 0.11016729 -0.20496337
0.17346194 0.10050722 0.26780227 -0.18154757 -0.078955136 0.14700785 -0.17734554 0.06908592

transformer_encoder.layers.0.linear2.bias f4 [16]
00000000: f9b1 dd3d 772e 55be 876d 9b3d e032 47be
00000010: 9d4a e63c a487 2b3e 00a0 8b3d 0c54 473e
00000020: 85cf 703e db0c dbbd 4362 153e 6731 66be
00000030: 4a75 12bc 5a7e ea3d 2f51 3e3e 58fe 483e
0.10824961 -0.20818506 0.0758925 -0.19453001 0.02811175 0.16750962 0.06817627 0.19465655
0.23516662 -0.10695811 0.14588265 -0.22479783 -0.008939097 0.11449881 0.18585657 0.19628274

transformer_encoder.layers.0.norm1.weight f4 [16]
00000000: 4cf9 6a3f e8ec 623f 5253 973f da19 933f
00000010: acd2 543f 28b7 793f 7b98 7a3f 3faf 4a3f
00000020: c932 823f 3087 8d3f eaa8 853f 20ec 833f
00000030: be62 723f 9fe0 983f 6c5b 913f 1c30 4a3f
0.91786647 0.8864274 1.1822302 1.1492264 0.8313396 0.975451 0.97888917 0.79173654
1.0171748 1.1056881 1.0442173 1.0306435 0.9468192 1.1943549 1.1356025 0.7897966

transformer_encoder.layers.0.norm1.bias f4 [16]
00000000: 835e 44bd 142f 013c 9504 24be 4785 ad3c
00000010: d0a9 0d3c 3e20 ad3c 9b4b 0e3d fea6 eabb
00000020: 9988 c43c ae80 4f3c b11a 403e bbb5 c93c
00000030: 32f9 57be cfbb 9b3d 4b48 5039 9a90 313e
-0.047941696 0.007884759 -0.16017373 0.021181716 0.0086464435 0.021133538 0.03474007 -0.0071610203
0.023990916 0.012664957 0.18760182 0.024622789 -0.21091154 0.07604181 0.00019863357 0.17340317

transformer_encoder.layers.0.norm2.weight f4 [16]
00000000: 597c 2a3f e368 403f 65b4 2c3f ed0f 673f
00000010: 4b48 123f 06a2 2b3f ae6e 473f ed31 3d3f
00000020: 80f6 5f3f 0f0c 533f d7ce 333f 0038 373f
00000030: 4ab4 283f 403c 253f ba33 2a3f 5d77 053f
0.6659599 0.75160044 0.6746276 0.90258676 0.5714156 0.67044103 0.7790326 0.73904306
0.87485504 0.82440275 0.7023749 0.71569824 0.659001 0.6454506 0.6648518 0.5213526

transformer_encoder.layers.0.norm2.bias f4 [16]
00000000: ce75 96bd 25ac ea3c 4ade df3d f16e 9e3d
00000010: 986b a4bc 45af 13be 2341 8bbe 2cb1 e03d
00000020: 19af a7be acf1 96bd 4776 4abf 2298 873c
00000030: 2c4a 553e 8e2b dabd 7600 c63d cdd0 a8bd
-0.07346688 0.028646538 0.1093107 0.07736004 -0.020070836 -0.14422329 -0.27198133 0.10971293
-0.32750776 -0.07370314 -0.79086727 0.016552035 0.20829076 -0.10652839 0.09668057 -0.082429506

cat_embedding.weight f4 [53, 16]
00000000: 8390 b93f 0ce1 8b3f 3b84 6a3e a8ad c7bd
00000010: dcf7 98bf 941b 18be 6318 4dbf 7435 0d3e
00000020: 30f9 b83f 4da9 22be ef2a e73e 2711 1e3f
00000030: ad8f 96bc 9dbf b5be 3b02 0540 9413 2cbf
00000040: ef01 39bf 373e 153f 44bb 203e 9c05 27be
00000050: 1278 88bf fe5c ad3f 02a0 e4bc 1bad 893f
00000060: 9c98 ca3e 2d16 84bf ffc2 0e3e dc66 e13e
00000070: 34e8 24bf e5a7 0f3f 32b9 8bbf 3477 993d
00000080: 83dd 0240 e17c e9be d7c7 613f 360a 26be
00000090: 0f24 7e3f 4d12 e3be 801f cdbe ab77 023f
000000a0: bf7d 3bbf 2cef 0abf a5ef d13d 08ce 423f
000000b0: 6139 423f eea7 9e3d 3468 ef3c f1e2 323f
000000c0: 9bf0 3fbf 2cb6 f33e b070 543f 5377 e7bf
000000d0: e599 5b3f a5aa 2cbe 5140 4cbe 1a94 96bf
000000e0: 9bbf 203e f2f8 4fbf 069d 923f 32c0 e83e
000000f0: b699 a23f 1ded 783f 11d6 483e 2bb5 883f
00000100: dd02 883f 033d a03e 8a67 d43f 27f9 fc3f
00000110: d1d9 cebe a40c 1d3f 457b 2940 1d83 733d
00000120: daa1 c63e e77b 1f40 c2b6 ebbf b29c 9ebe
00000130: ec19 a73f fe38 783f 66dd 8b3f 3f0e 2fbf
00000140: 5257 42bf 812c 213f 6e32 febe 16da 523f
00000150: fbfb 7a3d b7d6 583f 91f5 d6bf b3ee 7abd
00000160: 7b27 87be f289 f03f 6922 463f b423 0ec0
00000170: d95f f53f 7ede e3bf 89b4 bfbe d2df d33e
00000180: 4ec5 d0be 5cf1 603e f46d 94bd e284 8ebd
00000190: 546b 573f b3f7 a7bf 33f6 30be 5a8c c2bf
000001a0: 9521 88bf d0a3 b83e 56ad 8dbf 0138 cf3f
000001b0: 3086 f8bf d87a 4abf 405b e2bf 3b12 1e3e
000001c0: 1fef 6fbf dbc2 f5bf 6415 1cbf 2abd c8be
000001d0: c758 65be b4cb 02bf 5501 cd3e a416 b03f
000001e0: 5a75 35bf a437 0dc0 6539 8f3f 0fc6 05c0
000001f0: 79f2 283e 1118 043f 906f 0ebe feb7 47bd
00000200: 9f2b 6e3f c3ff 2cbf 00e7 8e3f 948b 82be
00000210: 762e 6dbd 512d 9c3f 02aa e9bf b28e 78bf
00000220: 76ce 79bf 74a5 ebbc 1172 4dbf 26da f83d
00000230: 9379 83be 2787 d1bd 63f4 a0bd dd63 b6bf
00000240: e296 11be dc3e 2b3f 400a 813f 0b8e ec3f
00000250: 076d 183f ab50 c33c 1bb3 59be a1a7 febf
00000260: 40b1 2d3e ff7d 0ac0 790a 993f d65c e3bf
00000270: a582 573e 7624 b63f 0bfe 453f 4b22 9d3f
00000280: c64f 39bf 4032 87bf e2ae 2a40 ad11 d3bf
00000290: 2866 ab3d 1cbc fbbf 8a0e 563e 7045 26bf
000002a0: e929 77bf fe65 4b3f 77ce cebe 2229 d0be
000002b0: e72d f3be 9076 e5bf bc67 593f c00c 96be
000002c0: d19b 1d3f 0f33 853f ad08 e6be 876e 03bf
000002d0: fc2b c63e 691c eb3f 2f0a 2fbe 0a39 0f3f
000002e0: 2165 ec3e 1488 793d 86a8 33bf 9cda 893d
000002f0: f0b5 b23f a0ad 0cbf 0b46 9ebd d176 cb3f
00000300: 47bf e93f ff40 c9be 0c4a 3fbf a3d2 043f
00000310: 5aa9 70be 2366 b13f 559e 833e 1700 a1bf
00000320: 0dd1 813e ed7b 7e3f c6e7 7e3f 7feb 903e
00000330: ac8f 8abf 2718 883f 94d1 51bf 5c30 71bf
00000340: 0527 633f 7c43 25bf ab2c ec3e 4767 653f
00000350: 5a31 ba3f 5e27 8e3e 2c03 233f dfcb 2abf
00000360: 6d9d 693f aa80 883e 22a2 073f b1b6 84bf
00000370: b206 0bc0 2708 4a3f f1bc 73be f0c7 f0be
00000380: 75b5 99be 7e69 d33f e12c af3d 779f cfbe
00000390: 4512 253f 7bd4 88be e7a3 513f 3d77 67be
000003a0: 60cf 94bd 8113 88bd 9c4f d73d a261 b93e
000003b0: 9380 febe 4869 0fbf a79d e9be fc17 b73f
000003c0: 9f75 b1bf 4797 ff3d b503 f2be b917 76bf
000003d0: 2e42 84bf 04c3 403f 69e7 89be a7ea 0cbe
000003e0: 66d6 a53e 52c1 d83e 3f3f babf 8623 323f
000003f0: 4433 dfbe 199c 573e 29dd ccbe 7a5d 733f
1.4497226 1.0928054 0.22902004 -0.09749919 -1.1950641 -0.1485427 -0.80115336 0.13789922
1.4451046 -0.15884896 0.45149943 0.6174492 -0.018379057 -0.35497752 2.0782611 -0.67217374
-0.72268575 0.5829806 0.15696436 -0.16310734 -1.0661643 1.3544004 -0.027908329 1.0755953
0.39569557 -1.0319268 0.13941573 0.44023788 -0.64416814 0.5611556 -1.0915892 0.07493439
2.04477 -0.45603088 0.88195556 -0.16214833 0.9927377 -0.443499 -0.40063095 0.5096385
-0.7323875 -0.542712 0.10250787 0.7609563 0.75868803 0.07746874 0.029224493 0.69877535
-0.7497651 0.47599924 0.8298445 -1.808329 0.857817 -0.1686197 -0.1994641 -1.1763947
0.15698092 -0.81239235 1.145417 0.45459133 1.2703159 0.97236806 0.1961291 1.0680288
1.0625874 0.31296548 1.6594098 1.9763535 -0.40400556 0.61347413 2.6481488 0.05945121
0.38795358 2.4919374 -1.8415148 -0.30978924 1.3054786 0.96961963 1.092694 -0.6838111
-0.7591449 0.6295853 -0.4964785 0.8236402 0.061275464 0.8470263 -1.6793691 -0.061262798
-0.2639731 1.8792098 0.77396256 -2.2209291 1.9169875 -1.7802274 -0.37442425 0.413817
-0.40775532 0.21967071 -0.072475344 -0.06958939 0.84148145 -1.3122467 -0.17281418 -1.5199082
-1.0635248 0.3606248 -1.1068523 1.6188966 -1.9415951 -0.79093695 -1.7684097 0.15436642
-0.93724245 -1.920009 -0.6097014 -0.3920682 -0.22397147 -0.51092076 0.4004008 1.3756909
-0.7088219 -2.206521 1.118939 -2.0902135 0.16498746 0.5159922 -0.13909745 -0.048759453
0.9303531 -0.6757776 1.1164246 -0.25497115 -0.057905637 1.220133 -1.8255007 -0.97092736
-0.9758066 -0.028765418 -0.80252177 0.121509835 -0.2567869 -0.102308564 -0.07859113 -1.4249226
-0.14217713 0.6689279 1.0081253 1.8480848 0.5954136 0.023842176 -0.2125973 -1.9894906
0.16962147 -2.1639402 1.1956321 -1.7762706 0.2104593 1.4229877 0.77340764 1.227609
-0.7238735 -1.056221 2.666924 -1.6489769 0.08369094 -1.9666781 0.20903984 -0.64949703
-0.96548325 0.794525 -0.40391895 -0.40656382 -0.47495958 -1.7926807 0.8492391 -0.29306602
0.6156588 1.0406207 -0.44928494 -0.51340526 0.38705432 1.8368045 -0.17093728 0.5594641
0.46170905 0.06092079 -0.7017902 0.067311496 1.3961773 -0.5495243 -0.077282034 1.5895635
1.8261498 -0.393074 -0.7472236 0.51883906 -0.23502102 1.3859295 0.25706735 -1.2578152
0.25354806 0.99407846 0.9957241 0.2830467 -1.0825095 1.0632371 -0.81960416 -0.94214416
0.88731414 -0.645561 0.4612783 0.89610714 1.4546311 0.2776441 0.63676715 -0.6671733
0.9125584 0.26660663 0.5298177 -1.0368253 -2.1722836 0.7891869 -0.23802544 -0.4702754
-0.30021253 1.6516569 0.08553482 -0.4055135 0.64481 -0.2672461 0.8189072 -0.2260408
-0.07266116 -0.06644345 0.10513231 0.362073 -0.4970747 -0.5602002 -0.45628092 1.4304194
-1.386402 0.12480026 -0.47268453 -0.9612995 -1.0332696 0.7529757 -0.26934364 -0.13761388
0.32390136 0.42334992 -1.4550551 0.69585454 -0.435938 0.2105564 -0.40012482 0.9506451

num_embedding.0.bias f4 [16]
00000000: 935d 1ebf 95ea 5dbb f8d5 ecbd 2a60 85bf
00000010: 0ca1 5c3f d192 1b3e 67d8 56bf ee8e 86bf
00000020: 6874 213f 7db1 3d3f 2f62 a1be 7a9b b4be
00000030: 79a3 45bf c8c4 233f 2d82 c8be 630e f3be
-0.6186153 -0.0033861746 -0.11564249 -1.0419972 0.8618324 0.15192725 -0.83923954 -1.0512369
0.63068247 0.7409895 -0.3152022 -0.3527487 -0.77202564 0.6397214 -0.39161816 -0.47471914

num_embedding.0.weight_g f4 [16, 1]
00000000: 6f04 873f 205c 453f 9a0a 2f3f b60e b63d
00000010: fbe1 183e 15b9 113f fa50 313f 7b08 473f
00000020: 3275 2c3f dee3 643e 7da5 823f 9da0 853e
00000030: 164f cd3e ad06 773d cad6 cc3e 06b5 4b3f
1.0548228 0.77093697 0.6837555 0.08889525 0.14929955 0.5692304 0.69264185 0.77747315
0.67366326 0.2235255 1.0206753 0.260991 0.400994 0.0603091 0.4000762 0.79573095

num_embedding.0.weight_v f4 [16, 1]
00000000: 3ced 6e3f ebbc 753f a160 513f 8a5d 373e
00000010: 9618 833d 916f 06bf bd8d 3a3f 3f38 38bf
00000020: 3723 5cbf d200 983e 8cf5 6fbf 7fc1 a33e
00000030: 51f9 f6be 6d16 aa3c 6b1a c3be 2ffd 4d3f
0.9333074 0.9599139 0.8178807 0.17906776 0.06401174 -0.52513987 0.72872525 -0.71960825
-0.85991234 0.29688126 -0.9373405 0.31983563 -0.48237088 0.020762647 -0.38106093 0.8046445

num_embedding.1.bias f4 [16]
00000000: 756e 48bf 06d3 a9be 786c 30bd 57d2 b2be
00000010: b3cb db3e 60e7 593f 90e1 033f c4e9 42be
00000020: dc23 42bf b550 56bf e428 51be ad8b 85be
00000030: d3b8 47bf ee27 813e ec6e c2be 2e82 a93e
-0.78293544 -0.3316881 -0.043072194 -0.34926102 0.42928848 0.85118675 0.51516056 -0.19034487
-0.7583597 -0.837169 -0.20425755 -0.26083127 -0.78016394 0.25225776 -0.37975252 0.33107132

num_embedding.1.weight_g f4 [16, 1]
00000000: 5a86 d63e 67ff 493f fc9b e53e a995 9e3e
00000010: 4fb8 623f 9acc c03d cb3b 1e3e 5862 7abd
00000020: c529 0e3f 4d36 a33d 4511 1b3f 4f1b 1c3f
00000030: 806f 473f e206 6d3f 39df f13d fbf9 333f
0.41899377 0.7890534 0.4484557 0.30973557 0.8856248 0.09414025 0.15452497 -0.061128944
0.55532485 0.079693414 0.60573226 0.6097917 0.7790451 0.9258863 0.118101545 0.70303315

num_embedding.1.weight_v f4 [16, 1]
00000000: ebe7 c23e 7bc0 5f3f a707 ed3e d772 933e
00000010: f979 623f 5ae1 2c3d a066 1e3e 877f 95bd
00000020: 4662 20bf c12a 3c3e 5ff4 04bf c61f 143f
00000030: 878e 30bf c148 51bf d2c9 45be da2b 3e3f
0.38067564 0.87403077 0.462949 0.28798553 0.88467366 0.0422071 0.15468836 -0.072997145
-0.62649953 0.18375684 -0.5193538 0.5786098 -0.6896748 -0.8175164 -0.1931527 0.7428566

num_embedding.2.bias f4 [16]
00000000: 26e1 073e c577 0c3f 5def 69be 2715 703f
00000010: 77b2 093f 4b3a 8abe ed49 09bf 3980 8d3e
00000020: ac5a 4abf 9590 e8be 8db7 5a3e 225d 893d
00000030: 2b41 da3e 6c28 e4be 69a9 6d3f 066f 07bf
0.13269481 0.54870254 -0.22845216 0.93782276 0.5378794 -0.269976 -0.53628427 0.2763689
-0.79044604 -0.45422807 0.21359082 0.06707217 0.42627844 -0.4456209 0.92836624 -0.52903783

num_embedding.2.weight_g f4 [16, 1]
00000000: 2dce c53f fdb2 12bf 4ae4 043e f0d2 a63f
00000010: 2a72 c43f f018 a93f 48ed 57bf 513b ce3e
00000020: 07dd 4f3f 983b d73f e053 c93e 5200 043e
00000030: d3a1 763f 4200 b8be f14b 973f c702 a83f
1.5453545 -0.57304364 0.1297771 1.3033123 1.534734 1.3210735 -0.8434644 0.4027963
0.81196636 1.6815062 0.39321804 0.12890747 0.96340674 -0.35937697 1.182005 1.3125848

num_embedding.2.weight_v f4 [16, 1]
00000000: daf2 07bf 9c8a b8bd 4116 9abe 9843 1d3f
00000010: 26a3 69bf 33f2 c9be 06a3 5a3e 553f 90be
00000020: f9fb 87bc 0005 2d3f be93 123e ea8a fc3d
00000030: 6ea3 953e 63ba 09bf 3079 ccbe 516e f53e
-0.5310494 -0.09010813 -0.30095103 0.61431265 -0.9126457 -0.39442596 0.21351251 -0.28173319
-0.016599642 0.67585754 0.14314172 0.12331183 0.2922625 -0.5380003 -0.3993621 0.47935727

num_embedding.3.bias f4 [16]
00000000: bdbb b83e 899a 00be 7f4e 1f3f fa8a e9bd
00000010: 8759 eabe 6bd0 a23e 701f e5be 5a47 ef3e
00000020: b208 293f 7568 943d 8af1 acbc 3e45 e9bd
00000030: 844c b13e 6e18 46bf 621b c6bd 694d b6be
0.36080733 -0.1255895 0.6222915 -0.11403461 -0.4577143 0.31799635 -0.44750547 0.46734124
0.66028893 0.07246486 -0.021111269 -0.1139016 0.3462869 -0.77381027 -0.096731916 -0.35605934

num_embedding.3.weight_g f4 [16, 1]
00000000: 2ac8 1b3f bda1 283f ff5d b23e c5ef bb3e
00000010: 34e8 313d e692 533f ce2d a2bc 36b4 c93e
00000020: 265d 3f3f 5e51 563f 317f 37be 265a 583f
00000030: 4e79 503e 0134 ba3c 4433 5b3c d383 423b
0.608523 0.65871793 0.34837338 0.36706367 0.043434337 0.82646024 -0.019797232 0.39395303
0.7475151 0.83717906 -0.17919613 0.84512556 0.20358774 0.022729876 0.013378922 0.0029680624

num_embedding.3.weight_v f4 [16, 1]
00000000: a1b8 03bf 10c3 2a3f 593a 3cbe d900 913e
00000010: a146 37be 8ca2 35bf 12fd 26bd 5388 e83e
00000020: a4e8 2c3f 8e6b 453f 4a1d 0ebd dda5 383f
00000030: fc61 903e 27b9 113d 86d0 973c a911 c5bd
-0.51453596 0.6670389 -0.18381633 0.2832096 -0.17898037 -0.7095115 -0.04076869 0.45416507
0.6754248 0.7711724 -0.0346959 0.7212809 0.28199756 0.035576966 0.018532049 -0.09622509

num_embedding.4.bias f4 [16]
00000000: 1384 dc3e 8346 a7be 6816 d83c d0cd ea3e
00000010: e0c8 edbe 0aea 07bf 5fe2 efbe ea66 4abf
00000020: f452 80bc 3262 443f 79d9 29be 6117 cf3e
00000030: d3b6 00bf eb9b df3c d766 37bf d6f5 dabd
0.43069515 -0.32670984 0.026377872 0.45860147 -0.46442318 -0.5309149 -0.46852395 -0.79063284
-0.015664555 0.76712334 -0.16586865 0.40447524 -0.5027897 0.027296027 -0.71641296 -0.10691421

num_embedding.4.weight_g f4 [16, 1]
00000000: 2dbe 3f3f 5a5f 613f f6e4 593f ae38 383f
00000010: 792b 4c3f 1a58 043f fb37 243f 3d0a 873f
00000020: b575 db3e bd82 a53e 9a20 ef3d d03a ff3e
00000030: 619d 213f 9d77 be3e 239c 633f ded6 7e3f
0.7489956 0.8803612 0.8511499 0.71961486 0.79753834 0.5169693 0.6414792 1.055
0.4286324 0.32326308 0.1167614 0.49849558 0.63130766 0.37200633 0.8891012 0.9954661

num_embedding.4.weight_v f4 [16, 1]
00000000: 3492 67bf b342 37bf 6d7f 24bf 75e9 423f
00000010: b37b 1c3f f8ce 2dbf 3701 4abf 593f 653f
00000020: f003 733e a0b5 eb3e cddd 1f3e cb59 bfbe
00000030: d94e 0abf 30cc 093f b2e9 7cbf 89fd 54bf
-0.90457463 -0.7158615 -0.64256936 0.7613748 0.6112625 -0.67893934 -0.78908104 0.89549786
0.23731971 0.46037006 0.15611954 -0.37373194 -0.5402656 0.5382719 -0.9879409 -0.83199364

num_embedding.5.bias f4 [16]
00000000: 4a46 bebe 1acc e43e b46d d03e 78cb a0bd
00000010: c5ea 39bf 7a79 183e f68e 4d3e dba0 90be
00000020: d2ca 413e 9186 d9be df17 c13e 8506 113f
00000030: 694c ba3e d5df 523b 1e7e 4d3f ed6d cbbd
-0.37163 0.44686967 0.40708697 -0.078513086 -0.72623855 0.1489009 0.20074067 -0.28247723
0.18925026 -0.4248548 0.37713525 0.56650573 0.3638642 0.0032176871 0.80270565 -0.09933076

num_embedding.5.weight_g f4 [16, 1]
00000000: 0c8d e53e 1e53 0a3f c24b 573f 2240 353e
00000010: ad52 083f 1bf4 9a3f a1d9 093f c1e4 d0bd
00000020: fcd8 7b3e e736 933f 9f18 843f 554b 8e3e
00000030: 29e3 f33e c240 ecbb a5d6 943f 3234 133f
0.44834173 0.54033077 0.8409997 0.17700246 0.53251153 1.2105745 0.538477 -0.10199881
0.24594492 1.150113 1.0320014 0.2779185 0.47634247 -0.007209868 1.1628004 0.5750152

num_embedding.5.weight_v f4 [16, 1]
00000000: db63 5a3e e1ce d9be 70be 6b3f 0ef7 8f3e
00000010: 0540 003f ed8e 7f3f 1f88 da3e aa80 a2bd
00000020: 1df0 f33e 8e77 7b3f 4892 73bf 81f0 40be
00000030: 9cd1 f83e 7a29 78be 41be 4fbf 557c 14bf
0.21327154 -0.4254065 0.9208746 0.28118175 0.50097686 0.9982746 0.42681977 -0.07934697
0.4764413 0.982293 -0.9514508 -0.18841745 0.4859742 -0.24234572 -0.8114968 -0.58002216

num_embedding.6.bias f4 [16]
00000000: 6ae1 0fbf f856 2bbf 7056 b33e 021e 47bf
00000010: 4c41 cfbe 9615 903d 23ec e73d eec0 3fbf
00000020: 4dd4 fa3d 07ee dcbe c0cf 9abd 968c 2abf
00000030: 0a53 50bf c74e c83d 6b6d 993e 9e5f 603f
-0.5620333 -0.6692958 0.35026884 -0.77780163 -0.40479505 0.07035367 0.113243364 -0.7490376
0.122475244 -0.4315035 -0.075591564 -0.6662077 -0.8137671 0.097806506 0.29966292 0.876459

num_embedding.6.weight_g f4 [16, 1]
00000000: 7b5f 463f 4317 753e 5b69 2a3f 4954 22bb
00000010: 6a92 793f b936 7d3f a820 193f 1ef7 923f
00000020: bb2f 223f e38b 0c3f 3868 343f 1ffc 7cbd
00000030: 6a6a ae3f e579 0fbf 20a6 6f3f 59dc 4d3f
0.7748944 0.23934655 0.6656701 -0.0024769476 0.97489035 0.98911625 0.59815454 1.1481664
0.6335408 0.5490095 0.70471525 -0.06176388 1.3626225 -0.5604537 0.9361286 0.8041435

num_embedding.6.weight_v f4 [16, 1]
00000000: 403a 64bf 0921 383f 720a 6e3f 9582 e93e
00000010: f573 603f f4c1 093f a4e7 d03e 924c 143f
00000020: e4ae 44bf fd87 d9bc 7906 dbbe 0abc 8c3e
00000030: 4b65 62bf cb85 633d ec9f c93e 83ae bdbe
-0.8915138 0.7192541 0.9298469 0.4560744 0.87676936 0.53811574 0.40801728 0.5792934
-0.7682936 -0.026554102 -0.42778376 0.27487212 -0.8843581 0.055547517 0.39379823 -0.37047204

num_embedding.7.bias f4 [16]
00000000: 06c6 19bf f842 0dbf f3a6 1dbf 345f c63e
00000010: b323 313f cdb0 a93d 42d7 b53e 0795 56bf
00000020: 3dd4 32bf 3f8d 1cbf 8237 1abf 9604 ddbe
00000030: d1b8 0fbf beef 7ebe 7187 2dbf cc9f d13e
-0.60067785 -0.5518031 -0.6158287 0.3874451 0.691951 0.08285675 0.3551579 -0.8382115
-0.698551 -0.61153024 -0.6024095 -0.4316756 -0.5614138 -0.24896142 -0.6778479 0.40942228

num_embedding.7.weight_g f4 [16, 1]
00000000: 9f05 943f 07ba 1f3f 18b9 743e cca7 203f
00000010: 6292 9b3e 59b8 563f 1e2b 413f 9329 6d3e
00000020: 6fbe ad3d 9600 153f 535b 2f3f 7fb4 1e3f
00000030: 5866 933d f27e ee3e a6f3 e43e 77a3 e63e
1.1564215 0.6239323 0.23898733 0.6275604 0.3038512 0.8387504 0.75456417 0.2316039
0.08483588 0.5820402 0.68498725 0.61994165 0.07197255 0.46581227 0.4471714 0.4504659

num_embedding.7.weight_v f4 [16, 1]
00000000: c2a4 703f 7006 3b3f fe44 c63e b83d 2a3f
00000010: 30a4 da3e aa7b 6ebf 1756 3a3f 2519 f73d
00000020: 2f80 7fbe 7205 99be 6e14 4c3f 9999 323f
00000030: b0f4 bdbd 241e bfbe 49ae 09bf 2281 133f
0.940014 0.730567 0.38724512 0.66500425 0.4270339 -0.93157446 0.7278761 0.12065343
-0.24951242 -0.29886967 0.79718673 0.6976562 -0.09275186 -0.37327683 -0.53781563 0.57618916

num_embedding.8.bias f4 [16]
00000000: 3f86 d03e 4ff4 213f a7cd 543d f7c6 26bd
00000010: a5ad afbd fa27 44bf ad81 e83d 9977 1dbf
00000020: fbaa 153e c061 3bbe ac76 de3e db4b b4be
00000030: cd6a 1e3f 57a2 86be 3d92 0dbe ada5 1cbf
0.40727422 0.6326341 0.051953938 -0.04071709 -0.08578042 -0.766235 0.11352859 -0.61510617
0.14616005 -0.18299007 0.43449914 -0.35214123 0.61881715 -0.2629573 -0.13825317 -0.611903

num_embedding.8.weight_g f4 [16, 1]
00000000: 9289 353e 727c afbe 7128 723f 9d0c b53f
00000010: f84f 1b3f 16d1 debe d38a 8a3f bbb1 503f
00000020: 24c7 8f3f 5485 813f deda 8c3f f091 083f
00000030: b7ee 443f 0b87 6e3f 89be 6e3f 553d 843e
0.1772826 -0.34274632 0.9459296 1.4144474 0.606689 -0.43518895 1.0823616 0.81521195
1.1232648 1.0118814 1.1004293 0.5334768 0.7692675 0.9317481 0.93259484 0.25828043

num_embedding.8.weight_v f4 [16, 1]
00000000: 6bd3 ed3c d24c 523d 0882 da3e 1251 66bf
00000010: 1a14 c8be 0695 27bd e628 6fbf 28fd 073f
00000020: 84ae 41bf 3721 2e3f 9e53 7d3f 585c 493e
00000030: 4ac2 f9be 31d5 343f 6433 28bf fbde 263d
0.029031476 0.051342793 0.4267733 -0.89967453 -0.39077836 -0.040913604 -0.9342178 0.5312066
-0.75656915 0.6801943 0.98955715 0.19664133 -0.48781043 0.70637804 -0.65703416 0.040739994
