bank/Models/nn/0.9034_1/params.pt (torch_old, 53354 bytes, 7 tensors)

linears.0.weight f4 [128, 19]
000000 dc a1 a5 39 c2 31 33 be 1d 76 87 bd 62 86 ac 3e
       0.00031591847 -0.1749945 -0.06614325 0.33696276
000010 82 a7 db 3b 47 67 8f 3e 51 db cc 3e 10 aa 6d 3d
       0.006703318 0.28008482 0.40011075 0.058023512
000020 16 2c a5 3d 26 71 96 bd f1 ae 22 be 94 72 3b 3f
       0.08065049 -0.073458 -0.15887047 0.7322171
000030 8d e1 c4 3d 1c 98 a6 bd 2f 4b 39 be b0 1f 19 be
       0.09613333 -0.08134481 -0.18095087 -0.14953494
000040 bf af d1 be e0 08 22 be d8 9c 16 be e1 47 9d bc
       -0.40954396 -0.15823698 -0.14708269 -0.019199314
000050 73 df 5a 3d 1e 55 35 bd 99 8f d6 bc 61 e6 1b 3d
       0.053435754 -0.044270627 -0.02619152 0.038061503
000060 4b b8 c2 be 5d 77 18 3f 40 a3 1e be 59 6e 01 3d
       -0.3803123 0.59557134 -0.15491962 0.031599376
000070 83 68 af bc e4 8d bc be c3 05 86 3e 45 1d d9 3e
       -0.02141214 -0.36827004 0.2617627 0.42405143
000080 66 64 06 3e 75 8e c7 3e 3a 33 de 3e 37 64 06 3e
       0.13124236 0.38975874 0.43398458 0.13124166
000090 34 8d db 3d a9 cb 31 be 82 2e e2 be 67 96 f6 be
       0.10720292 -0.17362846 -0.44176108 -0.48161623
0000a0 ff 04 76 3e e7 6e ba bf d8 3b 30 3e 3e 84 87 be
       0.24025343 -1.4565095 0.17210329 -0.2646808
0000b0 8a 07 a6 bf d4 68 e1 3d ba 1c 35 bf d9 02 08 bd
       -1.2971051 0.110063225 -0.7074696 -0.03320584
0000c0 22 d2 9b be d4 0d 31 bf fb 2c 19 bd 33 c9 d1 be
       -0.30433756 -0.69161725 -0.037396412 -0.40973815
0000d0 5b bb 36 bd 5d ca e5 3e bf 24 6b be cd f1 2a bf
       -0.04461227 0.44880953 -0.22963236 -0.6677521
0000e0 e1 9d a2 be 50 56 4b bd 41 4b 90 bd 7e 63 73 3d
       -0.31761077 -0.04964286 -0.070456035 0.059421055
0000f0 c6 5c 7f 3e bc 82 3a be 8f 5a 7c 3e c3 06 d2 be
       0.24937734 -0.18213934 0.2464392 -0.41020784
000100 28 99 79 be 35 45 cf 3c 5b dd 91 3d d2 50 0e 3e
       -0.2437483 0.025301555 0.07122298 0.13898018
000110 64 83 be 3f 58 e3 46 3e 19 17 46 3f 62 8e 65 3d
       1.4883847 0.19422662 0.77378994 0.05604399
000120 5b 95 2a bc 36 e7 ba bc 85 a7 79 3e 77 1b bc bd
       -0.010411586 -0.022815328 0.2438031 -0.09184926
000130 e9 49 ef 3d 0b 39 c5 bd 09 6f 03 be 7a 99 96 3e
       0.11684019 -0.09630021 -0.12835325 0.29413968
000140 3c f0 f4 3d 49 cf 32 be ca 3e fb bc 06 00 bc 3c
       0.119598836 -0.17461886 -0.030669589 0.02294923
000150 ad 01 db 3d 26 69 01 bd 3e 36 00 be 7d 53 86 3f
       0.10693679 -0.031594418 -0.12520692 1.0494229
000160 a5 9a 81 3d 92 7b 02 bf 6f fb fb 3e a5 26 21 be
       0.06328324 -0.50969803 0.49215266 -0.15737398
000170 c3 2d 67 3d ac 65 a4 3d fa 4a 09 3e 91 de 85 bf
       0.056440126 0.08027205 0.13407508 -1.0458547
000180 84 70 bc 3d 5a 82 8a 3d 39 2d 27 3d 03 92 07 3e
       0.09201148 0.06763144 0.040814612 0.13239293
000190 77 04 bc bd 10 db db be f2 e4 70 3d 4e 02 f4 bd
       -0.09180539 -0.4294057 0.05881209 -0.11914502
0001a0 23 cf 2a 3e 13 e3 1c be d8 31 05 bf 4d 72 4d 3e
       0.16680579 -0.15320997 -0.5202918 0.20063134
0001b0 ad 01 25 bf a4 61 d0 bc 81 9c 59 3e 33 ce c6 3d
       -0.6445568 -0.025437184 0.21251108 0.09707298
0001c0 77 b0 8b be 55 89 d5 be e1 74 11 3d a9 ab 82 be
       -0.2728307 -0.4170634 0.035511855 -0.2552159
0001d0 22 55 c0 bd 1a 32 05 3d e8 b1 c9 3e 84 fc 2f be
       -0.09391238 0.032518484 0.39393544 -0.17186171
0001e0 4a ea 89 be 40 9f 68 3d dc 8f 2c 3e d7 0d 6c be
       -0.2693656 0.056792498 0.16851753 -0.23052154
0001f0 24 e0 a2 be f1 a8 6f 3f 7e 2b d2 3e 58 c4 8b 3e
       -0.3181163 0.9361716 0.41048807 0.27298236
000200 d9 41 0b 3e bf 35 49 be aa 7d 52 be db 69 24 3e
       0.13599338 -0.19649409 -0.2055575 0.16056006
000210 d4 83 cc 3e 49 93 40 bd 18 ee 13 3d 89 fe 10 3e
       0.39944327 -0.047015462 0.036115736 0.14159597
000220 91 8f fa be 6c 07 82 bd d1 6a 62 3e e9 29 2d 3f
       -0.48937657 -0.06349072 0.2211106 0.67642075
000230 10 ff 50 be 74 09 0a 3e 39 a6 92 3e ff 6d dc 3e
       -0.20409799 0.13480169 0.28642443 0.4305267
000240 b6 98 71 3e e7 f1 83 bb 80 6a 11 bf 1d 4c 50 bf
       0.23593411 -0.0040266397 -0.5680313 -0.8136614
000250 e5 5e 3a bf c2 d3 2f 3f c2 db 22 bf fa 55 a8 be
       -0.7280105 0.6868249 -0.63616574 -0.32878095
000260 d9 23 b0 bc 68 e9 64 be 73 d9 95 bd b6 cf 19 be
       -0.021501468 -0.22354662 -0.07316866 -0.15020642
000270 a1 de 78 bc 0c 7a 0d 3e 6b 92 93 bd f0 da 90 3d
       -0.015189798 0.13816088 -0.072056614 0.07073009
000280 27 2a 1d bd 97 37 7c bd 60 56 95 be 55 77 5f 3f
       -0.038370278 -0.061576452 -0.2916746 0.8729146
000290 fe db 4f 3d 2e 66 58 bd ca 71 c8 3e b0 39 02 be
       0.05074691 -0.05283182 0.39149314 -0.12717319
0002a0 90 4c 77 3d 60 1c ed bd 83 ef 25 3d 50 f6 2e 3d
       0.06037575 -0.11577678 0.04051162 0.04271537
0002b0 ae 90 ba be 06 b2 03 3e f9 cb cf bc 3a 19 cb bd
       -0.36438507 0.1286088 -0.025365816 -0.09916921
0002c0 d4 5a 8e be c2 0d 7c bd 10 94 59 be e7 bd 67 3d
       -0.2780367 -0.061536558 -0.21247888 0.05657759
0002d0 7e 7c 1a bd 64 9e 81 3d 16 35 32 be 1a a2 3f 3e
       -0.03771638 0.06329039 -0.17403063 0.1871418
0002e0 37 36 77 be c6 8b e7 bd c0 53 27 bf b2 55 86 3e
       -0.24141775 -0.113059565 -0.6536217 0.26237255
0002f0 1e 84 85 3e 76 b1 94 3e 86 0b 06 3e 34 b9 8e be
       0.2607736 0.29041642 0.13090333 -0.27875674
000300 de e9 3d 3e 0a 53 71 bf 3a f5 83 bd 3e 63 16 3e
       0.18546245 -0.9426733 -0.06443258 0.14686295
000310 95 0b 0d be 36 68 28 bd fb 1b e0 be 86 8b 4e 3e
       -0.1377395 -0.04111501 -0.43771347 0.20170411
000320 bd c3 cd be 14 49 33 bf 2e 8b fd bd b7 27 f8 3d
       -0.401884 -0.70033383 -0.12380062 0.1211695
000330 da fd 22 3e 13 ff 29 3f e3 5f bd be bc 92 12 3d
       0.15917149 0.6640484 -0.36987218 0.035784468
000340 c3 55 d0 be 98 8e 6e bd 93 a2 d7 be 58 d4 c4 3d
       -0.4069043 -0.058241457 -0.42116222 0.09610814
000350 d7 16 8e 3e 29 43 3f 3e 66 14 2e 3e d5 66 07 3e
       0.277518 0.18677963 0.16999969 0.13222821
000360 6c 97 c5 bd bc 15 14 3d 40 26 41 be 3a 57 40 bd
       -0.09648022 0.03615354 -0.18862247 -0.046958186
000370 7d 59 6b 3f 41 42 54 be ff 04 09 3f 4b b4 71 3e
       0.91933423 -0.20728399 0.5352325 0.23603933
000380 fa a5 a5 3d 3c 12 85 be 37 13 0c 3e a9 45 d5 3c
       0.08088298 -0.25990474 0.13679205 0.026034193
000390 aa db b7 bd 56 22 89 3e 0b 37 9d bd 7b 8e a0 3e
       -0.089774445 0.2678401 -0.07676514 0.31358704
0003a0 20 2c be be b6 ab 0b bf 71 52 23 bd 61 66 38 be
       -0.3714304 -0.54558885 -0.039873544 -0.18007804
0003b0 93 6e dd 3e f9 e4 b7 3e db 7a 92 be ec 62 2f bf
       0.43248424 0.3591688 -0.28609356 -0.6851032
0003c0 34 09 d3 3e 09 59 34 bf ac 54 a7 be c1 14 74 3e
       0.4121796 -0.70448357 -0.32681787 0.23836042
0003d0 c8 bf 10 bf f4 39 e5 bd c9 e2 eb bd fd 5b 95 bf
       -0.56542635 -0.11192694 -0.11517865 -1.1668698
0003e0 39 d6 50 be 0d f8 5f 3e 1c d1 50 bf 19 7c 26 3e
       -0.2039422 0.21871968 -0.81569076 0.16258277
0003f0 2a 16 f0 be 5e d1 0e bf 29 8d e1 3d de bf c7 be
       -0.4689191 -0.5578822 0.11013252 -0.3901357

linears.0.bias f4 [128]
000000 7a 26 b5 be 7e 2a 0e 3e ae 7c d8 bd 9d f6 12 3e
       -0.35380918 0.13883397 -0.10570656 0.14351888
000010 bf 9e d9 be 64 ee dd bd 0a 81 3d 3c 8b 6e 8a bd
       -0.42503926 -0.10836485 0.01156641 -0.06759366
000020 cb 40 4c be 1e 39 41 3d 1e b1 51 bd 81 26 89 be
       -0.19946592 0.04717361 -0.051194303 -0.2678719
000030 43 e2 11 be df 47 bb bd 5e 29 aa be a7 72 12 be
       -0.14246468 -0.09144568 -0.33234686 -0.14301549
000040 c2 09 a0 be f7 57 19 3e 65 ea 4c 3e 71 97 46 be
       -0.31257445 0.14974962 0.2001129 -0.19393708
000050 26 d7 2c be b7 a0 db bc f7 44 b7 be 5f 94 3a be
       -0.16878948 -0.026810033 -0.35794804 -0.18220662
000060 b9 75 83 be 82 5d 50 3e 0b ca a2 3e c0 5e ff bc
       -0.25675753 0.2034817 0.31794772 -0.03117311
000070 1c 62 5f be 35 77 6f be 86 54 fb be 44 51 5b be
       -0.2181477 -0.23385318 -0.49087924 -0.21417719
000080 5d 37 93 3e 9a cc d3 3d 34 a1 2b be 43 cc ad 3d
       0.28753176 0.10341759 -0.16760713 0.084862255
000090 c2 b9 fa be 73 77 32 be 36 5d 76 be 16 9d 0e be
       -0.48969847 -0.17428379 -0.24058995 -0.13927111
0000a0 a7 9d 22 3e aa 39 7a be b9 1a 18 3e 74 b2 c1 bd
       0.15880452 -0.2443606 0.14853944 -0.09457865
0000b0 8e 49 fa 3e 9f 7d 19 be 0a 36 0c bd 2c 47 a6 bd
       0.48884243 -0.14989327 -0.034231223 -0.08119044
0000c0 8a 83 75 be 24 9b c7 3c 20 be 04 bc f1 45 3c bd
       -0.2397596 0.024365969 -0.00810197 -0.04596514
0000d0 d1 41 7f 3c e8 55 5a 3c d3 fc 4c be fe fa 5a be
       0.015579657 0.013326146 -0.2001832 -0.21384808
0000e0 3a 7a 78 be 2a 0e 2a bd c9 ec a4 be 8e 3c 25 3d
       -0.24265376 -0.041517414 -0.32211903 0.040340953
0000f0 b0 17 78 bc 83 27 04 3d 91 39 ad be 26 6d a0 be
       -0.015142366 0.032264244 -0.33832982 -0.31333274
000100 f8 42 e7 bd c1 31 dd bb e0 fa 96 be 10 5d 30 3d
       -0.1129207 -0.006750316 -0.29488277 0.0430575
000110 56 85 4f be 34 9f 96 3d 97 68 df 3d 11 d0 d1 be
       -0.20265707 0.07354584 0.10908621 -0.40979055
000120 8c 6b d5 be a9 bb 88 be 85 c5 90 3e d3 0f 78 be
       -0.41683614 -0.26705673 0.28275695 -0.24224786
000130 5a 95 6e 3e db 85 39 be fd 43 14 bd 51 cd 0a 3e
       0.2329916 -0.18117468 -0.03619765 0.13554884
000140 ef 9c ac be 82 96 44 bd 0b fe ee bd 18 cf 5b be
       -0.3371348 -0.047995098 -0.116695486 -0.21465719
000150 33 27 9f bd 41 17 07 be 23 f7 f7 3d c4 b0 7e be
       -0.077711485 -0.13192464 0.121076845 -0.24872118
000160 0d dd ae 3e 92 50 d6 bd 63 29 e9 3d c5 4a 69 bd
       0.34153023 -0.10464586 0.11384847 -0.05695607
000170 66 27 d0 be a1 d7 5f be da 91 42 be 40 29 3b 3e
       -0.4065506 -0.218596 -0.1900095 0.18277454
000180 31 a3 bd bd 2c 46 8c be fa 6a aa 3d f8 22 ce bd
       -0.09259642 -0.27397287 0.083211854 -0.100652635
000190 57 cb 82 be ce 11 e3 bd ee 9a 64 be 86 2e f6 3c
       -0.2554576 -0.1108738 -0.22324726 0.030051481
0001a0 95 5d b3 be a4 3f 40 be 35 70 f2 be b5 f2 a7 be
       -0.35032335 -0.18774277 -0.47351232 -0.32802358
0001b0 d9 4f ce bd 34 e2 d4 bd 58 ca a0 be bf 0c 69 be
       -0.100738235 -0.10394707 -0.31404376 -0.22758768
0001c0 ea 88 3b 3e 39 a1 bd be f5 cd ab bd 90 0d a7 be
       0.18313947 -0.37037066 -0.083888926 -0.32627535
0001d0 d6 84 af bc 6d 61 bb bc 2a ac af bc 0f da b0 be
       -0.021425646 -0.022873605 -0.021444399 -0.34541366
0001e0 a7 80 28 be 05 69 34 bd 3d a5 cc bd 05 b3 65 be
       -0.16455327 -0.044045467 -0.09992454 -0.22431572
0001f0 4d 43 d1 be 36 da db be 0b f1 19 3d 2c e0 62 be
       -0.4087166 -0.4293992 0.037583392 -0.22155827

linears.1.weight f4 [64, 128]
000000 aa 18 e7 3c ef ca f1 bb e3 02 18 be 26 4d 70 3e
       0.028210003 -0.007378928 -0.14844851 0.2346693
000010 8e 67 87 3e 72 ab 0b 3e 4d 2d 49 be 71 ef 57 bf
       0.26446193 0.1363962 -0.19646187 -0.84349734
000020 1d 88 47 3e f0 4e 42 3e 31 37 62 be 52 6d 5a 3e
       0.19485517 0.18975425 -0.22091366 0.21330765
000030 6d 02 11 3e e9 80 64 be 26 07 21 3f 8d 88 73 be
       0.14161082 -0.223148 0.6290153 -0.23782559
000040 7f 0c 78 3e 87 5b 42 3e e6 63 ec bd 5d 00 e0 bc
       0.24223517 0.18980227 -0.115424916 -0.027343923
000050 75 11 47 be 5d c7 15 3e 6f cb 84 3e 00 b0 01 3d
       -0.19440253 0.14626832 0.25936458 0.031661987
000060 6c 26 c7 3c e4 d0 91 be 27 20 17 bf 02 85 c2 3c
       0.024310313 -0.28479683 -0.59033436 0.023745064
000070 39 33 06 be 30 fb 92 bc 14 30 85 3e b2 48 ed be
       -0.13105477 -0.017942041 0.26013243 -0.46344525
000080 da d6 70 be b0 fb 87 bc fa f7 62 3d 0a 7a 58 bd
       -0.2351946 -0.016599506 0.05541227 -0.05285076
000090 fa 12 a3 3d 2e 62 39 3e 86 18 03 3e 2c d5 b4 be
       0.07962604 0.18103859 0.12802324 -0.35318887
0000a0 ba ed 0b 3f 05 84 19 3e 11 bc 01 3f bc 61 80 be
       0.54659617 0.14991768 0.5067759 -0.25074565
0000b0 fe 0d 00 bf b4 80 d3 3c 93 37 e1 bc 34 b0 a1 3e
       -0.5002135 0.025818206 -0.02749232 0.31579745
0000c0 28 f7 ca 3e b7 7b 95 bc 53 49 12 bf b0 89 80 3d
       0.3964169 -0.018247468 -0.57143134 0.06276262
0000d0 ed 07 da 3c 5e 83 88 bd 72 62 37 3d fe 4c 31 3d
       0.026615107 -0.06665681 0.04477162 0.043286316
0000e0 a2 a6 da 3d 7c 09 98 3d ff 25 e3 bd 61 03 a1 3c
       0.10676314 0.07423684 -0.110912316 0.019654932
0000f0 d2 7f 77 3d c4 30 18 3f 68 ae ac 3d e4 f4 db 3d
       0.060424633 0.5944941 0.08431703 0.107400686
000100 59 74 56 3c be 84 97 3d 00 b6 b2 3e 1b e5 9c 3d
       0.013089263 0.073983654 0.3490448 0.07660886
000110 1b 28 f7 3d f4 5d 1a 3e a8 6c 06 3e cb 56 aa 3e
       0.120681964 0.15074903 0.13127387 0.33269343
000120 7c 0b c5 be 6a 21 57 bd 48 b3 a5 be 99 8a d9 bd
       -0.38485324 -0.0525221 -0.32363343 -0.106221385
000130 0a 5b 83 bd c0 49 62 3e f7 a7 0c 3d c8 95 33 bd
       -0.06413849 0.22098446 0.03433987 -0.043844014
000140 f5 42 b4 3e 37 be d4 3c 7b 70 6d 3d 4a 9e a7 3d
       0.35207334 0.025969608 0.057968598 0.08184488
000150 4e 56 3f 3d 1f 8e 09 3d cb fe 75 3d 04 5e f3 3c
       0.046713166 0.033582803 0.060057443 0.029707916
000160 4b 9b 6a be 95 04 8d 3e 74 b0 8d bd 9a 11 ba bc
       -0.22910802 0.27542558 -0.069184214 -0.022713471
000170 42 38 03 3f 6e 32 f2 3e 52 bd 07 3f f1 d3 28 be
       0.5125772 0.473041 0.53023255 -0.16487099
000180 c3 9e 3d be 46 c2 46 3f e9 58 be bc 8e 3e 80 be
       -0.18517594 0.7764019 -0.023235755 -0.25047725
000190 40 b5 00 3c 0c 58 05 3e b2 81 53 3e a6 27 09 be
       0.007855713 0.13021868 0.20654944 -0.13394031
0001a0 45 93 d6 3d bd 61 4d 3e fa 1d 91 bd b5 0b 6c 3d
       0.10477308 0.20056815 -0.07085796 0.057628352
0001b0 85 09 1f 3e 34 ef 90 3e 58 e7 a7 be 39 06 20 bc
       0.15530975 0.28307498 -0.3279369 -0.009767109
0001c0 67 a0 1b 3f 25 b1 49 3e ce a0 ce bd a8 fa 08 3e
       0.6079163 0.19696482 -0.10089265 0.13376868
0001d0 da 1a 9a 3e 27 65 a2 bd 66 59 fe 3e 91 31 5d bc
       0.3009861 -0.079294495 0.4967758 -0.013500587
0001e0 0e 11 30 3d e8 bd 38 3e 3f c8 ed 3e 15 a8 39 3e
       0.042985015 0.18041193 0.46441838 0.18130524
0001f0 6b 8d fe 3d 09 c9 a0 3e 16 2f 71 bd 0b 32 78 3e
       0.12429317 0.31403378 -0.058882795 0.2423784
000200 ae 30 62 3e 21 c5 95 bc be ec 41 3e fb be b2 3c
       0.22088882 -0.018282475 0.18937966 0.021819582
000210 27 d0 a3 3d e0 2b 82 3e d6 b1 23 3e f5 59 61 bd
       0.07998686 0.254241 0.15985808 -0.05501743
000220 74 fb c2 3e d1 51 60 3e ca 73 91 be 63 d0 1d bd
       0.38082469 0.2190621 -0.28408653 -0.03852881
000230 cb 10 87 3e 61 2e 70 3e 39 c0 b3 3d 8b a1 95 bd
       0.2638 0.23455192 0.08776898 -0.073062025
000240 b6 d9 06 be 39 c3 98 bd 80 dd a2 bc d5 9b 15 be
       -0.13168988 -0.07459111 -0.01988101 -0.14610226
000250 3a fc 70 be 84 a6 5e bd 3c 8c 82 3d 06 aa d2 3d
       -0.23533717 -0.05435802 0.06374404 0.10286336
000260 1d 45 84 bd fb b7 89 bd 1c 93 86 3e 1a f1 33 bc
       -0.06458495 -0.067245446 0.2628411 -0.010982776
000270 f7 d0 15 be cb fe 8c 3d 65 c1 7f 3d f6 ba ac 3e
       -0.14630495 0.068845354 0.062440295 0.3373639
000280 e0 c1 52 be 02 a8 12 3d a8 0d 02 be fb 19 47 be
       -0.2058177 0.035804756 -0.12700522 -0.19443505
000290 33 d6 dd 3d 88 4c ff bd 79 22 7d 3e f8 00 93 3e
       0.10831871 -0.12465769 0.24720182 0.28711677
0002a0 c7 ae 90 3d f4 42 a4 3d 5a c9 8e be 36 b5 0d 3e
       0.07064586 0.08020583 -0.27887994 0.13838658
0002b0 37 d5 85 bd 06 51 95 bd f2 a2 8c bd 06 ab d4 bd
       -0.06534808 -0.072908446 -0.06867017 -0.10384183
0002c0 53 f1 14 3e 40 6b 9a 3d a4 98 91 3d f9 d6 ce 3c
       0.14545183 0.075399876 0.07109192 0.025248991
0002d0 97 ae 00 be f7 ad 5a bd df 8d dd bc c5 15 45 bd
       -0.125666 -0.053388562 -0.027045188 -0.048116464
0002e0 51 1f 76 bd 9f 9f e4 3c 6d 0c c2 3d 26 51 cc bc
       -0.06008846 0.027908145 0.09475026 -0.024941038
0002f0 c9 a8 9a bd 28 01 a2 bc e5 32 68 be 54 02 dd 3d
       -0.075517245 -0.019775942 -0.22675665 0.1079146
000300 d5 2d 01 be 9b dd 02 3e 51 03 0e be 55 d9 a2 bd
       -0.1261514 0.12779848 -0.13868453 -0.07951609
000310 3a b3 f8 3d 6e 5a 33 be 8a 6f 00 be d0 7a 92 3e
       0.1214356 -0.17514965 -0.12542549 0.28609324
000320 7c c4 af 3d 8d 7b 02 be ae 78 71 be d6 a2 a2 bd
       0.08582398 -0.12742443 -0.23581192 -0.07941215
000330 de e6 6f 3d 27 c7 02 be 7c 3b 55 bd b9 cf 02 3e
       0.05856978 -0.12771283 -0.05205868 0.12774552
000340 59 e3 08 3e be af 57 3e 61 dc e2 bc 5d c8 4f 3e
       0.13367976 0.21063134 -0.027692975 0.20291276
000350 29 99 4f be 7d 57 e6 bd 7d 97 90 3e 2a 78 58 bc
       -0.2027327 -0.11247156 0.28240576 -0.013212243
000360 2f 41 61 3e 20 f7 f2 bb 06 9a 51 3e ac a3 c4 bd
       0.21997522 -0.0074147135 0.20468912 -0.096015304
000370 e5 e7 ce 3d 1e 86 43 be 29 a8 f9 bd fb e2 cc bb
       0.10102824 -0.1909413 -0.12190277 -0.006252644
000380 09 57 8f 3b 51 c8 9a 3d a7 20 01 3e dd 3e 91 3b
       0.004374389 0.075577386 0.12610112 0.0044325427
000390 53 66 63 3e ca 2b 2d 3d f1 e2 48 bd 61 71 eb bd
       0.22207002 0.04227809 -0.049044553 -0.11496235
0003a0 a9 79 71 bd 26 a1 c3 bd d0 a3 ba 3e 5e 71 df bd
       -0.058953915 -0.09552221 0.36453104 -0.10910295
0003b0 c2 d4 57 3e f3 81 1a bb 80 7e ba bd 94 20 7f bc
       0.21077254 -0.002357599 -0.09106159 -0.015571732
0003c0 eb c2 15 be 97 d1 95 be 92 ea 92 3d 5e 53 10 3e
       -0.14625137 -0.29261467 0.07173647 0.14094302
0003d0 76 8f 8f 3b 57 0f ab 3b b8 fb d2 3d 5e 5b ad 3a
       0.0043811155 0.0052203345 0.10301918 0.0013226082
0003e0 30 d7 aa 3c 0f a3 82 3d 18 4f a3 3e 9b 17 57 3e
       0.020854563 0.06378757 0.3189628 0.21005099
0003f0 ab ae 7e 3e c7 f9 c7 bd a7 96 5b be cb da b2 3d
       0.24871318 -0.09764438 -0.21444188 0.08733138

linears.1.bias f4 [64]
000000 87 c0 53 3e b5 72 19 be f3 17 b6 3d 0b 57 8e 3c
       0.20678912 -0.14985164 0.08891287 0.01737549
000010 33 08 9e 3e 2a b4 9c 3e dc 75 ad 3c 3e e7 03 3e
       0.3086563 0.30606204 0.021174364 0.1288118
000020 06 f4 28 be c4 0b 47 3d a4 d5 5b 3b 8c 57 32 3e
       -0.16499338 0.048595205 0.0033544088 0.17416209
000030 d1 c3 4b be 9b 14 3d bd 56 88 51 3d 71 13 0b 3e
       -0.19898917 -0.04616223 0.05115541 0.13581635
000040 81 59 38 3e ef d9 7c 3e c4 cb a6 be 42 93 a2 3d
       0.18002893 0.2469251 -0.32577336 0.079382434
000050 bc 52 ef bd 6b 8d 2a 3e 0d dd 9c 3e 01 34 1d 3e
       -0.11685702 0.16655509 0.30637398 0.15351869
000060 1e c2 58 be 74 6d 54 be f0 33 ca bd 2a d1 af 3e
       -0.211678 -0.20744878 -0.098731875 0.34339267
000070 d2 e4 61 3b 8e a6 28 be 0b fa 21 3e aa 0f 98 ba
       0.0034468663 -0.16469786 0.1581804 -0.0011601348
000080 74 7f 3f 3e 69 06 1c 3d 5a de b3 be 6f 4e ae ba
       0.18700963 0.03809205 -0.35130578 -0.0013298522
000090 7d 53 06 3e f1 05 12 be 4e 39 80 3b c6 99 a7 3e
       0.13117786 -0.14260079 0.0039130813 0.32734507
0000a0 16 d7 ad be 39 2f 19 be d8 72 c0 be 34 34 4b be
       -0.3395316 -0.1495942 -0.3758762 -0.19844133
0000b0 af d8 29 3e bc 8c 2b 3d 96 b9 18 be e7 1d 11 3e
       0.16586564 0.04188226 -0.14914545 0.14171563
0000c0 4e 6d 4a be 3b 27 8d 3e da b8 26 be 1e b4 6c 3e
       -0.19768259 0.27568993 -0.16281453 0.23115584
0000d0 bc a8 62 3e 65 58 8c 3d 78 32 de 3d 58 f5 0a 3c
       0.2213468 0.068527974 0.1084947 0.008481346
0000e0 3d 35 35 3e 6e ca 3f be c2 5f 18 3e c5 79 14 3e
       0.1769609 -0.18729565 0.14880279 0.14499576
0000f0 02 13 f4 be da 15 14 3e 5f 18 e7 bd f4 9e 0c be
       -0.47670752 0.1446146 -0.11283945 -0.13732511

linears.2.weight f4 [32, 64]
000000 8b 60 87 bd c0 fa 41 bd d3 37 be be 1e 82 90 be
       -0.06610211 -0.047358274 -0.37151965 -0.28224272
000010 d1 94 98 be 69 f6 b5 be c1 38 56 3d 17 06 03 3c
       -0.29801038 -0.3553956 0.05230022 0.007997057
000020 19 22 45 3e 6b c6 42 be 15 0d 5c bd 6d 97 be 3c
       0.19251288 -0.19021003 -0.053723413 0.023265565
000030 b8 ec 96 b6 79 e5 d0 3d a2 ab c2 3d 8f 34 1d bc
       -4.497906e-06 0.102000184 0.095053926 -0.0095950505
000040 7e f0 9e 3d cf dc a4 3d 57 a0 8a 3e d2 d3 b9 bd
       0.07760714 0.080499284 0.27075455 -0.09073605
000050 84 11 39 3e fe a8 ab 3c 30 47 37 3c b0 24 3d 3e
       0.18073088 0.020954605 0.011186406 0.18471026
000060 c4 8b 87 3e 6c 4c 0e 3e ed 0e 30 bd eb 9d fa be
       0.2647382 0.1389634 -0.042982984 -0.48948607
000070 dc 17 b5 bd 09 cf de 3d 11 ea 06 3d a2 25 59 be
       -0.088424414 0.108793326 0.032938067 -0.21205762
000080 bb 1f 40 bc 6a 12 1a bd d2 25 92 bd 39 15 d3 3d
       -0.011726315 -0.037615217 -0.0713612 0.10306782
000090 cf 9c 00 be 6f 07 a7 3d 7c 4b 94 bd b6 62 0e bf
       -0.12559818 0.08155715 -0.0724096 -0.5561937
0000a0 b2 a4 1c 3d be d5 8c bd 37 32 bf 3d 29 18 a1 3d
       0.038243003 -0.068767056 0.093357496 0.07865936
0000b0 16 24 a5 3d 02 c8 f9 3c 75 f8 7a bd 2b cb e7 3d
       0.080635235 0.030490879 -0.061272103 0.11318048
0000c0 08 1b fa bd e2 d2 e2 3d 4c 51 8e 3d 37 00 8c bd
       -0.12212187 0.11075379 0.069491 -0.068359785
0000d0 d0 03 71 3d cc fd 42 bd 68 68 05 3e 89 86 93 3d
       0.058841527 -0.04760532 0.13028109 0.07203395
0000e0 4d ad 46 be 03 f1 ef bd 93 82 83 3c 01 19 87 3d
       -0.19402047 -0.11715891 0.016053474 0.06596566
0000f0 d1 aa 4d be 99 aa 08 3d dd ed e7 3c 1f de 75 be
       -0.20084693 0.03336582 0.028311664 -0.24010514
000100 65 ca d4 3d 8c ce fe 3d 70 1c ab be 9e 98 73 be
       0.10390166 0.124417394 -0.33420134 -0.23788688
000110 83 33 ad be 62 b9 03 bf 4c 40 d4 3d 71 04 eb 3d
       -0.33828363 -0.51454747 0.10363826 0.114754565
000120 d4 a7 49 3e 58 c5 4d be 94 43 c4 bc 8c 7b 82 3d
       0.19692928 -0.20094812 -0.023958005 0.06371221
000130 ae 16 cd bd 28 67 c1 3c 53 06 5c bd 15 62 0e 3d
       -0.100140914 0.023608759 -0.05371697 0.034761507
000140 41 4b 9f 3b af e3 60 3c 4c 76 55 3e 5f a9 ae 3c
       0.004861266 0.013726159 0.20845908 0.021320997
000150 ff 3f 42 bd 70 cc f8 3d 74 e0 a3 3d 86 2c 61 bc
       -0.047424313 0.12148368 0.080017954 -0.013743525
000160 40 d9 53 3e f2 c2 32 3e 43 8a 4d 3d 90 1e 02 bf
       0.20688343 0.17457178 0.050180685 -0.50827885
000170 c3 ce 96 bd 8d b8 26 3d 9f f7 87 3d 6b bd 1e bb
       -0.073636554 0.040703345 0.06639027 -0.0024221789
000180 c8 59 8c bd a0 af 49 bc ec fe 56 3d 70 4e a7 3d
       -0.06853062 -0.012309939 0.052489206 0.08169258
000190 fd 7b 3b be 0d 08 8c 3c f7 33 30 3d 71 1a 15 bf
       -0.18309017 0.017093683 0.043018308 -0.5824347
0001a0 72 89 e1 3d 43 b5 15 bd cf f8 a9 3e eb 18 e6 3c
       0.11012544 -0.036549818 0.33197638 0.028088054
0001b0 c1 0f c0 3d bf 28 df bb b9 98 00 3e 4c 59 11 bd
       0.09378005 -0.0068102772 0.12558259 -0.03548555
0001c0 8d 38 eb bc 47 35 b6 3c 37 59 8a 3d ba 31 61 ba
       -0.028713489 0.022242201 0.06755298 -0.00085904787
0001d0 cc 84 f9 3c 26 65 5e bd bf 3e ad 3d 55 e1 37 bd
       0.03045883 -0.05429568 0.084592335 -0.044892628
0001e0 28 18 1d bf 56 67 31 bd f6 7d 47 bc ea 34 ac 3d
       -0.61364985 -0.04331144 -0.0121760275 0.0840853
0001f0 ac 76 f1 bd ac ff 16 bd 3e da ac 3d 71 37 f2 bd
       -0.11790213 -0.03686492 0.08440064 -0.11826981
000200 6b c9 02 3e 77 ad f9 3d 07 9a 81 be 1d e2 47 be
       0.12772147 0.12191289 -0.25312826 -0.19519849
000210 16 22 dc be ce 3d d0 be 0f 42 78 bd 2b aa 3c 3d
       -0.42994756 -0.40672153 -0.060609873 0.046060722
000220 f5 36 47 3e e5 29 6e be 25 14 b9 3d fd cc 0b 3e
       0.19454558 -0.23258169 0.090370454 0.13652416
000230 db da bc bb 71 51 2e 3d dc 79 8c 3d 0f ba 61 3c
       -0.0057633943 0.042558137 0.0685918 0.01377727
000240 bd f0 cf bb ef bc 2a bd 98 26 a1 3e 97 05 76 3d
       -0.006345837 -0.041684087 0.31474757 0.060063925
000250 ac 57 71 bd 09 82 9c bd cd 8f ea 3d bb 64 83 3c
       -0.0589215 -0.0764199 0.11453209 0.016039243
000260 a7 21 83 3e 03 b3 9e 3c 0f 58 f1 bc 6e b1 03 bf
       0.25611612 0.019372469 -0.029460935 -0.5144261
000270 13 e4 ab bd ef 1a 34 3e 5d 12 00 be 63 0d 00 be
       -0.08393111 0.175884 -0.12507005 -0.12505107
000280 af 1e b4 3d aa 7b 95 3d 51 10 9e bd 12 b1 ba bd
       0.08794915 0.07298978 -0.07717956 -0.09115805
000290 dc e4 10 be 0d f3 30 bd e9 9e cc 3b 6c ae 1d bf
       -0.14149803 -0.04320054 0.0062445295 -0.6159427
0002a0 d2 ad 70 3d c6 c2 23 be dd d9 be 3d 70 ab 2d 3e
       0.058759518 -0.15992269 0.09318898 0.1695993
0002b0 1b 60 f7 b9 e0 84 69 bd d5 bd d6 bd 75 b1 ed 3d
       -0.00047183115 -0.057011485 -0.10485426 0.11606113
0002c0 27 33 b8 bd 22 28 46 3d 0d 23 95 bd 2c 0a e1 3d
       -0.089941315 0.048378117 -0.07282076 0.10988268
0002d0 69 22 b2 3d 55 bd 14 3e 1e 78 2b bd 62 4b 24 3d
       0.086979695 0.1452535 -0.0418626 0.040110953
0002e0 16 c9 e2 be 57 53 f4 bd 89 cc 9d bd 31 d3 8d 3d
       -0.4429404 -0.11929958 -0.077050276 0.06925047
0002f0 05 1e 83 be 18 3b 34 bd f8 20 99 3d e8 09 73 be
       -0.2560884 -0.04400167 0.074769914 -0.23734248
000300 97 9a 9f 3d ef 3e 97 3d 98 c9 a1 be 41 46 71 be
       0.077931575 0.073850505 -0.31599116 -0.23561956
000310 c5 69 8a be 87 e7 b9 be 23 0d 9e 3d 1d c6 cf 3d
       -0.2703382 -0.36309454 0.077173494 0.10145209
000320 c3 a9 90 3d 9e 26 37 be e8 3f 7d 3d da 79 dd bc
       0.070636295 -0.17885825 0.061828524 -0.027035642
000330 44 08 2d 3d f7 62 99 bd 1e d2 b0 3d 87 d8 10 3e
       0.04224421 -0.07489579 0.08633827 0.14145099
000340 4f 82 96 bd dd 1b 82 3c c7 7f c6 3d 91 42 69 3c
       -0.07349073 0.015882427 0.0969234 0.014237062
000350 5a 46 3c 3e b4 e9 af 3d bd e2 65 bd 05 33 3c 3d
       0.18386212 0.08589497 -0.056124438 0.045947094
000360 ed 67 5c 3e 16 5e b4 3d 66 41 ba bb 54 89 02 bf
       0.2152402 0.08807008 -0.0056840656 -0.50990796
000370 4d 68 59 bd 71 70 d8 3d 6a 2d 3b 3d 2d 07 7d bc
       -0.053077985 0.105683215 0.045697607 -0.015443605
000380 4a e6 da 3d 69 a5 cd bd ce c8 b7 bd ec 39 a6 bd
       0.106884554 -0.10041315 -0.08973847 -0.081165165
000390 af e2 68 3d 0a db a2 bd b2 49 36 3e 77 10 f3 be
       0.056856807 -0.07951935 0.1780155 -0.474735
0003a0 66 64 13 3e 92 ec 24 bd ee 01 51 bd ec 73 05 be
       0.14393768 -0.040264674 -0.05102723 -0.13032502
0003b0 5d 6c 90 bd 71 66 39 be ba ed 19 be d8 bd ce bc
       -0.07051919 -0.18105485 -0.15032092 -0.025237009
0003c0 ee 8e 9b bd 1c d4 71 3b 29 44 81 bb 80 92 0a 3e
       -0.07595621 0.0036900109 -0.003944893 0.13532448
0003d0 ac d0 dc 3a 24 35 a3 3d 26 85 18 3e 9e f7 d1 bd
       0.0016846857 0.0796912 0.14894542 -0.10252307
0003e0 2a 20 ce be 05 b0 0a 3d 49 59 d1 bd ba 06 bd bc
       -0.40258914 0.03385927 -0.10222108 -0.023074497
0003f0 be 58 50 be 2f 53 91 bd d0 39 93 3d 97 3e 88 be
       -0.20346352 -0.07095944 0.07188761 -0.26610252

linears.2.bias f4 [32]
000000 35 80 2b 3f 11 b6 36 3f 56 c2 0a 3f 8e c3 0f 3f
       0.66992503 0.7137156 0.54202783 0.5615777
000010 d0 83 1e be c5 f9 a2 be a5 d2 14 3f 20 c7 02 3f
       -0.1547997 -0.31831184 0.5813392 0.5108509
000020 a0 30 1b 3f db 4a 27 3f 55 63 75 3e 22 fa 16 be
       0.6062107 0.65348595 0.23963673 -0.14743856
000030 7d 53 2b 3f e3 71 ec 3e 3a 55 a5 3e 86 e3 38 3f
       0.6692427 0.4618064 0.32291585 0.72222173
000040 13 f9 3f 3f 55 a9 b3 3d 51 58 f0 3e fb 69 b5 3e
       0.7498943 0.08772532 0.4694238 0.3543242
000050 32 93 2b 3f 1f 60 a9 3e a2 72 04 3f 83 87 30 3f
       0.6702148 0.33081147 0.51737416 0.68956774
000060 4a f6 01 3f cb ed ae 3e be fb c8 3e 69 4a c3 3e
       0.5076643 0.34165797 0.39254564 0.38142708
000070 ae 87 df 3e d0 0e 2a 3f cc 81 eb 3e 90 d5 fd 3e
       0.43658203 0.6642885 0.45997465 0.49576998

output.weight f4 [1, 32]
000000 9e 5b ac bd c6 67 92 bd d2 93 9b bd 51 76 a8 bd
       -0.08415912 -0.071486995 -0.07596554 -0.08225692
000010 3a fd 07 3c 47 05 22 be 06 b6 54 bd fd b4 9e bd
       0.00830012 -0.15822326 -0.051931404 -0.077493645
000020 e3 1b fe bc 1d 69 42 3e 0f 5a 69 3d c6 7b 9f 3c
       -0.031019157 0.1898541 0.056970652 0.0194682
000030 43 62 94 bd 9e d9 03 3e 37 f9 92 3d 4a a1 b2 bd
       -0.072453044 0.12875983 0.0717644 -0.0872217
000040 c2 40 82 bd b8 95 84 3e 46 99 bc 3d 96 fa 29 3e
       -0.06360008 0.25895476 0.09208922 0.16599497
000050 2a c8 a3 bd c1 2f 7f 3d 05 1a 2c bd 13 5b 61 bd
       -0.07997163 0.0623014 -0.042017 -0.055018496
000060 5d b3 44 bd 90 ef d8 3d 78 db e1 3d 56 51 8b 3d
       -0.048022617 0.10592568 0.110281885 0.06802623
000070 43 e4 01 bd 43 8d b9 bd 32 60 0d 3e d8 94 6f bd
       -0.031711828 -0.09060147 0.13806227 -0.058491558
