bank/Models/transformer_v4/0.901_2/params.pt (torch_old, 18515 bytes, 70 tensors)

transformer_encoder.layers.0.self_attn.in_proj_weight f4 [24, 8]
0	0xbde32c04	-0.1109238
1	0x3e0044eb	0.1252629
2	0x3eb4f1f2	0.3534084
3	0x3e1646e6	0.14675483
4	0x3e2335c1	0.15938474
5	0xbe0a392f	-0.13498376
6	0xbe337779	-0.17526044
7	0x3e92af17	0.28649208
8	0x3e19477c	0.14968675
9	0x3e9e83a4	0.3095981
10	0x3edf1e6a	0.43577892
11	0xbeb9ac3c	-0.36264217
12	0x3c8021e9	0.01564117
13	0xbd7d08b4	-0.061775878
14	0xbed639da	-0.41841012
15	0x3db9e535	0.09076921
16	0xbb425998	-0.0029655453
17	0xbecf4b4d	-0.40487137
18	0xbda9d9ef	-0.08293521
19	0x3e6d3e7b	0.23168366
20	0xbe6883b5	-0.22706492
21	0xbe2e1b9c	-0.1700272
22	0xbe2f20af	-0.17102312
23	0xbe2e8f78	-0.17046916
24	0x3e5e52cc	0.21711272
25	0x3ef3872f	0.47564074
26	0xbf275c4f	-0.65375227
27	0x3e641fd1	0.22277762
28	0xbd1cc0ea	-0.038269915
29	0x3e83d2a6	0.2574665
30	0xbb98daaa	-0.0046647387
31	0x3e3c3fb0	0.1838367
32	0xbe6c0d26	-0.2305189
33	0xbe995984	-0.29951108
34	0x3eb5a4f6	0.35477418
35	0xbe925954	-0.28583777
36	0x3d651b26	0.055934094
37	0xbd38fec4	-0.04516484
38	0xbe653e5b	-0.22387068
39	0x3e58b67b	0.21163361
40	0x3dbb11de	0.09134267
41	0xbcdbb6f1	-0.026820632
42	0xbe489f05	-0.19591911
43	0x3dbf7041	0.093475826
44	0xbe830016	-0.25586003
45	0x3b70387f	0.0036654768
46	0xbdc04605	-0.09388355
47	0x3d52f594	0.051503733
48	0xbeb1b5a6	-0.347089
49	0x3d73aee2	0.059492953
50	0x3e7fe7d8	0.24990785
51	0xbec76909	-0.38947323
52	0x3ebc09e8	0.36726308
53	0xbeb13d32	-0.34617
54	0x3c96788d	0.01836803
55	0x3d8df497	0.069314174
56	0xbed29475	-0.4112889
57	0xbe2762a7	-0.16346227
58	0xbd8eb670	-0.06968391
59	0x3e809f32	0.25121456
60	0xbe848e3d	-0.2588977
61	0xbe8d1d8b	-0.27561602
62	0x3e049799	0.12948455
63	0xbe726a6d	-0.2367341
64	0x3d9f622e	0.07782398
65	0xbe8a214a	-0.26978523
66	0xbd460522	-0.04834474
67	0x3e6ce98e	0.23135969
68	0xbe062158	-0.13098657
69	0x3ee37510	0.4442525
70	0x3e712f99	0.23553313
71	0x3cdce5c8	0.026965037
72	0xbde34206	-0.11096577
73	0xbe5591f8	-0.20856464
74	0xbec50acb	-0.38484797
75	0xbd1fd1e9	-0.039018545
76	0xbec89140	-0.39173317
77	0x3e97e40a	0.29666167
78	0x3e489b87	0.19590579
79	0x3eee1818	0.46502757
80	0x3cb54caa	0.022131283
81	0xbec7d49c	-0.39029396
82	0x3ec57fc0	0.38574028
83	0xbe8ce423	-0.27517805
84	0x3daa9a62	0.083302274
85	0x3eccb8c1	0.39984706
86	0xbe3334c6	-0.175006
87	0x3de4b352	0.11167015
88	0xbe3e3e4f	-0.18578456
89	0xbe0aeec5	-0.13567646
90	0x3e4a722f	0.1977012
91	0xbe9659ca	-0.2936538
92	0xbeebab4e	-0.46029133
93	0xbed4f370	-0.41591978
94	0xbdd7fdf8	-0.105464876
95	0x3e5e84dd	0.21730371
96	0xbee0fe69	-0.439441
97	0xbb53d9dd	-0.0032325902
98	0xbe0cd4b4	-0.13753015
99	0x3eaed6e9	0.34148338
100	0xbe873fda	-0.26415902
101	0x3ee43bb7	0.4457681
102	0x3e812218	0.25221324
103	0x3de3c69b	0.11121865
104	0x3d01d2a2	0.031695016
105	0x3ddf8c36	0.10915415
106	0xbeb04651	-0.34428647
107	0xbe794546	-0.24342832
108	0xbecaec0a	-0.3963321
109	0xbe72ee4f	-0.2372372
110	0x3eb92600	0.36161804
111	0xbe1301cd	-0.14356156
112	0x3e84f77a	0.2597006
113	0xbd1906d9	-0.037360046
114	0x3d5c98c6	0.053856634
115	0x3eaf1d2a	0.34201938
116	0xbe761f94	-0.24035484
117	0x3d9e141b	0.077186786
118	0xbe439f5a	-0.19103757
119	0x3eb2308d	0.34802666
120	0x3e95d358	0.29262805
121	0xbc933069	-0.01796742
122	0x3e726ddc	0.2367472
123	0x3d80c7bc	0.06288096
124	0xbf08cea4	-0.5344031
125	0xbeafcfd2	-0.34338242
126	0x3eddf360	0.43349743
127	0x3ecf84ca	0.40530998
128	0x3ebff91f	0.37494752
129	0xbeb77e41	-0.35838512
130	0xbdcaf065	-0.09909133
131	0x3ce55c18	0.027998015
132	0xbe152e72	-0.14568499
133	0xbddd4b9d	-0.10805438
134	0x3d871e59	0.06597585
135	0xbe6bb7da	-0.23019353
136	0x3d587add	0.052851547
137	0xbe21ae07	-0.15789042
138	0xbe96c5be	-0.2944774
139	0xbe1eaa68	-0.15494692
140	0x3e4a4003	0.19750981
141	0xbebad719	-0.3649223
142	0x3d23fa0a	0.040033378
143	0x3d7eee7e	0.062239163
144	0xbce95cc8	-0.028486624
145	0xbeb664fd	-0.35623923
146	0xbd043666	-0.03227844
147	0xbd5d20c6	-0.053986333
148	0x3dc6c827	0.09706145
149	0xbec2ec62	-0.3807097
150	0xbe82f941	-0.2558079
151	0x3ed3d3f1	0.41372636
152	0xbe99e650	-0.30058527
153	0x3e44df2f	0.19225763
154	0x3eaacac0	0.3335781
155	0x3c018188	0.007904418
156	0xbe8db74a	-0.276789
157	0x3ecf2bd0	0.40463114
158	0xbcd15e61	-0.025557699
159	0x3d46b847	0.048515584
160	0xbacf6c24	-0.0015825075
161	0xbdff6580	-0.124705315
162	0x3edc4109	0.43018368
163	0x3ec32d80	0.3812065
164	0x3e4f2a77	0.20231043
165	0xbea490e5	-0.32141796
166	0x3a0d1d5d	0.00053830986
167	0x3eac7794	0.3368498
168	0x3e1f4a9d	0.15555806
169	0xbe24480c	-0.16043109
170	0x3ec7cd88	0.39023995
171	0xbda7c17c	-0.08191201
172	0xbe8dbda5	-0.2768375
173	0xbebbbc9e	-0.3666734
174	0x3e367707	0.17818843
175	0xbebb9add	-0.3664159
176	0x3e7bd2e2	0.24592164
177	0x3c5021b2	0.012703346
178	0x3ea6fda8	0.326154
179	0xbe12d929	-0.14340653
180	0x3eb66467	0.35623476
181	0xbdbd40ee	-0.092409
182	0x3e0c8afb	0.13724892
183	0xbe7a03f6	-0.24415573
184	0xbdaf9b48	-0.085745394
185	0xbda90b3f	-0.08254098
186	0x3e98881b	0.2979134
187	0xbd973fe6	-0.073852345
188	0xbde95a7b	-0.11394211
189	0xbe04126a	-0.1289765
190	0x3e28ca56	0.16483435
191	0xbea709e7	-0.32624742

transformer_encoder.layers.0.self_attn.in_proj_bias f4 [24]
0	0x3d47867d	0.048712242
1	0x3ce6ee13	0.028189695
2	0xbc9e6f91	-0.019340308
3	0x3ca04dec	0.019568406
4	0x3d5b1207	0.05348399
5	0xbc9fdbe1	-0.019514026
6	0x3dba0a46	0.09083991
7	0x3ccf748b	0.025324127
8	0xb9affd78	-0.0003356745
9	0xbaf6456d	-0.0018789001
10	0xb98e09eb	-0.0002709174
11	0xba2c9bbb	-0.0006584485
12	0xb9bf4d24	-0.00036487833
13	0xb9cdaee8	-0.00039230962
14	0xb9dd284f	-0.00042182437
15	0x394f45bb	0.00019767035
16	0xbcf27b18	-0.029599711
17	0xbd5ac1bd	-0.05340742
18	0xbd0c83ce	-0.034305386
19	0xbc6dd36f	-0.014515742
20	0x3b900a3d	0.0043957517
21	0x3c1493cf	0.009068443
22	0xbc9ba71b	-0.01900058
23	0x3a8fa819	0.0010960131

transformer_encoder.layers.0.self_attn.out_proj.weight f4 [8, 8]
0	0xbdd6ec07	-0.104942374
1	0xbc02e8c5	-0.007990067
2	0x3eafef30	0.34362173
3	0x3e19eee6	0.15032539
4	0xbe968580	-0.29398727
5	0x3bc3c2ca	0.0059741484
6	0xbd6325e9	-0.055456076
7	0x3e77f7db	0.24215643
8	0x3e063b13	0.13108473
9	0xbb7f1c21	-0.0038926678
10	0xbcafe183	-0.021469837
11	0xbe46c567	-0.1941124
12	0x3bd7d375	0.006586487
13	0x3e858939	0.26081255
14	0x3e1c9331	0.15290524
15	0x3ea93771	0.3305011
16	0x3e1fcfd9	0.15606631
17	0x3dacf7c7	0.08445697
18	0x3e10d941	0.14145376
19	0x3e52a15c	0.20569366
20	0x3e8924cf	0.26785895
21	0xbe8c71b2	-0.27430493
22	0x3e2b0819	0.16702308
23	0x3e5faddf	0.2184367
24	0xbe1ff8d3	-0.15622263
25	0x3ca55c2e	0.020185556
26	0x3d5ec110	0.054383337
27	0x3e938a20	0.2881632
28	0xbcf8a31c	-0.030351214
29	0x3eb0f0c5	0.34558693
30	0xbe36fd38	-0.17870033
31	0x3dda70aa	0.1066602
32	0xbd5f7619	-0.054555986
33	0xbe4e6bc8	-0.20158303
34	0xbe2d9962	-0.16953042
35	0x3e0e2bb8	0.13883865
36	0xbebc3d06	-0.36765307
37	0xbe4bc048	-0.19897568
38	0x3e993b67	0.29928133
39	0xbe73d4d1	-0.23811652
40	0x3e72f2d5	0.23725446
41	0xbe5f83c0	-0.21827602
42	0x3e854b50	0.2603402
43	0x3e365f4e	0.17809793
44	0xbe424e3d	-0.18975158
45	0x3c730531	0.014832781
46	0x3e9b027b	0.3027533
47	0x3ea1f026	0.3162853
48	0xbe8e5154	-0.27796423
49	0x3d40c0c2	0.04705883
50	0x3e4bb887	0.1989461
51	0x3d81a06f	0.063294284
52	0xbdabf129	-0.08395607
53	0xbdf78d06	-0.12087445
54	0xbe05bfff	-0.13061522
55	0xbd8e0041	-0.06933642
56	0x3e36f881	0.17868234
57	0xbd68b69c	-0.056814775
58	0x3e813421	0.25235084
59	0x3ea76acf	0.32698676
60	0xbe97ebcd	-0.2967209
61	0x3e58962f	0.2115104
62	0xbdd354c5	-0.10318903
63	0xbdc69fbf	-0.09698438

transformer_encoder.layers.0.self_attn.out_proj.bias f4 [8]
0	0xbbf732ee	-0.007543913
1	0xbd2fadc9	-0.042890344
2	0xbd0bf952	-0.034173317
3	0x3ca96858	0.020679638
4	0xbb7fbe34	-0.0039023282
5	0x3dffb19f	0.124850504
6	0xbc57313f	-0.0131343
7	0xbd49330c	-0.049120948

transformer_encoder.layers.0.linear1.weight f4 [32, 8]
0	0x3daaa449	0.08332116
1	0xbddfc17b	-0.10925575
2	0x3dff95b8	0.124797285
3	0x3dda14f6	0.10648529
4	0xbe552ee8	-0.20818675
5	0x3df5587a	0.11979766
6	0x3e07d763	0.13265757
7	0xbde5058b	-0.11182698
8	0xbd9cda6e	-0.0765885
9	0x3e875b62	0.26436907
10	0xbee8a7f2	-0.45440632
11	0xbdfb098d	-0.12257681
12	0x3eb4f4c8	0.35343003
13	0x3e962fbf	0.29333302
14	0xbdc36c32	-0.09542121
15	0x3dc2b406	0.09506993
16	0x3db39f47	0.08770614
17	0xbe8b3401	-0.27188113
18	0xbc2ff206	-0.010738855
19	0xbd498867	-0.04920235
20	0xbdf040ad	-0.11731086
21	0x3e84fb6e	0.25973076
22	0xbdc97bbc	-0.098380536
23	0xbe2a0d89	-0.16606726
24	0x3e51c41b	0.20484965
25	0x3d878d2b	0.066187225
26	0x3e885ab1	0.26631692
27	0xbe50a4c7	-0.20375358
28	0xbc19e08c	-0.009391915
29	0x3e0c4a0e	0.13700125
30	0xbe2ebcac	-0.1706416
31	0x3ddfd0e5	0.10928515
32	0x3e9a8989	0.30183056
33	0x3d2a9e8e	0.041655116
34	0x3ecd2439	0.40066698
35	0xbe9b08e9	-0.30280235
36	0xbe6c3a6e	-0.23069164
37	0xbeb12b1c	-0.34603202
38	0x3e904a05	0.28181472
39	0xbdd7e8f8	-0.10542482
40	0xbe1ee5a0	-0.15517282
41	0x3e6e47ab	0.23269527
42	0xbdc377db	-0.09544345
43	0x3eb138f4	0.34613764
44	0x3e6aed04	0.22941977
45	0x3d5c1afc	0.05373667
46	0x3dcc8b44	0.099875
47	0xbde1cae8	-0.110250294
48	0xbe0477ad	-0.12936278
49	0xbd94ac2f	-0.07259404
50	0xbde0f74c	-0.10984668
51	0x3d6395a3	0.055562627
52	0x3e77838e	0.24171278
53	0xbc09ba7a	-0.008406276
54	0xbea2b11e	-0.31775755
55	0xbe0d9bc6	-0.13828954
56	0x3e85b464	0.2611419
57	0xbc15cf3f	-0.00914365
58	0xbef9b0eb	-0.4876779
59	0xbe620f4d	-0.2207615
60	0xbe393804	-0.18087775
61	0xbd1da23b	-0.038484793
62	0x3e030475	0.12794669
63	0x3cfe6b23	0.031056946
64	0xbe256d8f	-0.16155075
65	0xbe544cbc	-0.20732397
66	0x3d17339f	0.036914464
67	0xbe877c64	-0.2646209
68	0xbe70f629	-0.23531403
69	0x3d571964	0.05251445
70	0x3e569424	0.20954949
71	0xbe6c834f	-0.23096965
72	0xbe84007c	-0.2578162
73	0x3e888edf	0.26671502
74	0x3ea011b3	0.31263503
75	0xbe097e84	-0.13427168
76	0xbe841a4f	-0.25801322
77	0xbe872d64	-0.26401818
78	0xbd4ba40e	-0.049717
79	0x3e942db0	0.28941107
80	0xbe4b4072	-0.19848803
81	0x3e0f0175	0.139654
82	0xbcb1e4ee	-0.021715607
83	0xbe9b08ee	-0.3028025
84	0xbe2af2cc	-0.16694182
85	0xbe2aa079	-0.16662778
86	0xbe8719f5	-0.2638699
87	0xbd851722	-0.06498553
88	0x3d7d6d64	0.0618719
89	0x3b2f4ac1	0.0026747438
90	0xbdf85098	-0.12124747
91	0x3d907428	0.07053405
92	0x3e0f7cef	0.14012502
93	0xbd93c950	-0.07216132
94	0x3e5108f6	0.20413575
95	0x3dfe70ff	0.12423896
96	0xbeb27b64	-0.34859765
97	0x3d6e21ad	0.058137584
98	0xbec37cc7	-0.38181135
99	0x3eb1afae	0.34704345
100	0x3bf371f9	0.007429358
101	0x3e32d349	0.17463411
102	0x3ebe97e9	0.37225273
103	0x3cc88016	0.024475139
104	0xbdebd5d9	-0.115153976
105	0x3dfc481f	0.123184435
106	0xbe1334e1	-0.1437564
107	0x3ea87a8b	0.32905993
108	0x3b33415d	0.0027352192
109	0xbe03c1a3	-0.12866835
110	0x3df3fe8e	0.11913787
111	0xbe80c5a6	-0.25150794
112	0xbe5cc15d	-0.21558137
113	0xbe706dbb	-0.23479359
114	0x3dcd2c65	0.10018233
115	0x3e8d33ef	0.27578685
116	0xbe69eb6e	-0.22843716
117	0xbcfd2a9d	-0.030904109
118	0xbe98b66d	-0.2982668
119	0xbe55fcff	-0.20897292
120	0x3e93fa92	0.28902107
121	0xbe93a924	-0.28839982
122	0x3e864093	0.2622114
123	0xbde167f7	-0.11006158
124	0xbd4a2d6f	-0.049359735
125	0xbeaadf98	-0.33373713
126	0xbe2e68fe	-0.17032239
127	0xbd6ae99b	-0.05735169
128	0x3d7302d5	0.059328873
129	0x3e7515b4	0.2393406
130	0x3e0b8180	0.13623619
131	0x3ef668e2	0.48126894
132	0xbe686263	-0.22693782
133	0xbe904027	-0.28173944
134	0xbe8be52b	-0.2732328
135	0xbd7764d2	-0.060398884
136	0x3eb82078	0.35962272
137	0x3dabf76a	0.083968
138	0x3cea33ef	0.028589217
139	0x3d2c4d2b	0.04206578
140	0xbdeb31e2	-0.11484124
141	0x3e300724	0.17190224
142	0x3e1a4adf	0.15067624
143	0x3e01dfd8	0.12683046
144	0xbdb3690f	-0.08760273
145	0x3e91bb73	0.28463325
146	0xbdb8f555	-0.09031168
147	0x3e95a63d	0.29228392
148	0xbe547ca2	-0.20750669
149	0x3e4831ff	0.19550322
150	0xbe952e3f	-0.29136845
151	0x3e18a9ad	0.14908476
152	0x3cfd9d1d	0.030958707
153	0xbdec844b	-0.115486704
154	0xbd7ca2f9	-0.06167886
155	0xbe9fad54	-0.31186926
156	0xbdd5a8c4	-0.1043258
157	0xbebcc077	-0.3686559
158	0xbc57de1d	-0.0131755145
159	0x3ec82dea	0.3909753
160	0x3d337a20	0.04381764
161	0x3e31968c	0.17342585
162	0xbea6934f	-0.32534263
163	0x3ed1ac3a	0.4095171
164	0x3cde0d09	0.027105825
165	0xbe780a01	-0.24222566
166	0xbe92ee1d	-0.2869729
167	0xbd931e76	-0.07183544
168	0xbe4ac3cb	-0.19801252
169	0xbea6f3b0	-0.32607794
170	0x3dcfa967	0.10139733
171	0x3da84cb4	0.08217755
172	0x3e443431	0.19160534
173	0xbdcb941a	-0.099403575
174	0x3dd4ba34	0.10387078
175	0x3e6e498b	0.23270242
176	0xbe5acf10	-0.2136805
177	0xbd4996f5	-0.04921623
178	0xbe8d9de4	-0.27659523
179	0xbe9a34ce	-0.30118412
180	0xbda61cf9	-0.08110995
181	0x3e8caeed	0.27477208
182	0x3ecf4f99	0.40490416
183	0x3d8baea9	0.06820423
184	0x3e528d98	0.20561826
185	0x3d867aed	0.06566415
186	0x3cdce121	0.026962819
187	0xbe5fcf04	-0.21856314
188	0x3e6796cb	0.22616117
189	0xbea134b1	-0.31485513
190	0xbc34e18d	-0.011040104
191	0xbebb1588	-0.36539865
192	0x3e94f82c	0.2909559
193	0x3ea13324	0.3148433
194	0xbef7c34e	-0.48391193
195	0x3eea26b8	0.45732665
196	0x3d918a0c	0.071064085
197	0xbd23fdf7	-0.04003712
198	0xbcf01808	-0.029308334
199	0x3e5d2533	0.21596222
200	0x3ebccd5c	0.36875427
201	0xbe999853	-0.29999027
202	0xbe95a0c9	-0.29224232
203	0x3e395d7b	0.18102066
204	0xbe152028	-0.14563048
205	0xbe25ffda	-0.16210881
206	0x3e49c57e	0.19704244
207	0x3e724580	0.23659325
208	0x3e90d5ac	0.2828802
209	0xbd3c45e0	-0.045965075
210	0xbdfc7b26	-0.12328176
211	0x3e766ebe	0.24065682
212	0x3e1b0bee	0.1514127
213	0xbe544eaf	-0.2073314
214	0xbe93fa4a	-0.28901893
215	0xbe75199f	-0.23935555
216	0xbeaeca94	-0.3413893
217	0xbe33f886	-0.17575273
218	0x3e821441	0.25406078
219	0x3e4faffa	0.20281973
220	0xbdc202b3	-0.09473171
221	0x3e4600cb	0.1933624
222	0x3e8dc254	0.27687323
223	0x3da55daa	0.080745056
224	0xbe8cc6a9	-0.27495316
225	0xbe98b9dd	-0.29829302
226	0x3e24ed03	0.16106038
227	0x3d91b312	0.07114233
228	0xbe90cd17	-0.2828147
229	0x3e631893	0.22177343
230	0x3ed1b96e	0.40961784
231	0xbe448ba5	-0.19193895
232	0x3cbebf04	0.023284443
233	0xbc269563	-0.0101674525
234	0xbe903f82	-0.28173453
235	0x3ca5b245	0.020226607
236	0xba2c758d	-0.0006578796
237	0x3d21d50a	0.03950981
238	0xbe9fe9fa	-0.31233197
239	0xbeb9f44f	-0.36319205
240	0x3e318c35	0.17338641
241	0x3e849bd4	0.25900137
242	0xbeede491	-0.46463445
243	0x3ee6109f	0.44934556
244	0x3db4d0cd	0.08828888
245	0xbd923333	-0.07138672
246	0x3e28a3c7	0.16468726
247	0xbd8553aa	-0.06510098
248	0x3ddca235	0.10773126
249	0xbe51588b	-0.20443933
250	0x3d3fa4d9	0.04678807
251	0x3eb5be71	0.35496858
252	0xbe19bb0a	-0.15012756
253	0xbe348e9d	-0.17632528
254	0xbe9d4890	-0.30719423
255	0x3dcd1861	0.100144155

transformer_encoder.layers.0.linear1.bias f4 [32]
0	0xbdbc40bb	-0.09192034
1	0x3e2b4d57	0.16728722
2	0x3e3e47fe	0.1858215
3	0x3e04399f	0.12912606
4	0xbda67508	-0.08127791
5	0x3dce0f65	0.1006153
6	0xbeacd09e	-0.33752912
7	0x3e00a2ef	0.12562154
8	0xbe1a7c3b	-0.15086453
9	0x3e782bdb	0.2423548
10	0xbcb103cb	-0.021608254
11	0xbeab01aa	-0.33399707
12	0x3e263e68	0.16234744
13	0x3e0b325f	0.13593434
14	0xbe01e913	-0.12686567
15	0xbe1e9ab3	-0.154887
16	0xbdfd1256	-0.12357013
17	0x3eb4cf8e	0.35314602
18	0x3db03003	0.086029075
19	0xbe4a7ee1	-0.19774963
20	0x3db79d7c	0.08965585
21	0xbd40ba47	-0.047052648
22	0xbdee83f5	-0.116462626
23	0xbe034715	-0.12820084
24	0xbe054da2	-0.13017896
25	0xbd133f13	-0.035948824
26	0x3c6bb5ed	0.014386636
27	0xbe5b34d8	-0.21406877
28	0xbd52b55d	-0.051442493
29	0xbe1d566c	-0.15364999
30	0x3e4b0a25	0.19828089
31	0x3ea37acf	0.31929633

transformer_encoder.layers.0.linear2.weight f4 [8, 32]
0	0x3d26257f	0.040563103
1	0x3d87cd99	0.066310115
2	0xbdccb1d2	-0.09994854
3	0x3d84e665	0.06489257
4	0x3e06958f	0.1314299
5	0xbd620bbb	-0.05518697
6	0x3e27f30c	0.16401309
7	0xbc356297	-0.011070869
8	0x3d253284	0.04033138
9	0x3ccad808	0.024761215
10	0x3d16d5f4	0.036825135
11	0xbdf469c0	-0.11934233
12	0xbe2b36ff	-0.16720198
13	0x3c521f60	0.012824863
14	0xbe3b16f7	-0.18270479
15	0xbdb523d9	-0.08844728
16	0x3d3c5fb4	0.045989707
17	0x3db317d0	0.08744776
18	0xbe02a671	-0.12758805
19	0x3e6d6343	0.23182397
20	0xbe390e81	-0.18071939
21	0xbccef9e5	-0.025265643
22	0xbe2e74c9	-0.17036738
23	0xbd2dfdc9	-0.042478357
24	0xbd9c58ab	-0.076340996
25	0xbd6c91fd	-0.057756413
26	0x3d7951c5	0.060868997
27	0xbe656d27	-0.2240492
28	0xbdcdd740	-0.10050821
29	0x3d1bdce6	0.038052462
30	0xbe24aa09	-0.16080488
31	0xbdd3f3c4	-0.10349229
32	0x3c88a0ac	0.016678177
33	0xbdc0780a	-0.09397896
34	0x3dd9c031	0.10632361
35	0xbcea3ce9	-0.028593497
36	0xbde03235	-0.10947076
37	0x3df54623	0.11976268
38	0xbb8cf4e4	-0.004301654
39	0x3e14e72b	0.14541309
40	0xbe033d9d	-0.12816472
41	0xbe5fa990	-0.21842027
42	0xbe236a7e	-0.15958592
43	0xbd2e9076	-0.042618237
44	0x3e13a551	0.14418532
45	0x3df3b69c	0.11900064
46	0x3dde80e5	0.108644284
47	0x3d3e70ea	0.046494402
48	0x3d9b20d8	0.07574624
49	0x3a1ebf92	0.0006055768
50	0xbde8d805	-0.113693275
51	0x3c83d687	0.016093506
52	0x3c972602	0.01845074
53	0x3dbec307	0.09314542
54	0x3e38b003	0.18035893
55	0x3d35b810	0.04436499
56	0x3d5eaf7c	0.054366574
57	0x3d9b6285	0.075871505
58	0x3ca1a2ea	0.019731004
59	0x3d838169	0.064211674
60	0xbdb79828	-0.089645684
61	0xbd7cece9	-0.061749373
62	0x3e4d88b6	0.20071682
63	0x3da249b5	0.07924215
64	0xbd4177b0	-0.047233284
65	0xbe064908	-0.13113797
66	0x3d9eaf32	0.077482596
67	0x3e6e6ee4	0.23284489
68	0x3e15b006	0.14617929
69	0xbd05dbc3	-0.032680284
70	0x3e27703a	0.16351405
71	0xbde4f275	-0.111790575
72	0x3b9dfd5a	0.0048214616
73	0xbc475bee	-0.012167914
74	0xbc494c71	-0.012286291
75	0x3e82734c	0.2547859
76	0x3e06b48b	0.13154809
77	0x3bc1b6c8	0.005911682
78	0x3de438e6	0.11143665
79	0xbdeae22b	-0.11468919
80	0xbe429801	-0.19003297
81	0x3e491811	0.19638087
82	0xbe0534c0	-0.13008404
83	0x3c8956fa	0.016765106
84	0xbe13bda5	-0.14427812
85	0x3c96fcd1	0.0184311
86	0xbdc9ef48	-0.098600924
87	0xbd54e104	-0.051972404
88	0x3d34a784	0.044105068
89	0x3da35307	0.079748206
90	0xbdced205	-0.10098652
91	0x3d9b3e30	0.07580221
92	0xbd4233a0	-0.047412515
93	0x3e1e1ac6	0.15439901
94	0xbe1bf48c	-0.15230006
95	0x3e601464	0.21882778
96	0x3db5465f	0.08851313
97	0x3e202232	0.15638044
98	0xbe46bcac	-0.1940791
99	0xbe5054ad	-0.20344801
100	0xbda04b8e	-0.07826911
101	0x3d90c691	0.070691235
102	0x3e251022	0.16119435
103	0xbd981955	-0.07426707
104	0x3d301417	0.04298791
105	0xbdede23e	-0.11615418
106	0xbdcaa65e	-0.09895013
107	0xbd9c6eab	-0.07638296
108	0xbddc0f12	-0.10745062
109	0x3dcda56d	0.10041318
110	0xbe202377	-0.15638529
111	0x3d82d560	0.06388354
112	0x3e2455f8	0.1604842
113	0xbb8a3a44	-0.0042183716
114	0xbd183971	-0.037164155
115	0xbe48a313	-0.19593458
116	0x3e156058	0.14587533
117	0xbe859745	-0.26091972
118	0xbde1e8bc	-0.11030719
119	0x3def9469	0.11698229
120	0x3e07214b	0.13196294
121	0x38db4c1f	0.000104569124
122	0xbc4064fc	-0.011742827
123	0x3e0c1d41	0.13683034
124	0x3c91937f	0.017770527
125	0xbe10d0b9	-0.14142121
126	0x3e3f34b7	0.18672453
127	0xbd60110b	-0.054703753
128	0xbc45c4fb	-0.01207089
129	0xbda5633b	-0.08075567
130	0xbcfccde9	-0.030859904
131	0x3e0af28f	0.13569091
132	0x3e2555d5	0.16146024
133	0xbdd574be	-0.104226574
134	0xbd3c4c8c	-0.04597144
135	0xbe514366	-0.20435867
136	0xbca77cb4	-0.020445205
137	0x3ba0af96	0.004903744
138	0xbd994df1	-0.07485569
139	0xbce22d23	-0.027609413
140	0xbe8ff6bd	-0.28117934
141	0xbd6fedf9	-0.058576558
142	0xbcc1977e	-0.023631807
143	0x3d3baf6e	0.0458216
144	0xbe4205c0	-0.18947506
145	0xbdeeb263	-0.11655118
146	0xbe07650f	-0.13222145
147	0x3db48729	0.08814842
148	0xbe68939c	-0.22712559
149	0x3ddf4019	0.109008975
150	0xbd6927ec	-0.056922838
151	0x3dd76959	0.1051814
152	0xbca4753b	-0.020075431
153	0xbe38001d	-0.17968793
154	0xbc983628	-0.018580511
155	0x3c50cb3b	0.012743766
156	0xbc6d94fc	-0.014500853
157	0xbe1fc4f7	-0.1560248
158	0xbdff7912	-0.12474264
159	0x3bc3b4fc	0.0059725028
160	0xbe64d172	-0.22345522
161	0x3d7254b2	0.059162803
162	0xbd1d258e	-0.038365893
163	0x3e195e95	0.14977486
164	0xbd0deef2	-0.034651704
165	0x3e69aa63	0.22818904
166	0xbe096cb3	-0.13420372
167	0x3e3dea56	0.18546423
168	0x3a834ea3	0.0010017942
169	0x3dc84533	0.09778824
170	0x3d08ee39	0.03343031
171	0xbdb10a77	-0.08644574
172	0x3e766934	0.2406357
173	0x3e5b66d3	0.21425943
174	0x3d2eaf0b	0.042647403
175	0xbe3d0a81	-0.18461038
176	0xbd656632	-0.056005664
177	0x3cabc9e1	0.020970287
178	0xbdafec1d	-0.08589957
179	0xbe6e1d83	-0.23253445
180	0x3e34eaad	0.17667647
181	0x3c274068	0.010208227
182	0x3bbfc5ed	0.005852452
183	0xbe151221	-0.14557697
184	0x3e5776bf	0.21041392
185	0x3d160305	0.036623973
186	0x3bd661d3	0.0065424233
187	0xbe410667	-0.18850099
188	0xbd7b2901	-0.0613184
189	0xbda57ad9	-0.08080072
190	0x3e86dac8	0.26338792
191	0x3e01621f	0.12635086
192	0x3e0ce20f	0.1375811
193	0xbc90665f	-0.01762694
194	0xbe21fc37	-0.15818869
195	0x3d2d3a17	0.042291727
196	0xbcd59d02	-0.026075844
197	0xbdeaa979	-0.114581056
198	0xbb985f6b	-0.0046500466
199	0xbe09481a	-0.13406411
200	0x3d01b69c	0.03166829
201	0x3c8a83ab	0.016908487
202	0x3d801e44	0.06255773
203	0x3cd91e33	0.026503658
204	0xbe0d7c18	-0.1381687
205	0xbd74eb86	-0.059794925
206	0xbdb399ae	-0.087695464
207	0xbe3d9799	-0.18514861
208	0x3d9e470a	0.077283934
209	0xbe3ecd4b	-0.18633
210	0xbdcdd3f6	-0.10050194
211	0xbe1030c3	-0.14081101
212	0xbc99c72e	-0.018771734
213	0xbe2f6870	-0.17129683
214	0xbd1e7eff	-0.03869533
215	0xbe1923f8	-0.14955127
216	0x3dde70ce	0.108613595
217	0xbe2be379	-0.16785993
218	0x3de6c467	0.112679295
219	0x3daccf30	0.084379554
220	0xbe208947	-0.15677367
221	0x3b54d41b	0.0032475058
222	0xbd8f3474	-0.069924265
223	0xbc8f876e	-0.017520633
224	0xbd0c28bb	-0.03421853
225	0xbe0324d0	-0.12807012
226	0xbd137c12	-0.036006995
227	0x3c873300	0.01650381
228	0x3e60eee4	0.2196613
229	0x3d409f8f	0.047027167
230	0xbe1cb47c	-0.15303224
231	0xbd899352	-0.06717552
232	0xbcfd16f1	-0.030894728
233	0xbd51735c	-0.051135406
234	0x3c8f98fa	0.017529
235	0xbc6286a4	-0.013826046
236	0xbde58223	-0.11206462
237	0xbdb1d954	-0.0868403
238	0x3cf0e647	0.02940668
239	0x3d0dc054	0.034607247
240	0xbdcd18ac	-0.100144714
241	0x3cf6039d	0.03003102
242	0xbd0483b7	-0.032352176
243	0xbc3ff4b5	-0.011716058
244	0x3cc78e7e	0.024359938
245	0xbc61cc26	-0.013781583
246	0xbd838c49	-0.06423242
247	0x3cf757e7	0.030193282
248	0x3d1a8fc1	0.03773475
249	0x3d7bc9e2	0.061471827
250	0xbd3fcd81	-0.046826843
251	0x3e013af7	0.1262015
252	0x3c1c0497	0.009522579
253	0xbdc162ba	-0.09442659
254	0xbe5419aa	-0.20712915
255	0x3dfe454a	0.124155596

transformer_encoder.layers.0.linear2.bias f4 [8]
0	0x3dc00ce3	0.09377458
1	0x3d98c494	0.07459369
2	0x3d83072f	0.063978545
3	0x3d4732ad	0.048632313
4	0x3d8c0a66	0.06837921
5	0x3e395023	0.18096976
6	0x3ddcb3cb	0.1077648
7	0x3d9a1a48	0.07524544

transformer_encoder.layers.0.norm1.weight f4 [8]
0	0x3f8501ac	1.0391135
1	0x3f623dc8	0.8837552
2	0x3f990fd9	1.1957961
3	0x3f8ebf00	1.1152039
4	0x3f808b60	1.0042534
5	0x3f5b3fa8	0.85644007
6	0x3f69579b	0.911493
7	0x3f8ff911	1.1247884

transformer_encoder.layers.0.norm1.bias f4 [8]
0	0x3d0125bf	0.031530138
1	0xbd99565d	-0.074871756
2	0xba889048	-0.0010418976
3	0x3cc96072	0.024582122
4	0x3c63336f	0.013867243
5	0x3e503f5c	0.2033667
6	0xbd4cdcf0	-0.05001539
7	0xbc03c6f9	-0.008043044

transformer_encoder.layers.0.norm2.weight f4 [8]
0	0x3f772ebd	0.9655569
1	0x3f688de5	0.90841514
2	0x3f841908	1.0320139
3	0x3f7841a6	0.9697517
4	0x3f7adfc9	0.9799772
5	0x3f7e6db1	0.99386126
6	0x3f790ab5	0.9728196
7	0x3f845c0e	1.0340593

transformer_encoder.layers.0.norm2.bias f4 [8]
0	0x3c01fbf9	0.00793361
1	0x3c70c2c4	0.014694873
2	0xbc8068e4	-0.015675016
3	0x3c8d494d	0.017246867
4	0x3d376afc	0.044779763
5	0xbde5b7bd	-0.11216686
6	0x3e5a64e7	0.21327554
7	0xbc49719d	-0.012295154

embedding.0.bias f4 [8]
0	0xbe4028f9	-0.1876563
1	0x3f62ab15	0.885423
2	0x3f2897e4	0.65856767
3	0x3e8c920f	0.27455184
4	0x3f1f8745	0.6231578
5	0xbf2d795b	-0.677633
6	0x3f4085e8	0.75204325
7	0xbe841d3a	-0.25803548

embedding.0.weight_g f4 [8, 1]
0	0x3edca086	0.4309122
1	0x3f46f7e0	0.7772198
2	0x3e824c02	0.25448614
3	0x3f46fd76	0.777305
4	0x3eea7e9b	0.45799717
5	0x3f2667b8	0.6500201
6	0x3e2d0fd7	0.16900574
7	0x3f12d044	0.5734904

embedding.0.weight_v f4 [8, 1]
0	0x3eef39f3	0.467239
1	0xbf611434	-0.8792145
2	0x3e85ac91	0.2610822
3	0xbf4b2d0d	-0.7936562
4	0x3ecabff4	0.39599574
5	0xbf21d985	-0.63222533
6	0x3e95a321	0.2922602
7	0xbf083e5f	-0.5322017

embedding.1.bias f4 [8]
0	0xbf75a61a	-0.95956576
1	0x3e2d69df	0.16934918
2	0x3f6040d5	0.87598926
3	0xbf4c61de	-0.79836833
4	0xbf38f6f9	-0.7225185
5	0x3f40adc9	0.75265175
6	0x3e7cf12f	0.24701379
7	0x3d941ef2	0.07232465

embedding.1.weight_g f4 [8, 1]
0	0x3efb0454	0.4902674
1	0x3e17b25c	0.14814132
2	0x3ee2421e	0.44191068
3	0x3f4b2be6	0.7936386
4	0x3ef243a5	0.47317234
5	0x3f76c944	0.96400857
6	0x3f0a5e76	0.54050386
7	0x3eaba1e0	0.33521938

embedding.1.weight_v f4 [8, 1]
0	0x3f0174bd	0.50568753
1	0xbe1f6acb	-0.15568082
2	0xbeefb5bc	-0.4681834
3	0x3f4c8440	0.798893
4	0x3effdfba	0.49975377
5	0x3f76bb99	0.9638
6	0xbf0a0e00	-0.5392761
7	0x3ebd0f28	0.36925626

embedding.2.bias f4 [8]
0	0x3ede5b88	0.43429208
1	0x3f3e595b	0.74355096
2	0xbf081781	-0.53160864
3	0xbe46ced4	-0.19414836
4	0x3f508349	0.81450325
5	0x3d946da4	0.07247475
6	0xbf1e4cad	-0.6183575
7	0xbeca1c75	-0.39474836

embedding.2.weight_g f4 [8, 1]
0	0x3f4649e7	0.77456516
1	0x3f1277f1	0.57214266
2	0x3f79c555	0.9756673
3	0x3da83a11	0.082142
4	0x3ea5eff1	0.32409623
5	0x3e49e8a8	0.19717658
6	0x3ed23300	0.41054535
7	0x3e5f4ecf	0.21807407

embedding.2.weight_v f4 [8, 1]
0	0xbf4567cc	-0.77111506
1	0xbf1f14db	-0.621412
2	0xbf7e37aa	-0.99303687
3	0xbd98cfc8	-0.07461506
4	0x3ec47045	0.38366905
5	0x3e0f6220	0.14002275
6	0x3ec3d75e	0.3825025
7	0xbe49d537	-0.19710241

embedding.3.bias f4 [8]
0	0x3f2aacff	0.6667022
1	0xbee3b4e7	-0.44473955
2	0x3de61bba	0.11235757
3	0xbed790f7	-0.42102787
4	0xbf3078df	-0.68934435
5	0x3eb94b8a	0.36190444
6	0x3f1f80db	0.6230599
7	0x3d6adf62	0.05734194

embedding.3.weight_g f4 [8, 1]
0	0x3e6b23ef	0.22962926
1	0x3eddf469	0.43350533
2	0x3f7f2e36	0.9967989
3	0x3cf9c56b	0.030489644
4	0x3d012a14	0.03153427
5	0x3ee78a09	0.452225
6	0x3f00914a	0.50221694
7	0x3f1bd42e	0.60870636

embedding.3.weight_v f4 [8, 1]
0	0x3c882629	0.016619759
1	0x3f2a4540	0.6651192
2	0x3f2aa702	0.66661084
3	0x3e8fe122	0.2810145
4	0xbe7b35cb	-0.24532239
5	0xbe07accb	-0.13249509
6	0xbe9db952	-0.3080545
7	0x3f07081f	0.52746767

embedding.4.bias f4 [8]
0	0x3f7c67b2	0.98595726
1	0xbdfaabee	-0.12239824
2	0xbe02f902	-0.12790301
3	0xbf0dae63	-0.5534422
4	0x3efa4c39	0.48886278
5	0x3f041e53	0.5160877
6	0x3dfe4d4c	0.12417087
7	0x3d0c4bf6	0.03425213

embedding.4.weight_g f4 [8, 1]
0	0x3f7258bd	0.94666654
1	0x3e92d523	0.28678235
2	0x3dba98d0	0.09111178
3	0x3e993984	0.29926693
4	0x3ebf8932	0.3740936
5	0x3f3cb101	0.73707587
6	0x3f5e3616	0.8680128
7	0x3f1eccc8	0.6203122

embedding.4.weight_v f4 [8, 1]
0	0xbf7936aa	-0.97349036
1	0x3e8ccf8f	0.27502105
2	0x3d9b1eb5	0.07574216
3	0x3e9c9358	0.30581164
4	0x3ed3a08c	0.41333425
5	0x3f4b515f	0.7942104
6	0xbf5a972d	-0.85386926
7	0xbf136e9c	-0.5759065

embedding.5.bias f4 [8]
0	0xbde6d1c5	-0.11270479
1	0xbf1dcd9b	-0.61641854
2	0x3f3ecd39	0.74531895
3	0xbf6f1fda	-0.93407977
4	0x3f59c3c8	0.85064363
5	0x3f650696	0.89463174
6	0xbe1c4302	-0.15259936
7	0xbf5d99e9	-0.86562973

embedding.5.weight_g f4 [8, 1]
0	0x3f2cfde3	0.675749
1	0x3f04d4ab	0.51887006
2	0x3e02527f	0.12726782
3	0x3eeb739f	0.4598665
4	0x3f3d6219	0.7397781
5	0x3f25091a	0.6446701
6	0x3f416413	0.75543326
7	0x3f050fc3	0.51977175

embedding.5.weight_v f4 [8, 1]
0	0x3f1f34fb	0.62190217
1	0x3f0aff8a	0.5429617
2	0xbe67a154	-0.22620136
3	0x3f160ee4	0.5861647
4	0x3f56bd35	0.83882457
5	0x3f3d4c60	0.73944664
6	0xbf64cdea	-0.893767
7	0x3f2d0884	0.6759112

embedding.6.bias f4 [8]
0	0xbb0a6750	-0.0021118708
1	0x3ea084d5	0.31351343
2	0xbb8783ea	-0.0041355984
3	0xbeec5a46	-0.46162623
4	0xbf48027e	-0.781288
5	0x3f16a387	0.5884327
6	0xbe7f5d63	-0.24937968
7	0x3c990be4	0.018682428

embedding.6.weight_g f4 [8, 1]
0	0x3f1fd756	0.6243795
1	0x3eb1e431	0.3474441
2	0x3f73525f	0.95047563
3	0x3ef0c984	0.47028744
4	0x3e5532b1	0.20820118
5	0x3ee18b58	0.44051623
6	0x3f1164c4	0.5679438
7	0x3e548838	0.20755088

embedding.6.weight_v f4 [8, 1]
0	0xbee97c1a	-0.45602494
1	0xbebb0e4c	-0.36534345
2	0x3f63ae05	0.8893741
3	0x3eab02dc	0.3340062
4	0xbe70988d	-0.23495694
5	0x3f14d57a	0.5813824
6	0x3ed6f778	0.4198568
7	0x3daa51a6	0.083163545

embedding.7.bias f4 [8]
0	0x3d2e7e9a	0.042601205
1	0x3f0d9fe9	0.5532213
2	0x3f51dbb1	0.8197585
3	0x3c1e2434	0.009652186
4	0x3ecf8650	0.4053216
5	0x3f027669	0.5096193
6	0xbedb20a7	-0.4279835
7	0x3f7a905d	0.9787653

embedding.7.weight_g f4 [8, 1]
0	0xbd0fec26	-0.035137318
1	0x3f3ca372	0.736869
2	0x3f1effe7	0.62109226
3	0x3ea3e533	0.32010803
4	0x3e4cca3f	0.19999026
5	0x3b9fdd50	0.0048786774
6	0x3c2e03ae	0.0106209945
7	0x3ee44448	0.44583344

embedding.7.weight_v f4 [8, 1]
0	0xbde530ae	-0.111909255
1	0xbf5086a0	-0.8145542
2	0x3f1e2294	0.6177151
3	0x3ea1a62f	0.315721
4	0xbe119ea8	-0.14220679
5	0x3d902e62	0.07040097
6	0xbd09cf8d	-0.0336452
7	0xbf050eb2	-0.5197555

embedding.8.bias f4 [8]
0	0xbee9189d	-0.4552659
1	0xbdd1c08d	-0.10241804
2	0xbe2d54bb	-0.16926853
3	0x3f4c3119	0.7976242
4	0xbf5b0e6a	-0.8556887
5	0xbf08ab14	-0.53386045
6	0x3f589eaf	0.8461713
7	0x3cadd5da	0.021220136

embedding.8.weight_g f4 [8, 1]
0	0x3f22e6ff	0.6363372
1	0x3f4c35f2	0.79769814
2	0x3ea302ce	0.31838077
3	0x3e5ff2af	0.2186992
4	0x3f048af3	0.5177452
5	0x3f0486c8	0.5176816
6	0x3f1f1541	0.62141806
7	0x3e69aa3a	0.22818843

embedding.8.weight_v f4 [8, 1]
0	0xbf1bb0ce	-0.6081666
1	0x3f4f1327	0.808886
2	0xbe928679	-0.2861822
3	0xbe49f5df	-0.19722699
4	0x3f123fc8	0.5712857
5	0xbf07c3db	-0.53033227
6	0xbf286730	-0.6578245
7	0x3e66c877	0.22537409

embedding.9.bias f4 [8]
0	0x3f58bd02	0.84663403
1	0xbf039830	-0.51404095
2	0xbf58ddd1	-0.84713465
3	0x3f25c359	0.647512
4	0xbe9afe24	-0.3027202
5	0x3ee18836	0.44049233
6	0xbf56c903	-0.8390047
7	0x3ea9ed3e	0.33188814

embedding.9.weight_g f4 [8, 1]
0	0x3f5a586d	0.8529118
1	0xbd859e60	-0.06524348
2	0xbd081727	-0.033225205
3	0x3f268d6d	0.6505955
4	0x3f832460	1.0245476
5	0x3f6ac240	0.9170265
6	0x3f217a09	0.63076836
7	0x3e814c2d	0.2525343

embedding.9.weight_v f4 [8, 1]
0	0x3f3e8e3b	0.74435776
1	0xbcfdb6d4	-0.030970968
2	0xbdb797e7	-0.0896452
3	0x3f10590c	0.56385875
4	0x3f528e1b	0.82248086
5	0x3f4e86ce	0.80674446
6	0xbf05024a	-0.5195662
7	0xbe6520c7	-0.22375785

embedding.10.bias f4 [8]
0	0x3efc01bb	0.4922007
1	0xbe09a1e3	-0.13440661
2	0x3de65e17	0.11248415
3	0xbf5ec8e4	-0.87025285
4	0xbe6dc60c	-0.2322008
5	0xbed47881	-0.41498187
6	0xbf3ae641	-0.7300759
7	0x3ef87094	0.4852339

embedding.10.weight_g f4 [8, 1]
0	0x3f5c6c0d	0.8610237
1	0x3d55b564	0.05217494
2	0x3f88432f	1.0645503
3	0x3edba8f9	0.42902353
4	0x3e9c61b5	0.30543295
5	0x3eac1b05	0.33614364
6	0x3f338842	0.7012979
7	0x3f2f3a2f	0.68448156

embedding.10.weight_v f4 [8, 1]
0	0xbf4280f1	-0.75978
1	0xbde163df	-0.11005377
2	0xbf7779eb	-0.9667041
3	0xbf08d64e	-0.53452003
4	0x3ebca59f	0.3684511
5	0xbeab621e	-0.33473295
6	0x3f201888	0.6253743
7	0xbf2b09be	-0.6681174

embedding.11.bias f4 [8]
0	0x3ee4d70a	0.44695312
1	0x3f511827	0.8167748
2	0x3e479d32	0.19493559
3	0xbf531adb	-0.82462853
4	0xbddbfc5f	-0.10741495
5	0x3ea8df91	0.32983068
6	0xbf3c0898	-0.73450613
7	0xbdd925d3	-0.106029175

embedding.11.weight_g f4 [8, 1]
0	0x3f5a61b7	0.8530535
1	0x3eb5fe53	0.35545596
2	0x3f486732	0.78282464
3	0x3f945366	1.1587951
4	0x3f4f77d7	0.81042236
5	0xbe817659	-0.25285605
6	0xbdfc3b57	-0.12316006
7	0xbe6b799c	-0.22995609

embedding.11.weight_v f4 [8, 1]
0	0xbf1872e1	-0.5955029
1	0x3f348e29	0.7052942
2	0x3ee8e80a	0.45489532
3	0xbf795115	-0.97389346
4	0xbf00175b	-0.5003564
5	0xbd5a47dd	-0.05329119
6	0xbe65fb3a	-0.22459117
7	0x3de1c889	0.11024577

embedding.12.bias f4 [8]
0	0x3e902ccb	0.28159174
1	0xbf217a51	-0.63077265
2	0xbf555c17	-0.8334364
3	0xbc72356f	-0.014783247
4	0x3f0750c7	0.5285763
5	0xbee3693f	-0.44416234
6	0x3f22e163	0.6362516
7	0xbe9009de	-0.28132528

embedding.12.weight_g f4 [8, 1]
0	0xbd361481	-0.044453148
1	0x3f02c0f8	0.51075697
2	0x3f814d38	1.010169
3	0xbd280af6	-0.04102608
4	0x3e029898	0.12753522
5	0x3f43135f	0.7620143
6	0x3e4b24e6	0.19838294
7	0x3f78f990	0.972558

embedding.12.weight_v f4 [8, 1]
0	0x3d4929f8	0.04911229
1	0x3f0425fc	0.5162046
2	0x3f420a5f	0.75797075
3	0x3e24fa74	0.16111165
4	0xbe474d12	-0.19462994
5	0xbf0e96b0	-0.5569868
6	0x3edc850f	0.43070266
7	0x3f47db2d	0.7806881

embedding.13.bias f4 [8]
0	0xbd37c2b1	-0.044863407
1	0x3d04a036	0.03237935
2	0xbea82da3	-0.32847318
3	0xbd8b6bd5	-0.06807677
4	0xbf09c60b	-0.53817815
5	0xbf032f75	-0.5124429
6	0xbed3c0e9	-0.41358116
7	0x3e64dc5c	0.22349685

embedding.13.weight_g f4 [8, 1]
0	0x3f84a964	1.0364194
1	0x3f273636	0.65317094
2	0x3e5190a0	0.20465326
3	0x3f14b0aa	0.5808207
4	0xbd9898b1	-0.074509986
5	0x3f140ca9	0.5783182
6	0x3f2e4da8	0.68087244
7	0x3f8e00d5	1.1094004

embedding.13.weight_v f4 [8, 1]
0	0x3f6247b3	0.88390654
1	0xbf265652	-0.64975464
2	0xbe8ac0fa	-0.27100354
3	0x3f0ab4d0	0.5418215
4	0x3bce22db	0.006290776
5	0x3f140fb3	0.57836455
6	0x3f19cb90	0.60076237
7	0xbf6dcb92	-0.9288875

embedding.14.bias f4 [8]
0	0x3c444e3e	0.011981545
1	0xbef0fb7b	-0.47066864
2	0xbf1c61f1	-0.61086947
3	0xbf2eb404	-0.6824343
4	0x3eeeb6f2	0.4662395
5	0x3e9b4521	0.3032618
6	0x3f0f02f4	0.5586388
7	0x3f1ae356	0.6050314

embedding.14.weight_g f4 [8, 1]
0	0x3e7994a0	0.24373102
1	0x3f337209	0.7009588
2	0x3f0496a1	0.5179234
3	0x3db020e3	0.08600023
4	0x3e3398df	0.17538784
5	0x3ebe1e5a	0.3713253
6	0x3ee83646	0.45353907
7	0x3e8244de	0.25443166

embedding.14.weight_v f4 [8, 1]
0	0xbdd07a94	-0.1017963
1	0x3f1692d7	0.5881781
2	0x3f1778ae	0.5916852
3	0x3cc3fcb7	0.023924215
4	0x3cb86453	0.022508776
5	0xbe43b873	-0.1911333
6	0xbf006e4f	-0.5016832
7	0xbe857ca2	-0.2607165

embedding.15.bias f4 [8]
0	0xbe0dcda4	-0.13847977
1	0xbf5cc31a	-0.862352
2	0xbf4ab3ab	-0.791804
3	0x3da2eb6f	0.07955062
4	0xbd94913f	-0.07254266
5	0x3f0465a5	0.517176
6	0xbf272410	-0.652894
7	0x3e4f0069	0.20215

embedding.15.weight_g f4 [8, 1]
0	0x3eb1e2e5	0.3474342
1	0x3f6288b9	0.8848987
2	0x3f1d0d74	0.6134865
3	0x3f3d0389	0.7383352
4	0x3d8d03ce	0.06885491
5	0x3f437dbc	0.7636373
6	0x3f6e808b	0.9316489
7	0x3f82be4d	1.0214325

embedding.15.weight_v f4 [8, 1]
0	0xbeb13447	-0.34610197
1	0xbf6d29a8	-0.9264169
2	0xbf2b2e04	-0.6686709
3	0xbf364d25	-0.71211463
4	0xbd2eb416	-0.042652212
5	0x3f2be12e	0.6714047
6	0x3f678d77	0.90450233
7	0xbf7ec742	-0.99522793

embedding.16.bias f4 [8]
0	0xbf1944ce	-0.5987061
1	0xbe34e8e9	-0.17666973
2	0x3d2d19be	0.042260878
3	0x3f188ceb	0.59590024
4	0xbec551be	-0.38538927
5	0xbf052ae4	-0.5201857
6	0x3e7bcce3	0.24589877
7	0x3ebae961	0.3650618

embedding.16.weight_g f4 [8, 1]
0	0x3f1faad3	0.6237003
1	0x3e227936	0.15866551
2	0x3f3da867	0.74085087
3	0x3f1a9727	0.6038689
4	0x3ded0ff5	0.11575309
5	0x3f1d9b2e	0.6156491
6	0x3f81de30	1.0145931
7	0x3f82431e	1.0176733

embedding.16.weight_v f4 [8, 1]
0	0xbf0cc611	-0.54989725
1	0xbe76641f	-0.2406163
2	0xbf3170b6	-0.6931261
3	0x3f1a73fb	0.6033322
4	0xbe4ff027	-0.20306455
5	0xbf3ef5ee	-0.7459401
6	0xbf757055	-0.9587453
7	0x3f4d9325	0.8030265

embedding.17.bias f4 [8]
0	0xbf139e46	-0.5766338
1	0xbf837b72	-1.0272048
2	0x3f3c76ba	0.7361866
3	0x3e6c620b	0.23084275
4	0xbeee56f4	-0.46550715
5	0xbd5afca1	-0.053463582
6	0xbdd711b3	-0.10501423
7	0xbf3a1d1a	-0.72700655

embedding.17.weight_g f4 [8, 1]
0	0x3f3d488b	0.73938817
1	0x3f564160	0.83693504
2	0x3e54ce43	0.20781808
3	0x3e4bf7e1	0.19918777
4	0x3e7ab83c	0.24484342
5	0x3ed107ae	0.40826172
6	0x3e4b0e77	0.19829737
7	0x3f073f4e	0.5283097

embedding.17.weight_v f4 [8, 1]
0	0x3f1cf4e8	0.613112
1	0x3f3835bc	0.7195699
2	0x3ebdeb29	0.37093475
3	0x3d0fc364	0.03509845
4	0xbdb33458	-0.08750218
5	0x3e9b7488	0.30362344
6	0xbe006486	-0.12538347
7	0xbee9d013	-0.4566656

embedding.18.bias f4 [8]
0	0xbe3b86fa	-0.18313208
1	0x3ecbf603	0.3983613
2	0x3ec65e9a	0.3874405
3	0xbf146f5a	-0.5798241
4	0xbc5fef39	-0.013667875
5	0xbf2cb4f7	-0.6746363
6	0x3cae57ab	0.021282038
7	0x3ea1b25f	0.315814

embedding.18.weight_g f4 [8, 1]
0	0x3f3620ec	0.71143985
1	0x3f351723	0.7073843
2	0x3f8f7258	1.120677
3	0x3ed85e7b	0.42259583
4	0x3ec781f9	0.3896635
5	0x3e45bca8	0.19310248
6	0x3e714cb2	0.23564413
7	0x3f0501f6	0.5195612

embedding.18.weight_v f4 [8, 1]
0	0xbf12b098	-0.5730071
1	0x3f2cbd7b	0.67476624
2	0xbf6c0ca2	-0.92206776
3	0x3e5233ea	0.20527616
4	0xbe69b2b0	-0.2282207
5	0xbefd9043	-0.49524125
6	0xbe9c810f	-0.30567214
7	0xbe9fb673	-0.31193885

decoder.weight f4 [1, 152]
0	0xbd82ca1b	-0.06386205
1	0xbc94289c	-0.01808577
2	0xbca08b0d	-0.019597555
3	0xbd631ebb	-0.05544923
4	0xbdade4c4	-0.08490899
5	0x3d188a0c	0.037241027
6	0xbd0c1e5a	-0.034208633
7	0xbd3aac92	-0.045574732
8	0x3d1366c0	0.035986662
9	0xbc5d1cc9	-0.013495632
10	0xbd7b50aa	-0.061356224
11	0xbc259392	-0.010105984
12	0xbc3c50cd	-0.011493874
13	0xbd0f075b	-0.034919124
14	0x3cb07ece	0.02154484
15	0x3ab9a8b3	0.0014164656
16	0x3d140b67	0.036143687
17	0x3c4c8644	0.012483183
18	0xbba8e41a	-0.005154145
19	0xbb56d5c6	-0.0032781227
20	0x3bd94d9f	0.0066315676
21	0x3cfcb956	0.030850094
22	0xbd02bf24	-0.031920567
23	0x3d4eb3ab	0.050464313
24	0xbd2e5b83	-0.04256774
25	0x3d201480	0.03908205
26	0xbc13dc3b	-0.009024675
27	0x3d892931	0.0669731
28	0xbcf952d1	-0.030434998
29	0x3d82db99	0.06389541
30	0x3dba0369	0.09082682
31	0xbc57f8fa	-0.013181919
32	0xbcab1f4d	-0.020888949
33	0xbd3c66d1	-0.04599649
34	0x3cd7d62b	0.02634724
35	0xbc8ca831	-0.017170044
36	0x3cb677a2	0.022273842
37	0x3c947aef	0.018125026
38	0x3db3f4ee	0.08786951
39	0x3da90ce0	0.08254409
40	0xbd387d49	-0.045041356
41	0x3d06f242	0.03294588
42	0x3d0f7ac5	0.03502919
43	0x3d2d5b76	0.042323552
44	0xbcf2dfae	-0.029647674
45	0xbcb52fb5	-0.022117475
46	0x3d258868	0.04041329
47	0x3d268453	0.040653538
48	0x3e09ffba	0.13476458
49	0x3c9242dd	0.017854149
50	0xbda69415	-0.08133713
51	0xbd60d408	-0.05488971
52	0xbc5cd6f1	-0.01347898
53	0x3cfb8b57	0.03070609
54	0xbda1a322	-0.07892443
55	0xbd61dfb5	-0.055144984
56	0xba5ceeac	-0.0008427899
57	0x3cb13a02	0.021634106
58	0x3d092478	0.033482045
59	0xbd730056	-0.059326492
60	0x3c5e3aad	0.013563794
61	0xbd22650a	-0.03964714
62	0xbce4ade2	-0.027914945
63	0xbbeffdbd	-0.007323949
64	0xbc3ae940	-0.01140815
65	0xbc361c84	-0.011115197
66	0xbbe2f9a9	-0.0069267345
67	0x3cdd4283	0.027009254
68	0x3cd57e08	0.026061073
69	0x3944247b	0.00018705607
70	0xbd6e0ba1	-0.05811656
71	0x3d19238e	0.037387423
72	0x3d4297c0	0.047508
73	0x3d484ae3	0.048899543
74	0x3d021688	0.03175977
75	0x3cef7c34	0.02923403
76	0x3d9a4f56	0.075346634
77	0xbc8b07de	-0.016971525
78	0xbd9a6901	-0.07539559
79	0xbe2beeb8	-0.16790283
80	0xbd5feec0	-0.05467105
81	0x3d82d435	0.063881315
82	0xbd4faa6f	-0.050699648
83	0xbcd4e941	-0.02599013
84	0xbb05af38	-0.0020398628
85	0xbcc636af	-0.024195997
86	0x3e0a8e8b	0.13530938
87	0x3c4e825b	0.012604321
88	0xb9806255	-0.00024487326
89	0x3d1f47c0	0.038886786
90	0xbd899e67	-0.06719666
91	0x3d3a83bd	0.04553579
92	0x3cb75a4e	0.022381928
93	0xbdd14693	-0.10218539
94	0xb902880d	-0.00012448449
95	0x3d1e704e	0.03868132
96	0xbd880c92	-0.066430226
97	0xbbb941da	-0.005653602
98	0xbdf5af71	-0.119963534
99	0x3db23105	0.08700756
100	0xbcddbbb6	-0.027067047
101	0x3e12abc5	0.14323337
102	0xbe0ab1b9	-0.13544358
103	0xbe5cf083	-0.21576123
104	0xbd236e87	-0.03990033
105	0x3bc720cb	0.0060769073
106	0x3cdd5e60	0.02702254
107	0xbd80ed16	-0.062952206
108	0x3d12db6f	0.0358538
109	0xbcf08c2a	-0.02936371
110	0xbc906c0d	-0.017629648
111	0x3d017466	0.031605147
112	0x3d6c1f64	0.057647124
113	0xbd2b2fe7	-0.04179373
114	0x3cfb0538	0.030642137
115	0xbd193d59	-0.03741202
116	0xbd73bf7b	-0.059508782
117	0x3d631fa5	0.0554501
118	0x3b71b2ac	0.0036880178
119	0xbc65ffb5	-0.014038016
120	0xbc1a4def	-0.009417995
121	0xbd535c98	-0.051601976
122	0x3d1ac830	0.03778857
123	0xbd36149f	-0.04445326
124	0xbd7f8108	-0.062378913
125	0xbcf6ece2	-0.030142251
126	0x3d082529	0.033238564
127	0xbc8b1c78	-0.016981348
128	0xbc6fd8ab	-0.01463906
129	0x3cc4e66c	0.024035655
130	0xbd92ea20	-0.07173562
131	0xbd7ed534	-0.062215045
132	0x3d1d1ff8	0.038360566
133	0xbd139fd5	-0.0360411
134	0x3d5dfe09	0.054197345
135	0xbc3d8324	-0.011566911
136	0xbe1f90db	-0.15582602
137	0xbdbdadfb	-0.092617
138	0xbda6780b	-0.08128365
139	0xbd8953c0	-0.06705427
140	0x3dbeac88	0.093102515
141	0xbd7a38d8	-0.061089367
142	0x3cfd328b	0.03090789
143	0xbc2f2990	-0.010691062
144	0x3e027ecd	0.12743683
145	0xbdce6e3b	-0.100796185
146	0x3e6dc4a5	0.23219545
147	0xbe67b3da	-0.22627202
148	0x3e110235	0.14160998
149	0xbdaa34da	-0.08310862
150	0x3c43aa9a	0.01194253
151	0x3df20724	0.11817768
