bank/Models/mixture_v1/0.9006_1/params.pt (torch_old, 28738 bytes, 75 tensors)

attention_mechanism.in_proj_weight f4 [24, 8]
0.104719914 0.2791428 -0.25549665 0.09701876 -0.42069742 0.16252837 0.14191917 -0.15719469
0.2916055 0.14469755 -0.21119082 0.23014088 -0.069943696 0.43730548 0.6035165 -0.4606303
0.47516555 0.21130048 -0.4094778 -0.39018723 0.03695878 0.4235159 0.47440234 -0.18324926
-0.3424362 -0.36574468 -0.14760086 0.024101738 -0.4549844 -0.3920846 -0.4716987 0.105574295
0.057646737 0.10726556 0.40364724 0.07883354 -0.14743105 0.11035239 -0.23312433 0.47791094
-0.053598605 -0.15399134 -0.106461234 -0.347998 0.0032071492 -0.03388905 0.1422593 -0.14209601
-0.3137358 -0.3766832 -0.33007672 -0.23184524 -0.34269944 0.23171493 0.31516433 0.31877267
0.38326958 0.14201139 -0.24919602 -0.09981311 -0.20161138 0.29145223 0.23549108 -0.5122272
-0.00036702215 -0.3385126 0.253386 -0.070452236 -0.109386064 -0.27578038 0.12857555 0.025531653
-0.039322533 -0.45792118 -0.24761008 -0.38505033 -0.40096572 -0.1864023 -0.6125572 0.23399055
-0.5777542 -0.3296576 0.07898134 -0.24239932 -0.2679897 0.24469641 -0.2674798 -0.27827373
0.60003954 -0.08510524 -0.06090437 0.28278103 0.045158412 -0.39217803 0.5414026 -0.17551257
-0.30659017 -0.06043725 -0.02902298 0.3940131 -0.22714625 -0.27777305 0.4874641 0.50288117
0.012209704 -0.4994697 0.3153021 -0.036527317 -0.41881686 0.28402725 -0.28423893 -0.14855406
-0.3328702 0.2568644 -0.00041041162 -0.057075147 0.23430043 0.34969458 -0.1194612 0.18185075
-0.19945389 -0.67547673 -0.15918979 -0.48977882 0.2607439 0.2060468 -0.5666625 -0.6964318
0.40568128 -0.15808347 -0.36477077 -0.06023229 -0.1381837 0.024001148 -0.113426425 -0.2147259
-0.23600253 -0.20380655 -0.042064045 0.2437589 0.1832972 0.19666955 -0.06561682 -0.080058195
-0.4333341 -0.24720772 -0.21147007 -0.15141962 0.33760014 -0.38363644 0.30240452 0.13119873
0.25936124 0.206528 0.2807015 0.48255652 0.180995 -0.07290141 0.099774465 0.0020442354
-0.3203308 0.33105835 0.46143496 0.32846412 -0.15672225 -0.04256317 0.1373023 0.33162615
-0.43515366 0.18488954 -0.035875503 0.46671766 0.13570817 -0.1913428 -0.18801981 0.41749004
-0.057832126 0.028672574 0.3066983 -0.24912761 0.0347766 -0.44818673 -0.09651307 0.27902836
-0.0450331 0.39450163 -0.28870577 0.18467022 -0.19321068 0.28526035 -0.13591689 0.40006232
00000000: 6577 d63d ceeb 8e3e 75d0 82be c6b1 c63d
00000010: a765 d7be d66d 263e 4253 113e a5f7 20be
00000020: 514d 953e 982b 143e 6842 58be 0daa 6b3e
00000030: a43e 8fbd 81e6 df3e 0f80 1a3f bcd7 ebbe
00000040: e648 f33e 275f 583e 13a7 d1be 9fc6 c7be
00000050: 1762 173d 13d7 d83e dde4 f23e b2a5 3bbe
00000060: cc53 afbe e342 bbbe ae24 17be 0271 c53c
00000070: b7f3 e8be 50bf c8be 7e82 f1be 5637 d83d
00000080: fc1e 6c3d 0cae db3d daaa ce3e 7b73 a13d
00000090: 2af8 16be 6f00 e23d 25b8 6ebe beb0 f43e
000000a0: 368a 5bbd e8af 1dbe 5908 dabd cb2c b2be
000000b0: 092f 523b 3fcf 0abd 6cac 113e 9e81 11be
000000c0: fba1 a0be 9fdc c0be d1ff a8be d768 6dbe
000000d0: 4d76 afbe ae46 6d3e 385d a13e 2c36 a33e
000000e0: e93b c43e 6f6b 113e 3e2d 7fbe d16a ccbd
000000f0: 3773 4ebe 3a39 953e 9324 713e 5221 03bf
00000100: e16c c0b9 8651 adbe cfbb 813e 4349 90bd
00000110: cd05 e0bd 1633 8dbe 4fa9 033e c227 d13c
00000120: aa10 21bd a574 eabe 7f8d 7dbe 5125 c5be
00000130: 614b cdbe 3fe0 3ebe 8cd0 1cbf 389b 6f3e
00000140: b3e7 13bf e2c8 a8be f8c0 a13d 8737 78be
00000150: f235 89be b291 7a3e 1df3 88be e579 8ebe
00000160: 319c 193f a84b aebd dc76 79bd adc8 903e
00000170: 07f8 383d 8fcb c8be 5c99 0a3f 91b9 33be
00000180: 63f9 9cbe 0d8d 77bd 9ac1 edbc 16bc c93e
00000190: 0799 68be 4538 8ebe e594 f93e d2bc 003f
000001a0: 360b 483c 7eba ffbe 476f a13e ab9d 15bd
000001b0: 2a6f d6be 056c 913e c487 91be 8e1e 18be
000001c0: f66d aabe bb83 833e 842c d7b9 a1c7 69bd
000001d0: 74ec 6f3e 2b0b b33e 13a8 f4bd 1537 3a3e
000001e0: a43d 4cbe 0bec 2cbf a602 23be 4ac4 fabe
000001f0: 3980 853e effd 523e cb10 11bf 5b49 32bf
00000200: 75b5 cf3e a2e0 21be 3cc3 babe 22b6 76bd
00000210: 0780 0dbe 0e9e c43c 1d4c e8bd 1be1 5bbe
00000220: a6aa 71be aab2 50be 594b 2cbd ef9b 793e
00000230: 43b2 3b3e be63 493e 1c62 86bd 8df5 a3bd
00000240: f8dd ddbe 0524 7dbe 9c8b 58be bf0d 1bbe
00000250: edd9 ac3e ff6b c4be c4d4 9a3e f658 063e
00000260: ffca 843e 137c 533e 1bb8 8f3e a611 f73e
00000270: c156 393e 564d 95bd 8e56 cc3d 94f8 053b
00000280: 6602 a4be 7b80 a93e 3441 ec3e 732c a83e
00000290: cc7b 20be b856 2ebd f998 0c3e e7ca a93e
000002a0: 76cc debe af53 3d3e 31f2 12bd 9ef5 ee3e
000002b0: 15f7 0a3e 5eef 43be 4488 40be 41c1 d53e
000002c0: 61e1 6cbd bfe2 ea3c 8f07 9d3e 4f1b 7fbe
000002d0: e871 0e3d bb78 e5be a5a8 c5bd cedc 8e3e
000002e0: a174 38bd 1efc c93e 3ed1 93be 311a 3d3e
000002f0: 05d9 45be a50d 923e cc2d 0bbe f8d4 cc3e

attention_mechanism.in_proj_bias f4 [24]
-0.24109675 0.09319911 -0.06008263 -0.012060341 -0.10641069 -0.03951144 0.06216089 0.10502266
-0.00497164 -0.0040426543 0.0005519671 0.013869076 0.011302547 0.0045568533 0.017818326 0.001841037
0.0048803403 0.35168314 -0.5754803 0.3186114 0.18852298 0.21756327 0.47049144 -0.03745673
00000000: 11e2 76be 2ddf be3d 3419 76bd bd98 45bc
00000010: d9ed d9bd bfd6 21bd 6b9c 7e3d 1f16 d73d
00000020: 24e9 a2bb 3e78 84bb e3b1 103a 1f3b 633c
00000030: 512e 393c a851 953b bdf7 913c f34e f13a
00000040: 43eb 9f3b d00f b43e ad52 13bf 0921 a33e
00000050: 2b0c 413e e8c8 5e3e 41e4 f03e 3a6c 19bd

attention_mechanism.out_proj.weight f4 [8, 8]
-0.21227482 -0.18881464 0.16938049 -0.08664394 0.38608584 0.14510491 -0.2984052 0.25884902
0.14633597 -0.4132692 0.028410833 -0.3182935 0.1848929 0.16676703 0.13983877 0.2770983
-0.18137854 0.01911209 -0.12706436 0.27066302 0.25360084 -0.12485264 -0.32160074 0.019945297
0.33944166 -0.10984073 0.13869108 -0.30240616 -0.3289726 -0.41716903 -0.32641637 -0.23530611
-0.2926547 0.14280091 0.278955 0.029857421 0.20624936 -0.22408809 -0.09908738 -0.36025906
0.33758286 0.021645302 -0.077928804 -0.36272874 0.0061390656 -0.39895034 0.17673643 -0.34932986
0.005710549 0.25963777 -0.23395668 0.33333987 0.33024573 0.39083827 0.3694087 -0.17386335
-0.25460312 0.25407177 0.18691182 -0.23270889 0.42154127 -0.028109951 0.0026061637 0.071052544
00000000: 925e 59be a058 41be 1472 2d3e 6172 b1bd
00000010: 0bad c53e 6296 143e 91c8 98be dc87 843e
00000020: 19d9 153e 0598 d3be d6bd e83c 5ef7 a2be
00000030: 9054 3d3e fac4 2a3e e531 0f3e d4df 8d3e
00000040: 4cbb 39be f590 9c3c 291d 02be 5894 8a3e
00000050: f8d7 813e beb2 ffbd daa8 a4be 5264 a33c
00000060: 4ccb ad3e 2df4 e0bd 0905 0e3e fbd4 9abe
00000070: 196f a8be 2e97 d5be 0c20 a7be 16f4 70be
00000080: d6d6 95be 673a 123e 31d3 8e3e 8d97 f43c
00000090: 0833 533e 5977 65be 53ee cabd e073 b8be
000000a0: a9d7 ac3e 7d51 b13c 2399 9fbd 95b7 b9be
000000b0: 372a c93b 3843 ccbe 65fa 343e 5ddb b2be
000000c0: 8f1f bb3b 3eef 843e 5792 6fbe 86ab aa3e
000000d0: f815 a93e f41b c83e 2323 bd3e 3c09 32be
000000e0: 575b 82be b215 823e d065 3f3e 3d4b 6ebe
000000f0: 42d4 d73e d746 e6bc 2ccc 2a3b ff83 913d

attention_mechanism.out_proj.bias f4 [8]
0.004798706 -0.010932183 -0.011296262 -0.044689097 0.04023312 -0.004733301 0.011960319 0.013434691
00000000: 773e 9d3b e61c 33bc f513 39bc ea0b 37bd
00000010: 7ccb 243d ce19 9bbb 37f5 433c 2e1d 5c3c

embedding.0.bias f4 [8]
-0.5916271 -0.79986066 0.7651816 -0.39330283 0.40513802 0.21683937 0.7888621 -0.7207179
00000000: e074 17bf abc3 4cbf f1e2 433f fd5e c9be
00000010: 406e cf3e 240b 5e3e def2 493f f880 38bf

embedding.0.weight_g f4 [8, 1]
0.2016562 0.35524985 0.7560303 0.16944183 0.6195866 0.7391502 0.76686746 0.30130896
00000000: f77e 4e3e 4fe3 b53e 348b 413f 2982 2d3e
00000010: 3a9d 1e3f f338 3d3f 6d51 443f 2b45 9a3e

embedding.0.weight_v f4 [8, 1]
0.037613392 0.35348073 -0.76556635 0.1812056 0.7335824 -0.76638955 0.7369214 0.34313926
00000000: 8010 1a3d 6dfb b43e 28fc 43bf f68d 393e
00000010: 0ecc 3b3f 1b32 44bf e2a6 3c3f f3af af3e

embedding.1.bias f4 [8]
0.41463402 1.3291347 0.53333455 1.3920935 -0.0080955215 -0.18290676 1.3493549 1.184793
00000000: e94a d43e 1621 aa3f 9d88 083f 1f30 b23f
00000010: 14a3 04bc e94b 3bbe a9b7 ac3f 4ca7 973f

embedding.1.weight_g f4 [8, 1]
0.2596393 0.7931198 0.4526896 -0.1581014 -0.05046964 0.5036916 0.8460651 0.52920794
00000000: 71ef 843e e609 4b3f eec6 e73e 55e5 21be
00000010: 41b9 4ebd eff1 003f b997 583f 2c7a 073f

embedding.1.weight_v f4 [8, 1]
-0.1341817 0.43565783 -0.49215725 -0.2734891 -0.21896528 0.9813356 0.43467334 -0.92408437
00000000: ed66 09be 8b0e df3e 09fc fbbe c306 8cbe
00000010: 6f38 60be cf38 7b3f 818d de3e cb90 6cbf

embedding.2.bias f4 [8]
-0.340145 0.8785935 -0.3593992 0.621011 -0.030168027 -0.95539415 -0.5753123 0.23725215
00000000: 7c27 aebe 81eb 603f 2c03 b8be 94fa 1e3f
00000010: f022 f7bc b694 74bf ab47 13bf 3af2 723e

embedding.2.weight_g f4 [8, 1]
0.22933277 0.07393401 0.047271416 0.7702593 0.36728498 0.08475521 0.28958857 0.20022044
00000000: 36d6 6a3e b76a 973d ac9f 413d b72f 453f
00000010: c70c bc3e 2494 ad3d f444 943e 9606 4d3e

embedding.2.weight_v f4 [8, 1]
-0.28439558 0.20977528 0.05138091 0.88120663 -0.44115967 -0.13635351 0.37772954 -0.16238557
00000000: 4c9c 91be 55cf 563e ca74 523d c296 613f
00000010: aedf e1be 41a0 0bbe c465 c13e 6748 26be

embedding.3.bias f4 [8]
-0.5098949 -0.3554015 0.78311527 1.0214028 0.62831897 0.43935978 -0.061523646 0.30943993
00000000: 7988 02bf 2ff7 b5be 3e7a 483f 54bd 823f
00000010: 83d9 203f c4f3 e03e 3800 7cbd e96e 9e3e

embedding.3.weight_g f4 [8, 1]
1.2074851 0.5840247 0.6233082 -0.12912971 0.43047854 0.8578836 0.73988795 0.4118815
00000000: df8e 9a3f a582 153f 2091 1f3f 943a 04be
00000010: af67 dc3e 429e 5b3f 4c69 3d3f 22e2 d23e

embedding.3.weight_v f4 [8, 1]
0.71695966 -0.14034982 0.651098 0.18362321 0.42498457 0.9894182 0.6831607 0.7747241
00000000: ab8a 373f ddb7 0fbe 5cae 263f b907 3c3e
00000010: 9497 d93e 834a 7d3f 9fe3 2e3f 5254 463f

embedding.4.bias f4 [8]
0.7046774 -0.18331793 0.16935371 0.5950747 0.43304604 -0.14942068 -1.0595014 0.8428776
00000000: bd65 343f b2b7 3bbe 0f6b 2d3e d156 183f
00000010: 36b8 dd3e bc01 19be be9d 87bf d4c6 573f

embedding.4.weight_g f4 [8, 1]
0.50924677 0.11006745 0.97146565 0.5719472 0.87386394 0.13044451 0.46654063 0.8968925
00000000: ff5d 023f 0b6b e13d f9b1 783f 226b 123f
00000010: 8cb5 5f3f 3f93 053e 6ade ee3e bf9a 653f

embedding.4.weight_v f4 [8, 1]
-0.48225382 -0.035970695 0.92884755 -0.6290753 -0.8416114 -0.08099596 0.520405 -0.9288113
00000000: f9e9 f6be 0256 13bd f4c8 6d3f 140b 21bf
00000010: d873 57bf 36e1 a5bd 4339 053f 94c6 6dbf

embedding.5.bias f4 [8]
0.5155193 0.52964413 1.0339309 -0.49199954 0.40420237 0.85288244 0.004658344 -0.46055782
00000000: 13f9 033f c296 073f d957 843f 5de7 fbbe
00000010: 9df3 ce3e 8156 5a3f 06a5 983b 3cce ebbe

embedding.5.weight_g f4 [8, 1]
0.052119188 0.77579165 0.087843806 0.3950192 0.3914937 0.6732559 0.67765 0.18514642
00000000: ee7a 553d 489a 463f 74e7 b33d f53f ca3e
00000010: dd71 c83e 805a 2c3f 787a 2d3f 0697 3d3e

embedding.5.weight_v f4 [8, 1]
-0.3239827 -0.5549918 0.3343391 0.67126447 0.14202711 -0.56805396 -0.9100582 0.4346953
00000000: 0fe1 a5be f113 0ebf 7f2e ab3e fdd7 2b3f
00000010: 8e6f 113e fc6b 11bf 93f9 68bf 6290 de3e

embedding.6.bias f4 [8]
0.48659658 -1.2353832 -0.37763265 0.7740323 -0.34985453 0.6608802 -0.98460186 0.83848226
00000000: 3023 f93e 0921 9ebf 1159 c1be fb26 463f
00000010: 2220 b3be 722f 293f de0e 7cbf c6a6 563f

embedding.6.weight_g f4 [8, 1]
0.6375114 -0.29182622 0.59708846 0.87390786 1.2620872 0.40014145 0.43272436 0.23053446
00000000: f233 233f 3f6a 95be cada 183f 6db8 5f3f
00000010: 138c a13f 57df cc3e 0c8e dd3e 3a11 6c3e

embedding.6.weight_v f4 [8, 1]
-0.78018975 0.061153706 -0.5062221 -0.67653763 -0.9510239 0.41125524 -0.14640006 0.43450928
00000000: 84ba 47bf 4f7c 7a3d c697 01bf 9231 2dbf
00000010: 4d76 73bf 0c90 d23e e6e9 15be 0078 de3e

embedding.7.bias f4 [8]
-1.1230468 1.0686873 0.28410777 0.4360034 -0.67798835 -0.86400795 -0.20024936 0.8110823
00000000: ffbf 8fbf bfca 883f 9376 913e d63b df3e
00000010: a590 2dbf a02f 5dbf 2b0e 4dbe 17a3 4f3f

embedding.7.weight_g f4 [8, 1]
0.42139632 0.7015858 0.33687204 0.7489026 0.62560564 0.026776697 0.4631877 0.26828095
00000000: 42c1 d73e 219b 333f 7e7a ac3e 15b8 3f3f
00000010: b127 203f ce5a db3c f026 ed3e 1f5c 893e

embedding.7.weight_v f4 [8, 1]
0.42029256 -0.6982885 0.22723433 0.64252347 0.53998804 0.1944146 -0.38908026 -0.31032485
00000000: 9630 d73e 09c3 32bf 1eb0 683e 6b7c 243f
00000010: a83c 0a3f 9f14 473e 8735 c7be e6e2 9ebe

embedding.8.bias f4 [8]
-0.7713432 0.46726817 -0.43191174 1.0795363 0.8214759 0.31130505 0.9457592 -0.72046703
00000000: bf76 45bf c63d ef3e 8923 ddbe 3f2e 8a3f
00000010: 3f4c 523f 6063 9f3e 461d 723f 8770 38bf

embedding.8.weight_g f4 [8, 1]
0.71666616 -0.057109535 0.50277406 -0.12626031 0.021608984 0.92505145 0.296751 1.0699798
00000000: 6f77 373f b0eb 69bd cdb5 003f 624a 01be
00000010: 5305 b13c 2cd0 6c3f bfef 973e 19f5 883f

embedding.8.weight_v f4 [8, 1]
0.7557716 -0.09792857 0.4221522 -0.17572641 -0.29693142 1.0019699 0.250938 1.0020874
00000000: 3f7a 413f c68e c8bd 5524 d83e a0f1 33be
00000010: 6507 98be 8d40 803f f27a 803e 6644 803f

embedding.9.bias f4 [8]
-0.77504164 -0.59865105 0.049149625 -0.06498369 0.46968436 0.36335036 -0.6134854 -1.1806704
00000000: 2169 46bf 3241 19bf 1e51 493d 2b16 85bd
00000010: 787a f03e 0f09 ba3e 610d 1dbf 3520 97bf

embedding.9.weight_g f4 [8, 1]
0.7398931 0.98716265 0.2731168 0.68887293 0.31543574 0.9489267 0.7503837 0.31003052
00000000: a269 3d3f b1b6 7c3f f7d5 8b3e fa59 303f
00000010: cb80 a13e dcec 723f 2519 403f 52bc 9e3e

embedding.9.weight_v f4 [8, 1]
-0.265826 0.50670767 -0.578862 0.2402547 0.3260687 -0.8322385 -0.58957535 -0.7421992
00000000: 581a 88be 98b7 013f 4d30 14bf 5405 763e
00000010: 7af2 a63e 950d 55bf 69ee 16bf c400 3ebf

embedding.10.bias f4 [8]
-0.5757477 -1.07457 0.59153837 0.017438818 -0.65880483 0.41161588 -1.0587858 -0.087233275
00000000: 3464 13bf 828b 89bf 0f6f 173f dadb 8e3c
00000010: 6fa7 28bf 51bf d23e 4b86 87bf 5ca7 b2bd

embedding.10.weight_g f4 [8, 1]
0.7534752 0.21908066 1.0807606 0.6916714 0.5801827 0.5147727 0.7106896 0.5385273
00000000: c0e3 403f ae56 603e 5d56 8a3f 6011 313f
00000010: da86 143f 25c8 033f c1ef 353f eddc 093f

embedding.10.weight_v f4 [8, 1]
0.8715742 0.1789077 0.7665504 -0.9381133 -0.5439872 -0.030744545 0.82756525 -0.8192757
00000000: 7d1f 5f3f 9533 373e a63c 443f 3128 70bf
00000010: bf42 0bbf fcdb fbbc 51db 533f 0dbc 51bf

embedding.11.bias f4 [8]
-0.44754 1.1603881 0.6100797 1.0847001 0.6698552 -0.22090462 0.66096085 0.036609467
00000000: f623 e5be 9987 943f 2f2e 1c3f 74d7 8a3f
00000010: a17b 2b3f d234 62be bb34 293f cff3 153d

embedding.11.weight_g f4 [8, 1]
0.56699973 0.78693664 0.526964 -0.3478987 0.6018334 1.4320331 0.85253924 -0.15185827
00000000: e526 113f ae74 493f 1de7 063f c71f b2be
00000010: c111 1a3f dc4c b73f 0340 5a3f bc80 1bbe

embedding.11.weight_v f4 [8, 1]
-0.45703775 -0.22330502 0.008097724 -0.019607121 0.99067336 -0.8824293 -0.4194702 -0.07650407
00000000: da00 eabe 12aa 64be 51ac 043c 1d9f a0bc
00000010: c59c 7d3f e3e6 61bf ccc4 d6be 2aae 9cbd

embedding.12.bias f4 [8]
-0.22941162 -0.72780174 0.5740187 -0.73951584 -0.75089365 0.86591375 0.257137 0.84429306
00000000: e1ea 6abe 3751 3abf e4f2 123f e950 3dbf
00000010: 913a 40bf 86ac 5d3f 76a7 833e 9723 583f

embedding.12.weight_g f4 [8, 1]
1.1123626 0.23641746 0.061739534 -0.05275776 0.11733602 1.2297754 1.0947359 0.63936573
00000000: e661 8e3f 6b17 723e 98e2 7c3d 8518 58bd
00000010: de4d f03d 4869 9d3f 4e20 8c3f 79ad 233f

embedding.12.weight_v f4 [8, 1]
0.7164827 0.14597863 0.39851743 0.41220167 -0.37950176 0.855044 0.8153492 -0.24195759
00000000: 696b 373f 6c7b 153e 7a0a cc3e 190c d33e
00000010: 0e4e c2be 2ae4 5a3f baba 503f bbc3 77be

embedding.13.bias f4 [8]
0.8474358 0.5048782 -0.5823874 -0.33191887 -0.23295116 -0.64418674 -0.8652326 0.9191535
00000000: 8df1 583f b33f 013f 5717 15bf 45f1 a9be
00000010: c08a 6ebe 6ce9 24bf e27f 5dbf a54d 6b3f

embedding.13.weight_g f4 [8, 1]
0.68155634 0.7145124 0.42659816 0.484642 0.8742663 0.6754306 0.17362395 0.7112564
00000000: 7a7a 2e3f 49ea 363f 136b da3e ff22 f83e
00000010: ebcf 5f3f 05e9 2c3f 7aca 313e e614 363f

embedding.13.weight_v f4 [8, 1]
-0.8363689 -0.5634646 -0.26703134 0.61817455 -0.75919414 -0.86145747 -0.29436666 -0.5185324
00000000: 461c 56bf 373f 10bf 55b8 88be b040 1e3f
00000010: 8c5a 42bf 7a88 5cbf 3ab7 96be 8abe 04bf

embedding.14.bias f4 [8]
-0.06667727 -0.4680337 0.91549766 -0.8926448 -0.1629911 0.67352736 -0.69081455 -0.2011111
00000000: 188e 88bd 1da2 efbe 0e5e 6a3f 5f84 64bf
00000010: 24e7 26be 4a6c 2c3f 39d9 30bf 11f0 4dbe

embedding.14.weight_g f4 [8, 1]
0.79070467 0.38848037 0.07906315 0.79358697 0.64430034 0.58910877 0.91973007 0.47092035
00000000: 9f6b 4a3f e6e6 c63e dceb a13d 8428 4b3f
00000010: def0 243f d5cf 163f 6e73 6b3f 791c f13e

embedding.14.weight_v f4 [8, 1]
-0.66769135 0.57869947 -0.28588536 -0.7514232 -0.45074084 -0.45345354 -0.6791661 -0.6157414
00000000: d2ed 2abf a625 143f 915f 92be 455d 40bf
00000010: 81c7 e6be 102b e8be d4dd 2dbf 3aa1 1dbf

embedding.15.bias f4 [8]
-0.9648691 0.115350164 -0.4937273 1.0496459 -0.24084842 0.7823661 -0.22488564 -0.49800152
00000000: a901 77bf b53c ec3d d3c9 fcbe cc5a 863f
00000010: f8a0 76be 2549 483f 6c48 66be 0efa febe

embedding.15.weight_g f4 [8, 1]
1.0460151 0.86721283 0.77069706 0.5658439 0.024405567 0.7064946 0.21159236 0.6262099
00000000: d3e3 853f a901 5e3f 674c 453f 25db 103f
00000010: 2fee c73c d5dc 343f abab 583e 4b4f 203f

embedding.15.weight_v f4 [8, 1]
-0.816056 -0.96499324 0.48027465 0.25431603 0.09735161 0.7900308 -0.037731443 -0.83755845
00000000: 0ce9 50bf cc09 77bf 8fe6 f53e b635 823e
00000010: 4860 c73d 753f 4a3f 498c 1abd 3b6a 56bf

embedding.16.bias f4 [8]
0.6397527 -0.65276164 -0.6248315 0.6377804 0.34336838 -0.7466653 0.31958318 0.02124983
00000000: d5c6 233f 631b 27bf f5f4 1fbf 9445 233f
00000010: fbcd af3e 7525 3fbf 68a0 a33e 2014 ae3c

embedding.16.weight_g f4 [8, 1]
1.1899707 1.3541828 0.7253887 1.1132009 0.39485002 0.8485544 0.3756106 0.7630609
00000000: f650 983f dd55 ad3f 13b3 393f 5e7d 8e3f
00000010: c829 ca3e dc3a 593f 0850 c03e f657 433f

embedding.16.weight_v f4 [8, 1]
-0.99289244 0.9527315 -0.8649379 0.7087635 -0.38863724 -0.73761225 -0.3427635 0.48471558
00000000: 332e 7ebf 36e6 733f 926c 5dbf 8671 353f
00000010: 76fb c6be 28d4 3cbf b37e afbe a42c f83e

embedding.17.bias f4 [8]
0.8954921 -0.6672249 0.59075904 -0.015039823 -0.05637769 -0.02222752 -0.4046607 -0.23675726
00000000: f83e 653f 40cf 2abf fc3b 173f 9769 76bc
00000010: 4bec 66bd 7d16 b6bc b02f cfbe 7f70 72be

embedding.17.weight_g f4 [8, 1]
0.5309839 0.79771537 1.1395385 0.27294898 0.10816008 0.13001812 -0.24202685 1.1920123
00000000: 90ee 073f 1337 4c3f 66dc 913f f8bf 8b3e
00000010: 0883 dd3d 7823 053e e3d5 77be dc93 983f

embedding.17.weight_v f4 [8, 1]
-0.8726858 0.5595315 -0.8394722 -0.06646172 -0.21589391 -0.46027848 -0.16267027 -0.89365304
00000000: 5668 5fbf 753d 0f3f a6e7 56bf 151d 88bd
00000010: 4b13 5dbe 9fa9 ebbe 0993 26be 72c6 64bf

embedding.18.bias f4 [8]
-0.7994117 0.5607369 -0.09602713 0.71575904 -1.0746387 0.2906469 -1.0367744 0.43303525
00000000: 3fa6 4cbf 748c 0f3f dfa9 c4bd fc3b 373f
00000010: c38d 89bf accf 943e 06b5 84bf ccb6 dd3e

embedding.18.weight_g f4 [8, 1]
1.1745231 0.42454016 0.014193235 1.2900133 0.661336 0.9722848 0.59135514 1.4004314
00000000: c656 963f 545d d93e be8a 683c 281f a53f
00000010: 514d 293f a8e7 783f 0d63 173f 5641 b33f

embedding.18.weight_v f4 [8, 1]
0.7191563 -0.47810346 0.45787546 -0.8047323 -0.492057 0.69356316 0.35682252 -0.91276026
00000000: a11a 383f fac9 f4be a76e ea3e f002 4ebf
00000010: e5ee fbbe 5b8d 313f 71b1 b63e a8aa 69bf

representation.0.weight f4 [16, 152]
-0.10977494 0.20223181 -0.16473778 0.33327636 -0.023301309 0.07007437 -0.35666466 -0.25235167
0.10519173 0.0503875 0.0906225 0.028668853 -0.0053446847 -0.071014866 -0.18245474 -0.0677773
-0.028125344 0.03831248 -0.07832332 0.08430686 0.013694537 -0.007906402 -0.10023147 0.052861024
0.04011402 0.094819024 -0.0065312763 -0.0013487586 -0.005304472 0.070095085 0.09135459 -0.023560198
-0.013335826 0.089003235 -0.00080049323 -0.061730362 -0.019984815 -0.030238057 -0.07872129 -0.07535762
-0.055964794 -0.09388123 0.059834033 0.10850727 -0.023268957 0.15919836 -0.1034576 -0.21423428
0.02512375 -0.077472754 0.024422241 0.056596775 -0.04063644 -0.028059026 0.043062814 0.040031645
-0.07697429 -0.04277041 -0.14170097 0.10700318 0.00012508903 0.055605985 -0.08194129 -0.05594505
-0.146305 0.058254484 -0.07923199 0.3543474 -0.09103531 0.12239472 -0.24956395 -0.16279817
-0.07639609 0.0634108 0.05866021 -0.09338218 0.01320013 0.004990219 0.030787969 0.039832678
0.025458973 0.006342318 -0.04580068 0.028042028 0.001192609 0.013838804 -0.021449491 0.011535346
-0.022587286 -0.07795442 0.013455738 0.13596165 0.106152385 -0.03221402 -0.026519299 -0.016061923
-0.24537385 0.15879358 -0.21831709 0.4116845 -0.17997622 0.18146697 -0.18773784 -0.33361042
0.011374328 -0.07976089 0.023035023 -0.041844103 -0.07958161 -0.019283658 -0.024841866 -0.026071124
0.023441931 -0.112456344 0.03607985 0.12162334 0.08611011 0.033329267 -0.112127215 -0.004737687
-0.11574831 -0.07933416 -0.0021749055 -0.12252588 0.0078504495 -0.032425005 0.011445819 -0.05885942
-0.03634796 -0.02200139 -0.031928297 -0.04335764 -0.03330306 -0.017532479 0.10265994 -0.0073843175
-0.18505318 -0.20172454 -0.010134301 0.19435194 -0.20679204 0.25084436 -0.09776011 -0.1984511
-0.031190064 -0.106776685 0.13402563 -0.18317436 -0.149682 0.079971366 0.20379007 -0.17060138
-0.029218033 0.0142331235 -0.002266499 0.16743642 0.04446343 0.12115244 -0.08798285 -0.14228901
0.076940306 0.018505445 -0.06405208 0.103012785 -0.21842939 0.013578524 -0.087156445 -0.08387229
-0.041563984 0.01522658 0.12908359 0.02726121 0.029649353 0.007138432 0.01642314 0.007168544
-0.116582595 0.048360884 -0.0047112284 0.11553257 -0.038398366 0.16809794 0.01650329 -0.035680234
-0.0057559176 0.068886064 0.0071363384 -0.0034747096 0.005896352 0.057516795 0.08896322 0.12310998
0.10106183 0.05503295 0.091152474 -0.14142779 -0.024237407 -0.08221891 0.0011114861 0.017534016
-0.023282452 0.034342255 -0.003044254 -0.05006238 0.0039879293 0.07584073 -0.10440014 -0.017759126
0.02386371 0.13977648 0.08443527 0.010388062 -0.06399303 0.06981199 0.07037528 0.008766092
-0.056928284 -0.03277309 -0.008189991 0.13214073 -0.09833025 0.06763495 -0.2579268 -0.1268279
-0.1501043 0.06463642 0.07924839 -0.008661826 -0.18894078 0.11519471 0.0066588055 0.067079805
-0.12359151 -0.15009512 0.10701794 0.056467928 -0.0029393844 0.0372585 0.06358353 0.014909895
-0.039700225 -0.046663042 0.24340555 0.019483376 0.021790206 -0.063888766 0.0021282784 0.10049843
-0.23055945 -0.07384873 -0.1194836 0.22623105 -0.06925229 0.14429095 -0.12184109 -0.09739657
00000000: afd1 e0bd db15 4f3e 05b1 28be 33a3 aa3e
00000010: 63e2 bebc 2783 8f3d c09c b6be 3d34 81be
00000020: c36e d73d 2063 4e3d 4a98 b93d f1da ea3c
00000030: 7722 afbb 3e70 91bd 6ad5 3abe d3ce 8abd
00000040: 1f67 e6bc 8ced 1c3d fa67 a0bd 13a9 ac3d
00000050: 0d5f 603c db89 01bc 2846 cdbd cd84 583d
00000060: 994e 243d 7a30 c23d 5104 d6bb d4c8 b0ba
00000070: 23d1 adbb 038e 8f3d 1e18 bb3d 5101 c1bc
00000080: 827e 5abc 5447 b63d 31d8 51ba fad8 7cbd
00000090: 32b7 a3bc cdb5 f7bc a138 a1bd 1955 9abd
000000a0: 573b 65bd cd44 c0bd 8814 753d 0f39 de3d
000000b0: 8a9e bebc e504 233e 94e1 d3bd 3b60 5bbe
000000c0: 53d0 cd3c 09aa 9ebd 2711 c83c 05d2 673d
000000d0: 6572 26bd 0bdc e5bc a262 303d 39f8 233d
000000e0: b2a4 9dbd 0730 2fbd 0f1a 11be 7c24 db3d
000000f0: 552a 0339 1ac3 633d d6d0 a7bd a326 65bd
00000100: fad0 15be 419c 6e3d 6244 a2bd 066d b53e
00000110: b870 babd 15aa fa3d b18d 7fbe 90b4 26be
00000120: 8e75 9cbd 86dd 813d b045 703d 283f bfbd
00000130: 5c45 583c fe84 a33b 0d37 fc3c 9727 233d
00000140: 568f d03c 38d3 cf3b 7e99 3bbd 65b8 e53c
00000150: 5151 9c3a 27bc 623c d8b6 afbc bffe 3c3c
00000160: f908 b9bc 91a6 9fbd 7575 5c3c 8839 0b3e
00000170: 6c66 d93d d9f2 03bd 003f d9bc 4b94 83bc
00000180: 4843 7bbe c99a 223e 848e 5fbe 50c8 d23e
00000190: b04b 38be 7ad2 393e 593e 40be fcce aabe
000001a0: 645b 3a3c ad59 a3bd f2b3 bc3c b964 2bbd
000001b0: affb a2bd c3f8 9dbc 2b81 cbbc 1c93 d5bc
000001c0: 4b09 c03c 834f e6bd 77c8 133d a815 f93d
000001d0: 7f5a b03d 4584 083d f4a2 e5bd 993e 9bbb
000001e0: 730d edbd f379 a2bd dc88 0ebb d9ee fabd
000001f0: 2c9f 003c 15d0 04bd 3f87 3b3c 9316 71bd
00000200: 99e1 14bd 423c b4bc 3fc7 02bd c897 31bd
00000210: ca68 08bd 46a0 8fbc 603f d23d 25f8 f1bb
00000220: 957e 3dbe e190 4ebe 570a 26bc 3204 473e
00000230: 4bc1 53be ac6e 803e 7436 c8bd c436 4bbe
00000240: 4e82 ffbc bcad dabd 043e 093e 0f92 3bbe
00000250: 3d46 19be 07c8 a33d 58ae 503e 21b2 2ebe
00000260: a85a efbc 0c32 693c 8b89 14bb 7474 2b3e
00000270: 491f 363d c51e f83d 5a30 b4bd 36b4 11be
00000280: e192 9d3d bb98 973c bd2d 83bd 5ef8 d23d
00000290: f4ab 5fbe 7578 5e3c 147f b2bd 3cc5 abbd
000002a0: ff3e 2abd e878 793c 7d2e 043e e752 df3c
000002b0: 33e3 f23c 82e9 e93b d289 863c 1be6 ea3b
000002c0: dbc2 eebd 1016 463d a660 9abb 579c ec3d
000002d0: 9b47 1dbd de21 2c3e e831 873c 7025 12bd
000002e0: 239c bcbb 2314 8d3d f2d7 e93b f4b7 63bb
000002f0: 3036 c13b bb96 6b3d 5932 b63d 1621 fc3d
00000300: 81f9 ce3d 3b6a 613d 26ae ba3d 72d2 10be
00000310: 878d c6bc 6362 a8bd 49af 913a 7fa3 8f3c
00000320: d7ba bebc 77aa 0c3d 1b82 47bb 360e 4dbd
00000330: 2dad 823b 6252 9b3d becf d5bd 967b 91bc
00000340: d47d c33c 9121 0f3e 66ec ac3d b132 2a3c
00000350: c70e 83bd 97f9 8e3d ea20 903d a89f 0f3c
00000360: a22d 69bd 133d 06bd 502f 06bc e64f 073e
00000370: 5f61 c9bd 3184 8a3d fb0e 84be 2cdf 01be
00000380: f1b4 19be 1960 843d fb4c a23d 55ea 0dbc
00000390: b179 41be 34eb eb3d 1c32 da3b 2361 893d
000003a0: 8c1d fdbd 89b2 19be 392c db3d ea4a 673d
000003b0: b0a2 40bb 5e9c 183d 1538 823d a248 743c
000003c0: b49c 22bd bf21 3fbd 4e3f 793e 9a9b 9f3c
000003d0: 6081 b23c 1dd8 82bd 967a 0b3b 1fd2 cd3d
000003e0: c717 6cbe 013e 97bd d1b3 f4bd 1da9 673e
000003f0: 25d4 8dbd 02c1 133e d287 f9bd da77 c7bd

representation.0.bias f4 [16]
-0.052901126 0.056736317 -0.02707976 0.020176105 0.022603007 -0.010800144 -0.016009346 0.06733846
0.076822534 0.046439767 0.011791669 0.0030043495 -0.04497358 0.04599675 0.03814375 0.06286281
00000000: daae 58bd 5764 683d 5fd6 ddbc 5c48 a53c
00000010: f129 b93c 16f3 30bc 0826 83bc bfe8 893d
00000020: 2255 9d3d a037 3e3d d831 413c 9fe4 443b
00000030: 3736 38bd 1767 3c3d 9f3c 1c3d 38be 803d

representation.1.weight f4 [16]
0.9630461 0.82242566 0.98756766 0.9691929 0.7067661 0.94697493 0.978184 0.933532
0.9799407 0.8122361 0.9337179 0.9988917 0.9111925 0.8635456 0.86624664 1.0110654
00000000: 308a 763f 7d8a 523f 3cd1 7c3f 071d 783f
00000010: a0ee 343f f36c 723f 446a 7a3f f4fb 6e3f
00000020: 65dd 7a3f b4ee 4f3f 2308 6f3f 5eb7 7f3f
00000030: e943 693f 5311 5d3f 57c2 5d3f 976a 813f

representation.1.bias f4 [16]
0.5328213 0.5177417 -0.3177139 0.1758752 0.6207127 0.082672834 0.22462039 -0.23146929
0.50660676 0.637293 -0.6070297 -0.21152426 -0.585635 -0.39292985 0.26962352 0.05579114
00000000: fa66 083f b88a 043f 65ab a2be a118 343e
00000010: 07e7 1e3f 6050 a93d e302 663e 4906 6dbe
00000020: fbb0 013f a225 233f 4c66 1bbf d199 58be
00000030: 2dec 15bf 1a2e c9be 180c 8a3e 4085 643d

representation.1.running_mean f4 [16]
-1.1967206 -1.1483617 0.9000882 -0.65847176 -2.169759 0.56629926 -0.7270364 0.25605357
-0.6716003 -0.9833086 2.668539 0.5564456 -0.04098029 1.7485614 -1.2609197 -1.491983
00000000: 242e 99bf 84fd 92bf 2e6c 663f 9b91 28bf
00000010: 55dd 0ac0 fdf8 103f 0f1f 3abf 7419 833e
00000020: ffed 2bbf 1dba 7bbf 58c9 2a40 3873 0e3f
00000030: f3da 27bd dcd0 df3f d165 a1bf 4df9 bebf

representation.1.running_var f4 [16]
0.95686936 2.6237326 3.904293 1.3199914 1.4202827 2.4932208 6.0684323 4.029573
1.2158377 1.6450104 0.9014513 3.0527947 1.2834991 1.6441855 2.4746475 2.2389512
00000000: 64f5 743f 3ceb 2740 f0df 7940 7af5 a83f
00000010: d3cb b53f ee90 1f40 9930 c240 43f2 8040
00000020: 92a0 9b3f b38f d23f 83c5 663f fd60 4340
00000030: b349 a43f ac74 d23f a060 1e40 fa4a 0f40

model_weighting.0.weight f4 [4, 19]
-0.28462446 0.03631066 0.10661251 -0.3255668 -0.031100696 0.0968719 -0.12609024 0.23328535
-0.16751043 0.05299995 -0.32244363 0.25912333 0.11509448 -0.16927752 -0.038864832 -0.17610474
0.03173678 0.34078622 0.12086247 0.045001116 -0.049592197 -0.1432417 0.2953655 0.103101134
0.13323069 0.13833342 0.12707812 -0.10106201 -0.22410601 0.32138285 -0.07350162 -0.35396284
0.15956202 0.45401698 -0.01879558 -0.27437758 -0.028305968 0.23637182 0.17216665 -0.0045388024
-0.56847197 -0.052707296 -0.5252005 -0.5961814 0.309161 -0.55603075 0.1979026 -0.371902
0.073245704 -0.120380916 0.072868355 -0.60904247 -0.17503 -0.40055346 -0.30102214 0.46339253
-0.5991517 0.15551831 0.17804459 -0.2896771 -0.25953355 -0.17064342 -0.25519875 0.21000622
-0.29661125 0.13144521 -0.26485237 0.2412966 0.27583173 0.0033636275 -0.11756138 -0.21994643
-0.24225345 -0.3765633 0.17106578 -0.20726748
00000000: 4cba 91be 7dba 143d a957 da3d b1b0 a6be
00000010: e3c6 febc c664 c63d cd1d 01be 5be2 6e3e
00000020: db87 2bbe 7a16 593d 5517 a5be d0ab 843e
00000030: a8b6 eb3d 1657 2dbe bb30 1fbd cd54 34be
00000040: 6dfe 013d 887b ae3e be86 f73d 1753 383d
00000050: 3021 4bbd f4ad 12be 263a 973e b026 d33d
00000060: a06d 083e 47a7 0d3e c420 023e 99f9 cebd
00000070: 0c7c 65be 4b8c a43e 0488 96bd 9e3a b5be
00000080: 3a64 233e ea74 e83e 30f9 99bc 387b 8cbe
00000090: ebe1 e7bc 740b 723e 744c 303e 3cba 94bb
000000a0: 6187 11bf 9be3 57bd 8a73 06bf 589f 18bf
000000b0: 5a4a 9e3e 0858 0ebf fba6 4a3e f069 bebe
000000c0: d801 963d 458a f6bd 013c 953d 35ea 1bbf
000000d0: 103b 33be 5815 cdbe 931f 9abe c941 ed3e
000000e0: 0162 19bf 3140 1f3e 5251 363e 8f50 94be
000000f0: 95e1 84be 26bd 2ebe 69a9 82be df0b 573e
00000100: 6edd 97be 9399 063e bb9a 87be 7516 773e
00000110: d139 8d3e 4e70 5c3b 05c4 f0bd a339 61be
00000120: 4a11 78be e8cc c0be de2b 2f3e ed3d 54be

model_weighting.0.bias f4 [4]
0.12612762 0.121833324 -0.25015897 -0.27582794
00000000: 9927 013e c083 f93d d614 80be 5239 8dbe

models.0.weight f4 [1, 16]
-0.12955101 -0.23126994 0.17469223 0.008833429 -0.20944913 -0.0877032 -0.12649453 0.1686318
-0.11395308 -0.26416585 0.16009802 0.12385427 0.12316464 0.207188 -0.21910398 0.017185742
00000000: 05a9 04be 07d2 6cbe 85e2 323e 16ba 103c
00000010: d579 56be bc9d b3bd c887 01be d1ad 2c3e
00000020: 3b60 e9bd bf40 87be bcf0 233e 4fa7 fd3d
00000030: be3d fc3d 1729 543e cb5c 60be 1dc9 8c3c

models.1.weight f4 [1, 16]
-0.20913978 -0.09757933 -0.036827896 -0.25441775 -0.18649754 0.13508752 0.048870772 -0.09547011
-0.1868237 -0.17707345 0.10350199 -0.066179626 0.20249198 0.002795961 0.0302814 -0.13461751
00000000: bd28 56be acd7 c7bd d9d8 16bd 0b43 82be
00000010: 36f9 3ebe 6254 0a3e b82c 483d d585 c3bd
00000020: b64e 3fbe be52 35be daf8 d33d 2f89 87bd
00000030: 0f5a 4f3e 713c 373b b310 f83c 2cd9 09be

models.2.weight f4 [1, 16]
-0.16335897 0.030685822 -0.102520235 -0.12193891 -0.18555227 0.32071024 -0.10805368 0.23940375
-0.16970465 -0.039020266 0.21199198 0.24573511 0.29838237 0.1208742 -0.15559784 -0.07472157
00000000: 9347 27be d560 fb3c 21f6 d1bd 1bbb f9bd
00000010: 6a01 3ebe 2234 a43e 3f4b ddbd 4226 753e
00000020: 0ec7 2dbe b7d3 1fbd 6d14 593e fca1 7b3e
00000030: 93c5 983e e48c f73d 0a55 1fbe 9f07 99bd

models.3.weight f4 [1, 16]
-0.29972082 -0.42314765 -0.022480762 -0.35268784 -0.38416898 0.048160665 0.055427596 -0.061983056
-0.62467074 -0.23484395 0.14133792 0.012585613 0.55331725 0.22148111 -0.12799683 -0.35323486
00000000: 0275 99be cfa6 d8be 9329 b8bc 8093 b4be
00000010: ccb1 c4be 1e44 453d 0c08 633d f2e1 7dbd
00000020: 6cea 1fbf ef7a 70be e3ba 103e e333 4e3c
00000030: 33a6 0d3f f2cb 623e 9a11 03be 33db b4be

aggregator.weight f4 [19, 19]
0.40627795 -0.39193806 -0.27947086 -0.10503608 0.113963395 -0.004094837 0.13025469 -0.23139498
-0.10670052 -0.21779175 0.056394264 -0.23886618 -0.17355692 -0.047081668 0.04517164 0.16926193
0.048405025 -0.04533721 0.05096005 -0.10288364 0.1451298 0.06861532 -0.11319344 0.067640126
-0.03539854 0.3058432 -0.027159093 0.24219249 -0.0805574 0.25746766 0.22694317 0.20028047
0.13712458 -0.027207822 -0.017479856 0.025364742 -0.13739496 -0.0058380244 -0.2708607 0.38943332
0.42497304 -0.09960632 0.040095005 -0.15449764 0.1901976 0.22795628 0.033650868 -0.15367289
-0.03899456 0.29839385 0.21904084 -0.06570563 -0.017858788 -0.1346186 0.3307505 0.13927433
-0.08139372 0.2947426 -0.15692806 -0.34027123 -0.2630789 0.12838088 -0.1919666 0.09396043
-0.120216176 -0.024316454 0.09890443 0.15584473 -0.20885181 0.068199985 0.009705962 0.057980757
-0.026892021 -0.10605176 0.10474197 0.13654238 0.057579055 -0.2093452 -0.27922934 -0.16652788
0.04498671 0.14870995 0.012339395 -0.14144993 -0.053794883 0.17908002 0.022494974 0.062311232
-0.012816714 -0.13253325 0.064048946 -0.01781737 -0.07526146 -0.1274838 -0.2129779 -0.1127993
-0.3359272 -0.07049221 -0.13735148 -0.2456519 0.10938582 -0.30298734 -0.046644013 0.015398121
-0.16246694 -0.049089108 0.096472494 0.11263588 0.07713835 -0.069851354 0.062833145 -0.044908382
-0.059329867 0.16264479 0.24763185 -0.03225683 -0.37923068 0.02267882 -0.22779474 0.014370802
-0.007841434 0.08827236 -0.03585564 -0.105502985 0.1403577 -0.33733854 0.13972774 0.061436966
0.0018808107 0.03338432 0.012953017 -0.21687283 0.14348662 -0.093800165 0.4080256 0.2283986
0.07951514 0.085030995 0.22715893 -0.09657803 0.2025298 0.3006682 -0.005795645 -0.14456767
0.29358038 0.2021218 0.0045979777 0.031720646 -0.022505634 0.009387083 0.2732592 0.11294851
0.20005077 -0.014921466 -0.036613815 0.08896639 0.09761774 -0.18453032 -0.15014628 0.15592985
-0.0740083 0.07121379 -0.13768965 -0.20538098 -0.12521534 0.072916485 -0.04553588 0.15203904
-0.26250166 -0.060515292 0.20079689 -0.28109622 0.18128157 0.14088792 0.12798688 -0.09925027
-0.14892323 -0.016848182 0.14137028 0.099681824 -0.17245272 -0.051971596 0.009978181 0.24202812
0.01605352 0.062379256 0.2547437 -0.045268 0.12146859 0.036603812 0.36839947 -0.18820786
-0.15417217 -0.29069734 0.18326451 -0.21929023 0.0807432 -0.21930577 -0.1288687 -0.020031018
0.15618044 -0.3418883 0.121827275 0.15352646 0.085758775 0.15782085 0.05434988 -0.042381138
0.10438417 -0.16376716 0.23481613 0.05573778 -0.01297379 -0.10625387 -0.10834408 -0.07711955
-0.046314072 0.19976518 0.00014852552 0.102547824 0.21272959 -0.012183132 0.21350808 -0.19497076
-0.09434677 0.34040356 0.14585982 0.11871368 -0.40013498 0.3492964 0.019884543 0.08759366
-0.091656104 0.1180005 -0.057406403 -0.1365499 -0.0409629 -0.16781722 -0.086453795 0.12545753
-0.02594842 -0.020239174 0.00020458478 0.23047957 0.050929412 0.22627495 -0.08366052 0.3393214
-0.31585392 -0.35080793 -0.15230565 -0.113396965 -0.21513286 0.045304503 -0.2914673 -0.20274739
00000000: aa03 d03e 1bac c8be ce16 8fbe 281d d7bd
00000010: a465 e93d fb2d 86bb 7c61 053e cef2 6cbe
00000020: cd85 dabd cd04 5fbe acfd 663d 5699 74be
00000030: e8b8 31be b5d8 40bd e605 393d 0053 2d3e
00000040: 5944 463d 83b3 39bd 7cbb 503d a8b4 d2bd
00000050: e89c 143e 3086 8c3d f6d1 e7bd e886 8a3d
00000060: 0ffe 10bd 7b97 9c3e bf7c debc 4f01 783e
00000070: 47fb a4bd cdd2 833e ca63 683e 5316 4d3e
00000080: 636a 0c3e f0e2 debc ea31 8fbc b8c9 cf3c
00000090: 44b1 0cbe e64c bfbb 41ae 8abe ce63 c73e
000000a0: 1196 d93e 66fe cbbd a93a 243d a134 1ebe
000000b0: 29c3 423e 5f6d 693e 7ed5 093d 6d5c 1dbe
000000c0: c2b8 1fbd 14c7 983e 3e4c 603e ac90 86bd
000000d0: 984c 92bc 75d9 09be 2158 a93e ee9d 0e3e
000000e0: c0b1 a6bd 81e8 963e c0b1 20be 0838 aebe
000000f0: 47b2 86be 4776 033e e492 44be 536e c03d
00000100: e633 f6bd 4d33 c7bc 688e ca3d c395 1f3e
00000110: 40dd 55be 6fac 8b3d c105 1f3c 3b7d 6d3d
00000120: a84c dcbc aa31 d9bd f582 d63d c4d1 0b3e
00000130: 04d8 6b3d 975e 56be 26f7 8ebe 4986 2abe
00000140: fc43 383d 6c47 183e 2c2b 4a3c 40d8 10be
00000150: 0658 5cbd c160 373e 6147 b83c 103a 7f3d
00000160: 32fd 51bc ccb6 07be 182c 833d bcf5 91bc
00000170: ae22 9abd 1d8b 02be e116 5abe 5203 e7bd
00000180: a6fe abbe 385e 90bd dea5 0cbe 2c8c 7bbe
00000190: ac05 e03d 2821 9bbe cb0d 3fbd 6748 7c3c
000001a0: bc5d 26be a911 49bd 5f93 c53d a4ad e63d
000001b0: b6fa 9d3d 3a0e 8fbd aaae 803d daf1 37bd
000001c0: e003 73bd 5b8c 263e 3493 7d3e bd1f 04bd
000001d0: 862a c2be efc8 b93c 0643 69be 8373 6b3c
000001e0: 5c79 00bc 24c8 b43d 5ddd 12bd f311 d8bd
000001f0: eeb9 0f3e a3b7 acbe ca14 0f3e 54a5 7b3d
00000200: 8985 f63a ffbd 083d e438 543c e913 5ebe
00000210: 28ee 123e 4d1a c0bd bbe8 d03e 53e1 693e
00000220: d5d8 a23d bb24 ae3d 5a9c 683e b4ca c5bd
00000230: f963 4f3e 2ff1 993e 65e9 bdbb 8c09 14be
00000240: 2b50 963e 04f9 4e3e a2aa 963b 82ed 013d
00000250: bc5d b8bc 48cc 193c a1e8 8b3e 8c51 e73d
00000260: 1cda 4c3e 2a79 74bc 5ef8 15bd 0334 b63d
00000270: cfeb c73d 84f5 3cbe f2bf 19be 13ac 1f3e
00000280: aa91 97bd 89d8 913d 84fe 0cbe 644f 52be
00000290: 7338 00be 3d55 953d d583 3abd 1fb0 1b3e
000002a0: 9e66 86be e2de 77bd b39d 4d3e d8eb 8fbe
000002b0: e0a1 393e ec44 103e fe0e 033e ba43 cbbd
000002c0: 557f 18be 3305 8abc 5fc3 103e fc25 cc3d
000002d0: 7297 30be 2be0 54bd 867b 233c 38d6 773e
000002e0: ac82 833c 6481 7f3d c46d 823e f06a 39bd
000002f0: 86c4 f83d e1ed 153d db9e bc3e 90b9 40be
00000300: 4fdf 1dbe 48d6 94be b1a9 3b3e 9e8d 60be
00000310: b15c a53d b191 60be 28f6 03be 1718 a4bc
00000320: c4ed 1f3e fc0b afbe 9480 f93d 0a36 1d3e
00000330: 4ca2 af3d ca9b 213e fb9d 5e3d d897 2dbd
00000340: 5ec7 d53d 94b2 27be a473 703e 4c4d 643d
00000350: 0590 54bc a19b d9bd 80e3 ddbd dbf0 9dbd
00000360: d3b3 3dbd 3e8f 4c3e 84bd 1b39 9804 d23d
00000370: c9d5 593e c29b 47bc dda1 5a3e 6aa6 47be
00000380: e138 c1bd 6049 ae3e 475c 153e 2820 f33d
00000390: 7ede ccbe fad6 b23e e9e4 a23c 4e64 b33d
000003a0: 32b6 bbbd 3faa f13d fa22 6bbd bdd3 0bbe
000003b0: b7c8 27bd 47d8 2bbe b00e b1bd f077 003e
000003c0: c891 d4bc a0cc a5bc cf85 5639 d602 6c3e
000003d0: 5c9b 503d 9fb4 673e 3556 abbd 89bb ad3e
000003e0: 9bb7 a1be 199d b3be 03f6 1bbe ab3c e8bd
000003f0: ca4b 5cbe 3791 393d 343b 95be 039d 4fbe

aggregator.bias f4 [19]
-0.1496605 -0.025824834 0.19320849 -0.04971775 0.19855653 0.12457307 -0.10034609 0.10909744
-0.04190925 0.08197224 -0.1126212 0.021717036 0.0886224 0.16414759 -0.030156825 0.12980478
0.1368565 -0.043382894 0.18683547
00000000: 9a40 19be 9a8e d3bc 72d8 453e d7a4 4bbd
00000010: 6752 4b3e 2a20 ff3d 4082 cdbd 7b6e df3d
00000020: 09a9 2bbd 10e1 a73d f2a5 e6bd ede7 b13c
00000030: a97f b53d 4e16 283e 720b f7bc 8beb 043e
00000040: 1c24 0c3e 43b2 31bd cc51 3f3e
