bank/Models/nn/0.901_1/params.pt (torch_old, 6889 bytes, 7 tensors)

linears.0.weight f4 [32, 19]
00000000: 9bf2 423c ae30 a43e e289 6e3c 0137 073e
00000010: deee fcbd 56d0 acbd 1219 7dbe 9437 54be
00000020: b812 c3bd b2a7 133e 10f8 263e d9ea 683d
00000030: e90c 92bc 03bb b33e 267e 8c3e b8af 03be
00000040: f39d a43e 7293 f2bd cff6 e03d 7217 013e
00000050: 5ac7 c03d ea1c e4bd 2770 1f3e 1f9d 3bbc
00000060: e20b 293e 4b2d f13e 3c48 2dbd 2bab aebd
00000070: 8ea8 a2be b2d6 88bd 137d 053f 5788 113e
00000080: 26c0 38be 6c17 56bd bab1 d5bc 8f09 10bf
00000090: 9516 1fbd 69b9 dd3d 89bf e63a 2b7c 873d
000000a0: 6ee0 6c3d 30e0 713e b7ec ab3c 2637 02be
000000b0: aa0c ca3e 74af 9f3d 20ee e8bc 57b2 1cbe
000000c0: 23ed d6bc 221e 153f c81b b03e 4f30 373e
000000d0: 5fbf 333e 6173 a6be ada2 9dbe ee9c cf3e
000000e0: 782e 363f 412b 0e3d 8849 d43d df97 8ebd
000000f0: 3e83 9fbe 0dea a1bc dbcc 503d f266 a33e
00000100: e02a 30bd ffa1 e83d 81e0 f73c 61a8 563e
00000110: cf31 103f 7d6c d33e b28d 07bc 92f3 b93e
00000120: 9cc8 87be 00e9 89be 7ffb ad3d 100f 6d3e
00000130: 4e88 333c 7818 f0bd 95df f7bc 6565 8c3e
00000140: cd60 a23d 2b47 413e d562 9e3b 192b 633d
00000150: d2b4 ee3d 18e1 77be fcd5 a5be c563 773f
00000160: 49f9 04be 9a9f 593d ddbf 9c3d 918f 83be
00000170: b191 e4be 1f32 29be d22b cc3d d905 16be
00000180: bda3 1abc 0ae2 59bd 865f 863d 7f6e eebb
00000190: 26a0 eabd 72c2 a1bd 1983 fbbc 7396 12be
000001a0: 2407 fb3b b003 2cbd 898f 953d 4172 cf3c
000001b0: a243 1b3e 0d1d 02bd 2a19 2bbe f891 973d
000001c0: 8c66 37be 3d85 76bd 7c64 fabd 1ffc ecbd
000001d0: 2f0d f4bd 4727 423e 6331 a23d 780d c53c
000001e0: 09d9 263e 87af 4abe 90dd 89bb 6540 c43d
000001f0: a1bf bd3d e08b 5bbe bfe1 033d 9eac 27be
00000200: 0dea 83bd 1d02 ddbd 8e4e 81be a9ff 77be
00000210: 3028 45be e6b6 c33d 10b4 d0bc f479 39be
00000220: e171 8dbe d64a 2d3c 2ec3 adbe 9293 793e
00000230: 441a 573e 7b46 aa3d d73d 9cbe 9ca1 a43b
00000240: 9234 6d3f c801 b33e 9aec 64be 70bd 7dbd
00000250: ddbc 0dbe c016 2fbe 3313 8ebd 5635 0b3e
00000260: 466a 90bd e3fd c83d 862a adbd dee1 0c3e
00000270: 157b 393e da40 123e 6883 993c d08f a6bd
00000280: ac0c ebbc d768 91be e4fb 853e 01fd 313f
00000290: 57bb c53e 2fc9 6c3e f5bf 133d 8b75 e0bd
000002a0: 0959 203e 2070 f4bd 9070 3e3d 2e52 3a3d
000002b0: 9582 b3bd 091b cb3d 81d7 5f3e caf2 56bc
000002c0: 2ff2 173e 8899 123e 9c9c 57bc b8c3 84bd
000002d0: 0458 3ebe b5f2 22be 1d42 073f a995 f63d
000002e0: dbe8 d43c eb07 003f 86a8 953b 5acb e23d
000002f0: 62a0 4b3e 87d9 0b3f ebee 123c c788 5f3d
00000300: d1d8 cebd cce8 1f3e abb5 0a3d ebe5 aa3d
00000310: f0f6 923e c0c1 10bd 5cf2 013e 0d73 e13b
00000320: b554 d8bb 6f55 513f bd25 dc3e f14f 8e3e
00000330: 2c29 e43e 732b 66bd 3734 5abe 9a70 b03e
00000340: a3de 113f 4f35 bc3d be16 8e3e 389c 85bb
00000350: 66aa 3ebe 87cb c3bc 5796 2e3e bed1 b3bd
00000360: 6ec5 cabd 4abc 713e 7bd0 693e 1edb e73d
00000370: 1999 20bf f258 20be 2787 1ebe d1e5 19be
00000380: 3b8e a23e b26b 013e 6e73 1abe ac04 f7be
00000390: 922e 5e3e 3457 7a3d 0ec0 413e f1d7 313e
000003a0: 67ec 9fbc 418f 013e 95af 853e c4ac d8bd
000003b0: d729 11be 83a3 1fbe a15c b5bd 9cb5 503f
000003c0: 40cc 863e 09b8 883e 99d5 803e 734c c3be
000003d0: 1917 9abe cf1a c4bd 1e1a 403e 0cc9 333c
000003e0: 556c 563e 765c 463e acf1 28be f04e 53bd
000003f0: 22f5 fc3c 5715 4abe 4660 223d c429 48bc
0.011898662 0.3206839 0.014559241 0.13204576 -0.12350248 -0.084381744 -0.24716595 -0.20724326
-0.09525055 0.1441944 0.16305566 0.056864593 -0.017828422 0.35103616 0.27439994 -0.1286
0.32151756 -0.11844529 0.10984575 0.126066 0.09413023 -0.111383274 0.15570126 -0.011451035
0.16508439 0.47104868 -0.042305216 -0.085287414 -0.31769222 -0.06681575 0.52143973 0.14212166
-0.18042049 -0.05226843 -0.026085723 -0.56264585 -0.038839895 0.1082638 0.0017604689 0.0661548
0.05783122 0.23620677 0.020986898 -0.1271635 0.39462787 0.07797137 -0.02843386 -0.15302406
-0.026236122 0.58249104 0.34396195 0.17889522 0.17553471 -0.32509902 -0.30788174 0.40549415
0.71164656 0.03470922 0.103655875 -0.06962561 -0.31154817 -0.019764924 0.050976615 0.3191448
-0.04300964 0.11359023 0.030258419 0.20962669 0.56326 0.41293707 -0.008273529 0.36318642
-0.2652024 -0.26935577 0.08495235 0.23150277 0.010957791 -0.11723417 -0.03025798 0.27421108
0.079286195 0.18874805 0.004833559 0.055461023 0.116555825 -0.2420696 -0.3238982 0.9663661
-0.1298572 0.053130724 0.076537825 -0.2569547 -0.44642404 -0.16523026 0.099692956 -0.14650668
-0.009438452 -0.053194083 0.065611884 -0.0072763558 -0.11456327 -0.078984156 -0.03070216 -0.14315204
0.0076607633 -0.041995704 0.07302768 0.025323035 0.15162519 -0.031765986 -0.16708818 0.07400888
-0.17910212 -0.06018566 -0.12226197 -0.11571526 -0.11916577 0.18960296 0.07919576 0.024054274
0.1629373 -0.19793521 -0.0042073205 0.09582595 0.09265066 -0.21440077 0.03219771 -0.16374442
-0.06441126 -0.10791419 -0.25255245 -0.2421862 -0.19253612 0.095563695 -0.025476485 -0.18112928
-0.27625945 0.010576924 -0.33937973 0.243727 0.21006113 0.08314224 -0.3051593 0.005024148
0.9265834 0.34962296 -0.22355881 -0.06194824 -0.13841577 -0.17098522 -0.06937256 0.13594565
-0.0705152 0.0981405 -0.08455376 0.13758036 0.18113358 0.14282551 0.018739417 -0.08132899
-0.028692566 -0.284003 0.2616874 0.6952668 0.3861949 0.2312362 0.036071736 -0.109599195
0.15658964 -0.11935449 0.046494067 0.04548853 -0.08765141 0.09917266 0.21859552 -0.013119409
0.1483848 0.1431638 -0.013159897 -0.06482643 -0.18588263 -0.15912898 0.52835256 0.12040264
0.02598994 0.5001208 0.0045672087 0.110739425 0.198854 0.54628795 0.008968095 0.0545738
-0.10099948 0.15616149 0.03386466 0.083446346 0.28704023 -0.035341024 0.12690109 0.00688017
-0.0066018947 0.81770986 0.42997542 0.27795365 0.44562662 -0.05619378 -0.21308981 0.34460908
0.5698034 0.09189855 0.27751726 -0.0040774606 -0.1861969 -0.02390076 0.17049538 -0.087802395
-0.09900938 0.23606983 0.22833435 0.1132109 -0.6273361 -0.1565893 -0.15481244 -0.15029074
0.31749138 0.12638739 -0.15083095 -0.48245752 0.21697453 0.06111832 0.1892092 0.17367531
-0.019521905 0.12652303 0.2611052 -0.105798274 -0.14176117 -0.15589719 -0.08855558 0.81527114
0.26327705 0.26702908 0.25162962 -0.38144264 -0.30095747 -0.09575426 0.18759963 0.010973226
0.20939763 0.19371209 -0.1649844 -0.051588953 0.030878607 -0.19734703 0.039642595 -0.012216989

linears.0.bias f4 [32]
00000000: 118f 963c 0da7 95bd 20e9 cb3d 2a12 7e3e
00000010: ba4a bcbb 826c 353d a284 1abe 676b 613e
00000020: 1b23 b83e 160a 67bd 9e31 ad3d 56c9 72be
00000030: 635b 143e 2dc9 70be 99b8 12be 57ed b73e
00000040: a5fe 8dbe 4fe8 aa3e 2e50 c73d af77 193e
00000050: d8ae edbc 75ff 0f3e 0831 233e 445b 863d
00000060: 87b8 873e aa4c 5fbe 3ce9 a0bd 3be3 ba3e
00000070: bb36 8bbd 78b6 d0bc 8033 643d 02c7 383c
0.018378766 -0.07307253 0.099565744 0.24811617 -0.005746213 0.044292934 -0.15089658 0.22013627
0.35964283 -0.056406103 0.08456729 -0.23709616 0.14487986 -0.23514242 -0.14328231 0.35923263
-0.2773334 0.33380362 0.0973209 0.14987062 -0.029014036 0.14062293 0.15936673 0.06560376
0.2650797 -0.21806589 -0.07856986 0.36501488 -0.067975484 -0.025477633 0.055713177 0.011277916

linears.1.weight f4 [16, 32]
00000000: 89ac 953d a4cc 34bd ebf9 933e d4b9 94bd
00000010: d01a 1d3e a9b7 f53d 759a 8e3d 0c85 b33d
00000020: 07ae 063e 3229 8f3d 68d4 a53d c9f3 afbd
00000030: eebc 78bb 1396 17be d67d 423e 57e3 d1bc
00000040: cc95 163e 8bb2 753e e1aa 213e e3c1 d3bd
00000050: 18b2 373c 744e 28be fbcd 103e ae90 c1bd
00000060: 9466 c03e f4b6 893d 596e 873e 08fe 0c3e
00000070: 6911 033d 41ed 453e a296 2c3b e6ad 0a3e
00000080: a27a 013e 06da a4bd e5a0 4e3e d318 a83d
00000090: d4d6 083e 6e64 6f3b 4ea4 de3d 7d34 4b3e
000000a0: a403 4f3d e7fd 5cbd 53a9 e73c 261e 6dbd
000000b0: 884d 4d3e 5a8b 02be d83a 9f3c 5d70 31bd
000000c0: 0c4f 86bb 097b 693e 5e94 053e 00e6 1c3c
000000d0: 0989 a93c e2aa bdbd 3ec2 f93d 3dff 963d
000000e0: c118 b33e 8c1c 573d d6b4 ad3d 8545 91bc
000000f0: 5094 edbd d70c 993d a647 5ebe 8ef6 6e3e
00000100: 69c9 14be c58d d7bd e859 87be 2b1b ab3d
00000110: 4a89 fcbd 344e e33d d8eb e8bd 7a8b 963d
00000120: 2f81 133e 3639 45be d2d0 4abd 5f73 423e
00000130: 5f8d 473d fdd1 8f3e d42d cd3d 95ee 223e
00000140: 87a0 e6bd 9038 31bd 567c 9ebd f976 4c3c
00000150: 50c6 18be 51bb ad3e 3814 463e 79ba c03d
00000160: ad00 b3be 5f16 09be 970f 35be 6614 2d3e
00000170: a009 21bc 9d35 0bbd 8fe6 ba3e 7c6c 273e
00000180: e545 14be d75c 50be 6bf2 38be 2c3a 1fbe
00000190: f866 81be 39a7 e8bd b91a 17bc fc2a 4c3d
000001a0: 91d8 0d3e 8734 3bbe 862e b5be 6745 8e3c
000001b0: c809 89bd 7209 3c3e 3d22 76bd 2232 9a3e
000001c0: 1012 3a3d 53af b33d 1825 24be 4d77 9fbd
000001d0: 58ee 21be 3c23 ff3d 8ec7 793c 5c8f 56be
000001e0: 5c35 a5bd 7068 693c 1454 5bbe 0afb 193e
000001f0: a55a 3abe 0a41 183d 1a8a 713e 1347 063c
00000200: 6987 933e 51fd 903b 95a2 203e a0f8 bc3d
00000210: bcea 913e e70f 93bd 3e27 9cbd 6d54 313e
00000220: 3762 0c3d 9cd7 1d3e 8598 993d 69e9 e33c
00000230: d8e9 4d3e d911 1fbe 6fc6 94bd fba0 033e
00000240: 65fa b53d ba21 c73d 09eb 033d 6465 ce3d
00000250: 3605 933d 5b79 08be 8dfb f7bc 4388 d7bb
00000260: ad48 ed3e 4022 85bb 4ddc 7d3e 5bbf 4f3d
00000270: dcfe 49bd ae84 1e3e 5e96 84bd 8bce 9a3d
00000280: bdb1 4a3e 799d 5d3e 9d66 543e 919d 333e
00000290: b9fa 843e bea1 983d 02ed da3d e6a8 203e
000002a0: 1d79 2d3e de3b 753e 4302 833e 382c d33c
000002b0: ce8b 763d 0888 c03d 424a febd 53da 7c3e
000002c0: c2ad 2f3e bbcc 633e 2e3b 443e 0bef 45be
000002d0: bbdf 4b3e 6411 0dbe c68a b13d 4540 073e
000002e0: 7711 863e e035 403c af6d 0a3c 8778 7e3e
000002f0: 6136 0fbe df20 013e 83e3 163e 263a 6b3e
00000300: 5ef5 a93e 3c29 383d 3782 893d e76b 283e
00000310: bf18 f23d 7f6d db3c fefd 00be 4bf8 623c
00000320: eb7e c3bc ce2c 873e dc50 513e e704 143e
00000330: 3b0b 423e 3136 fbbd 1808 7cbd a21d b1bd
00000340: c9b6 993c dbd6 803e 442e 443e d524 083e
00000350: 7fc8 943d e959 6abe fa98 29bc c1cd 1c3e
00000360: 308a da3e 5827 603d fa98 783d ea2f 23be
00000370: 6f79 f4bd 4c34 383e 9305 3cbe 8ab3 263e
00000380: a880 2c3e 8c70 82bc 03d8 9e3e 3999 bebb
00000390: 6ec8 0a3e a909 2bbd 0812 ffbd 3fb4 b83d
000003a0: a2f9 123e 072e 9d39 52dd 553e d833 54be
000003b0: 5fd2 f4bd b680 3ebe 840a 41bd 9faa 393c
000003c0: f3e0 623d dbdc 443e 0a4c e93c cc82 6cbc
000003d0: 2eea 8c3d 646d 7fbd 6ae0 4c3e c62f c03d
000003e0: c384 993e 3556 14be 2b78 663d 5c35 75bd
000003f0: 77bd 3f3d c536 893d c6f7 623d 25c6 263e
0.07308299 -0.044140473 0.2890161 -0.072620064 0.1534226 0.11997921 0.06963054 0.08765611
0.13152324 0.06990279 0.08097154 -0.0859142 -0.0037954408 -0.14803343 0.18993315 -0.0256211
0.1470558 0.2399389 0.15787841 -0.10339715 0.011211894 -0.16436177 0.14141075 -0.094514236
0.3757826 0.06724349 0.26451376 0.1376878 0.031999025 0.19328786 0.0026334901 0.135429
0.12644437 -0.08049397 0.20178564 0.0820786 0.133632 0.0036528367 0.108711824 0.19844241
0.05054058 -0.053953078 0.028278982 -0.05789008 0.20049107 -0.12748471 0.019437239 -0.04332005
-0.0040987786 0.2280084 0.13044879 0.009576321 0.020695226 -0.09261109 0.12195252 0.073729016
0.34979823 0.05251746 0.08481757 -0.017733345 -0.11600554 0.07473152 -0.21707019 0.2333624
-0.14529957 -0.10525087 -0.2643578 0.08354791 -0.12330873 0.110989004 -0.113731086 0.07350822
0.14404748 -0.19260105 -0.049515553 0.18989323 0.048718806 0.28089896 0.10018507 0.15911324
-0.11261087 -0.043266833 -0.07738559 0.012479537 -0.149194 0.33931974 0.1934365 0.09410567
-0.34961453 -0.1338744 -0.17681728 0.16902313 -0.009828955 -0.033986676 0.36504027 0.16349977
-0.14479788 -0.20347916 -0.18061225 -0.15549535 -0.2527387 -0.1136002 -0.00922268 0.04984568
0.13852145 -0.18281756 -0.35387057 0.017367078 -0.06691319 0.18362978 -0.060091246 0.30116373
0.045427382 0.08773675 -0.16029775 -0.07786427 -0.15813577 0.12457892 0.015245331 -0.20953125
-0.08066818 0.014246091 -0.21418792 0.1503717 -0.1819864 0.0371714 0.23587838 0.008195656
0.28814247 0.004424729 0.1568702 0.09227109 0.284994 -0.071807675 -0.07624672 0.17317362
0.034273352 0.1541428 0.07499794 0.02782126 0.20108736 -0.15534152 -0.07264411 0.12854378
0.088856496 0.0972323 0.03220657 0.100779325 0.07178728 -0.13327543 -0.030271316 -0.006577523
0.4634451 -0.004062921 0.2479107 0.0507196 -0.04931532 0.15480301 -0.06473993 0.07558926
0.19794364 0.21642102 0.20742269 0.17540576 0.25972536 0.07452725 0.10689737 0.1568943
0.16940732 0.23948619 0.25587663 0.025777921 0.060191922 0.09400946 -0.12416507 0.24692659
0.17156127 0.22246067 0.191632 -0.19329469 0.19909565 -0.13776165 0.08669047 0.1320811
0.261852 0.011731595 0.008449002 0.24850665 -0.13985588 0.12610196 0.14735226 0.229714
0.33195013 0.0449612 0.0671429 0.16447411 0.11821126 0.02678561 -0.1259689 0.013853143
-0.02386423 0.2640137 0.20441002 0.14454995 0.18949597 -0.122661956 -0.061531156 -0.0864823
0.018763917 0.25163922 0.19158274 0.132953 0.07264804 -0.2288586 -0.010351414 0.15312864
0.42683554 0.05472502 0.060692765 -0.15936247 -0.11937224 0.179887 -0.18361501 0.16279426
0.16845953 -0.015922807 0.3102418 -0.0058166054 0.1355302 -0.04175726 -0.12454611 0.09018754
0.1435304 0.00029979667 0.20885208 -0.20722902 -0.119541876 -0.18603787 -0.04712917 0.011332183
0.05539031 0.19224875 0.028478641 -0.014435481 0.06880604 -0.062360182 0.20007482 0.09384112
0.29984102 -0.1448601 0.056266945 -0.05986534 0.046811547 0.066998996 0.055412076 0.16286524

linears.1.bias f4 [16]
00000000: 2f33 453d de80 a93e e386 533c c492 1b3e
00000010: 5be8 46bd 252d d63d 8ba0 51bd 167b d63c
00000020: 7eb6 043e 2774 193c 39ce e0bd 8995 303e
00000030: 70e3 4e3e bc0c e63d 6831 0dbe 3cac d33d
0.048144516 0.3310613 0.0129105775 0.15192705 -0.048561435 0.104578294 -0.051178496 0.026181739
0.1296024 0.009366072 -0.10976834 0.17244543 0.20203948 0.11232898 -0.13788378 0.103355855

linears.2.weight f4 [8, 16]
00000000: ed1a c4bd 17bc 1c3e 0f7b 10bd 1b02 0bbd
00000010: 3947 30be c56c 00be 7c98 083e 2f66 153e
00000020: 82e5 b13d 431b 75bd c815 8a3e 93bd 0a3e
00000030: f7d5 d4bd 3996 16be b269 2ebd 4eb1 ed3d
00000040: a704 5dbd 1a10 b4bb 53e9 283e 243d 9f3e
00000050: 6534 a3be 0be7 05be dcde b5be ea94 d2be
00000060: 18a4 473e ca0f 03bc 2788 8a3d b9e3 2c3e
00000070: 434e afbd 1255 b9be 8cbc a73e 5637 02be
00000080: e1ff 4d3e f7f1 9b3e 9512 8ebe c7c0 0cbe
00000090: 1954 273e 1c3b 903e 069d d0bb 1b9a 5e3e
000000a0: f6b4 34be 872a a5be 0c07 1e3e a69b 03be
000000b0: c4ca 8a3e 0631 953d 95b9 b2bd 2609 833e
000000c0: b414 4e3e f615 a43d 6731 12bf 89b6 91be
000000d0: 84f1 47be 4c05 e03d 969b 7ebd ca69 303b
000000e0: 3ad1 0b3d 1feb c0be 8d8b 8bbe d814 94bd
000000f0: 39b6 b43d 69fd 1bbe e1a4 803e 8391 fcbc
00000100: d4fd 933c 651c 9ebd 257c ecbe eb1d fabe
00000110: d37f 153e 832d 413e f9c4 89bd d11e 843e
00000120: a26f 8cbd b2fe e2be f531 5ebe 53cc 12be
00000130: e5f8 f33d 0d0e 223e e8b2 413d 23d6 19be
00000140: fe49 833e 9bc4 9d3e 50ed 60bd 6d6a 55be
00000150: 5cce 923d 4d32 343d ac8a 823e e34b 933d
00000160: de1c 753d b271 05be 53c7 ec3d 57c9 c1bd
00000170: 24f6 753e 80ab 3c3e 90bc 59be 0e9f ba3c
00000180: 4b90 75be ceb6 48be a660 b83e 7e6a c73e
00000190: eb9e 00bd b503 9f3e 8809 34be a25f d0bd
000001a0: de5a b63e 6a3e c93e 1427 1abc a79b 013f
000001b0: 133a e6bc 6f63 9dbe 8e54 8f3d c070 533e
000001c0: f7e6 083e 6f23 883e a761 00be c883 8a3d
000001d0: 9e01 263e 1d0c 573e e580 d8bb eea8 35be
000001e0: 7aba 71be ce59 10be 6f56 563e 1ebd 68be
000001f0: b319 5b3e b777 ae3d ecd0 37bd dbef be3c
-0.09575448 0.15306126 -0.035273608 -0.033937555 -0.1721467 -0.12541492 0.13339418 0.14589761
0.08686353 -0.059840452 0.26969743 0.1354888 -0.10392373 -0.14705743 -0.042581268 0.11606084
-0.053959515 -0.0054950835 0.16495256 0.31101334 -0.3187591 -0.13076417 -0.3552159 -0.41129237
0.1949619 -0.00799937 0.0676425 0.16883744 -0.08559849 -0.36197716 0.32761037 -0.12716421
0.20117141 0.30458042 -0.27748552 -0.13745414 0.16340674 0.28170097 -0.006366375 0.21738474
-0.17647156 -0.32259008 0.15432376 -0.12852344 0.27107823 0.07284741 -0.08726803 0.25592917
0.20125085 0.08012001 -0.5710663 -0.28459576 -0.19525725 0.1093851 -0.062160097 0.0026918524
0.03413508 -0.37679383 -0.27254906 -0.07230538 0.08823819 -0.15233387 0.25125793 -0.030831104
0.01806537 -0.077202596 -0.46188465 -0.4885095 0.14599542 0.18865018 -0.06727023 0.2580476
-0.0685723 -0.44334942 -0.21698745 -0.14335756 0.11912707 0.15825672 0.04728976 -0.15023093
0.2564239 0.3081406 -0.05491382 -0.2084138 0.07168266 0.043993283 0.25496423 0.071922086
0.059841983 -0.13031653 0.115614556 -0.09462231 0.24019676 0.18424797 -0.21263337 0.022780921
-0.23980825 -0.19600984 0.36011237 0.38948435 -0.031401556 0.31057516 -0.17581761 -0.101744905
0.356162 0.3930543 -0.009408731 0.5062813 -0.028103864 -0.30739924 0.069985494 0.2064848
0.13369356 0.26589534 -0.12537251 0.067634165 0.16211554 0.21000715 -0.0066071623 -0.17740223
-0.23606291 -0.14096758 0.2093141 -0.22728392 0.21396522 0.085189275 -0.044876978 0.023307731

linears.2.bias f4 [8]
00000000: 6b7a 92bd 1aa9 b03e 3341 223e 2c27 2d3e
00000010: 9a73 bfbd 1770 f93c fff6 5d3e a3d3 a13e
-0.071522556 0.34504014 0.15845184 0.16909474 -0.09348221 0.030448956 0.21676253 0.31606779

output.weight f4 [1, 8]
00000000: 5d5d 763d b43d 923e 437a c7be ed55 75bd
00000010: 1299 89be e121 a9be 0aad bb3e 8eb2 7cbe
0.060147632 0.285627 -0.38960466 -0.0598964 -0.26874596 -0.3303366 0.36655456 -0.24677488
