mixture/Models/transformer_v4/0.9488640996787188_1/params.pt (torch_old, 333129 bytes, 74 tensors)

transformer_encoder.layers.0.self_attn.in_proj_weight f4 [384, 128]
00000000: e9bb 8ebc 3cc2 91bd 08bd 533c 9a4b a3bd
00000010: ffb6 a9bc 592b 993d 2470 75bd 6d24 db3c
00000020: 39e5 4ebd 7f4a adbc 5e5a c23d a7b4 f6bd
00000030: c4a4 813c dc9e acbd 52d5 fcbd fab2 9bbd
00000040: 3de4 833d 3626 083d 5eec fa3d 21b9 103b
00000050: 2e9e 13be 4eab 21bd 39bf 9c3d 3a4e ccbd
00000060: c47f a0bd e6f6 b73d 8309 a93d f016 883c
00000070: 77a7 123e e667 97bd e290 a53d 87d4 a33d
00000080: d219 7f3d 9c0d aa3d bce4 aa3d 8ec5 91bd
00000090: fd63 b4bd 2f77 e53d ffe1 1f3d ef09 4a3d
000000a0: c5e7 c6bd 0d32 06bd bc5d 063e 7195 bbbc
000000b0: 49e1 a83d 7b9b 723d d1e2 a3bd 6d77 1cbe
000000c0: 3649 883c 737c a33d fba0 a7bd ec93 133d
000000d0: f285 803d 0b08 a7bd debb a3ba 8207 723c
000000e0: ce2f 5cbc d0d0 cabd dbfa 0ebe 8639 203d
000000f0: 1933 9cbd 4f8c 1a3d 84c3 cdbd bf58 0c3d
00000100: 3f7f 573c 2e14 37bd 6d0c 903a 91c3 993c
00000110: fbe4 ce3d ccad cabd 72a8 94bd e95f adbd
00000120: d23c c0bd acd8 d2bd 721d efbd 99d0 38bd
00000130: 0e4b 9e3c 368f b33d 2f70 2e3d 6b50 913d
00000140: aca0 953c caea dc3d 5a2d c7bc 369c 593d
00000150: 4d6f 333c 6bd2 463d c599 0e3e 1e66 e23d
00000160: 734f 59bd 8d8d ac3d daa1 a03d 4f5f 523d
00000170: 0183 bf3d 5839 c5bd d7d8 3f3d eaff 063e
00000180: cfee 7cbd 89ba b7bd 37c3 bdbc 51f3 403d
00000190: f539 d9bd 285a 963d dfc8 88bd 4547 db3c
000001a0: 6e95 c9bc e69c a9bc 3e52 373d 916e 523d
000001b0: c0ce f6bd e13e 5a3d 8bf3 7f3d eb35 b83d
000001c0: c4a0 2b3b d534 0ebd 6769 d23d 60a2 b3bd
000001d0: 0c23 f13d ea93 8abd 9331 c8bd a2a0 b13d
000001e0: 967d 9dbd fcec aa3d 712a ae3d c647 08be
000001f0: ed4d 983d 8c1d 243d 0f26 8e3d 1af8 2b3d
00000200: 48ab 71bd 4126 833d 651c d73c 0cd1 ddbd
00000210: 4a8f 1bbb 484a 71bd e63a 8cbd f9af d43b
00000220: 0e55 a6bd 7a7d 89bc 6ed8 f9bb f608 f4bd
00000230: 8b38 c7bb 5ff7 fbbd 3f01 9ebd a881 80bd
00000240: bf5a d6bd 9fa9 c9bd bcb4 fb3d 6b43 adbc
00000250: 8493 ddbc 6e5d ec3d 8427 e33b 10fe 353b
00000260: df58 e73d be53 b83d 5340 793d b2a5 52bd
00000270: 0b39 1abe b7ad c3bb 9a86 1abe 0748 79bc
00000280: fcc8 b63d 6f81 e2bc c579 90bc 7cb1 a5bd
00000290: d46b 18be 653b 683d e767 813d 3ca0 91bc
000002a0: 3a60 d53d 1b35 75bd 6646 b53d ac09 153d
000002b0: 554d 783c 5188 9d3c 9413 b73d 80a3 a7bd
000002c0: 8c14 853b e0ab b13c 2590 1e3e 3b36 873d
000002d0: 796e 5c3d 195c 9abd b66a 05bd e946 ca3c
000002e0: e594 603d d25b a0bb fc17 4dbc 5f5b 21be
000002f0: 10d5 59bc 7eee 63ba bd99 44bd c5fc 7dbc
00000300: d8f5 013e 3bb0 bb3d 39db 3a3c c5d3 45bc
00000310: 6f5a 063e 0a41 f73b 3dcf d43d 20d2 02bd
00000320: 6176 bbbd c210 de3c aa75 49bd 3414 c8bc
00000330: 17fa aebd 6575 68bd 07e4 56bd 49f3 acbd
00000340: 589d 23be eac5 c43d 06e1 bd3b 3b97 323c
00000350: 2032 533d 232a 743c 98fd c5bd 502f 82bd
00000360: 183a ddbd 854e d3bd 0f81 cdbd 8274 e53c
00000370: a56a 7f3d 7ce8 aabc 81af 11be cffe b53d
00000380: d67b 84bd 7658 9dbc be58 00be 0353 03bd
00000390: 17b1 eebd d159 c53d 8733 bdbd 9931 023d
000003a0: 35df 7ebd 1b6a 163e 874e 06bd c9b5 673d
000003b0: 8ad3 6fbd 9a65 f6bd 7ab4 d1bd 7071 d4bd
000003c0: adaa 53bd 53ac 933d 64eb 293d 9863 25bb
000003d0: 0e26 5bbc ec4b 82bd cf74 b73d ab6b 57bd
000003e0: b67f a7bd b215 b5bb 39b3 0abe 09d4 06be
000003f0: a245 61bd e135 a8bd dd06 b63d 4777 9cbb
-0.017423587 -0.071171254 0.0129234865 -0.07973404 -0.020717142 0.07478971 -0.0599214 0.026750768
-0.050511573 -0.021153687 0.094898924 -0.120461755 0.015825637 -0.084287375 -0.12345375 -0.076024964
0.06440017 0.033239566 0.12252115 0.0022083002 -0.1441581 -0.03947001 0.0765366 -0.09975858
-0.07836869 0.08982639 0.08253767 0.0166125 0.14321695 -0.07392864 0.08084275 0.07999521
0.062280484 0.08303377 0.08344409 -0.07117759 -0.08808134 0.11204373 0.039033886 0.04932588
-0.09712175 -0.032762576 0.13121694 -0.022898408 0.08246095 0.05923031 -0.08002246 -0.15279932
0.016636472 0.07982721 -0.081850015 0.03602974 0.06275548 -0.08155831 -0.0012491902 0.014772298
-0.013439132 -0.09903109 -0.13962881 0.03911736 -0.076269336 0.037731465 -0.10047057 0.034264322
0.013152896 -0.04469698 0.0010990031 0.018770011 0.10102268 -0.098964304 -0.07258691 -0.08465559
-0.093866006 -0.10295233 -0.11675538 -0.04512081 0.019322898 0.0876755 0.042587455 0.07095417
0.01826509 0.1078697 -0.024313617 0.05312749 0.010951829 0.048540514 0.13925846 0.110546336
-0.053054284 0.08425436 0.07843371 0.051360425 0.09351159 -0.09630078 0.046837654 0.13183561
-0.061751183 -0.08971126 -0.023164375 0.047107045 -0.106067576 0.07341415 -0.06678938 0.026767382
-0.024607386 -0.020704698 0.044756167 0.051374976 -0.12051153 0.053282622 0.06248812 0.08994659
0.0026188353 -0.034718353 0.1027401 -0.08771205 0.11774263 -0.067664936 -0.097750805 0.086732164
-0.07689969 0.083459824 0.08504189 -0.1330863 0.07436738 0.04006724 0.06940853 0.041984655
-0.059001237 0.06403781 0.026258657 -0.10830888 -0.002373653 -0.05890873 -0.068471715 0.006490704
-0.08121692 -0.016783465 -0.0076246774 -0.11915772 -0.0060797385 -0.12303042 -0.077150814 -0.0627473
-0.10466527 -0.09846806 0.12290332 -0.021150311 -0.02704788 0.11541258 0.006932201 0.0027769841
0.11296248 0.090003476 0.06085236 -0.05142755 -0.15060823 -0.005971636 -0.15090409 -0.015214927
0.089250535 -0.02764961 -0.01763619 -0.08090493 -0.14884883 0.056697268 0.06318646 -0.017776601
0.104187444 -0.0598651 0.08851318 0.036386177 0.015155156 0.01923004 0.08939281 -0.08185482
0.0040612873 0.021688402 0.15484674 0.066021405 0.053816292 -0.075370975 -0.03257247 0.024692016
0.054829497 -0.0048937583 -0.012517925 -0.15757512 -0.013295427 -0.0008694901 -0.04799818 -0.0155021595
0.12691438 0.09164473 0.011404806 -0.012074416 0.13120435 0.007545595 0.1039109 -0.031938672
-0.09153438 0.0271076 -0.04918448 -0.024423696 -0.085437946 -0.05675258 -0.052463558 -0.084448405
-0.1597799 0.096080616 0.005794647 0.010900314 0.051561475 0.014902624 -0.0966751 -0.063566804
-0.10802096 -0.10317711 -0.100343816 0.028009657 0.062357564 -0.02086281 -0.14227106 0.088864915
-0.06468932 -0.01920722 -0.12533852 -0.032061588 -0.11654871 0.09636272 -0.09238344 0.03178558
-0.062224586 0.14688914 -0.032789733 0.05656985 -0.05855135 -0.12031098 -0.10239501 -0.10373199
-0.05167644 0.072106026 0.04148425 -0.0025236364 -0.013375772 -0.06362137 0.08957826 -0.052592915
-0.08178656 -0.005526268 -0.1354493 -0.13166822 -0.054998048 -0.082134016 0.08888028 -0.004774961

transformer_encoder.layers.0.self_attn.in_proj_bias f4 [384]
00000000: 0c3a 10bb d125 31bc 7668 ef3c 5058 a93c
00000010: 2889 f13c fe02 f83a b022 b43c 1d25 27bd
00000020: 121f 21bc e766 be3b 6c6b bfbb 7b62 d13c
00000030: c0ea 073c ac83 52bd df67 b53c 3e14 02bd
00000040: aed3 9cbb 482b a3bc 45b9 123b 64ba 01bd
00000050: 7f87 27bd 3c90 633b da0f 4ebb c74f 223d
00000060: 4d20 8c3d a533 41bd b1ca dc3d 553e 103b
00000070: 6c71 e13a 131c cf3c 88a0 9bbc 0b3e 3ebc
00000080: a427 1c3a 7158 19bd c94d 923c f79b ae3c
00000090: f7f8 4cbb ac1a cbbc 9176 d4ba f173 0fbd
000000a0: a34d 9abc 5b63 3cbd 090b c93c 60b3 0c3c
000000b0: e7b9 0bbc a889 db3c a89e 83bd 1f6b eebc
000000c0: 23a6 89bc 5cb1 24bd f6bd 873c f6f9 8c3c
000000d0: dea9 833d a0b1 683c 7640 ba3a 0e42 13bd
000000e0: c909 edbc 462c 04bd c536 e93c 3d4b 98bb
000000f0: d6a1 443a 5f9e 1a3c 4a9c 513c c19c 50bd
00000100: 879b 59bd 7208 7cbc 1f9e 4dbc e73b ce3c
00000110: d5b2 013d 6253 23bd ffdc e8bc 7b7f 4fbc
00000120: c4ba b0bc 6115 4a3d 2c97 80bc 2261 b2bc
00000130: 591d 063d 8931 be3b 9d0a fb3c 718f 9e3c
00000140: 4178 4ebd b02b ee3c 1c76 203c 32cd 2fbc
00000150: 9037 57bc 70d9 16bc cc64 663c ffe8 0abc
00000160: a3e2 debb c726 d43b e321 de3c ed30 71bc
00000170: 5b47 f83b 8c68 453c 8270 64bd 8cda af3c
00000180: cfe8 40bd 8f63 53bc 1a26 923a a8a4 3cbd
00000190: f468 203b a69c 7cbc 3696 c93b dc80 b8bc
000001a0: eea4 14bc 7f4b 81bc 3414 233c 6711 23bd
000001b0: 1011 9bbc ab5b f1bc ad0b 5f3d 7d15 163a
000001c0: 44d4 dbbb 14d6 1f3c f261 c039 c0c2 8bbb
000001d0: 61fa d1bc 7771 b73c 1a5c 4ebc 4d70 0b3d
000001e0: 266b 543b 9f9a 8abc fee3 53bc 755b c83c
000001f0: 1adf 80bd 3433 10bd 8b39 a23c a3da 313c
00000200: fd6e d938 81ce 6eb9 b8d2 5cb9 ca85 5539
00000210: 2c4d 02b9 d0ca 4ab9 d68a 3db9 c7a3 cd38
00000220: 2b55 a7b9 7118 29ba 8f05 8539 62c1 f2b8
00000230: 7992 82b9 2a90 38b8 8596 0c3a ea11 0fb9
00000240: ea0f d8ba d89a 4c3a aefd 04ba c29e 8eb8
00000250: 894f dc39 b73d f63a 4e01 82ba 0d77 153b
00000260: 701c 333a 0bba 25ba 509a 6839 9487 cb38
00000270: 63f1 a8ba 1d22 b438 829b 9a3a e3cb f33a
00000280: 5a85 48ba 83d2 80ba 772a 6a39 88b6 813a
00000290: 2811 7bb9 104d 2f39 12f7 ce37 96f2 16b8
000002a0: e693 2cb8 9914 6438 b1ef e7b9 69c3 2e3a
000002b0: 3a46 4ab9 db62 3eba d182 c13a 03b2 343a
000002c0: 62ea 13ba 43ce 08ba 2ce9 a43a 5860 c539
000002d0: c3a0 0fb8 8563 91b9 d445 b5b9 6c3b 5039
000002e0: 35ee 203a 8a4d 9f39 39c7 8cb9 6469 d639
000002f0: 6cab 9fba 054e ac38 3aea 4c3a ebb3 04ba
00000300: a9a1 7b39 d5c3 9b38 aadc a338 f66f 4039
00000310: 8d3a 153a f8ad 5fb8 c058 e6b7 2768 33b9
00000320: 9b15 ebb8 ed5e 8a38 8ae8 0038 dfe4 b538
00000330: db85 86ba 06cd 9438 1b83 f9b9 8e7d 153a
00000340: 7d39 bdb8 d783 1bba 43b0 183a 987f 1bba
00000350: 0627 7d39 0fc8 92b9 3c13 e339 18e4 1cb9
00000360: 1b11 133a e7b8 28ba db74 69ba 88fe a7b8
00000370: 73d5 dbb9 e907 3fb8 2969 61ba d65e 8d39
00000380: bd7e 21ba a32f f338 a67e a3b8 101b c139
00000390: 72bf b239 c3e5 8fb8 315d 98b8 97a4 71b9
000003a0: c2e2 cf3a b05b 64b9 84db 3aba 80bf 6bb4
000003b0: 7538 a538 fcbe b9b8 e6a7 b5b9 2bab 90b8
000003c0: 8bbd 583b 73ca 57bb 941b 6d3b 5962 06bb
000003d0: 52b6 50b9 7bf6 2a39 bec7 9039 b69e a235
000003e0: 8aca e2b8 f725 9d36 4287 8d35 a01f a538
000003f0: 1d93 c339 272e cc39 2989 f2b9 c976 b838
-0.0022007255 -0.010812239 0.029224616 0.020671993 0.029484347 0.001892179 0.021989197 -0.04080688
-0.009834068 0.0058106068 -0.005841663 0.025559654 0.008295715 -0.051395103 0.022144256 -0.031757586
-0.0047859764 -0.019918099 0.0022388261 -0.031671897 -0.040900704 0.0034723422 -0.0031442554 0.039626863
0.068420984 -0.047168393 0.10780848 0.002200981 0.001719994 0.025281942 -0.018997446 -0.011611472
0.00059568346 -0.03743786 0.017859356 0.021314604 -0.0031276324 -0.024792992 -0.0016209652 -0.03502268
-0.018835848 -0.04599319 0.024541395 0.008587688 -0.008528209 0.026799038 -0.06426746 -0.029103814
-0.016802853 -0.040208206 0.016570073 0.017209034 0.06428884 0.014202505 0.0014209885 -0.035951667
-0.02893533 -0.032268785 0.028468499 -0.004647641 0.0007500922 0.009437173 0.01279361 -0.050930742
-0.053126838 -0.015382873 -0.012549906 0.025175048 0.03166469 -0.039874442 -0.028425692 -0.012664671
-0.021573432 0.049336795 -0.015697084 -0.021774832 0.03274283 0.005804245 0.03064471 0.019355508
-0.05040765 0.029073566 0.0097937845 -0.010730075 -0.013135806 -0.009207115 0.014062118 -0.008478402
-0.0068019195 0.006474349 0.027115768 -0.0147211375 0.0075768656 0.012048852 -0.05577136 0.021466516
-0.047097024 -0.012902155 0.0011150271 -0.046055466 0.002447662 -0.015418207 0.0061519397 -0.022522382
-0.009072525 -0.01578307 0.009953547 -0.039811518 -0.018929034 -0.029462656 0.054454494 0.0005725248
-0.0067086536 0.00975563 0.0003669407 -0.0042651594 -0.025632085 0.022392971 -0.012595201 0.034042645
0.0032412498 -0.016919432 -0.012932776 0.024457673 -0.06292553 -0.03520508 0.01980283 0.01085535
0.000103680395 -0.00022774377 -0.00021059334 0.00020363103 -0.00012426515 -0.00019339775 -0.00018076165 9.805668e-05
-0.00031916177 -0.00064504804 0.00025371878 -0.000115754796 -0.00024904663 -4.400328e-05 0.00053630053 -0.00013644216
-0.0016484235 0.0007805056 -0.00050732016 -6.8006586e-05 0.00042020928 0.0018786703 -0.0009918602 0.0022806555
0.00068325456 -0.0006321973 0.0002218273 9.705048e-05 -0.0012889322 8.589423e-05 0.0011795613 0.0018600192
-0.00076492655 -0.0009828362 0.00022331798 0.0009896317 -0.00023943617 0.00016718009 2.4672165e-05 -3.5988713e-05
-4.1145737e-05 5.437862e-05 -0.00044238337 0.00066666916 -0.00019290383 -0.00072626554 0.0014763718 0.0006892981
-0.0005642531 -0.00052187237 0.0012581698 0.0003764655 -3.4243578e-05 -0.00027730703 -0.00034575036 0.00019858562
0.0006139011 0.00030384614 -0.00026851313 0.00040895783 -0.0012181825 8.2161314e-05 0.0007816885 -0.000506221
0.00023997448 7.4274525e-05 7.8135476e-05 0.00018352256 0.00056926237 -5.3329364e-05 -2.7459464e-05 -0.0001710957
-0.000112096975 6.598034e-05 3.0734147e-05 8.673383e-05 -0.0010263281 7.0953785e-05 -0.00047590662 0.0005702608
-9.02293e-05 -0.00059324264 0.0005824605 -0.0005931794 0.00024142498 -0.00027996345 0.00043311145 -0.00014962291
0.0005610154 -0.0006436244 -0.00089056575 -8.010591e-05 -0.00041929967 -4.5545316e-05 -0.0008598739 0.00026964274
-0.0006160548 0.00011596016 -7.796036e-05 0.00036831992 0.00034093444 -6.861568e-05 -7.265283e-05 -0.00023044866
0.0015860426 -0.0002177793 -0.00071280473 -2.1955748e-07 7.878329e-05 -8.857061e-05 -0.00034648104 -6.8983376e-05
0.003307196 -0.0032927066 0.0036179768 -0.0020505397 -0.00019904345 0.00016304285 0.0002761464 1.2116132e-06
-0.000108142456 4.6833843e-06 1.0544684e-06 7.873704e-05 0.00037302906 0.00038944298 -0.0004626003 8.795929e-05

transformer_encoder.layers.0.self_attn.out_proj.weight f4 [128, 128]
00000000: ff06 6abd a369 9fbc 6424 043e 78e8 36bd
00000010: d4c7 413d 6af1 cabc f302 ec3c 9186 f6bd
00000020: b269 e03c 5d96 043d 71f1 02bc 9688 c73c
00000030: ef9d 40bd 844a 033c f30e 683d 3fb4 dd3c
00000040: 9595 9ebd 979e 763d 33ed 483d d8b0 c33c
00000050: 66c1 983d b4cd 3d3d aa6f 8a3d 2c85 e03c
00000060: 8e83 8fbc c731 c5bd d580 243d 7646 1cbc
00000070: 0394 ae3c 6cc6 863d 9dee 513d 387a 90bd
00000080: e212 e0bc cf92 16bd 9959 bf3d 1a04 cebd
00000090: 80c3 0d3d 7e4e a8bd 3b7b 9e3d a0d5 3e3c
000000a0: f507 6bbd 05c1 eb3d 6962 223d 6925 55bd
000000b0: b0ab 6ebd 8668 123d 3e52 00bd fa4d afbd
000000c0: 5b47 0a3d d03c a9bd 01f2 05bd ce33 933b
000000d0: 42e6 663d 29c2 e8bc 7809 76bd 0958 6abc
000000e0: 9e5a 5dbb 1392 733d a559 013d 081d 7bbb
000000f0: 1912 063e f1ad 97bd bc65 ddbc 28fd 8ebd
00000100: e8ad 323d d06f 013c 6a13 8cbd 79ea 263d
00000110: fbe8 5ebd 263c 5d3d c1ee 843d 1839 c8bd
00000120: 833a 83bc aeab 5f3d fedc a13d 4b68 e5bc
00000130: 6d0a c5bc 6551 a8bd 98d2 993d 3885 b13d
00000140: e464 cabc 6f74 1ebd 319e 07bc 9a5f 17bd
00000150: 29d0 ad3d d3ec 0e3e 9a57 ab3d 5822 883c
00000160: a39c 0bbe 86fa 0a3d 2e31 ea3c 6029 c8bc
00000170: f7e1 82bd ceaf e33c db7c 593d 18b6 8f3d
00000180: 3077 d13d fd9b 04bd 69af a93c 3ead 783d
00000190: df76 923d cd28 b93d e05b 933c c031 acbb
000001a0: 730f a2bd 5062 c43c e11a a23c 4749 a3bb
000001b0: cdf1 8b3c db46 6aba 0857 b0bd 1075 42bc
000001c0: 5017 95bd c49f 2b3e 2bff 22bd 78e9 063e
000001d0: 97e6 873d b8b4 bc3d 3922 193c 1542 15bc
000001e0: b5b1 cdbd b138 623d 6805 843d 2ea5 86bd
000001f0: d6fc 3b3d ab38 fabc ae9d 9c3d e56f 0e3c
00000200: 9fca 323d dde4 f7b9 d6cd 363d e04c 8e3d
00000210: 3c1f cfbd 0a64 9e3d 5f54 f13c 7c6b 073d
00000220: 96fa 093b 2871 4abc 3da4 acbd 9dbb 89bd
00000230: c76b 4ebc 2afe 753d e9bb 1a3e d55f 403d
00000240: 152f 6ebd 7f3a 38bc 33a2 893c 8f9a aa3c
00000250: eb6a 723c 75d8 5abd 93ae ae3c fa1e 9e3d
00000260: b988 50bc 1ccf c5bc 2c4c ffbd 66a2 02bd
00000270: ba28 003e 3936 d53d 90c3 fbbc 14ad 453c
00000280: 663f bf3d fd82 393d f1e9 013d c381 78bb
00000290: 7057 d53c eced 043d 3c13 abbd 56d7 5bbd
000002a0: deec a8bd 14dd 173d a258 b0bd 3b8d 0abd
000002b0: 17a5 cabd cf77 7c3d 5b65 01be 0d70 06bd
000002c0: defe dd3d e905 7bbd 0244 c1bd b274 5cbd
000002d0: 40ba ba3d b1e5 e13d 3f10 d7bc 2bf5 f23d
000002e0: aa26 e43c fbaf 83bd 2aec 0039 0503 12bd
000002f0: c5a4 8ebb 26b1 24bd e7a0 abbd 9da3 28bd
00000300: 77c7 9d3c 7c7e 863b 77e6 37bd 6a3a 3d3d
00000310: 1bed ad3b 8a49 37bc c32b 023c cd95 27be
00000320: 097b 4cbc 4d0a b8bc 6fe9 e3bb 013a 0cbd
00000330: 284e eabc d39b 1e3d 2036 68bc 69c9 cb3c
00000340: e312 a2bd d8d1 a33d efe4 f53a e6b3 a73d
00000350: 5506 0abd cd26 d53d 1806 8e3d ce9a 44bb
00000360: 6177 3b3d 9706 b03c 5461 dc3c f984 1a3d
00000370: 95ba 17bd 6ad5 963d 9bc4 d8bd e4bc d4bd
00000380: 2453 eb3d a1cd c3bd b6ed 3fbd 420f 1a3d
00000390: a6c7 1b3d a4af da3c 7d34 83bd 20e3 613d
000003a0: 62ee 05bb 8937 6f3d 13a2 ccbd bdb1 fb3d
000003b0: ecbf 05bd 1fb2 52bb f1ef 9cbd 712f 74bb
000003c0: f7e2 8c3d 7906 003e 7e9f e0bd a0ea a1ba
000003d0: 0397 40bd 1637 e6bc dc45 14bd 3cbb d5bc
000003e0: 96c8 2abd f919 2b3c 4a61 81bd a18a 203b
000003f0: f420 6e3a 8cb5 813d 9006 f63d 525d a7bd
-0.05713558 -0.019459551 0.12904507 -0.044655293 0.04730971 -0.024773318 0.02881 -0.12037385
0.02739415 0.03236996 -0.007992134 0.024357121 -0.047025617 0.008013371 0.05665488 0.027063487
-0.07743374 0.060209837 0.049054336 0.023888037 0.07458763 0.046338752 0.067595795 0.027407251
-0.017518785 -0.09628635 0.040161926 -0.009538284 0.021310812 0.06580815 0.05125295 -0.070545614
-0.027352754 -0.0367611 0.09343261 -0.10059376 0.03461027 -0.08218096 0.07738348 0.011647612
-0.057380635 0.11511425 0.039644632 -0.05203763 -0.058269203 0.035744213 -0.031328432 -0.08559795
0.033759456 -0.08263552 -0.032701496 0.0044922596 0.056371935 -0.028412895 -0.060067624 -0.014303216
-0.0033775936 0.05946548 0.031579632 -0.0038316865 0.13092841 -0.074062236 -0.02702605 -0.069818795
0.04362288 0.007900193 -0.068396404 0.040750954 -0.054421406 0.05401244 0.06490851 -0.09776515
-0.016019111 0.054607086 0.07903479 -0.028003832 -0.024052823 -0.0821865 0.07510871 0.086679876
-0.024706312 -0.03868526 -0.008277462 -0.036956407 0.08486969 0.13957529 0.08366318 0.016617939
-0.13633971 0.033930324 0.028587904 -0.024433792 -0.063907556 0.027793791 0.053097587 0.070171535
0.10227811 -0.032375325 0.020713525 0.06071209 0.07151579 0.09040985 0.017988145 -0.005254954
-0.07913103 0.02397266 0.019788207 -0.0049831006 0.017083073 -0.000893695 -0.0861035 -0.01186873
-0.07279837 0.16760164 -0.03979413 0.13174999 0.066357784 0.09214157 0.009346538 -0.009109993
-0.100436606 0.055229846 0.06446344 -0.06574474 0.04589542 -0.0305446 0.076472625 0.00869367
0.043650266 -0.00047282028 0.044629894 0.069482565 -0.10113379 0.07733925 0.029459177 0.03306149
0.0021053902 -0.01235608 -0.084297635 -0.067252375 -0.012598938 0.060056843 0.15110745 0.046966393
-0.05815037 -0.011244415 0.016800975 0.020825652 0.014795999 -0.053429086 0.021323478 0.07720752
-0.01272791 -0.024146609 -0.124657005 -0.031893156 0.12515536 0.10410733 -0.0307329 0.012065191
0.09338264 0.045290936 0.031717245 -0.003791914 0.02604267 0.032453462 -0.08353278 -0.053672157
-0.08248304 0.03707607 -0.08610655 -0.033826094 -0.0989477 0.061637696 -0.1263632 -0.032821704
0.10839628 -0.061284933 -0.094367996 -0.053822227 0.091175556 0.11030138 -0.026252864 0.11863168
0.027850468 -0.0643005 0.00012295009 -0.03564741 -0.004353138 -0.040208004 -0.08380299 -0.04117166
0.019260151 0.0041044336 -0.044897523 0.046198286 0.005307806 -0.011186967 0.007945004 -0.16365738
-0.012480506 -0.02246585 -0.0069553177 -0.034235004 -0.02860172 0.038722824 -0.014173061 0.024876313
-0.079137586 0.07999009 0.0018760244 0.0818861 -0.033697445 0.10407791 0.06934756 -0.0029999497
0.045768145 0.021487517 0.026901878 0.03772447 -0.037043173 0.07364924 -0.105843745 -0.103875905
0.11490467 -0.09560705 -0.04685756 0.037612207 0.038032196 0.02669508 -0.06406496 0.055148244
-0.0020436277 0.05840257 -0.09991851 0.1228976 -0.032653734 -0.0032149625 -0.07662953 -0.0037259723
0.068792276 0.12502469 -0.10967921 -0.0012353249 -0.047019016 -0.028102439 -0.036199436 -0.026090257
-0.0416952 0.010443204 -0.063173845 0.0024496692 0.000908389 0.063334554 0.120129704 -0.08172096

transformer_encoder.layers.0.self_attn.out_proj.bias f4 [128]
00000000: 8684 58bc 83bd 8abb 78c2 163b 9798 8fbc
00000010: d929 07bc c83a a9b8 2855 1f3c e6ea 4e3b
00000020: 6fa9 48ba fbcd e23c c111 52bc f024 3bbb
00000030: 51c0 9dbc b805 36bc 00b3 133b 0658 b5bb
00000040: ab9a 7ebb 8201 d9ba 7984 2eb9 5dc7 28bc
00000050: 2521 04bb 04fd 0bbb f89b ab3b 8915 9f3a
00000060: 59a6 db3c 4004 0fbc ca2d 0abc 774a 7439
00000070: 4930 2b3c 3c28 953c d164 953b a6e9 613c
00000080: b945 02bc 5473 2b3c 5a6f 42bc bf5a 123c
00000090: 0681 cfb9 baca fc3b 3d7d 5ebc f3f2 923b
000000a0: 5261 a1bc c713 3cbb 2d68 4fbc 0c23 813b
000000b0: 1b62 c53b e65e 093b 83ec 183c 5f62 293c
000000c0: d266 85bb 5bdb 11bc 0def 343a 4255 f9ba
000000d0: 5ccd 7b3a 89c8 bf3c ba72 7cbc 4744 1c3c
000000e0: f13a 8b3b d046 fbba ea4f 09bc d518 363c
000000f0: ddbd b9bb dce7 403c 2836 5bbc 7db1 133c
00000100: 9533 63bc 54f5 baba a61c 27bc bfac 04bc
00000110: 21d1 b5bb 20d9 8bbb 962b a33c 0769 513c
00000120: 6656 06bc fe75 6b3a 390c 2d3a d6a3 973b
00000130: bb76 553b 770f 53bc 6a44 b73a dd9f 38bc
00000140: 99e0 c6ba ba2b a93b 4fba 163c ffdd d13c
00000150: 5f34 23bb 4878 b53b d204 3cbb 656c babc
00000160: 98cd 0d3b 4091 dbbc e9dd 84bc 419e 593c
00000170: 4d76 4b3b 0497 64bb 41d1 29bc ffd7 c23c
00000180: 4554 933a 520a 89b9 4ea6 44bc 8923 bcbb
00000190: 4140 e1bb 77c6 44bd e61d b33c 3984 0fbc
000001a0: a12a 143a ec92 b43c 3e65 edba 1495 74bb
000001b0: b43b d93a 8181 1939 1321 92bb 26cb ad3a
000001c0: 73cf 373c 9324 9fbc 8ad8 313b 4066 abbb
000001d0: b58a d3bb 0b26 b9ba 26bb 423b 7567 50bc
000001e0: b3cc 8c3b cb75 493c 76ca 1abc d8a0 b33b
000001f0: f798 fb3b a4a2 653b 0080 16bc 5b8b 873c
-0.01321519 -0.0042340173 0.0023004096 -0.017528815 -0.008249723 -8.069497e-05 0.009724893 0.0031573116
-0.0007654642 0.02768611 -0.012821616 -0.0028555952 -0.019256743 -0.011109762 0.0022537112 -0.005534175
-0.0038849514 -0.0016556235 -0.00016643283 -0.010301438 -0.0020161357 -0.0021360526 0.005237099 0.0012137155
0.02681272 -0.008729041 -0.0084337685 0.00023297394 0.010448524 0.018207662 0.0045591374 0.013788616
-0.0079511935 0.010464508 -0.011867369 0.008932768 -0.00039578247 0.0077145966 -0.013579664 0.004484528
-0.019699726 -0.0028698312 -0.012659115 0.0039409455 0.006023658 0.0020961105 0.009333733 0.010338395
-0.004071095 -0.008902396 0.00069020764 -0.0019022601 0.0009605491 0.023411052 -0.015408212 0.009537763
0.0042489697 -0.0019170884 -0.008380869 0.011114319 -0.0056683854 0.01177403 -0.013379611 0.0090144845
-0.013867279 -0.0014263787 -0.010199701 -0.0080978265 -0.0055486117 -0.0042678267 0.019918244 0.012781388
-0.00819931 0.0008982121 0.00066012476 0.004627685 0.003257199 -0.012882105 0.0013982181 -0.011268583
-0.0015173136 0.0051626833 0.009199693 0.025618551 -0.0024903042 0.0055380203 -0.0028689397 -0.022756765
0.0021637436 -0.026802659 -0.016219096 0.01328236 0.0031045855 -0.0034880051 -0.010364831 0.023784636
0.0011240324 -0.00026138366 -0.012002541 -0.005741541 -0.0068741147 -0.048040833 0.021864843 -0.008759552
0.0005652104 0.022042714 -0.0018111838 -0.0037320303 0.0016573579 0.00014639461 -0.004459509 0.0013259395
0.011218893 -0.01942662 0.0027137124 -0.005230695 -0.006455744 -0.0014125718 0.00297136 -0.012719979
0.004296863 0.01229615 -0.0094476845 0.0054818206 0.007678147 0.0035039568 -0.009185791 0.016545942

transformer_encoder.layers.0.linear1.weight f4 [2, 128]
00000000: 5e54 8b3d 94a4 6e3c 30b4 bd3c ce80 1f3d
00000010: 3ff4 893d 7a9f 9f3b d4f8 3ebd 7a1b 5abd
00000020: a319 efbd 3d06 d8bd 7e44 69bc 11b5 4dbd
00000030: 5cbc 883d a36f 6b3d 0386 803d 018b f43c
00000040: a5d6 cf3c c816 81bd 48a7 b8bd f362 54bd
00000050: 3f33 b93d 36c7 c1bb 8e9b 16bb 8743 67bd
00000060: f35a 8dbd 7f1d acbc 2e64 2b3d f14e 393d
00000070: 7684 cbbd c51e ce3c bcf5 8abd f420 41bd
00000080: 711a d73c f543 24bc 4a6e 933d 486c 62bd
00000090: b766 ba3d 3ede dc3c cd4e ff3c 95b4 bfbd
000000a0: e791 893c 31b0 3b3d 89cf d3bb eeaf e13d
000000b0: f832 0c3e 2dc4 5abd 25f5 8e3d 17e7 3abd
000000c0: 3b9b 82bd cd6c 903c a150 5d3d 1960 753d
000000d0: 67d2 ddbc 3143 1cbd 09b9 aebd cd3e 52bd
000000e0: 167c 32bd 7398 d43c 14ac 6d3d 4e0e 3dbd
000000f0: 2988 92bd cc36 d7bd f06a 283d d153 883c
00000100: 2f83 973d 34ce efbb 0bf7 30bd 9595 4a3c
00000110: 6d3f 273d 9771 82bc 5a01 0ebc b1de ac3c
00000120: 497d b3bd 192e 883d 638e ca3c a48a debb
00000130: 0f8d c9bc 8a55 7b3d 679f a2bd aeb3 27bd
00000140: 038c 833d 2827 ff3c b961 98bd f012 713d
00000150: d105 b63d 0cdf 1bbd edd7 9d3c cd88 153d
00000160: 5f08 713d 63cc 573d 49d8 b83c 5838 80bd
00000170: 67ef 6f3d 69a9 3f3d d3ae e53d 45a5 3f3d
00000180: 33ad 4d3d 417e 80bc 0074 1bbd 36dc 823c
00000190: 8883 babd c80e e43d c363 50bd 1bff 663d
000001a0: c55a 33bc 6165 c43c f7b0 613d ffba 2dbd
000001b0: 3320 2bbd a9bc 91bd 8c50 cf3d 3178 efbc
000001c0: e613 df3a ec9c 103c a07f e0bd 8dcf 053d
000001d0: 5d8c dabc ddd1 503d 6aba 923b f103 9d3d
000001e0: a904 9c3b 4f00 b03d 6fbf a9bc a5d9 be3c
000001f0: bdc2 313c 88d9 ae3d 5b95 733d ca04 aa3c
00000200: 699a 153c 53e1 5ebc 1cb5 acbc 89a1 82bd
00000210: 5091 443d 76e1 58bd 65e4 8e3d 7bd0 853d
00000220: 849b 72bd f333 903d e7af f23c ee40 173d
00000230: 7814 99bb ceb0 7cbc c925 7d3d 7866 7e3c
00000240: d731 003d 0fd2 8c3d b8c4 3d3c 7010 83bd
00000250: fbe7 6f3d 89f5 533d 3c19 ed3c db33 89bd
00000260: 81c0 3abc a653 8d3d 0112 bebd 0b6f 58bd
00000270: 1a8d 56bd ed69 6ebd 0c18 0a3d 6dfb 82bb
00000280: abc2 c0bd 5c99 2f3d ba8f 6a3d c93d febc
00000290: c997 843d 6007 a1bd a4c8 37bd cf4f 4bbd
000002a0: 78e9 083c 8e2e f1ba 3efa 77bd cbe4 10bc
000002b0: 94fa 353d 85bc 5bbc cc9f c53d 2c90 dd3c
000002c0: abf4 4cbd 5814 bebd 59ae 70bd 2b5a a6bd
000002d0: 54ee e6bd effc 83bd 0fce 9c3d d975 8d3d
000002e0: bd11 c73d 31d9 83bc c495 77bd 5edf ed3c
000002f0: 18fc 033d 5a68 833c 252f 3c3d 5c62 533c
00000300: 7387 f53d ae61 4bbd 4410 12bb a38d 443d
00000310: 1370 2dbd dc87 1f3d c639 65bd 8ced ebbc
00000320: d5f2 5c3d fb05 d3bd c203 3cbd a4c4 ef3c
00000330: f6c5 4d3c ee68 b3bd 780c 64bd 3922 35bd
00000340: af13 2cbd ad10 87bd 65ca b83c 6b70 05bd
00000350: e81f cebc 7724 e3bd 4516 d73d 8c0d df3b
00000360: 26f1 37bd 8d53 a53c 4e67 9d3d a28c b1bd
00000370: c79f 28bd 51da 573d f6e6 a5bc c270 523d
00000380: bcda a53c e06c 5ebd 6800 1dbc 927e 393d
00000390: f909 b8bc 43f9 89bd e8e0 6ebd d813 34bd
000003a0: 0071 bfbd 87b4 2ebc 5274 20bc b6de 97bd
000003b0: c8ad d73d 6f25 cebb 7af8 bf3c d02c ae3c
000003c0: 030c 1ebd a21b 37bc 5c08 323d 1b88 a73d
000003d0: 6adf abbc dfba 663d ad0a dbbb eebd 82bd
000003e0: 7b06 a43c ae11 783d 622b 0dbc e263 aabc
000003f0: 5a43 c43d b560 d63c 7880 df3c a9f9 ca3c
0.06803201 0.014565606 0.02315721 0.038941197 0.06736039 0.004871306 -0.04662402 -0.05324886
-0.11674812 -0.10548065 -0.014237521 -0.050221507 0.06676552 0.057479512 0.06275561 0.029851438
0.025370905 -0.06303173 -0.09016281 -0.051852178 0.090429775 -0.0059136404 -0.0022980901 -0.056460883
-0.06902113 -0.021010159 0.041843586 0.0452413 -0.09937374 0.025161156 -0.06785151 -0.047150567
0.026257725 -0.010025968 0.0719877 -0.055279046 0.091016226 0.026961442 0.031165505 -0.09360615
0.016793204 0.045822326 -0.006463949 0.11019884 0.13691318 -0.053409744 0.06980351 -0.04563054
-0.06377264 0.017630005 0.05403197 0.0599061 -0.027077867 -0.038150016 -0.085313864 -0.051329423
-0.04357537 0.0259516 0.058025435 -0.04615622 -0.07154877 -0.105084985 0.04111761 0.01664153
0.07398068 -0.0073182825 -0.04320435 0.012364765 0.040831972 -0.015923304 -0.008667314 0.021102281
-0.087641306 0.066494174 0.024726098 -0.0067914296 -0.024603395 0.061360873 -0.0794056 -0.04094284
0.064231895 0.0311466 -0.07440514 0.05885595 0.08887828 -0.03805451 0.019268 0.036507417
0.058845874 0.052685153 0.02256407 -0.06260747 0.05857792 0.04679242 0.11214986 0.046788473
0.050214004 -0.015685203 -0.037952423 0.015974145 -0.09107119 0.11135632 -0.05087639 0.05639563
-0.010946934 0.023974122 0.055100407 -0.04241466 -0.041778754 -0.07116062 0.10122785 -0.029232116
0.001701948 0.008826476 -0.109618425 0.03266864 -0.026678259 0.05098139 0.0044777887 0.076667674
0.0047612977 0.08593809 -0.020721165 0.02329714 0.010849652 0.085375845 0.05946861 0.020754237
0.0091310525 -0.013603526 -0.021082453 -0.06378467 0.047990143 -0.05294939 0.069771565 0.06533905
-0.059230343 0.070411585 0.029624892 0.036927156 -0.0046716295 -0.015423013 0.061803613 0.01552736
0.03129753 0.06876003 0.011582546 -0.063996196 0.058570843 0.051747832 0.028942697 -0.06699344
-0.011398436 0.0690072 -0.09280778 -0.052840274 -0.05238066 -0.058206487 0.03371434 -0.0039972574
-0.0941213 0.042870864 0.057265975 -0.03103532 0.06474263 -0.07862735 -0.04486908 -0.04963666
0.008356445 -0.0018400715 -0.060541384 -0.008843611 0.044428423 -0.013411646 0.096496195 0.027046286
-0.05003802 -0.09281224 -0.05876002 -0.08122667 -0.11275926 -0.06444728 0.0765649 0.06907243
0.0972018 -0.016094776 -0.060445562 0.029037174 0.032222837 0.01604097 0.045943398 0.012901869
0.119887255 -0.0496537 -0.0022287527 0.047986638 -0.04234321 0.038947925 -0.0559633 -0.028799795
0.05394252 -0.10303875 -0.04590202 0.02926857 0.012559405 -0.08760248 -0.055675954 -0.04422209
-0.04201096 -0.065949775 0.022557447 -0.032577913 -0.025161698 -0.110909395 0.105022945 0.006807035
-0.04490771 0.020181442 0.076857194 -0.08669402 -0.041168 0.052698437 -0.020251732 0.051377065
0.020245902 -0.05430305 -0.009582616 0.045286722 -0.022465693 -0.06736996 -0.058319956 -0.043964237
-0.09347725 -0.010663158 -0.009793358 -0.074155256 0.10531193 -0.0062910835 0.023433913 0.021261603
-0.038585674 -0.011176022 0.043465003 0.08180257 -0.020980556 0.056330558 -0.0066846223 -0.063838825
0.020022621 0.060563736 -0.0086163 -0.020799581 0.09583159 0.02616916 0.027282938 0.02477725

transformer_encoder.layers.0.linear1.bias f4 [2]
00000000: d10c 323c 5bd4 df3b
0.0108673135 0.0068307347

transformer_encoder.layers.0.linear2.weight f4 [128, 2]
00000000: 3ab7 143c 35f0 0fbf 4a36 f0be 5aec f0be
00000010: 87c1 1f3f f822 8fbe 5591 053f e2a9 fb3e
00000020: 34c9 15bf e1c6 083f 01da ea3d f0fa fbbc
00000030: ff69 d2bd f9f7 8c3e f658 07be 1088 233f
00000040: 6673 ba3e eb47 d53e 1be7 0abe 30e4 1abf
00000050: ac4a 1d3f 6864 78be b987 82bd f209 cf3e
00000060: 6773 263f b92f 46be 490d 273f df26 fe3d
00000070: ead5 1fbf a862 29bf 0e56 173e 052a 2a3f
00000080: 7dfc f53e e245 073f 22a6 20bf cff5 153b
00000090: 1c8d 663e 22f7 173e 3022 993e d052 b93d
000000a0: eb95 0ebf 9515 e2be e3a1 bebd a10c 2a3f
000000b0: ea11 1a3f 68fd a83e 73fd 193f 66a3 113f
000000c0: f807 533e 7d0f 2a3f 5c63 a63d 5a12 303d
000000d0: 1bf9 21bf 0f20 1c3f c086 2e3f f99b e8be
000000e0: 0882 fe3c 1510 31bf 8bf5 c53d b4a5 f23e
000000f0: 9d52 31bf 93b0 083f f2c6 20bf ade3 1a3f
00000100: 99df 243f da01 133e 7e9c 14be c9c1 30bf
00000110: ddbf 00bf 96c1 80be f82c 76be 1312 6ebe
00000120: 4220 37be bfa1 9cbe 10ae 3dbd 42e3 03bf
00000130: 2d05 bdbe f933 173f 1296 0fbc 83c7 0bbe
00000140: 74c6 8cbe 43a2 0a3e 6478 08bf 300f 4dbe
00000150: 561e e43e bda4 debd 8a8b 6d3e 7e30 8e3e
00000160: 1d43 62bd 830b 033f 15cd 043f 7598 c13d
00000170: 2400 2bbf 28ba 193f e73e fe3e a27a 683e
00000180: 91f5 223e 011e 5bbc 0063 35be 82fe f93e
00000190: f773 f93d a871 d63e d47c 1bbf 2f9b 31bf
000001a0: 86dd 12bf b2a4 21bf 6fbc 483e 77cc 883c
000001b0: 5655 18bf 104b 143f a019 07bf 2367 c73e
000001c0: 1cc7 2cbf b11e 803e dcfc e4be 2d90 343d
000001d0: 2b5f 273f cb37 9abe c245 0e3d 4ec8 2bbf
000001e0: 9040 e53d 80f3 00be dbd8 ecbe cdcb 42be
000001f0: 3f2f 963e 3871 1c3e 78b3 bdbe ed65 3f3e
00000200: d979 f73c 8df8 29bf e7d9 0d3f 9f56 9f3e
00000210: 1ef6 233f 7554 b5be 7167 e73e f5bc 9dbe
00000220: 7f01 b5be 0630 2e3f 9b90 153f 613b 24be
00000230: f171 abbe b0b2 6abe ae71 153d 4661 cd3e
00000240: 2ab3 24be 27c8 d73e b427 f4be 012e e5be
00000250: 104d 15bf d8de aebe a0f8 273d e996 b8be
00000260: bda8 f23e 5e5b 4a3e 1880 febe 56d6 df3e
00000270: ea3e 173f cf49 8fbe f133 a2bd bdeb 243f
00000280: ae49 b7be 5d12 a23e 785e 2bbe f0a0 033f
00000290: 44c7 e03e 22b9 463d 8f94 22bf 9811 e9be
000002a0: 0633 e6be cfa3 22bf e226 a03c 79c6 d9be
000002b0: b043 02be d339 ad3e 0551 13bd 6f94 0dbf
000002c0: da4b a13e 6846 bdbe d794 f4be 6759 963e
000002d0: 3af1 093e 4f76 333e 914e f0be a293 30be
000002e0: c4b0 9b3e 5d15 073e 7ded b93e f27d 40be
000002f0: ee1c b53e ad6f 093f 7d34 f03e adad 06be
00000300: 35bc fcbe ea4d 1e3f 2b77 00bc e3d8 333f
00000310: cb9f ef3e 8351 2b3f e642 e33d 6a08 fdbd
00000320: 0d80 93be 4c5f 7abe ebd1 ba3e 3a60 293f
00000330: 32e1 493a a3a3 80be 9731 d43e 7f44 193f
00000340: ed4e 343f fcad 623e e963 19bf b0c0 e3be
00000350: c017 47bd 1dbb 333f 3aee 8bbd a69c ce3d
00000360: 691c 1e3f 88d9 613e c716 033f 229e c5bd
00000370: db75 b4be aff2 5cbe bc49 00bf 93cd 5d3e
00000380: d01e e8bd 783f 073f a2bb a13e e0e1 913e
00000390: 717a 103f 31ae 243f 3416 633e 19c5 e53d
000003a0: caa3 a93d ef87 b7bd b7a5 3d3e 0758 94be
000003b0: bfe3 bc3e 70d9 993e 1019 fd3e 6da4 1d3f
000003c0: 39fd 52be c007 07be c7a0 d53e 4a67 3b3e
000003d0: f5bd c13e 8778 803e dcd0 0a3e acaa b8be
000003e0: 8f61 2bbf 2963 a0be 0d35 7ebd d73b 113f
000003f0: ebb4 073e 5aed 993e c47f a03d d69d 1e3f
0.009076888 -0.562259 -0.4691642 -0.47055322 0.62404674 -0.27956367 0.52174884 0.49153048
-0.58510137 0.53428465 0.11467362 -0.030759305 -0.102741234 0.27532938 -0.1321753 0.6387949
0.36416167 0.41656432 -0.13564722 -0.60504436 0.61442065 -0.24257052 -0.06373543 0.40437275
0.6501984 -0.19354142 0.65254647 0.12409758 -0.6243578 -0.6616616 0.14778921 0.66470367
0.48044196 0.5284101 -0.627535 0.002288211 0.22514766 0.14840367 0.29908895 0.09048998
-0.55697507 -0.4415709 -0.09308221 0.6642552 0.60183585 0.33005834 0.6015236 0.5688995
0.20608509 0.66429883 0.0812442 0.04298625 -0.6327073 0.6098642 0.6817436 -0.45431498
0.031067863 -0.69165164 0.09665974 0.47392046 -0.6926668 0.5339443 -0.62803566 0.60503656
0.6440368 0.14356175 -0.14512822 -0.6904569 -0.5029276 -0.25147694 -0.24040592 -0.23249082
-0.17883399 -0.30592152 -0.046308577 -0.5151864 -0.3691801 0.5906368 -0.008763807 -0.13650326
-0.27495158 0.1353846 -0.533087 -0.20025325 0.44554394 -0.10871265 0.23197761 0.27771372
-0.055239785 0.5118944 0.5187543 0.09452907 -0.6679709 0.60049677 0.49657366 0.2270303
0.15913989 -0.013373853 -0.17713547 0.48826987 0.12180322 0.41883588 -0.6073735 -0.69377416
-0.5736927 -0.6314193 0.19603132 0.016699059 -0.5950521 0.57927036 -0.52773476 0.38945875
-0.67491317 0.25023416 -0.44724166 0.04408281 0.6537959 -0.30120692 0.034734495 -0.67102516
0.11193955 -0.12592888 -0.46259198 -0.19023056 0.2933292 0.15277565 -0.37050986 0.18691225
0.030209469 -0.66394883 0.5541062 0.31120774 0.6404742 -0.35415998 0.45196107 -0.30808225
-0.35352704 0.6804203 0.58423775 -0.16038276 -0.33485368 -0.22919726 0.036485367 0.40113276
-0.1608397 0.42144892 -0.4768654 -0.4476166 -0.58320713 -0.3415439 0.04100859 -0.36052635
0.47394362 0.19761416 -0.49707103 0.43718213 0.59080374 -0.27986 -0.07920063 0.6442221
-0.357984 0.31654635 -0.16735256 0.51417446 0.43902028 0.0485164 -0.6350793 -0.45521235
-0.44960803 -0.635312 0.01954979 -0.42534235 -0.12721133 0.3383318 -0.035965938 -0.55304617
0.31503183 -0.36967778 -0.47769806 0.29365084 0.13470927 0.175256 -0.4693494 -0.17243817
0.304083 0.13191743 0.36314002 -0.18798044 0.35373634 0.5368603 0.46915045 -0.1315219
-0.4936234 0.6183764 -0.007840912 0.7025282 0.468016 0.6692125 0.11096744 -0.123551205
-0.28808632 -0.24450415 0.3648828 0.66162455 0.0007701098 -0.25124845 0.41444084 0.5987014
0.7043293 0.22136682 -0.59918076 -0.44482946 -0.048606634 0.7020739 -0.068325475 0.10088472
0.617621 0.22055638 0.5120663 -0.09649302 -0.35246167 -0.21576951 -0.5011251 0.21660452
-0.11334002 0.5283122 0.31588465 0.2849264 0.5643683 0.64328295 0.22176439 0.11219234
0.082831934 -0.08961474 0.18520246 -0.2897341 0.36892506 0.30048704 0.49433184 0.6157902
-0.2060441 -0.1318655 0.41724226 0.1830112 0.37840238 0.25091955 0.13556236 -0.36067712
-0.6694574 -0.31325653 -0.062062312 0.56731933 0.13252608 0.30063897 0.07836869 0.6195959

transformer_encoder.layers.0.linear2.bias f4 [128]
00000000: dc2d 143f 0b79 063f 9647 2b3e 6bdc 273f
00000010: bbcb 443e 0db8 a1be 22b2 2abf 8d11 a43e
00000020: 53ea a2bd c9bf aebe 273c 643e d61b 61bd
00000030: 0569 d63e c749 00be 2556 c43d a3fe c93e
00000040: 63cf de3d 76b7 c13e de34 e73e 6aa7 653e
00000050: f891 36be 6547 283f 09ad 25bf fced 233e
00000060: 972f 1cbf 5c4e 1f3f 0c4a 8b3e f12a eabe
00000070: 8fea 843e 1912 9ebe 7fae 843d c429 24bf
00000080: f808 8dbe 00ef 76be 37e6 993e bc3a b73e
00000090: c5fb 663c e9a7 ffbd e79a 053f 7044 11bc
000000a0: bf96 183f 13e9 09bf 8724 07be 0eff 2abf
000000b0: 34ed 693c 16a4 f3be b2a9 f6be 79ee 14bf
000000c0: 5f15 30bc 0261 f53e 499e 313e ab5d fc3e
000000d0: f055 0c3f 01a6 1dbf 2f89 2b3f f5ca b2be
000000e0: c61c a9be 10ab cbbd 9d7f 1cbe 181e 59be
000000f0: 7283 e43e 5abf 3a3e d573 0fbf 78dc b9be
00000100: 41b8 763e 820c 0e3f 396d f03e 7d6c eb3e
00000110: 491d 843e c9f9 a73e 0bb1 afbe ef9a 20bf
00000120: 8a1a 213f 6d86 b1bd f15b 573e 5133 043e
00000130: 2a3f 21be f2e5 1e3f 14f9 efbe 3eed 853d
00000140: d9df ed3e 697f a2be bb9b 2ebf f11d d7be
00000150: 75fb cfbc 95c8 b2bd 9100 e3be 247e 523e
00000160: 2bff e73e 249b 9e3e 82f1 28bf 3ea5 10bd
00000170: b1ec c2be 317c 2fbe e7ec a63e 5ef6 2bbf
00000180: ea46 0dbf 2b04 11bf 8363 183f fed8 983e
00000190: d2f1 f83e ab89 abbe eaaa 28bf b8ca c5be
000001a0: b1b4 453e 2c1a 11bf 4af8 0ebd 317c f8be
000001b0: 349c 86be ef05 8f3d 2a01 c23d c9b4 f2be
000001c0: 09f4 1fbf d429 d63e 3f33 68be a338 a13e
000001d0: c556 e43e cf80 4c3e ab77 f4be 13ac 763e
000001e0: cad0 94be 2bc1 0dbf 3ac4 98be c35f 06bf
000001f0: 2e31 93be b071 2abf eb35 133e b42c ebbd
0.57882476 0.52528447 0.16726527 0.65570706 0.19218342 -0.31585732 -0.6667806 0.3204464
-0.0795485 -0.34130695 0.22288571 -0.054958187 0.41877 -0.12528144 0.09586743 0.39452085
0.108793996 0.37835282 0.45157522 0.22427145 -0.1782912 0.6573394 -0.64717156 0.16008753
-0.61010116 0.6222894 0.2720493 -0.45735887 0.25960204 -0.30873182 0.06478595 -0.6412623
-0.27545905 -0.24114609 0.30058452 0.35786998 0.0140981125 -0.12483198 0.5218949 -0.008866414
0.5960502 -0.5387127 -0.13197528 -0.6679543 0.014277745 -0.47586125 -0.48176342 -0.5817638
-0.010747283 0.47925574 0.17345537 0.49290213 0.5481863 -0.61581427 0.670062 -0.3492047
-0.33029765 -0.09944737 -0.15283056 -0.21202886 0.44631535 0.18237057 -0.5603612 -0.36301017
0.24093725 0.55487835 0.4695833 0.45981207 0.25803593 0.32807758 -0.3431476 -0.6273641
0.6293112 -0.08668218 0.21031167 0.129102 -0.15746751 0.6206962 -0.4686972 0.06539391
0.46459845 -0.3173783 -0.68206376 -0.4201503 -0.025388459 -0.08729664 -0.4433637 0.20555931
0.45311865 0.30977738 -0.6599351 -0.035313837 -0.38071206 -0.17137219 0.32602617 -0.671728
-0.5518633 -0.56646985 0.5952684 0.29853052 0.48621994 -0.3350347 -0.65885794 -0.38631225
0.1930721 -0.5668056 -0.034904756 -0.4853225 -0.2629105 0.069835536 0.09472878 -0.47403553
-0.62481743 0.41828787 -0.22675799 0.31488523 0.4459745 0.19971012 -0.4774755 0.24089079
-0.29065543 -0.55372876 -0.2983721 -0.5248987 -0.2874846 -0.66579723 0.14376037 -0.11483136

transformer_encoder.layers.0.norm1.weight f4 [128]
00000000: 657f 793f fc18 7d3f c202 743f a76c 7f3f
00000010: c152 803f ad40 823f 36a8 7e3f 2402 7f3f
00000020: 37aa 803f bc09 7f3f 1cda 7b3f b4eb 7a3f
00000030: d8ae 793f 5d35 803f 1e14 803f 5fc6 803f
00000040: 5df3 7e3f 6871 7d3f dd97 7f3f 11b6 7c3f
00000050: 2c80 7e3f d237 803f 094e 783f 9082 7e3f
00000060: 4c03 823f 1c40 7b3f 4724 7f3f 288b 7a3f
00000070: 6ae8 7f3f 8098 7c3f c0c9 7d3f c843 803f
00000080: 38ed 7c3f e057 7c3f 7e03 783f a239 803f
00000090: c3a5 7d3f 1524 823f 3d55 803f a0a4 813f
000000a0: 05d1 813f 601a 803f fb78 803f 63f7 843f
000000b0: 6068 7e3f b5ad 803f 15e7 803f b1cb 7c3f
000000c0: 316e 7f3f b6c9 823f ad07 803f 0134 803f
000000d0: 03ac 813f 283f 773f b51c 803f b340 7b3f
000000e0: ab18 803f 959b 823f 8044 803f 8566 7a3f
000000f0: 9d90 7d3f 6e46 833f 6f84 7f3f a4e3 7a3f
00000100: 9fc9 7f3f 514e 813f 3e42 7f3f 4d0f 7d3f
00000110: 0b3f 783f 0ecd 7a3f c0d8 7c3f 9cde 7a3f
00000120: a250 7e3f f64e 7d3f 8c6b 7d3f 074d 7d3f
00000130: 34c7 7d3f b982 823f a45e 7c3f 8003 7d3f
00000140: 5a33 7a3f f5b2 7f3f 9870 7b3f 9d6d 7a3f
00000150: 0fd5 783f 1c53 803f 47fd 7c3f b815 813f
00000160: a398 7a3f 54cd 7e3f 5719 7d3f bde4 853f
00000170: 9f10 7d3f 0bdf 803f 91ef 833f ef14 7a3f
00000180: 7162 793f 4f9e 813f 812d 833f 6fcd 7b3f
00000190: ae6d 7b3f 1220 833f 25b8 7f3f 9ca7 7d3f
000001a0: bcae 813f 1332 7d3f 2e84 823f 45d0 803f
000001b0: 91b6 7f3f 8974 7f3f 6105 7f3f 8df2 813f
000001c0: f3c6 7d3f c415 7e3f 0678 783f 3a41 7e3f
000001d0: 0d68 7f3f 519b 7a3f 7927 793f f532 7d3f
000001e0: 9581 7b3f 1844 813f cd1a 7a3f 990d 803f
000001f0: a95f 783f 822e 833f b217 7f3f 4551 7e3f
0.97460014 0.9886625 0.9531671 0.99775165 1.0025254 1.0175987 0.9947542 0.9961264
1.0051945 0.9962423 0.98379683 0.98015904 0.97532415 1.0016285 1.0006139 1.0060538
0.9959009 0.9900117 0.998411 0.9871531 0.99414325 1.0017035 0.9699407 0.9941797
1.0157256 0.981447 0.9966473 0.97868586 0.9996401 0.98670197 0.9913597 1.0020685
0.9879947 0.98571587 0.9688033 1.0017588 0.9908106 1.0167261 1.0026013 1.0128365
1.0141913 1.0008049 1.003692 1.0387996 0.99378014 1.0053011 1.0070521 0.9874831
0.99777514 1.0217807 1.0002342 1.001587 1.0130619 0.96580744 1.0008761 0.981456
1.0007528 1.020373 1.0020905 0.9781268 0.9904879 1.0255868 0.9981145 0.980036
0.99917024 1.0102025 0.9971045 0.9885147 0.96971196 0.9796914 0.98768234 0.97995925
0.99341786 0.9894861 0.9899223 0.9894566 0.99132085 1.0196143 0.9858191 0.98833466
0.97734606 0.9988244 0.9821868 0.97823507 0.972001 1.0025363 0.9882397 1.0084753
0.97889155 0.99532056 0.9886679 1.046043 0.98853487 1.0068067 1.0307485 0.9768819
0.97415835 1.0126437 1.0248262 0.9836034 0.9821423 1.0244162 0.9989036 0.99083877
1.013145 0.9890453 1.0196588 1.0063559 0.9988795 0.99787194 0.9961758 1.0152146
0.991317 0.9925196 0.9705814 0.9931828 0.99768144 0.97893244 0.97325855 0.9890588
0.982446 1.0098906 0.97697145 1.000415 0.97020966 1.0248568 0.9964553 0.9934276

transformer_encoder.layers.0.norm1.bias f4 [128]
00000000: dab9 a5bc d945 d33b 70f9 533b 709f d1bc
00000010: 207a bfbb 82c7 523c 6538 1d3c 5e71 77ba
00000020: 6928 9cbb 1199 7a3c 937d 81bc f778 2fbb
00000030: c0cf 9cbc 6e92 f2bb 726b 59b9 e3f1 abbb
00000040: 3355 12bc ac70 81bb 1d25 d0bb 8a3d bdbb
00000050: df09 073a d7bb d8bb 40a2 e73b 12a8 363c
00000060: 9b19 b63c 2682 83bb 59ca cdbb 872f 14bc
00000070: 6ccb de3b 60a0 53bb 0eb1 9e3b fc59 4a3c
00000080: b32e d7bb fc48 1b3c 2de7 8fbc 339a 32bb
00000090: f8f4 8ebb 59e2 78ba 51bd 4dbc 650e 86bb
000000a0: f86b 4cbc c96e 07ba b651 233a 1272 78ba
000000b0: 7b2a 873a b222 f83b dc0d 4c3c 47c4 723c
000000c0: 015f dd3b 26f7 00bc 8650 90bb 9b68 60bb
000000d0: 8708 7cbb de97 763c a3de 09bc ffae 203c
000000e0: 6205 a13b 8e8d 9abb c419 40bc 2c51 38ba
000000f0: 5948 cdbb 47dd 2b3c 40f7 2b3c fea7 183c
00000100: 6784 b0bc 0c97 7bbb fcc0 53bc f67c 91bb
00000110: 0c89 24bc 867e a2bb f377 303d 03bd d13b
00000120: 2b8e f9bb 260d 9ebb aa4a 0e3c e4e8 803c
00000130: 30ba 293b 34ef a0bc 475d 603b 7e47 96bc
00000140: 6753 103a d8df 473b a580 a1ba 63d4 853c
00000150: 7cde b5bb c649 a13c b149 583c 80a5 79bc
00000160: 8903 4e3b 80b3 5fbc 419e 6abc 09c5 e43b
00000170: c546 dd3a 3b19 88ba a33e 9ebb afa5 e93c
00000180: 27bc 023b 3cc0 153b b4a5 da3b 6aba 4ebc
00000190: e373 433c 502d 52bd fbae cc3c c6f8 04bb
000001a0: 6b19 1abb 3222 853c 63fe 19bb 78ce 2e3c
000001b0: 47f2 fbba 34be 79b9 059e 3ebb 428e e03b
000001c0: 912e 273c 7d34 75bc 8e0b 343b 91a2 4239
000001d0: 43ea 9eba fd05 b4b9 1964 9bbb f08e 2dbc
000001e0: de69 333c fd1a 373b 0def d9bb ab77 ec3b
000001f0: 6e90 223c 98f4 833c 6403 97bb 3928 d8bb
-0.020230222 0.0064475355 0.0032344721 -0.025588721 -0.005843416 0.012864949 0.009595965 -0.0009439195
-0.0047655595 0.015295283 -0.015806949 -0.0026774982 -0.019142032 -0.0074027097 -0.00020734759 -0.005247341
-0.008931446 -0.003950199 -0.0063520805 -0.0057751583 0.0005151312 -0.006614189 0.0070689023 0.0111484695
0.022229007 -0.0040133176 -0.0062802252 -0.0090445345 0.006799152 -0.0032291636 0.004842884 0.0123505555
-0.0065668463 0.00947785 -0.017566288 -0.0027252554 -0.0043626986 -0.00094941776 -0.012557344 -0.0040910714
-0.012476914 -0.00051663496 0.00062301324 -0.0009477447 0.0010312343 0.0075724954 0.012454476 0.014817304
0.00675571 -0.007871425 -0.0044041304 -0.0034242037 -0.003845723 0.015050856 -0.008414897 0.009807347
0.0049139718 -0.0047165817 -0.011724893 -0.00070311385 -0.006264728 0.010489768 0.010495961 0.009317396
-0.02154751 -0.0038389592 -0.012924429 -0.0044399453 -0.01004244 -0.0049589304 0.043083142 0.006400706
-0.0076158247 -0.0048233448 0.0086847935 0.01573605 0.002589833 -0.019645311 0.0034235285 -0.018344637
0.0005505592 0.0030498412 -0.0012321664 0.016336625 -0.005550204 0.019688498 0.013201163 -0.015237212
0.0031435213 -0.013653636 -0.014319957 0.0069814962 0.0016882053 -0.0010383496 -0.004829244 0.028521387
0.0019948573 0.0022850176 0.0066725854 -0.012617687 0.011929485 -0.051312745 0.024985781 -0.0020289882
-0.0023513685 0.016251657 -0.0023497574 0.010669343 -0.0019221985 -0.00023817347 -0.0029085886 0.006852896
0.010203973 -0.014966127 0.0027472707 0.00018561842 -0.0012124259 -0.00034336737 -0.004742157 -0.010593161
0.010950534 0.002793967 -0.0066508115 0.007216414 0.00992213 0.016107842 -0.0046085585 -0.006596592

transformer_encoder.layers.0.norm2.weight f4 [128]
00000000: daa5 703f 8aab 7b3f c9f7 743f 4c96 6e3f
00000010: 4147 7a3f 70f4 763f 28af 7c3f 2db1 7b3f
00000020: 507f 803f 37e4 7c3f f811 7b3f 079b 733f
00000030: d039 733f 8c62 803f f2aa 7c3f 5d50 7c3f
00000040: 62f8 7a3f 08b0 783f 9bd3 783f 6c84 7c3f
00000050: 5877 6e3f 2072 7b3f 202d 723f 7cae 703f
00000060: 15fe 793f a6d1 7b3f 7783 7a3f 2451 7c3f
00000070: 0b94 783f ed6f 7a3f 3067 7a3f e01c 743f
00000080: 6894 7a3f de54 7c3f 2f2c 793f 2058 7d3f
00000090: 36ed 7c3f 883c 803f 8dcc 7e3f 14d5 7f3f
000000a0: f84e 7f3f 65d2 733f 00d3 793f 4089 7f3f
000000b0: e5a3 743f 4436 7d3f b9d7 783f 12bd 7c3f
000000c0: e660 7a3f c5cc 7a3f d167 793f 9d50 803f
000000d0: 2b04 7c3f 6f17 743f 3369 763f f163 783f
000000e0: f011 7d3f e4e2 813f dbac 7a3f 3f6b 793f
000000f0: 5db0 7b3f 97dd 783f 4d39 7b3f 43ba 733f
00000100: 457a 7c3f a472 7b3f 9f1f 773f 9ffc 743f
00000110: 2823 733f 4791 793f 0e00 7b3f 2eb1 783f
00000120: bf76 7b3f f37e 763f f19d 713f 4cf7 793f
00000130: f828 7e3f 584d 783f e198 7a3f c244 7c3f
00000140: 2dcd 6d3f 79e1 7a3f d095 773f c7c0 723f
00000150: 3b1b 773f 7c9b 7c3f ac96 723f 2c15 813f
00000160: 3d30 763f 336d 783f 01de 773f 17bf 823f
00000170: 96cb 7a3f e23d 7e3f fb5b 753f cd5e 7a3f
00000180: 2d65 7b3f bee9 7a3f 1ea7 7b3f a1ed 7b3f
00000190: baf8 793f 2778 763f 6c28 793f 3e30 7d3f
000001a0: 1ae5 7a3f 20f7 773f d081 813f ac9f 7e3f
000001b0: 4e13 783f 3332 7d3f 0153 7b3f e1c2 783f
000001c0: b1f4 773f f986 753f 6c29 773f c2bd 783f
000001d0: 7ced 763f 8550 753f 05e5 733f 6b42 7d3f
000001e0: 0e44 7a3f b9c4 7b3f 7021 793f 4431 743f
000001f0: f1ce 7b3f 77cb 783f 86d8 7b3f 0f38 7f3f
0.9400307 0.9830862 0.9569059 0.93198085 0.97764975 0.9646673 0.9870477 0.98317224
1.0038853 0.9878573 0.98074293 0.9515843 0.9501009 1.0030074 0.9869834 0.98560125
0.9803525 0.971436 0.97197884 0.9863956 0.93150854 0.98221016 0.94600105 0.9401624
0.97653323 0.98366773 0.9785685 0.9856131 0.97100896 0.97827035 0.978137 0.9535656
0.978827 0.98567 0.97333044 0.98962593 0.98799455 1.0018473 0.9953087 0.99934506
0.9972987 0.9524291 0.97587585 0.998188 0.95562583 0.9891093 0.97204167 0.98726
0.97804105 0.97968704 0.97424036 1.0024601 0.9844386 0.95348257 0.9625427 0.970275
0.98855495 1.0147367 0.97920007 0.9742927 0.98315984 0.9721312 0.9813431 0.9520609
0.9862407 0.982218 0.96532625 0.9569797 0.9497552 0.974873 0.9804696 0.97145355
0.9822807 0.9628746 0.94381624 0.9764297 0.99281263 0.9699302 0.97889525 0.98542416
0.928912 0.98000294 0.9671297 0.94825405 0.96525925 0.9867475 0.9476116 1.0084586
0.96167356 0.97041625 0.96823126 1.0214566 0.979669 0.99313176 0.95843476 0.97800905
0.98201257 0.9801291 0.98301876 0.9840947 0.9764515 0.9627709 0.97327304 0.98901737
0.9800583 0.9686146 1.0117741 0.9946239 0.96904457 0.9890472 0.9817353 0.9717236
0.96857744 0.95909077 0.9654758 0.9716455 0.9645612 0.9582599 0.9527133 0.9892947
0.97760093 0.9834705 0.97316647 0.95387673 0.9836264 0.9718546 0.98377264 0.99694914
