adult/Models/mixture_v1/0.844_1/params.pt (torch_old, 21435 bytes, 58 tensors)

attention_mechanism.in_proj_weight f4 [24, 8]
00000000: 00f0 423e b4c4 673e 6075 92be a3de 3b3e
00000010: 53cf 9bbe 5629 1dbe 094d ba3e fe20 b4be
00000020: 58aa 80be 92a0 c83d cb23 85bd 86ee 56be
00000030: 5c2f 9abe ee15 d4be c266 8e3d 31df 04bf
00000040: 2031 42bd 34b4 9c3d 27eb a7be 8872 0ebe
00000050: 70a2 79be 93a5 6dbe 4627 3cbd 4f38 2cbf
00000060: 908c d1be 85a0 bc3e 12c0 38be 5e59 21be
00000070: 4a2d 99bc 4309 923e 5a31 dabe f472 b5be
00000080: 4dba 9dbe def0 35bd d8f7 683e b558 f4be
00000090: 8075 8f3e 1d87 8abe a134 e73e 8fb1 18bf
000000a0: 4cf3 f0bd 43e3 013e 0b35 dabe ac3c 033f
000000b0: 2c24 a5be 9d16 a8bd 2344 cbbe c92a 5b3e
000000c0: d8d2 923e b5b5 ee3e 2c49 66bd 8a66 22be
000000d0: 496a cd3e bb7b 4c3d 5a92 843e 678f e8be
000000e0: d0f5 f8bd a92b e4be 5a47 083f cbf2 fe3b
000000f0: 2fcb a0be d519 0a3d b1cd 0abe 7472 4f3e
00000100: 0c66 493e c8a9 1fbe 0da9 ab3d 1d3d 8bbe
00000110: 1198 003e 41bd d5be e116 173c 96aa 013f
00000120: fc54 2c3f eac9 133e f7a2 b43e 0e8f b93e
00000130: 9b81 be3d 54ef 563e b55d e93d bc77 b83e
00000140: 36c8 ff3e 07fc cdbd 38be 203c 96e5 27be
00000150: 2663 173e bdc8 eebe a95c 293e d96b 38bd
00000160: fc18 823e 7ca9 143e 6acf 94bd 55a5 8c3e
00000170: bfc5 273e 90fd d7be 8e1e 0a3f a9e2 ac3e
00000180: ab8d 0e3f e764 11be 02de 1f3e 7d80 89be
00000190: 37f2 38be fd50 3e3e 6d4b 843e 14ed 8c3e
000001a0: 1707 3abf 0e3e 153f 6a13 adbd 690f 153f
000001b0: fc1f e73e b8d6 aa3c 01af e33e 481f 5d3e
000001c0: 899f 013f 8f73 74be 48fd d03e be92 6e3d
000001d0: 468a 653e b1f5 c9bd 0ab3 893e 55fb ac3e
000001e0: 5c9b e3be 4cfe 9a3e ab4f b7be 556f b8be
000001f0: e941 dfbe 385b 5a3e a297 b4be 8529 25be
00000200: 66da 6dbe 3a04 3f3e ad67 03bf 6a18 e9bd
00000210: 526a 843c 2055 82bd 06c9 37be 791b 6f3e
00000220: ced5 62be d0e9 bfbe 426c 34bd 2265 a1be
00000230: 0437 963e cb34 91be 506d 0bbd 7ae8 223e
00000240: 56ae c5be ddc4 bb3e 9192 1dbe da93 78bd
00000250: 6e35 67be c5f6 3cbe 91d3 b2bd 9d0b b7be
00000260: 19e3 973e f56e c5bd 6e42 883e 89e7 1a3e
00000270: 2100 933e 6497 473e 9a4c 183e 1c2e a43e
00000280: 42f4 ed3e 93f8 bcbe e7c6 80bd 81ac f9be
00000290: 1488 343d 641d 1ebe 4aad dc3e ddee 4b3d
000002a0: 3c10 e53c b830 85be 06f1 a8be f652 253e
000002b0: 152d 4dbe 57e1 82be e922 b53e b122 1dbe
000002c0: 92e4 9abe a78a be3e 9fd1 853e afe9 53be
000002d0: e52d 3f3e e467 4b3e 7285 d7be c651 cd3d
000002e0: 031d c6bd 6706 3bbd 3eab e43e e23a 90be
000002f0: c2e4 533e c1bf 49be 2be3 dabe 9aa8 583e
0.19036865 0.2263363 -0.28605175 0.18346648 -0.30431613 -0.153478 0.36386898 -0.3518142
-0.25129962 0.09796251 -0.065009676 -0.20989427 -0.30114257 -0.4142298 0.06953193 -0.51903063
-0.04741013 0.076515585 -0.32796595 -0.13910878 -0.24378371 -0.23207693 -0.04593589 -0.6727342
-0.40927553 0.36841217 -0.18042019 -0.15756747 -0.018698353 0.2852269 -0.42615777 -0.35439265
-0.308062 -0.044419162 0.22750795 -0.47723928 0.28019333 -0.27056208 0.4515734 -0.5964593
-0.11765155 0.1268435 -0.42618594 0.5126445 -0.3225416 -0.08207438 -0.39700422 0.2140304
0.28676486 0.46623006 -0.056222126 -0.15859428 0.40120152 0.049922686 0.25892907 -0.45421907
-0.1215626 -0.4456456 0.53233874 0.007780408 -0.31405017 0.03371604 -0.13555028 0.20258504
0.19667834 -0.1559211 0.08381853 -0.27195063 0.12558009 -0.41745952 0.009221763 0.5065092
0.67317176 0.14432493 0.35280582 0.36241955 0.09302064 0.20989734 0.11394826 0.3602885
0.49957436 -0.10057836 0.009810977 -0.16396174 0.14783916 -0.46637526 0.16539253 -0.045024727
0.25409687 0.14517778 -0.072661236 0.27469888 0.16384028 -0.4218564 0.5395287 0.33766678
0.5568492 -0.14198647 0.15612033 -0.2685584 -0.18061148 0.18585582 0.25838795 0.27524626
-0.7266707 0.5829781 -0.084509686 0.5822664 0.4514159 0.020854339 0.44469455 0.21593964
0.50634056 -0.23872207 0.40818238 0.058245413 0.22416028 -0.09861315 0.26894408 0.337855
-0.44454467 0.30272138 -0.3580297 -0.3602244 -0.43604973 0.2132386 -0.35271937 -0.1612912
-0.23227844 0.18653956 -0.5133007 -0.1138161 0.016163979 -0.063638926 -0.17947778 0.23350324
-0.22151873 -0.37483072 -0.044048555 -0.3152247 0.2933885 -0.2836059 -0.034039795 0.15908995
-0.3860957 0.36673632 -0.15387942 -0.060687877 -0.22578976 -0.1845351 -0.08731759 -0.35751048
0.2966545 -0.09640304 0.26613182 0.15127386 0.28711036 0.19491345 0.14872971 0.3206643
0.46475416 -0.36908397 -0.062879376 -0.48764423 0.044075087 -0.15440899 0.4310096 0.049788345
0.027961843 -0.26013732 -0.32996386 0.16144928 -0.20036729 -0.25562546 0.35378197 -0.15345265
-0.3025251 0.37215158 0.2613649 -0.20694612 0.18669851 0.1986385 -0.42093998 0.10025363
-0.09673502 -0.045660403 0.44661897 -0.28169924 0.20692733 -0.19702055 -0.4275144 0.21158066

attention_mechanism.in_proj_bias f4 [24]
00000000: 5efe f4ba c025 b43c c953 69bc 9d83 95bc
00000010: 8a63 193e f9d6 b3bd 4f5a 04bd bd88 363d
00000020: 8672 29bd 8f6a 4b3d 0507 d33d b4cb b53d
00000030: 9622 55bd 3868 debb 367f 8abd 5eef 873d
00000040: 4056 53bf c3d0 79bf d494 cc3f 0b63 23bf
00000050: b75e 7e3e 3da5 473f cf39 61bf a75e 0f3f
-0.001869153 0.021990657 -0.014241167 -0.018251235 0.14979377 -0.08781237 -0.032312687 0.044563998
-0.041368984 0.04966217 0.10304073 0.08876744 -0.052034937 -0.006787326 -0.06762545 0.066374525
-0.8255348 -0.9758417 1.5982919 -0.63823 0.24840818 0.7798651 -0.87978834 0.56003803

attention_mechanism.out_proj.weight f4 [8, 8]
00000000: 3a57 c63d 9e27 a03e 3b7d 6ebc 5312 7e3e
00000010: 8643 653e 3bc3 8ebe 0684 4e3e a092 a3be
00000020: 9597 d2be af4e 39bd 2198 ab3d 93fd 92bc
00000030: 0369 c43e 78bd 0bbe b588 43be 521d d43d
00000040: 74f9 aebc a782 72bd b5ff c13e 1706 d8bd
00000050: e0fa 80be 0a00 7abc 25b3 923e 8822 13bd
00000060: 163d 073e 06f3 bbbd 50c2 b73e eeb8 253e
00000070: 147d a73e 8988 4a3e 3e7a 1ebf 7031 7dbe
00000080: 9a40 8f3e 9770 e23e cb98 d4bd 3066 5a3e
00000090: ba71 123e 19a0 84bb 32ca 213e 39ae fdbd
000000a0: c053 b23e b2ec 863d 5525 a63d 77e4 64be
000000b0: 35c6 95be 0f3c 65bd 3246 933e 2e10 c33d
000000c0: dd79 273e 3ee2 9abe 3688 9d3d b027 83be
000000d0: 38e3 b9be e91a 233e 8f32 c4be 05d1 1f3e
000000e0: 8190 93be 8b83 823d f301 903e bead 89be
000000f0: e3cb 3d3e 42e5 adbc f769 253e ce33 b83e
0.09684606 0.31280226 -0.014556224 0.24811678 0.2238904 -0.27883324 0.2016755 -0.31947803
-0.41131273 -0.045241054 0.08378626 -0.01794318 0.38361368 -0.13646495 -0.19095118 0.10357155
-0.021359183 -0.05920663 0.378904 -0.105480365 -0.25191402 -0.015258798 0.286523 -0.035921603
0.13206896 -0.091772124 0.35890436 0.16183826 0.32712615 0.19778647 -0.61905277 -0.2472589
0.27978975 0.44226524 -0.103807054 0.21328044 0.14301196 -0.0040474054 0.15799788 -0.12386746
0.3482952 0.06588115 0.08112589 -0.22352777 -0.29252782 -0.05596548 0.28764492 0.095245704
0.16355081 -0.30250734 0.07691996 -0.25616217 -0.36306167 0.15928234 -0.38319823 0.15607078
-0.28821185 0.06372746 0.28126487 -0.26890367 0.18534808 -0.021227483 0.16153704 0.35977024

attention_mechanism.out_proj.bias f4 [8]
00000000: a50c 04bb cc5c c1bb a145 583c 09ad 83bc
00000010: c26f 55bc 1ecc 01bc 222d b83b 5909 4e3c
-0.0020149138 -0.005900955 0.013200195 -0.01607372 -0.013027133 -0.0079222005 0.0056206146 0.012575471

embedding.0.bias f4 [8]
00000000: 0cb3 8b3f 94f6 7f3e bdc0 433e 09f2 8dbf
00000010: c552 9a3f f8d3 b53e 2785 823f 2439 3f3e
1.0914016 0.24996406 0.19116493 -1.1089488 1.2056509 0.35513282 1.0196885 0.18674141

embedding.0.weight_g f4 [8, 1]
00000000: fd73 c43e e008 563e 5221 ea3e d640 933f
00000010: 6562 363f 3bf1 383e 09c0 893f 30b2 173f
0.38369742 0.20901823 0.45728546 1.1504161 0.7124389 0.18060772 1.076173 0.5925627

embedding.0.weight_v f4 [8, 1]
00000000: 6562 e1be f3e6 b23d 7fd2 063f 9474 57bf
00000010: 29af 5abf b680 b13e 3178 663f 67d7 ebbd
-0.44020382 0.08735456 0.5266494 -0.8416226 -0.85423523 0.3466851 0.9002715 -0.11515694

embedding.1.bias f4 [8]
00000000: 718c 8abf f756 9e3e abc1 2fbe 5dd6 9cbf
00000010: 1210 823f 093f 30be e11d 96bf af30 7a3e
-1.0824109 0.30925724 -0.17163722 -1.2252918 1.0161154 -0.17211546 -1.1727868 0.24432634

embedding.1.weight_g f4 [8, 1]
00000000: 3b99 6f3f 7997 803e 770d 013f dc0d 9b3d
00000010: e15e 9a3e 83d7 d23e 6ddd 5b3e 6385 573f
0.93593186 0.25115564 0.5041117 0.07571003 0.30150512 0.41180047 0.21471186 0.84187907

embedding.1.weight_v f4 [8, 1]
00000000: 8df1 67bf 8f5d 563e 5a1a 00bf bdd0 d7bd
00000010: 3e71 b53e 864d e93e fabc 3b3e 8be3 40bf
-0.9060295 0.20934127 -0.5004021 -0.105378605 0.3543796 0.45566958 0.18333808 -0.75347203

embedding.2.bias f4 [8]
00000000: 6f13 3bbf 61a2 0c3f 58ee d53e 3529 443f
00000010: 0d91 1abf af34 953e c95d 6fbf d4c6 17bf
-0.7307653 0.5493527 0.41783404 0.76625377 -0.6037758 0.29141757 -0.9350248 -0.5928776

embedding.2.weight_g f4 [8, 1]
00000000: 88c4 cd3e 1406 0d3f 802f 323f 955e 0f3f
00000010: 7bd4 e33d c11c 993f 6052 023f 0040 1d3f
0.40189004 0.550874 0.6960373 0.56003696 0.11124512 1.19619 0.50906944 0.6142578

embedding.2.weight_v f4 [8, 1]
00000000: a448 d93e 8ff1 03bf f3c2 003f 7501 1fbf
00000010: bdfe b23e 5a18 6f3f ae3b 2b3f 7277 fc3e
0.42438233 -0.51540464 0.5029747 -0.621116 0.34959975 0.9339653 0.6688794 0.4930988

embedding.3.bias f4 [8]
00000000: 6a06 3ebf 3869 fd3c 2f96 d0be ba2e 99be
00000010: 69e1 69bd 9869 083e cb3f d33e 1819 f03e
-0.7422854 0.030933961 -0.4073958 -0.29918462 -0.057099734 0.13321531 0.41259608 0.46894145

embedding.3.weight_g f4 [8, 1]
00000000: a0dd 893f 32ae 393f 0b8e 2f3f d593 683f
00000010: 0ffd e2bc 1507 683f 6630 133f 1b15 e13d
1.077076 0.72531426 0.68576115 0.90850574 -0.027708558 0.90635806 0.57495725 0.10990354

embedding.3.weight_v f4 [8, 1]
00000000: d880 65bf adb1 53bf 666e 1cbf eb9f 723f
00000010: 7673 453e 1201 6bbf 8abc 00bf baec 673e
-0.89649725 -0.82692987 -0.61105955 0.94775265 0.19282326 -0.9179851 -0.5028769 0.22648898

embedding.4.bias f4 [8]
00000000: 109d 38bf 3e18 893e 115e 443f df9e 843f
00000010: 6de8 82bd 17ac d83e ba82 613e ed46 dbbe
-0.7211466 0.26776308 0.76706034 1.0360984 -0.06391988 0.42318794 0.22022524 -0.4282755

embedding.4.weight_g f4 [8, 1]
00000000: a2f8 563f cbca 9dbc b279 0e3f 08d2 7ebd
00000010: e2df 2a3f ce91 e23c e40c cc3d a2e6 033f
0.83973134 -0.019261738 0.5565444 -0.06221202 0.6674787 0.027657416 0.09963396 0.5152379

embedding.4.weight_v f4 [8, 1]
00000000: 0f83 4f3f 7582 3a3c f3ba e3be e3ae ea3c
00000010: c77c 2dbf b9a9 d13e 1209 f7bd af0a a7be
0.81059355 0.011383642 -0.44478568 0.028647846 -0.6776852 0.409498 -0.12062277 -0.32625338

embedding.5.bias f4 [8]
00000000: 1e35 a8be 587b ff3e a1e9 fdbe 2c46 38bf
00000010: 9493 07bf a8e4 073f 634a 143f 0721 0a3f
-0.32853025 0.4989879 -0.49592307 -0.71982074 -0.5295956 0.53083277 0.57926005 0.53956646

embedding.5.weight_g f4 [8, 1]
00000000: c75a ec3f 91c0 513f 560d b13f 540c 293f
00000010: 9ea3 0dbf d1bd 093f c0af 68be 91ef 0c3e
1.8465203 0.8193446 1.3832195 0.66034436 -0.55327785 0.5380526 -0.22723293 0.13763262

embedding.5.weight_v f4 [8, 1]
00000000: b707 21bf 5b7a 043f 2a27 12bf 97e6 393f
00000010: 3a49 b23e 74ce ae3e dba5 283f 5a99 ff3e
-0.62902397 0.517492 -0.5709101 0.7261748 0.34821492 0.34141886 0.65878075 0.49921685

embedding.6.bias f4 [8]
00000000: 3295 50be 96c8 1bbf 949f 26bf 5089 073f
00000010: 5967 2ebf 7773 1c3f a00e 883f 5166 eebd
-0.20369413 -0.60852945 -0.65087247 0.529439 -0.68126446 0.61113685 1.0629463 -0.11640609

embedding.6.weight_g f4 [8, 1]
00000000: cfbe 5d3d 93fa 3cbe 5dae 653f 6587 ff3e
00000010: 84ba 533f f66f 203f 105a 823f 3bd5 44be
0.054137047 -0.18454961 0.8971918 0.49907985 0.82706475 0.6267084 1.0183735 -0.19221966

embedding.6.weight_v f4 [8, 1]
00000000: 8681 a0be 492a 01be 627b 32bf b102 1e3f
00000010: 648b 29bf 0ccc d2be 9ec7 533f 361e 7b3e
-0.3134882 -0.12613787 -0.6971952 0.61722857 -0.6622832 -0.411713 0.82726467 0.24523243

embedding.7.bias f4 [8]
00000000: f1e8 0ebf 26ef a93e e316 08bf e1b9 17bf
00000010: a730 403e 8861 d0bd 6f1c 2ebe 4bfe ccbe
-0.5582419 0.33190268 -0.5315992 -0.59268004 0.1876856 -0.101748526 -0.17003034 -0.4003776

embedding.7.weight_g f4 [8, 1]
00000000: 1b93 a33d 2e4a 443f 49d2 a43e 393e 563f
00000010: 8fce 453f 5a99 353f bc20 2e3f 8647 d03e
0.079870425 0.7667569 0.32191685 0.83688694 0.7726831 0.7093712 0.680187 0.40679568

embedding.7.weight_v f4 [8, 1]
00000000: 0d07 04be 2207 423f 4155 023f 57d1 743f
00000010: ce04 3c3f 2024 1cbf ef74 273f cc7f ff3e
-0.12893315 0.75792134 0.5091134 0.9563193 0.7344483 -0.6099262 0.654128 0.4990219

embedding.8.bias f4 [8]
00000000: 36c6 fb3e e188 3ebf 243b 43be 2792 75be
00000010: 6c09 88bf c3fe 723d 9b95 54be e618 9fbd
0.4917466 -0.7442761 -0.19065529 -0.23981534 -1.0627875 0.05932499 -0.20760195 -0.07768421

embedding.8.weight_g f4 [8, 1]
00000000: d280 b03e 2dbd 9a3f 8205 af3e 5793 893f
00000010: 284f 55be 3c28 973f 6cc3 173f ecba 3b3f
0.34473282 1.2088982 0.3418389 1.074809 -0.20830977 1.1809154 0.59282565 0.73332095

embedding.8.weight_v f4 [8, 1]
00000000: 5464 0c3f cb05 803f a422 4bbe 9a14 2ebf
00000010: 8f01 43bd 19fe 5dbf 4781 51bf f0e7 aabe
0.5484059 1.0001768 -0.19837433 -0.68000185 -0.04760891 -0.8671585 -0.81837887 -0.3338008

embedding.9.bias f4 [8]
00000000: a07b 2d3f 6859 4fbf 9f39 443e 617d 3abf
00000010: 8442 6abf 6c1c 06be 337d df3e 7f27 22be
0.6776676 -0.809958 0.19162606 -0.72847563 -0.91507745 -0.1309678 0.43650207 -0.15835379

embedding.9.weight_g f4 [8, 1]
00000000: 9c29 543f e81a b93e 5047 013f c009 db3e
00000010: 6b4b 963d f894 ff3e 2f03 013f 7f2a ff3e
0.8287599 0.3615334 0.5049944 0.42780876 0.073386036 0.49918342 0.5039548 0.4983711

embedding.9.weight_v f4 [8, 1]
00000000: 5e1f 3b3f c2cd cb3e 002d 1f3f 3db7 c83e
00000010: aea1 d83d a3ab 0a3f 034c 23bf c319 013f
0.7309474 0.39805418 0.6217804 0.392023 0.10577713 0.54168147 -0.6378786 0.50429934

embedding.10.bias f4 [8]
00000000: 0d7a 223f 529b 26bf 8d26 24be 07f1 1bbf
00000010: c991 cbbd 3abd e83e d54a 95bd 8136 7bbf
0.63467485 -0.6508075 -0.16030331 -0.60914654 -0.09939916 0.45456868 -0.07289664 -0.9813004

embedding.10.weight_g f4 [8, 1]
00000000: 1ee5 0b3f 4c64 4a3f d640 1e3f 2e41 583f
00000010: 9096 9f3f f68b 6e3e 4a95 1f3f d290 5a3f
0.5464648 0.7905929 0.6181768 0.84474456 1.2467823 0.23295578 0.6233717 0.8537723

embedding.10.weight_v f4 [8, 1]
00000000: 66c2 9a3e 5daa 42bf 910d 0fbf 7d44 383f
00000010: 1367 78bf b97a 243e 800d 453f d791 403f
0.3022644 -0.76041204 -0.55880076 0.71979505 -0.9703228 0.1606244 0.76973724 0.75222534

embedding.11.bias f4 [8]
00000000: c7dc 6b3f 85da a83d 2581 30bf 1ec4 15bf
00000010: 8cc9 133f 16b9 f1be 58f8 bb3e 5b7d 183e
0.92133754 0.08244804 -0.6894706 -0.58502376 0.5772941 -0.47211522 0.3671291 0.1489157

embedding.11.weight_g f4 [8, 1]
00000000: dcc8 1340 fe8a 0a40 1acb a2bf f723 3740
00000010: 2707 acbf 0281 233f a964 86bf d939 94be
2.3091345 2.1647334 -1.2718232 2.8615701 -1.3439683 0.63868725 -1.0499469 -0.28950384

embedding.11.weight_v f4 [8, 1]
00000000: 01e4 4dbf 5854 233f 219c 273e a7e4 7c3f
00000010: c94a 583e b082 6ebf adef 713e 8e6a 6a3f
-0.8042603 0.63800573 0.16368152 0.98786396 0.21122278 -0.93168163 0.23626585 0.9156884

embedding.12.bias f4 [8]
00000000: 87dc 5b3f d10c a1be 6be4 5abe afc3 c43d
00000010: c321 67be cd85 e1be 2708 0f3c 1f41 1ebd
0.85883373 -0.3145509 -0.21376197 0.09607636 -0.22571473 -0.44047394 0.008729971 -0.038636323

embedding.12.weight_g f4 [8, 1]
00000000: 4bb2 c03d 48a9 7f3e 09af 6f3f 3e8e a33e
00000010: 521a 2e3f 2810 9b3d 8247 9b3e 63bb 263f
0.09409007 0.2496692 0.9362646 0.3194446 0.6800891 0.07571441 0.30327994 0.6512968

embedding.12.weight_v f4 [8, 1]
00000000: a00e ac3e 0fd9 7a3d 1e37 44bf 1aa6 c9be
00000010: 965e 5f3f 9122 ee3d 2fe9 013f 14c8 fbbe
0.33604908 0.06124216 -0.766466 -0.39384538 0.872537 0.11627687 0.50746435 -0.49176085

embedding.13.bias f4 [8]
00000000: c47b 293f ae5b 203f f0fc 5e3f 01d3 773e
00000010: d2f7 c33e 0449 253f 0a72 a83e 4e53 8abe
0.66204476 0.6263989 0.871047 0.24201585 0.3827501 0.6456454 0.32899505 -0.2701668

embedding.13.weight_g f4 [8, 1]
00000000: dde6 1e3f ea6c d33e eb94 803f b352 713f
00000010: 7e10 303f 2f1c c0bd 4074 963e dc14 533f
0.6207102 0.41294032 1.0045446 0.94266814 0.68775165 -0.093803756 0.29385567 0.82453704

embedding.13.weight_v f4 [8, 1]
00000000: 99e4 11bf 3502 a83e b129 7cbf abf4 1d3f
00000010: 60ad 6b3f 0b3d 253e 00c9 79be 32de 6cbf
-0.5698944 0.32814184 -0.98501116 0.6170146 0.92061424 0.16136567 -0.24393082 -0.92526543

representation.0.weight f4 [16, 112]
00000000: 8d83 50be 47f6 d7bd 453a 0e3d 69c1 ae3e
00000010: 98a8 9dbd 8e30 073e 02ae 1c3e 392d 13be
00000020: 70d3 22bd ec65 d4bd 3bd5 4c3e cc1a ac3b
00000030: 88d2 65bd 912c d03c 0a58 d639 51fd 69bc
00000040: ec3c b13d 1080 f2bc fa5b a3bb c256 9c3d
00000050: a51d 003d da33 113d 4010 53bd 0706 793e
00000060: 93c9 ef3c 4531 2bbe f319 dfbd 33d2 2cbe
00000070: 0e66 173e b105 b0bc 0fdc d9bc 0f11 6738
00000080: 351e 22bc 0cc7 413c f100 943d cb20 9b3e
00000090: 3146 c6bd d6f2 cc3d f147 1f3b d597 3e3e
000000a0: 3af3 e4bc 79f7 1d3d b1cc 3e3c a3a2 e13d
000000b0: 0115 09bd 20d0 2e3b 2ca8 0e3b 8397 503d
000000c0: 30ca 133c 4ae8 9d3d 2c6f cdbd ab0a eabd
000000d0: f77a 07bd c4c0 57bc 63a1 aebd a8ce 62bb
000000e0: bc98 89be 43f3 b9be aaca 843e 5860 c1be
000000f0: f27d 74be 92ac 813e 0910 823e 256d 2bbd
00000100: f1a8 7abd e45c 01bd 390c b83d 12d9 dabd
00000110: 208c eebc e270 2a3d 83bd dd3d 70dc d23d
00000120: f449 873d dfe4 b8bd 5314 1d3d e081 3f3e
00000130: cee3 c83b 5240 f0bc 5123 ce3d 7511 fabe
00000140: 761b c53d 8223 2fbe 7352 f0bb ba5a e7be
00000150: 1200 5a3e ce87 a63d d4d5 763d 471e 68be
00000160: 573e 0dbe b2d5 a8be 1763 543e b9d4 98ba
00000170: c5b5 343d d308 e7bc e14b 173e 3638 22be
00000180: 5057 6a3d b28a 37bd 01dc 42bd 4c70 92bd
00000190: 0784 223e 6898 1fbe a45f 89bd e74b 2cbe
000001a0: a7c2 b1bd cfd1 76bd 6ade 71bd d8f8 16bd
000001b0: e82e 463d 535a 453c 3cc2 1a3e ed91 20be
000001c0: 0625 053d f829 4a3d f2e9 ecbd f720 ec3d
000001d0: 2b27 6b3c da72 1dbe 0155 0a3e 19cd 91be
000001e0: 63b5 8e3c 5ee2 833c 9c00 e93c 7cc2 27bd
000001f0: a55c 9e3c 3cdf 6fbc 9166 bd3d 72c9 bd3c
00000200: f293 143d 0013 18bd 3a0d 3abd ba73 45bd
00000210: 2b33 79bd c4dc 233d 25a1 a7bd f7ee 913d
00000220: f633 5ebc 1e29 303d cb41 233e c7ce 0fbd
00000230: f976 9dbc 3159 9f3d 3db7 193d 44c5 473e
00000240: f350 c93c 3b1f 263e b3fd 9b3c c2ef 483e
00000250: 08e7 a4bb e29a 613e 76cd ad3d 1ac8 9d3d
00000260: d223 aa3d 1804 013e 4e59 a2bd 5b62 f33d
00000270: 91fe 283d 6092 9a3d 1ded 543d 5c81 dd3d
00000280: eb33 e63a 4fdc 8c3d a972 11be 5cd0 813c
00000290: 5ff3 4fbd 0025 2cbe 97ca d6bd 49b6 8fbd
000002a0: 9837 09be 728b 323e c70d 8ebd dbf5 45be
000002b0: 699e 18be 11cd 06be c660 8fbb c471 fa3d
000002c0: 174e 11bd 9701 813d 1bb5 2bbe ab76 b7bd
000002d0: e659 533b 01c1 4fbe 94f2 efbd 256e f9bd
000002e0: 9849 1c3d edbe 01be aedb 803d 47d7 9b3e
000002f0: 951e a0bd a5e1 87bd 13b8 1a3e 731a e4be
00000300: 4107 5e3e 1dd2 60be 9acf 8a3d 57a8 11bf
00000310: 5966 4d3e 2c0a 4b3e a690 13bd f6b2 acbe
00000320: 72ab 143e 47f5 a1be 78f3 7cbd 2c4f a3be
00000330: c0e6 0c3f 347a 96be 42b2 07be 5c74 f7be
00000340: 855b a83d b188 b4bd f208 4f3c 3ce1 31bd
00000350: 9919 fbbd 4762 96bd cde1 c8bd 84ae 48be
00000360: f269 f23b 3d2d 90bd a12e 4dbe 37b7 c33c
00000370: 9bd6 153d bdd3 103e 5772 8cbd ca91 d8bb
00000380: b622 84bd f367 4e3b 6602 8e3e 578d 823b
00000390: 2338 eabd bee1 693e faeb ca3d 5415 b03e
000003a0: a629 aa3b 1828 a1bd 6e07 82bb a199 3d3d
000003b0: dc79 933d 9645 933d 4253 30bd 410f f63c
000003c0: 1665 a5bd 2f0f 24bd 5c88 21bd 4bfd c3bb
000003d0: 672b 27bd bb4c 97bd a0df 0a3d a77d 1ebc
000003e0: cd16 0dbe 8b5c dcbc 3ce3 a33c ab44 3b3d
000003f0: 8feb 9b3d 04af 073c f435 a53d fed9 edbc
-0.20362683 -0.105450206 0.03472354 0.34131935 -0.07698172 0.13202116 0.15300754 -0.1437272
-0.039752424 -0.103710026 0.20003216 0.005252218 -0.05610898 0.025411876 0.00040882855 -0.014281587
0.08654198 -0.02960208 -0.0049853297 0.07633735 0.03127827 0.03544984 -0.05152917 0.24318705
0.029270923 -0.16718014 -0.10893621 -0.1687706 0.14785025 -0.021487089 -0.02659419 5.509058e-05
-0.009894897 0.011827242 0.07226742 0.30298457 -0.09681357 0.10007255 0.0024304355 0.18612607
-0.02794801 0.038566086 0.011645482 0.110173486 -0.033467297 0.0026674345 0.0021767719 0.050925743
0.009020373 0.07710321 -0.1003097 -0.11427816 -0.033076253 -0.0131685175 -0.08526876 -0.003460804
-0.2687434 -0.36318406 0.2593587 -0.37768817 -0.2387617 0.25326973 0.2540286 -0.041852135
-0.06119627 -0.031582728 0.08986706 -0.10685934 -0.029119551 0.04161156 0.10827162 0.10295951
0.06605902 -0.09028029 0.03834946 0.18701887 0.006130672 -0.029327545 0.1006533 -0.48841444
0.096243784 -0.17103389 -0.0073340475 -0.45186406 0.2128909 0.081313714 0.060262516 -0.226678
-0.13793312 -0.32975537 0.20740925 -0.0011660076 0.04411866 -0.02820245 0.1477504 -0.15841755
0.057212174 -0.044810005 -0.047573093 -0.07150325 0.15870677 -0.15585482 -0.06707695 -0.1682583
-0.08679705 -0.060258683 -0.05905 -0.03685841 0.048384577 0.012045461 0.15113157 -0.15680666
0.03250601 0.04935643 -0.11568059 0.11529725 0.0143526 -0.15375844 0.13508989 -0.2847679
0.017420476 0.016099151 0.028442673 -0.04095696 0.019331286 -0.014640626 0.092480786 0.023167346
0.036273904 -0.037127495 -0.04542277 -0.04820607 -0.060839813 0.04000546 -0.08185033 0.07125657
-0.013562193 0.043007962 0.15943067 -0.035109308 -0.01922177 0.07780684 0.037528265 0.19508845
0.024574732 0.16222851 0.019041872 0.1962271 -0.005032424 0.2203174 0.08486454 0.07704182
0.083076134 0.12599218 -0.0792719 0.11883994 0.0412584 0.0754745 0.05198394 0.10815689
0.001756308 0.06877958 -0.14203896 0.015846424 -0.050769206 -0.1681099 -0.1048786 -0.0701719
-0.13400114 0.17436007 -0.069362216 -0.19332068 -0.14904179 -0.13164164 -0.00437555 0.1222873
-0.035474863 0.06299131 -0.16768305 -0.08958181 0.0032249629 -0.20288469 -0.1171619 -0.121792115
0.038156122 -0.12670489 0.062919006 0.3043768 -0.07818333 -0.06634835 0.15109281 -0.4455143
0.21682455 -0.21955152 0.06777878 -0.5689749 0.20058574 0.19828099 -0.03602662 -0.33730286
0.14518526 -0.31632444 -0.061755627 -0.3189634 0.55039597 -0.2939011 -0.13251594 -0.48330963
0.08220581 -0.08815134 0.01263641 -0.04342769 -0.12260742 -0.07342964 -0.09808693 -0.19597822
0.0073978836 -0.070398785 -0.20037319 0.023891075 0.036581617 0.14143272 -0.06857746 -0.0066091763
-0.06451933 0.0031495064 0.27736205 0.003984134 -0.114364885 0.2284002 0.0990829 0.34391272
0.005192953 -0.078689754 -0.003968171 0.04628909 0.07200977 0.07191007 -0.04304815 0.03003657
-0.08075921 -0.040053543 -0.039436683 -0.0059811226 -0.040812876 -0.07387682 0.03390467 -0.009673513
-0.13778229 -0.026899597 0.020005815 0.045719784 0.076132886 0.008281473 0.08066931 -0.02903461

representation.0.bias f4 [16]
00000000: c133 6bbc a3a2 8f3d 6818 4e3d 41c5 843d
00000010: 054b 113d 2954 ab3d 94af d0bc 86a2 bcbc
00000020: d890 1dbc 822d 1d3d f6ff 09bd 41d2 ff3c
00000030: 2f6f f23c 57b0 913c 9aa2 a43d 2a9d c23c
-0.014355601 0.07013442 0.050316244 0.06482936 0.035471935 0.08365662 -0.025474347 -0.023026716
-0.009617053 0.038373478 -0.03369137 0.031228187 0.029594032 0.01778428 0.08038826 0.023756582

representation.1.weight f4 [16]
00000000: aed6 6c3f e2da 793f 59fc 883f 4c3a 7d3f
00000010: 2b57 703f 3abe 563f eb45 623f 262f 713f
00000020: 00ad 6a3f 28bf 813f fdd1 623f fd56 613f
00000030: d3b6 5f3f b2ab 753f ebe6 6d3f 09a6 543f
0.92515075 0.97599614 1.070201 0.9891708 0.9388301 0.8388401 0.88387936 0.9421257
0.9167023 1.0136461 0.88601667 0.8802336 0.8738834 0.9596511 0.9293048 0.8306585

representation.1.bias f4 [16]
00000000: 3fa5 febe 05e6 d0be d886 ae3e f6c1 b9be
00000010: a652 063f 1522 f3be 6bd1 eebe 2a2a 003f
00000020: 1890 01bf 594d edbe aae1 0cbf f535 ccbe
00000030: f28c 003f ce9a ebbe 71a5 0c3f b52b 053f
-0.49735448 -0.4080049 0.34087253 -0.36280793 0.5246986 -0.4748694 -0.46644148 0.5006434
-0.50610495 -0.46348074 -0.55031836 -0.39884916 0.50215065 -0.46016544 0.54939944 0.52019817

representation.1.running_mean f4 [16]
00000000: a96d 12c0 f091 a9c0 73f5 8740 e725 4ebe
00000010: 932b 8740 779b 243e 8e3f 90bf 7ed1 6e40
00000020: 47ea c03e 27ef 79c0 351c d8bf 8da0 933e
00000030: cec6 25bf 6ba7 a8c0 0de1 8c40 1526 8e3f
-2.2879431 -5.2990646 4.248712 -0.20131646 4.224069 0.1607493 -1.1269395 3.7315364
0.3767874 -3.9052217 -1.6883608 0.28833428 -0.64756477 -5.270437 4.402472 1.1105372

representation.1.running_var f4 [16]
00000000: 7aa5 1641 ee55 e740 e0a0 b740 5dbb a040
00000010: 4936 1241 9fb7 b440 1f85 6441 d264 7341
00000020: 3236 c240 f25c 6341 5632 8241 5708 0541
00000030: c71e 5c41 9980 1d41 265a a041 2767 5f41
9.4154 7.2292395 5.738388 5.0228715 9.138253 5.6474147 14.2825 15.212114
6.0691156 14.210192 16.274578 8.314536 13.757514 9.843896 20.044018 13.962684

model_weighting.0.weight f4 [2, 14]
00000000: 47cd 273e e546 c5bc 0d55 39be a111 4d3e
00000010: 3f8e 553e af7d 8f3e 48af 273e 1c60 843a
00000020: 755a 3ebe 21ca 52be abc8 ad3d f230 4a3e
00000030: f858 663d f155 7abd beb8 163e 5023 38be
00000040: f0dc 0f3d b3f1 81be 540a aebe 55bd 58be
00000050: 89f1 dbbd f66d c13d 8547 033e 37e8 5dbe
00000060: 7257 b0bd f25f de3d a636 0bbe 16af b4bc
0.16386901 -0.024081657 -0.1809885 0.20026256 0.20855044 0.28025576 0.16375458 0.0010099444
-0.18589194 -0.20584919 0.0848554 0.19745234 0.05623719 -0.061117116 0.14718911 -0.1798222
0.03512281 -0.25379714 -0.33992255 -0.21165974 -0.107394286 0.094448015 0.12820251 -0.21670614
-0.08610429 0.10858144 -0.13595065 -0.022056144

model_weighting.0.bias f4 [2]
00000000: 4539 0c3e 5af8 27bd
0.13693722 -0.04100833

models.0.weight f4 [1, 16]
00000000: 16e7 4d3e fd1f 883d 1ae0 99bd 6a4b ed3d
00000010: 9380 6ebe 81b5 713e 2f82 743e d702 43be
00000020: 4d0f 883e 3129 523e 75ad 7b3e a3e8 1d3e
00000030: 203a 96be 4985 1d3e 4313 81be 0027 afbe
0.20107684 0.06646726 -0.07513447 0.1158665 -0.23291235 0.23604394 0.23877786 -0.19044052
0.26574174 0.20523526 0.24577887 0.15420775 -0.2934122 0.15382876 -0.25210008 -0.34209442

models.1.weight f4 [1, 16]
00000000: 49d1 ad3d baac 0a3f 0511 b2be a03e a53e
00000010: cbb6 06be 258e 2fbe f4f5 e13d 1cb6 0abe
00000020: 719f 53be ac47 863e 9759 643d cc03 af3e
00000030: 0298 f13d 9dbe a03e 563c b8bd 1a1a 583e
0.084871836 0.5416981 -0.3477861 0.32274342 -0.13155667 -0.17144068 0.1103324 -0.13546032
-0.20666291 0.26226556 0.055749502 0.34182584 0.11796571 0.31395426 -0.08995883 0.21103707

aggregator.weight f4 [14, 14]
00000000: b9bd e13c 0b6c 0bbb fd55 dc3c 9d59 abbd
00000010: 571f 173e 9e82 72be bd9f 433d 419e 07be
00000020: 113e 3c3e c982 c53c 397a 5b3e a146 1d3c
00000030: a2bf 033e 573d 0e3c 0e7b 783d 74b7 e73d
00000040: cd93 313e 2775 333e fafd e03e 445f 71bd
00000050: 61cc f43d f23a a5be 10ca be3e af9d d73c
00000060: b1b5 ab3c 2d56 bb3d 2d70 453e 7b82 193f
00000070: ad7f 913d d218 803d b6a5 973d c8ad 633d
00000080: 99e3 96be d3a0 acbe 3b70 82be 6ff3 f9bd
00000090: c736 b0be c329 c23d b6dd 80be 5045 dcbe
000000a0: 1c25 eabd bc24 abbd 9cfc 8bbe 94ba 8cbe
000000b0: 5433 03bd 3595 bb3e 403e 2b3f ebc5 a03e
000000c0: 87dd e83e af45 1fbe 3ad6 bb3e a3b0 e43d
000000d0: a90f 953d 5146 733e 532d bb3e 9fee f13e
000000e0: 3261 d1bc ad8e 1f3e f305 883c 7b6d 7b3e
000000f0: 7630 433f 926a 9e3e 5a42 493e 29d3 3fbe
00000100: 64b8 703e 7fb8 013e 03fd a23d ed5a fa3e
00000110: e4fc b63e 1ad4 593e 8ce8 5bbe e508 323e
00000120: 7286 693d e892 953d 14a3 a53e 450e d53e
00000130: 2ade db3e c95f 70be 597a 3ebd 543f b93e
00000140: ad24 353e 5879 8e3e 7100 2e3d f769 063f
00000150: 1496 4abe 3dab be3c c8c6 37be 92b1 a7bd
00000160: 067f 873e fe05 c83e 2baa 073f 5e6c a4be
00000170: 61a6 c13e d463 24bd 531d 4cbe 7f58 e23e
00000180: 3be3 cf3e 7c41 023f daf2 a93d 52b0 c93e
00000190: 84e0 90be 932f 1abc 3ec9 15bf 563d f7bd
000001a0: c899 abbd de14 8ebd 52d6 fabc 6080 21be
000001b0: dec6 133e df1e 9bbe f657 d0bd 2974 a6bd
000001c0: 6b0d babd eba8 33be 8548 273e dd12 a3be
000001d0: 022f eebe e2a7 013c 8434 adbe 7798 903e
000001e0: 5c9f 42bc 2cc6 3ebe 8ba3 0b3c 36a3 9abe
000001f0: be25 83bb a6d4 39be 0c06 3dbe 31a9 f8bc
00000200: f69c 0e3e 77e7 883e 700c b53e 2f75 323e
00000210: 0090 a23d 9f21 77bd a193 06be 88e8 6e3e
00000220: ff33 4a3e fbfc 0fbd 59e7 01be 9131 a63e
00000230: a10e 86be 971d 7d3d e67d 36be 9e77 a93c
00000240: 50bd cf3e f820 ce3e 5887 793e 12e7 073e
00000250: 50b4 7d3e fe8b c23e 0967 643e db30 033f
00000260: bbbd f93e 36e8 8f3e 2512 e2bd cf26 55bd
00000270: 1346 8f3e 811f f53c 4e2d 913e c74a afbd
00000280: a28c 0a3e 28d6 a1bd 30d2 e23d 601a d43c
00000290: 5bb2 d0bd 56ff b53e 51da b63b 4c52 173f
000002a0: 256c 45bd 630f 6cbd ea47 393e 6d86 7d3d
000002b0: 93b7 423f 527c 303e b270 ad3e 5433 afbe
000002c0: 7c98 693e 4441 773e 839a de3d 7fae a23e
000002d0: 3235 f73e d14f 193f ae59 fe3d 9a1c 1bbd
000002e0: c691 7d3c d8c2 90be f38e b5be 1fc9 d9bd
000002f0: e94c aebd d975 28be fd25 70be 7e04 e43d
00000300: b39c d43d 0548 a0be fcc5 663d 23ad abbe
0.027556287 -0.0021274115 0.026896471 -0.08366702 0.14758049 -0.23682639 0.04775976 -0.13243963
0.18383051 0.024110215 0.21433343 0.009599359 0.12866071 0.008681617 0.06066423 0.11314288
0.17341538 0.17525159 0.4394377 -0.058928743 0.11953045 -0.32271534 0.37263536 0.026320307
0.02096066 0.09147296 0.19281073 0.5996472 0.0710443 0.06254734 0.07404654 0.055585653
-0.29470518 -0.3371645 -0.2547625 -0.122046344 -0.34416792 0.09480622 -0.25169152 -0.4302163
-0.11432859 -0.08356616 -0.27341163 -0.27486098 -0.032031372 0.36637273 0.6689186 0.31401
0.45481512 -0.15553926 0.3668688 0.11166503 0.072783776 0.23757292 0.36558017 0.47252366
-0.025559042 0.1558177 0.0166044 0.24553482 0.7624582 0.30940682 0.19654217 -0.18732895
0.2350784 0.12668036 0.079584144 0.48897496 0.35739815 0.21272317 -0.21475428 0.17386205
0.057012983 0.07303411 0.3235098 0.4161245 0.42942935 -0.23474039 -0.0465034 0.36181128
0.17689772 0.27826953 0.04248089 0.5250544 -0.19783813 0.023275012 -0.17946923 -0.08188166
0.264641 0.39067072 0.5299403 -0.32113928 0.3782225 -0.040134266 -0.19933061 0.44208142
0.4060305 0.5088117 0.082982734 0.39392334 -0.28296292 -0.009410757 -0.58510196 -0.12072246
-0.08378941 -0.06937574 -0.030619774 -0.15771627 0.1443133 -0.3029699 -0.10173027 -0.081276245
-0.090845905 -0.17544906 0.16336258 -0.3185033 -0.4652024 0.007913562 -0.3382913 0.2824132
-0.011878815 -0.18630284 0.008522878 -0.30202645 -0.004002302 -0.18147525 -0.18459338 -0.030354114
0.13927063 0.26739094 0.35361052 0.17427514 0.07937622 -0.060334798 -0.13142253 0.23330891
0.19746397 -0.03515337 -0.12685908 0.3245969 -0.26183036 0.061795797 -0.17821464 0.02068692
0.4057412 0.40259528 0.24368036 0.1327174 0.24775815 0.3799743 0.2230493 0.5124642
0.48777565 0.2810685 -0.11038617 -0.052038964 0.2798315 0.029922249 0.28354877 -0.085591845
0.1353021 -0.07902175 0.11075246 0.025891483 -0.101902686 0.35546368 0.0055802246 0.5910995
-0.048198838 -0.05763186 0.1809384 0.061895777 0.7606136 0.17234924 0.33875042 -0.34218848
0.22812074 0.2414599 0.108693145 0.31773755 0.48282772 0.59887415 0.12419449 -0.037869073
0.01547665 -0.28273654 -0.35460624 -0.10634064 -0.08510763 -0.16451205 -0.23451991 0.11133669
0.103814505 -0.31304947 0.056341156 -0.3353053

aggregator.bias f4 [14]
00000000: 484b 0e3d f246 c13d ba52 0ebd 5b97 543e
00000010: be22 35be ea7c 17be 9507 273e 3bcb 013c
00000020: b739 9cbd 5a2d 5dbc 9400 c7bd caca b63d
00000030: 3929 373e e9c0 ce3d
0.034739763 0.0943736 -0.034746863 0.20760863 -0.17689034 -0.14793745 0.16311486 0.007921989
-0.07628196 -0.013499582 -0.09716907 0.08925398 0.17886819 0.100953884
