bank/Models/nn/0.901_3/params.pt (torch_old, 6889 bytes, 7 tensors)

linears.0.weight f4 [32, 19]
0	0x3db48bc3	0.0881572
1	0xbe087a49	-0.13327898
2	0xbdfbeb00	-0.12300682
3	0xbcf4205f	-0.029800592
4	0xbdd8825b	-0.10571738
5	0x3dd5739a	0.1042244
6	0xbddf934a	-0.10916765
7	0xbcb15083	-0.021644836
8	0xbc16b56a	-0.009198526
9	0x3e48226c	0.19544381
10	0x3e09789e	0.13424918
11	0xbe59eab4	-0.21280938
12	0xbc7bad4d	-0.015361142
13	0x3e97d9ec	0.2965845
14	0xbdbb8e52	-0.09158005
15	0x3ec096f4	0.37615168
16	0x3e8f1bf1	0.27951005
17	0xbe11fdd2	-0.14256981
18	0xbeb41b27	-0.35176966
19	0x3e1fb135	0.15594943
20	0x3e119c32	0.1421974
21	0xbe135ddc	-0.14391273
22	0x3d957856	0.07298343
23	0x3e8eff78	0.27929282
24	0x3e1961e6	0.14978752
25	0x3e95f334	0.29287112
26	0xbd07aa7e	-0.03312158
27	0x3d81316d	0.06308255
28	0xbe510ea2	-0.20415738
29	0xbd7a56ef	-0.061118063
30	0x3f10e01c	0.56591964
31	0x3e4832ca	0.19550624
32	0xbe929a8b	-0.28633532
33	0x3d232431	0.039829437
34	0xbd65e8c7	-0.056130197
35	0xbe1b27bd	-0.15151878
36	0x3ea00388	0.31252694
37	0x3e6a144f	0.2285931
38	0x3c2825c7	0.010262913
39	0xbe311b1c	-0.17295498
40	0xbd81a80f	-0.06330883
41	0x3e1fb4d2	0.15596321
42	0xbd838900	-0.06422615
43	0xbe000fb2	-0.12505987
44	0x3dca5386	0.09879212
45	0x3defd48a	0.117104605
46	0x3e1a0cfc	0.15044016
47	0xbdf0a09f	-0.11749386
48	0xbcdacc2c	-0.026708685
49	0x3ed16127	0.40894434
50	0x3d606874	0.054787114
51	0xbd97edd0	-0.07418406
52	0x3e9d9b16	0.30782384
53	0xbebacc16	-0.3648383
54	0xbe45ede0	-0.19329023
55	0x3e78c938	0.24295509
56	0x3ed80a91	0.42195562
57	0xbe5b8ffd	-0.21441646
58	0xbe1c96c2	-0.15291885
59	0x3e4aa0b8	0.19787872
60	0xbdb51dbc	-0.08843562
61	0x3d993b31	0.07481993
62	0x3dcc2d48	0.09969574
63	0xbe6c5f49	-0.23083223
64	0xbe0cedd5	-0.137626
65	0xbe3d0f6d	-0.18462916
66	0x3e760a22	0.24027303
67	0x3de09476	0.10965817
68	0x3e29e33f	0.16590594
69	0x3d6b11a4	0.05738987
70	0x3e8e751a	0.27823716
71	0xbe1f6d25	-0.15568979
72	0x3d9ef20d	0.07761011
73	0xbccfbccf	-0.025358586
74	0x3d9f3cb7	0.07775252
75	0xbe2acd5e	-0.16679904
76	0x3d4c50f1	0.04988188
77	0xbd1a1c0f	-0.037624415
78	0x3d18475e	0.037177436
79	0x3d1d293e	0.03836941
80	0xbe482403	-0.19544987
81	0xbd8a6a70	-0.067585826
82	0x3b86e345	0.004116448
83	0xbe96e273	-0.29469642
84	0xbdd9a189	-0.106265135
85	0xbdcaf7d7	-0.09910553
86	0x3e959544	0.29215443
87	0x3e9cc35b	0.30617794
88	0x3e9d94e2	0.3077765
89	0x3daadb6c	0.08342633
90	0x3ea21040	0.31653023
91	0x3e09cfc7	0.13458167
92	0x3cfe4ec2	0.031043414
93	0x3ea43b22	0.32076365
94	0xbbf5d38d	-0.0075020255
95	0xbe3cf4c6	-0.18452749
96	0x3e1e156d	0.15437861
97	0x3e0d3f9e	0.137938
98	0x3d034127	0.032044556
99	0xbdad9ccb	-0.084771715
100	0x3e538902	0.20657733
101	0xbe549d97	-0.20763241
102	0x3e118ee3	0.14214663
103	0x3e1440d9	0.14477862
104	0x3dd16893	0.10225024
105	0xbc77cdae	-0.015124721
106	0x3ee0bcd6	0.4389407
107	0xbd8f9d83	-0.07012465
108	0x3d79a87c	0.060951695
109	0x3d3502a6	0.04419198
110	0x3d46425c	0.04840313
111	0xbe810af2	-0.25203663
112	0x3d47610c	0.048676535
113	0xbdd0d563	-0.1019695
114	0xbe075ff8	-0.13220203
115	0x3d0d9090	0.034561694
116	0x3d8ee4e0	0.06977248
117	0x3e290a5e	0.16507861
118	0x3c4e7e01	0.012603284
119	0x3e8df981	0.2772942
120	0x3dc0ec32	0.09420051
121	0xbe1ced77	-0.1532496
122	0x3dd2841f	0.10279106
123	0xbe931391	-0.28725865
124	0x3e05964e	0.13045618
125	0x3e9e69e5	0.30940166
126	0xbdd11bf7	-0.10210412
127	0x3dad14b1	0.08451212
128	0xbd6ccb6c	-0.057811186
129	0xbe466123	-0.19372992
130	0x3ddbf306	0.107397124
131	0x3e61d43d	0.22053619
132	0x3e5fb5d7	0.2184671
133	0x3e0164bc	0.12636083
134	0x3d48d76d	0.04903357
135	0xbccba7f3	-0.024860358
136	0xbea9e6b2	-0.3318382
137	0x3dc064d7	0.09394234
138	0x3e0f0bf6	0.13969406
139	0xbed3e4fb	-0.41385636
140	0x3da1a35e	0.07892488
141	0xbe39e9bd	-0.1815557
142	0x3eb03131	0.3441253
143	0x3c825cc9	0.015913384
144	0xbebeedfb	-0.3729094
145	0xbe4953e5	-0.1966091
146	0x3ec1ce57	0.37852737
147	0xbeb8b26b	-0.36073622
148	0x3ed69c18	0.41915965
149	0x3eb2269c	0.34795082
150	0xbe6d59c0	-0.23178768
151	0xbf267590	-0.65023136
152	0x3c0c217a	0.008552903
153	0x3e29d7fc	0.16586298
154	0xbdc1b9a3	-0.094592355
155	0x3e814e4a	0.25255042
156	0x3d669ac4	0.05629994
157	0xbe1c8f27	-0.15288983
158	0x3e885c2d	0.26632825
159	0x3cdba940	0.026814103
160	0xbcfb7678	-0.030696139
161	0xbc098e0b	-0.008395682
162	0xbdc3e4b5	-0.09565107
163	0x3f1e9f5f	0.6196193
164	0x3ea4f5fd	0.32218924
165	0xbe8da06b	-0.27661452
166	0x3e462dd2	0.19353417
167	0xbdc92f34	-0.098234564
168	0xbe45b3b4	-0.19306833
169	0x3ec9dd23	0.39426526
170	0x3e883580	0.26603317
171	0x3e093e58	0.13402689
172	0x3dc8594d	0.09782658
173	0xbd18f4ff	-0.03734302
174	0xbdf1b1b8	-0.11801475
175	0x3dcff8fb	0.10154911
176	0x3e07540d	0.13215657
177	0x3e1b9fe4	0.15197712
178	0xbe200c5c	-0.15629715
179	0xbe5b7b98	-0.21433866
180	0xbe16206a	-0.14660802
181	0x3d5b9784	0.053611293
182	0x3f11a86a	0.56897604
183	0xbc0b72f7	-0.0085112965
184	0xbd3385d8	-0.043828815
185	0x3eb3c1e9	0.3510888
186	0xbd920a8e	-0.071309194
187	0x3e4ff48d	0.20308132
188	0x3e4b0ca4	0.19829041
189	0x3e5535b5	0.20821269
190	0xbd116c55	-0.035503704
191	0xbde8cf85	-0.11367706
192	0x3d9c4f83	0.07632353
193	0x3cab10ca	0.02088203
194	0xbd3f52b2	-0.046709724
195	0xbd5245e9	-0.051336203
196	0x3e945932	0.289743
197	0x3dec1752	0.115278855
198	0xbd0e686d	-0.034767557
199	0xbe2e3c36	-0.17015156
200	0xbdf6513b	-0.12027212
201	0x3ed6dece	0.4196686
202	0x3eefad76	0.46812028
203	0x3c830542	0.015993718
204	0x3ed0c679	0.40776423
205	0xbdd82371	-0.10553635
206	0x3dac1014	0.08401504
207	0x3e34ffaf	0.1767566
208	0x3e494046	0.19653425
209	0xbd68a716	-0.05679997
210	0xbe05995a	-0.1304678
211	0x3e1a3eb1	0.15062977
212	0xbe5ab9e1	-0.2135997
213	0x3e2592fc	0.16169351
214	0xbdf1ddf4	-0.11809912
215	0xbe9fc463	-0.3120452
216	0x3d0c774e	0.034293465
217	0x3de9d54b	0.114176355
218	0x3edeed4c	0.43540418
219	0x3d355a8c	0.044275805
220	0xbec4db3e	-0.3844852
221	0xbd9acdad	-0.07558761
222	0x3d84ce83	0.064847015
223	0xbe48ec5e	-0.19621417
224	0x3daf05da	0.08546038
225	0x3d49641c	0.049167737
226	0xbed8de78	-0.4235723
227	0xbefddfd3	-0.49584827
228	0xbdd2cb54	-0.10292688
229	0x3e86c1fe	0.2631988
230	0xbe2b9835	-0.16757281
231	0x3eb3b4be	0.35098833
232	0x3e494a38	0.19657218
233	0x3d76f929	0.06029621
234	0xbccb151b	-0.024790337
235	0x3e412f70	0.18865752
236	0xbd238b80	-0.03992796
237	0xbdd226bf	-0.102612965
238	0x3d773aeb	0.060358923
239	0x3f205dbe	0.6264304
240	0x3dbd90ac	0.092561096
241	0xbe2b6bc6	-0.16740331
242	0x3ec8819a	0.39161378
243	0xbd2f793f	-0.04284024
244	0xbe6274a9	-0.22114815
245	0x3eadf285	0.3397409
246	0x3ee9dd81	0.45676807
247	0xbd28ef27	-0.0412437
248	0x3e8a9e9d	0.27074137
249	0x3d07b8be	0.03313517
250	0xbe4c3040	-0.19940281
251	0xbe086e91	-0.13323428
252	0xbe1c2b03	-0.15250783
253	0x3d41f68d	0.04735427
254	0xbce96bce	-0.028493788
255	0x3e25bdb0	0.16185641

linears.0.bias f4 [32]
0	0x3e5e498e	0.21707746
1	0x3e7265f4	0.23671705
2	0x3df816aa	0.12113698
3	0x3e28d418	0.16487157
4	0x3dcae4e9	0.099069424
5	0xbe05033f	-0.1298952
6	0xbc5306b3	-0.012880015
7	0x3d6a2778	0.057166547
8	0x3d8da7a6	0.06916742
9	0xbc9c3314	-0.019067325
10	0xbd076dda	-0.033063747
11	0x3c56ef67	0.013118601
12	0x3d92d2ec	0.071691364
13	0x3e23f604	0.16011816
14	0xbe884124	-0.26612198
15	0xbd3b243a	-0.045688845
16	0x3d8f3e34	0.06994286
17	0xbe48cf74	-0.19610387
18	0xbe375e43	-0.17907052
19	0xbd28f115	-0.04124554
20	0x3e6a3a2a	0.2287375
21	0xbdd074d3	-0.101785325
22	0xbe6451f2	-0.22296885
23	0x3b91da52	0.0044510746
24	0xbe253118	-0.16132009
25	0x3dbd690b	0.09248551
26	0x3e2126b7	0.15737425
27	0xbe5c8356	-0.21534476
28	0xbd729f64	-0.059234038
29	0xbd465ac0	-0.04842639
30	0x3e24a454	0.16078311
31	0xbdfb930c	-0.12283906

linears.1.weight f4 [16, 32]
0	0xbdebeb32	-0.11519469
1	0x3e0ab611	0.13546015
2	0x3e76dc8d	0.24107571
3	0x3dbf61eb	0.09344848
4	0x3e442af8	0.19157016
5	0x3e0e0fe2	0.13873246
6	0x3d72ca8d	0.0592752
7	0xbe0e0ce0	-0.13872099
8	0x3d659d3a	0.056058146
9	0x3e0561ef	0.1302564
10	0x3e6816b5	0.22664912
11	0xbe454577	-0.1926478
12	0xbd31bc76	-0.04339262
13	0xbe4ca661	-0.19985344
14	0xbd382cbc	-0.044964537
15	0x3d9b7f85	0.07592682
16	0x3dd33627	0.10313063
17	0xbd719e42	-0.058988817
18	0x3dc3c242	0.09558536
19	0x3e37f763	0.17965464
20	0x3e392695	0.18081124
21	0x3cbdf7a7	0.023189379
22	0x3d097b53	0.033564877
23	0x3e34e607	0.17665873
24	0x3e09a4df	0.134418
25	0x3e329081	0.17437936
26	0xbc9a441d	-0.018831307
27	0x3dd91635	0.10599939
28	0x3c86b8e2	0.01644558
29	0xbdbdfe92	-0.09277071
30	0x3eb37a35	0.35054174
31	0xbd533e35	-0.051572997
32	0xbe02d6c7	-0.12777244
33	0xbbfc9c8d	-0.007709092
34	0x3d00e354	0.031466797
35	0x3db78ba4	0.08962181
36	0x3e23777c	0.15963548
37	0x3da0ae0f	0.07845699
38	0xbda9951f	-0.08280396
39	0xbdfba244	-0.12286809
40	0x3e390a7f	0.1807041
41	0x3e3c9f2a	0.18420091
42	0xbcf15be2	-0.029462758
43	0xbe294f19	-0.1653408
44	0x3bfd8a5c	0.007737441
45	0xbe11547e	-0.14192387
46	0xbe35221f	-0.17688797
47	0x3caf858a	0.021425981
48	0x3d23f52c	0.040028736
49	0xbda1f4f2	-0.07908048
50	0x3db8a005	0.09014896
51	0x3e3b031c	0.18262905
52	0x3e18db93	0.14927511
53	0x3d8f2b18	0.06990641
54	0x3da799b9	0.08183617
55	0xbd9457b9	-0.07243294
56	0x3d426677	0.047461
57	0x3db9d3eb	0.09073623
58	0x3c071640	0.008245051
59	0xbc641d6e	-0.013923032
60	0x3db00cb2	0.085961714
61	0xbdcdf41a	-0.10056324
62	0xbd79d7c6	-0.060996793
63	0xbcc962ac	-0.024583183
64	0x3d234dc0	0.03986907
65	0x3dacf0db	0.08444377
66	0xbd4c82b9	-0.049929354
67	0xbd8c7c14	-0.068596035
68	0x3ea0a92c	0.31379068
69	0xbd60bc1b	-0.05486689
70	0x3e0998ed	0.13437243
71	0x3de1943f	0.11014604
72	0x3e0df8e4	0.13864475
73	0x3b8e4d4e	0.0043427115
74	0x3e69a821	0.22818042
75	0x3d0f922d	0.035051513
76	0xbcbc6af3	-0.023000216
77	0x3e06ae5f	0.13152455
78	0xbe841476	-0.2579686
79	0x3ea363f2	0.3191219
80	0xbde1396f	-0.10997283
81	0x3c50a2c8	0.012734123
82	0x3dd5ed91	0.10445703
83	0x3e01c587	0.12673007
84	0x3d410050	0.04711944
85	0x3dec7c27	0.11547118
86	0x3cc6f561	0.024286928
87	0xbdfacb01	-0.12245751
88	0x3e1c8f7d	0.15289111
89	0x3d41b5b3	0.047292423
90	0x3e44ad31	0.19206692
91	0x3d910a92	0.07082094
92	0xbdd72757	-0.1050555
93	0xbe0639f4	-0.13108045
94	0x3ce282fa	0.027650345
95	0x3e29853e	0.16554734
96	0x3eb5436c	0.35403
97	0x3d36c5c7	0.04462221
98	0xbe1e7bb9	-0.15476884
99	0x3e5cf5f6	0.21578202
100	0xbdcbf088	-0.09957987
101	0x3e35b769	0.17745747
102	0x3dcd68de	0.100297675
103	0x3eaab665	0.3334228
104	0xbddd0079	-0.10791106
105	0x3e5f60e9	0.21814312
106	0x3cbf5a7e	0.02335858
107	0x3e8d8360	0.27639294
108	0xbe285ac5	-0.16440876
109	0x3e8133a1	0.25234702
110	0x3eb34de1	0.35020354
111	0xbe586dc0	-0.21135616
112	0xbd83f538	-0.06443256
113	0xbddc5f25	-0.10760335
114	0x3cb0c67c	0.02157902
115	0xbd69f5bb	-0.057119112
116	0xbe2c3032	-0.1681526
117	0x3da80764	0.08204535
118	0x3d8907b1	0.0669092
119	0xbd785e3f	-0.060636755
120	0x3d9b1a83	0.07573416
121	0xbe0a4c8d	-0.13505764
122	0x3d794c19	0.060863588
123	0xbd6cf3b5	-0.057849605
124	0xbe240ae0	-0.16019773
125	0x3e0f63db	0.14002936
126	0xbe845d29	-0.25852326
127	0xbe8d4468	-0.27591252
128	0x3ddc23aa	0.1074899
129	0xbe324adf	-0.17411374
130	0xbe2a5685	-0.16634567
131	0x3b8661f3	0.004101032
132	0x3cce3903	0.02517367
133	0xbdd400fa	-0.10351749
134	0x3b8ebcab	0.004355987
135	0xbd75b0c2	-0.059983023
136	0xbdddf7f2	-0.108383074
137	0xbe36c5aa	-0.1784884
138	0xbdb6c9ab	-0.08925184
139	0xbddfbd78	-0.1092481
140	0x3d605d04	0.054776207
141	0xbd8c2978	-0.06843847
142	0xbced795c	-0.028988533
143	0xbcef2ab3	-0.029195165
144	0xbd017d7d	-0.031613816
145	0xbddeea20	-0.108844995
146	0x3dfffab5	0.124989904
147	0x3d0945d5	0.033513863
148	0x3d42950a	0.047505416
149	0xbd46f077	-0.04856917
150	0x3de246bc	0.11048648
151	0xbd767c69	-0.06017724
152	0xbe2a2bd7	-0.16618286
153	0xbe24132d	-0.1602294
154	0x3d25c233	0.040468406
155	0xbdb1eed6	-0.086881325
156	0x3d95fee5	0.07324008
157	0xbd7d4f1d	-0.061843026
158	0xbdc8087b	-0.097672425
159	0xbde79f79	-0.11309714
160	0xbe61970d	-0.22030278
161	0x3e3d5271	0.1848848
162	0x3e33445b	0.17506544
163	0x3b6740ca	0.003528642
164	0x3e030b00	0.12797165
165	0x3d80e542	0.062937275
166	0x3e65075e	0.22366092
167	0xbd014cae	-0.031567268
168	0xbc822232	-0.015885446
169	0xbd0e5354	-0.034747437
170	0x3e95321d	0.29139796
171	0xbe6ebd08	-0.23314297
172	0x3d844ff1	0.0646056
173	0xbd826f04	-0.06368831
174	0xbc6d4c74	-0.01448356
175	0x3e2824f5	0.16420348
176	0x3d020909	0.031746898
177	0x3d6dc826	0.058052205
178	0x3dbf3d70	0.0933789
179	0x3d8a4726	0.06751852
180	0x3ae46211	0.0017424246
181	0x3e0f772f	0.14010309
182	0xbe293479	-0.16523923
183	0x3d6e153d	0.058125723
184	0x3dbed132	0.093172446
185	0x3dfa639a	0.12226029
186	0x3e83abd2	0.25717026
187	0xbd10ef9b	-0.035384756
188	0x3e216e38	0.15764701
189	0xbd39be9b	-0.04534779
190	0x3e892d74	0.2679249
191	0x3ce82d92	0.028342042
192	0xbe429ab3	-0.19004326
193	0xbb3ce122	-0.0028820713
194	0x3e823080	0.25427628
195	0x3d2497ec	0.040183946
196	0x3eca9530	0.39566946
197	0x3c808205	0.015686998
198	0x3e309c2d	0.17247076
199	0xbde2e0b0	-0.11078012
200	0x3e4487ee	0.19192478
201	0xbc3bff3b	-0.011474426
202	0xbce7047d	-0.028200382
203	0x3da5832b	0.08081659
204	0x3c3c9bff	0.011511802
205	0xbe4e16c1	-0.20125867
206	0xbe1e6fff	-0.1547241
207	0xbd051edc	-0.032500133
208	0x3e46da48	0.19419205
209	0x3dc7c7bd	0.09754894
210	0xbb69a9b7	-0.0035654136
211	0x3de8bab2	0.11363734
212	0xbb739d9e	-0.0037172805
213	0xbdaaf920	-0.08348298
214	0xbdbb0359	-0.09131498
215	0xbcb3d7f9	-0.02195357
216	0x3cc3cd75	0.02390168
217	0x3e287d22	0.16453984
218	0x3ca8aa0a	0.020588893
219	0x3d469923	0.048485886
220	0x3c281a73	0.010260212
221	0x3d582449	0.05276898
222	0xbd030567	-0.031987574
223	0x3daa3732	0.08311309
224	0x3bacd73d	0.005274682
225	0x3dd21606	0.10258107
226	0xbd223d82	-0.03960944
227	0xbcc77a40	-0.024350286
228	0x3e5a1a47	0.21299087
229	0x3ddabc13	0.106804036
230	0x3c9f3bee	0.019437756
231	0xbe2c83c4	-0.1684714
232	0x3de01c59	0.10942907
233	0x3e2d8d63	0.16948466
234	0x3e7105ed	0.23537417
235	0xbe8d8014	-0.27636778
236	0x3d19970c	0.037497565
237	0xbeabb4b1	-0.33536294
238	0xbe5f7644	-0.21822459
239	0xbcae04f5	-0.021242598
240	0x3d20ffb1	0.039306346
241	0xbdcba485	-0.09943489
242	0x3e1ab384	0.15107542
243	0x3d5ef143	0.054429304
244	0x3e61def4	0.22057706
245	0x3dc5fb9e	0.09667133
246	0xbe392c85	-0.18083389
247	0x3c54253f	0.012948333
248	0x3caf4184	0.021393545
249	0xbd782486	-0.060581706
250	0x3e4341b2	0.1906803
251	0x3db1645d	0.08661721
252	0x3af90c16	0.0019000794
253	0x3e2bc641	0.16774847
254	0x3dd52cee	0.1040896
255	0x3e032d3a	0.12810221

linears.1.bias f4 [16]
0	0x3d8eeaf5	0.06978408
1	0x3e43d2c9	0.19123377
2	0x3e605e25	0.21910913
3	0x3c861248	0.016366139
4	0x3d773748	0.060355455
5	0xbdd5b022	-0.10433985
6	0xbd30c1f9	-0.043153737
7	0x3e5aa6c4	0.21352679
8	0x3e151fbe	0.1456289
9	0xbdadfe36	-0.084957525
10	0xbcda96aa	-0.02668317
11	0x3da77f1c	0.08178541
12	0xbb1e2919	-0.0024133383
13	0xbd4895ab	-0.04897086
14	0x3dd37c7d	0.10326479
15	0x3e2d58cb	0.16928403

linears.2.weight f4 [8, 16]
0	0x3e93d90b	0.28876528
1	0xbdedadfc	-0.116054505
2	0x3dd5d49e	0.10440944
3	0xbe998222	-0.29982096
4	0x3e45edf3	0.19329052
5	0x3e905324	0.2818843
6	0x3e010d6a	0.12602773
7	0x3e4a46f2	0.19753626
8	0xbd67062e	-0.056402378
9	0x3d8fddbf	0.070247166
10	0x3e827c9e	0.254857
11	0xbcf4abf0	-0.029867142
12	0x3de2c121	0.11071993
13	0xbe8ee1c3	-0.27906618
14	0x3e697e1f	0.22802018
15	0x3c95cc5b	0.01828592
16	0x3e35e392	0.17762592
17	0x3e27f1e0	0.16400862
18	0x3db64642	0.08900119
19	0xbe950587	-0.2910578
20	0xbdaa8e79	-0.08327956
21	0xbe0ff730	-0.14059138
22	0x3e00b596	0.1256927
23	0xbda675a9	-0.08127911
24	0x3e897146	0.26844233
25	0xbd991bdb	-0.07476016
26	0x3e892d1e	0.26792234
27	0x3d2d6872	0.042335935
28	0xbda2cb54	-0.07948938
29	0xbebd9c2c	-0.37033212
30	0xbdd504d6	-0.10401313
31	0xbdddf9e2	-0.10838677
32	0x3e5666f3	0.2093771
33	0x3d2e7dd3	0.042600464
34	0x3eb1697d	0.34650794
35	0xbdc8500d	-0.097808935
36	0xbdf05920	-0.11735749
37	0x3e382424	0.17982537
38	0xbda65bfd	-0.08123014
39	0x3e835e80	0.25658035
40	0x3ea9f0fe	0.33191675
41	0xbe202eb2	-0.15642813
42	0xbcd31394	-0.025766172
43	0x3e7fb2e3	0.24970584
44	0x3e746b7b	0.23869126
45	0xbd7f7f2a	-0.062377132
46	0xbd309577	-0.04311129
47	0x3e96cd31	0.29453424
48	0xbeb62571	-0.3557544
49	0x3d9bdbba	0.07610269
50	0x3e0cc06d	0.1374528
51	0x3ecba958	0.39777637
52	0x3e207895	0.15670998
53	0xbe560206	-0.2089921
54	0xbe78b750	-0.24288678
55	0xbc8a4d80	-0.016882658
56	0xbe64ffef	-0.22363256
57	0x3ec4b2e9	0.38417748
58	0xbdc79ecd	-0.09747086
59	0xbd6ca905	-0.057778377
60	0xbe519a62	-0.20469049
61	0x3e2a2bdb	0.16618292
62	0x3d6c36df	0.057669517
63	0xbbbc34ed	-0.005743614
64	0xbe94c0c8	-0.2905333
65	0x3dbc439e	0.091925845
66	0x3c8e4243	0.01736558
67	0xbe3df6c7	-0.1855117
68	0xbd32cc10	-0.04365164
69	0x3d71d5e1	0.05904186
70	0xbe20a30e	-0.156872
71	0xbd280cea	-0.04102794
72	0xbeadd234	-0.33949435
73	0xbd8202ec	-0.063482136
74	0xbe4aabde	-0.19792125
75	0xbec5554f	-0.38541648
76	0xbe8dbec8	-0.27684617
77	0xbde3841e	-0.11109184
78	0x3dff32a1	0.124608286
79	0x3e22a0bb	0.15881626
80	0x3e4e1b53	0.20127611
81	0x3d484fa0	0.04890406
82	0x3d8783a2	0.06616904
83	0xbd795b10	-0.06087786
84	0xbe2f90a7	-0.17145024
85	0x3d7b1e9d	0.061308492
86	0x3df9f948	0.1220575
87	0x3e2bb3fd	0.16767879
88	0xbd1442f5	-0.036196668
89	0xbdd5ee95	-0.104458965
90	0x3e11e207	0.14246379
91	0x3dc9bd3a	0.09850545
92	0xbe1417db	-0.14462225
93	0xbe843796	-0.2582366
94	0x3e77fb61	0.24216987
95	0x3e059c26	0.13047847
96	0xbe2ccddf	-0.16875409
97	0x3e5451f7	0.20734392
98	0xbe3d728e	-0.1850073
99	0xbec96895	-0.39337602
100	0x3e3e70f4	0.18597776
101	0x3e172b35	0.14762576
102	0x3e21f956	0.1581777
103	0x3e27cca9	0.16386665
104	0x3c9a18f0	0.01881072
105	0xbdd55ac2	-0.10417701
106	0xbc82ed0c	-0.015982173
107	0x3e605c7b	0.21910278
108	0x3e5b6c24	0.21427971
109	0xbec4bb44	-0.38424122
110	0x3e521028	0.20513976
111	0x3c6bc39d	0.0143899
112	0x3c7ddb0e	0.015494121
113	0x3e4f779d	0.20260473
114	0x3e6fcf17	0.23418842
115	0xbe59d6ec	-0.21273392
116	0xbe264102	-0.16235736
117	0x3e535aa7	0.2064005
118	0x3e472c07	0.19450389
119	0x3c789639	0.015172535
120	0xbde648d9	-0.11244363
121	0xbe280660	-0.16408682
122	0xbd1e5d81	-0.03866339
123	0x3e3e30d6	0.18573317
124	0x3e8a0a6c	0.26961076
125	0xbec2442b	-0.37942633
126	0x3da3e632	0.08002891
127	0x3e2a49a1	0.1662965

linears.2.bias f4 [8]
0	0x3de4d26e	0.11172949
1	0x3dfa9c87	0.122368865
2	0xbcf45ca1	-0.029829325
3	0x3e422678	0.18959987
4	0xbd76ccfe	-0.06025409
5	0x3e643a86	0.2228795
6	0x3d34b00e	0.04411321
7	0x3e931fa3	0.28735074

output.weight f4 [1, 8]
0	0xbe2664c2	-0.16249374
1	0xbea9cc68	-0.33163762
2	0xbe035bbe	-0.12827966
3	0x3f19bb0a	0.60051024
4	0x3e17f44e	0.14839289
5	0xbe812da6	-0.2523014
6	0xbeb4f3be	-0.3534221
7	0xbe62cfab	-0.22149532
