bank/Models/mixture_v1/0.9012_3/params.pt (torch_old, 62976 bytes, 74 tensors)

attention_mechanism.in_proj_weight f4 [48, 16]
0.044991612 0.36804026 -0.042497296 -0.20420763 0.067509376 0.40367988 -0.081878506 0.01402545
-0.20973311 -0.14019941 -0.27896652 0.21782003 -0.118292935 -0.24415214 -0.08071581 0.23179422
-0.3306009 0.11002092 0.1473088 0.12283847 0.13111442 -0.20874308 -0.0037807666 0.2053331
-0.14336075 -0.09668191 0.48241055 -0.27286363 -0.43074498 0.043009926 0.2274765 0.1540406
0.067214236 0.19285852 -0.24636964 0.17208056 -0.030417094 -0.38823536 -0.26861572 -0.27043352
0.20893493 -0.27879134 0.17244136 0.12918323 -0.30027774 -0.08289436 0.16574419 0.051964406
-0.020974195 -0.3046908 -0.29557565 -0.13978584 0.16807824 -0.111504465 -0.14887457 -0.0073867897
-0.008639345 -0.39602873 -0.17987546 -0.2214121 0.19376889 0.27624455 0.16234529 -0.15806031
-0.092066236 -0.1700997 0.26212338 0.08855623 -0.1759759 -0.13233499 0.3071098 0.2087564
-0.33795834 -0.124180675 -0.19894966 0.4224664 -0.11915328 0.2291965 -0.03478695 -0.31381807
0.26103306 0.1453543 -0.090179205 -0.20104821 -0.40702853 -0.13922635 0.11591236 -0.10420086
-0.08933796 0.02860447 -0.05150212 0.42184624 0.284815 -0.20598476 -0.053834997 -0.17378597
-0.12980811 -0.22493882 -0.099796884 0.06074468 0.1619548 -0.4070386 -0.18229814 0.03933443
0.350753 0.14450163 0.18113302 -0.17985593 -0.07147414 -0.08719477 -0.16664712 -0.28167236
-0.039289467 -0.32866964 -0.2034187 0.20971443 0.0058053113 -0.31996143 0.074338324 -0.036864743
-0.10633977 -0.05380649 0.45952678 -0.32327914 -0.04425602 0.03852687 -0.3208527 0.033953514
-0.25384542 0.14555438 -0.14317635 -0.12589438 -0.32935184 -0.5096365 -0.039284024 0.2309128
0.050383743 -0.19176614 0.33650184 0.20075083 -0.25129852 0.33607873 -0.057560913 -0.13114949
0.21503429 -0.19641872 -0.40225932 -0.14195862 0.13335146 0.5550043 -0.20511416 0.17593735
-0.2415844 -0.08380663 -0.05796342 0.1783017 0.15810707 -0.15218127 -0.028422385 0.067267604
0.023430297 -0.43618014 -0.08049472 0.4017679 -0.011017583 -0.48663947 -0.13424747 0.2762908
-0.013018948 0.081457496 0.2633064 0.22955558 0.10146928 0.0014420286 -0.2746016 -0.0033666848
0.14343278 0.3681398 0.025351303 -0.24574776 0.0722602 0.5416787 -0.3329989 -0.0044155326
0.10800821 -0.26976797 -0.16041008 0.25124285 0.08773691 -0.22826071 0.25881073 0.08428917
-0.15796684 -0.36879644 0.14266996 -0.18161733 -0.16410947 -0.28065577 -0.23088753 -0.36229518
0.3586691 -0.23388359 0.035619475 -0.1331702 0.25917011 -0.18202549 -0.21172231 -0.1400782
0.25858247 -0.21189256 -0.11113602 -0.075713836 0.32699263 0.33880758 -0.338849 -0.26517406
0.21930078 0.09739056 -0.38625327 -0.39017633 -0.25600204 0.07885023 0.060986865 0.01934359
-0.028457696 -0.18043655 0.29817632 -0.22014335 -0.028144838 -0.20600821 -0.34018654 -0.22562042
0.41071025 -0.064182565 -0.27463904 -0.19308168 0.2277075 0.14265455 -0.08631113 -0.11501583
-0.25771716 -0.30662072 -0.08095902 0.39170662 0.2114734 -0.4112831 -0.18778253 0.108351044
0.18283434 -0.08422676 -0.05169056 -0.4849272 -0.3990626 0.34761408 0.23598553 -0.16192366
00000000: 2049 383d c66f bc3e a511 2ebd ce1b 51be
00000010: 5b42 8a3d 21af ce3e ebaf a7bd 00cb 653c
00000020: 47c4 56be 6f90 0fbe b3d4 8ebe 370c 5f3e
00000030: 9143 f2bd 0503 7abe 554e a5bd 775b 6d3e
00000040: 8544 a9be a652 e13d 1ed8 163e bc92 fb3d
00000050: dc42 063e bfc0 55be bdc6 77bb d742 523e
00000060: 29cd 12be 2a01 c6bd 84fe f63e c8b4 8bbe
00000070: 9b8a dcbe 2d2b 303d 9aef 683e d2bc 1d3e
00000080: 9ea7 893d b47c 453e 5348 7cbe e335 303e
00000090: 452d f9bc c9c6 c6be 0088 89be 4376 8abe
000000a0: 0af3 553e bdbd 8ebe 7894 303e 9c48 043e
000000b0: 01be 99be 85c4 a9bd d8b8 293e a1d8 543d
000000c0: 13d2 abbc 6f00 9cbe b155 97be 0524 0fbe
000000d0: b41c 2c3e 745c e4bd 9372 18be e20c f2bb
000000e0: 0a8c 0dbc 47c4 cabe 4631 38be dbb9 62be
000000f0: 5a6b 463e ed6f 8d3e d83d 263e 90da 21be
00000100: 398d bcbd 9e2e 2ebe 0935 863e f85c b53d
00000110: 0733 34be d382 07be 7f3d 9d3e 3dc4 553e
00000120: e008 adbe 7052 febd 76b9 4bbe 844d d83e
00000130: a306 f4bd 7db2 6a3e c37c 0ebd c3ac a0be
00000140: 20a6 853e c2d7 143e e0af b8bd 95df 4dbe
00000150: 0b66 d0be 5a91 0ebe 7663 ed3d 4367 d5bd
00000160: d2f6 b6bd ec53 ea3c e3f3 52bd 3bfc d73e
00000170: 46d3 913e abed 52be 1682 5cbd f3f4 31be
00000180: 6bec 04be 5d56 66be 4f62 ccbd 6acf 783d
00000190: 7bd7 253e 5d67 d0be 5dac 3abe 241d 213d
000001a0: e695 b33e 3cf8 133e ef7a 393e 272c 38be
000001b0: 0961 92bd 2c93 b2bd 8ba5 2abe 5c37 90be
000001c0: feed 20bd 6347 a8be fe4c 50be 61bf 563e
000001d0: 7b3a be3b fcd1 a3be b13e 983d 7cff 16bd
000001e0: aac8 d9bd 3264 5cbd 1847 eb3e d884 a5be
000001f0: cd45 35bd 5ace 1d3d ce46 a4be d712 0b3d
00000200: 07f8 81be 350c 153e d29c 12be 75ea 00be
00000210: cea0 a8be 8a77 02bf 49e8 20bd 6874 6c3e
00000220: 2f5f 4e3d 585e 44be f849 ac3e a091 4d3e
00000230: 33aa 80be 8312 ac3e fec4 6bbd 0d4c 06be
00000240: f331 5c3e fd21 49be eff4 cdbe 9a5d 11be
00000250: 498d 083e c314 0e3f 7209 52be ec28 343e
00000260: e761 77be cfa2 abbd 0d6b 6dbd b994 363e
00000270: d2e6 213e 68d5 1bbe 10d6 e8bc 99c3 893d
00000280: e5f0 bf3c 0153 dfbe 6ada a4bd 86b4 cd3e
00000290: 1883 34bc cf28 f9be 2b78 09be fd75 8d3e
000002a0: 6d4d 55bc 30d3 a63d 19d0 863e 9e10 6b3e
000002b0: 20cf cf3d 7302 bd3a 9598 8cbe 99a3 5cbb
000002c0: 0be0 123e d27c bc3e 89ad cf3c 4da5 7bbe
000002d0: 28fd 933d 75ab 0a3f d57e aabe 2cb0 90bb
000002e0: 6933 dd3d 071f 8abe 8a42 24be e7a2 803e
000002f0: 69af b33d 2dbd 69be d782 843e cd9f ac3d
00000300: 0fc2 21be e3d2 bcbe 1318 123e e5f9 39be
00000310: 500c 28be 1db2 8fbe c86d 6cbe c17e b9be
00000320: 7aa3 b73e 2e7f 6fbe bae5 113d c55d 08be
00000330: f2b1 843e e464 3abe bccd 58be a970 0fbe
00000340: ec64 843e 5dfa 58be 489b e3bd db0f 9bbd
00000350: 946b a73e 3078 ad3e 9e7d adbe e5c4 87be
00000360: 6290 603e b474 c73d fdc2 c5be 31c5 c7be
00000370: b312 83be 3b7c a13d 5dcd 793d 7376 9e3c
00000380: 1d20 e9bc 5cc4 38be 91aa 983e 426d 61be
00000390: 0190 e6bc d1f3 52be ee2c aebe 0a09 67be
000003a0: 9d48 d23e 2672 83bd 7d9d 8cbe 34b7 45be
000003b0: 282c 693e 0914 123e e4c3 b0bd 6b8d ebbd
000003c0: 81f3 83be 64fd 9cbe d8cd a5bd c58d c83e
000003d0: 7c8c 583e b393 d2be 104a 40be 27e7 dd3d
000003e0: ed38 3b3e 147f acbd 7bb9 53bd 6148 f8be
000003f0: ef51 ccbe 79fa b13e 31a6 713e 51cf 25be

attention_mechanism.in_proj_bias f4 [48]
-0.04002751 0.10666448 0.095904745 0.18801036 -0.04760545 0.07751994 -0.09107912 0.047046583
-0.017405957 0.037924852 0.1099784 0.06290699 0.015736097 0.059628207 -0.045206733 0.12826183
0.010479237 0.0030380394 -0.0029969653 -0.008934141 -0.0031799148 0.0047192946 -0.01403624 -0.0063717947
-0.0012080194 0.00068966503 -0.008455102 0.00949392 -0.007743774 -0.004506364 -0.0127419215 -0.007356499
0.54955006 -0.25252464 0.02312622 -0.09526637 0.07774489 0.61007583 -0.12211323 0.19232209
0.5578952 0.4149348 0.71164227 -0.73865265 -0.32396138 0.33057702 0.693449 0.22794132
00000000: e3f3 23bd e872 da3d b569 c43d ca85 403e
00000010: effd 42bd c6c2 9e3d b187 babd ebb3 403d
00000020: f096 8ebc 1757 1b3d 5b3c e13d 61d5 803d
00000030: fde8 803c b53c 743d b22a 39bd 1257 033e
00000040: 1bb1 2b3c d819 473b bc68 44bb 8160 12bc
00000050: 1e66 50bb 50a4 9a3b 42f8 65bc 7dca d0bb
00000060: 6856 9eba a3ca 343a 4587 0abc 638c 1b3c
00000070: 7cbf fdbb 1faa 93bb 7ec3 50bc c90e f1bb
00000080: 50af 0c3f e94a 81be 3373 bd3c 041b c3bd
00000090: b638 9f3d ee2d 1c3f 8016 fabd 15f0 443e
000000a0: 38d2 0e3f 5672 d43e 302e 363f 5718 3dbf
000000b0: 44de a5be 6441 a93e e085 313f 7369 693e

attention_mechanism.out_proj.weight f4 [16, 16]
-0.19581501 0.05955631 0.0077025876 0.046364516 0.29087192 -0.08179755 -0.0009916509 -0.016334128
0.10683439 -0.07736091 0.036871802 0.069651216 0.04547725 0.1935019 -0.20149936 -0.26244983
0.014749863 -0.031666674 0.02193198 -0.083268344 0.27130815 0.32819808 -0.0087504815 -0.17740582
-0.14886434 -0.17037982 0.09083408 -0.03214309 0.028298398 0.24437346 -0.019166451 -0.28052795
-0.32042962 -0.11931084 0.0056145275 -0.084382 -0.3137092 -0.11837996 -0.194317 -0.013110308
-0.43668097 -0.24882123 -0.3858765 0.24506158 -0.2003204 -0.20802662 -0.011535044 -0.094662465
0.1425595 -0.22443265 -0.077729985 -0.155377 0.047142047 -0.14309748 -0.23935197 -0.21526985
-0.24576916 -0.18199262 -0.2909763 -0.07833416 0.1679497 -0.3246153 -0.04911967 -0.32449353
0.2726838 -0.18080811 -0.11646653 0.057960942 0.2811124 0.051516782 -0.1636326 -0.029315962
0.26783934 0.12539524 0.30206227 -0.20680785 0.03129333 0.24434316 0.20365718 0.078110844
-0.17248407 -0.02872705 0.2734015 0.37005877 -0.027935043 -0.36637157 -0.22304197 0.316707
0.08039624 -0.020777183 -0.19857319 0.12766163 0.22887626 -0.29979512 -0.26751706 -0.054388918
-0.11431125 0.17768614 -0.24834631 -0.04190931 -0.041153643 -0.18761246 0.08639822 -0.11137225
0.030681128 -0.107458435 -0.03605031 0.16413976 0.04039907 -0.010681101 -0.18505718 0.20394604
-0.07939432 0.013739382 0.3414844 -0.22703026 -0.13140348 -0.17031418 -0.26550463 0.19748938
0.18944226 -0.10793493 0.1255185 -0.09933628 -0.19607188 0.022036783 0.03182021 0.023290962
0.26257905 0.1392469 0.2323723 -0.17009953 -0.36465856 -0.26305866 -0.06178941 -0.012239267
-0.17237341 -0.14014617 -0.09610442 0.027785286 -0.02136108 -0.16464058 -0.020569498 -0.37884438
0.0010130055 0.024007281 0.20662703 0.056970954 0.16548656 -0.20756029 0.2433386 -0.21797077
-0.048970453 0.18121435 0.07703031 0.10063157 -0.047944624 -0.10966797 -0.1566191 0.20621628
0.00060473435 -0.11043828 -0.22566335 -0.029945483 0.21566926 0.04519474 0.21390457 -0.07224828
0.1622404 -0.20767151 -0.21540044 0.22171432 -0.16345245 -0.0011170096 0.24824606 0.10675626
0.13740548 0.10099824 0.014209622 -0.15877911 0.024723988 -0.05198289 -0.018655946 0.15700789
-0.030695025 -0.026556095 0.15656541 0.043077264 -0.2002663 0.36280614 0.03780698 0.17964005
-0.09564165 0.038046315 0.31467775 0.003153417 -0.050144676 0.15680447 0.02675708 0.16320494
0.077039234 -0.08228486 -0.19286588 -0.22300461 0.05360033 -0.21396941 0.20279501 0.21977243
0.22123614 -0.12531109 0.06803705 0.32725677 -0.25744 0.017899683 -0.07751308 0.1429342
0.16213009 -0.05084402 0.11451309 0.124611236 -0.05370888 -0.0048964364 0.055950623 0.34779078
0.050516434 0.108446725 -0.21460818 0.058144413 0.22352897 0.094133794 0.15789987 -0.005279692
0.119526 -0.12137085 -0.005836185 0.076364085 -0.25210774 0.28415933 -0.020694269 -0.1408471
0.13121079 0.11515523 -0.06419875 0.076119535 0.1600051 -0.08693765 -0.029531576 0.07159969
-0.02290244 -0.022568999 -0.10507157 0.15939465 0.10105063 0.12299338 0.04797336 0.11998947
00000000: bb83 48be 51f1 733d fd65 fc3b b8e8 3d3d
00000010: 2aed 943e 7985 a7bd 48fa 81ba 26cf 85bc
00000020: fdcb da3d 666f 9ebd e306 173d 4ca5 8e3d
00000030: 5a46 3a3d 5d25 463e d955 4ebe d35f 86be
00000040: 69a9 713c eab4 01bd b2aa b33c 9888 aabd
00000050: e7e8 8a3e 9409 a83e 2e5e 0fbc dfa9 35be
00000060: e56f 18be 0c78 2ebe 3807 ba3d 79a8 03bd
00000070: 0bd2 e73c 093d 7a3e f602 9dbc 5ca1 8fbe
00000080: 5a0f a4be 3e59 f4bd 12fa b73b 78d0 acbd
00000090: 7e9e a0be 3171 f2bd 09fb 46be 9ecc 56bc
000000a0: a694 dfbe feca 7ebe 9b91 c5be 6cf1 7a3e
000000b0: ca20 4dbe ee04 55be 7bfd 3cbc 65de c1bd
000000c0: 1efb 113e acd1 65be e630 9fbd 261b 1fbe
000000d0: 0518 413d 2588 12be af18 75be b36f 5cbe
000000e0: e9aa 7bbe 465c 3abe d8fa 94be a96d a0bd
000000f0: 02fb 2b3e fa33 a6be b531 49bd 0424 a6be
00000100: 369d 8b3e c325 39be 0186 eebd 7468 6d3d
00000110: f7ed 8f3e 4303 533d 4e8f 27be 0728 f0bc
00000120: 3d22 893e 9c67 003e e8a7 9a3e 70c5 53be
00000130: 6f2d 003d 1835 7a3e 828b 503e 94f8 9f3d
00000140: aa9f 30be fe54 ebbc 48fb 8b3e 5878 bd3e
00000150: 08d8 e4bc 0e95 bbbe 1d65 64be 6b27 a23e
00000160: c9a6 a43d e934 aabc c556 4bbe bbb9 023e
00000170: 8a5e 6a3e bf7e 99be fff7 88be eac6 5ebd
00000180: 041c eabd 5bf3 353e 7f4e 7ebe 19a9 2bbd
00000190: b990 28bd 7b1d 40be 8df1 b03d 2217 e4bd
000001a0: fd56 fb3c 2b13 dcbd 7da9 13bd 4114 283e
000001b0: 7f79 253d c9ff 2ebc a17f 3dbe 3bd7 503e
000001c0: 7d99 a2bd 251b 613c 0bd7 ae3e 9f7a 68be
000001d0: a28e 06be d766 2ebe 39f0 87be a83a 4a3e
000001e0: 27fd 413e fd0c ddbd ec87 003e d270 cbbd
000001f0: 11c7 48be 7c86 b43c e955 023d b0cc be3c
00000200: c370 863e bd96 0e3e 01f3 6d3e 922e 2ebe
00000210: 87b4 babe a0af 86be e416 7dbd 3587 48bc
00000220: a882 30be 7a82 0fbe 65d2 c4bd f89d e33c
00000230: 6ffd aebc 8a97 28be 5d81 a8bc e4f7 c1be
00000240: d3c6 843a ebaa c43c 0996 533e 605a 693d
00000250: 4f75 293e af8a 54be c12d 793e bb33 5fbe
00000260: 3e95 48bd 4190 393e 11c2 9d3d ed17 ce3d
00000270: 9561 44bd 9a99 e0bd c260 20be 5c2a 533e
00000280: 0987 1e3a 772d e2bd 4b14 67be 3b50 f5bc
00000290: 67d8 5c3e 1f1e 393d cd09 5b3e e8f6 93bd
000002a0: 5922 263e d7a7 54be ef91 5cbe 1409 633e
000002b0: 1460 27be 9f68 92ba 3734 7e3e 07a3 da3d
000002c0: 06b4 0c3e 2ad8 ce3d 79cf 683c fe96 22be
000002d0: f689 ca3c 03ec 54bd 5bd4 98bc adc6 203e
000002e0: 2274 fbbc 2b8c d9bc af52 203e c971 303d
000002f0: 9c12 4dbe bac1 b93e 7edb 1a3d 90f3 373e
00000300: c5df c3bd 74d6 1b3d 711d a13e 8fa9 4e3b
00000310: 8164 4dbd 5a91 203e aa31 db3c 321f 273e
00000320: bfc6 9d3d f784 a8bd a27e 45be 525b 64be
00000330: 058c 5b3d cc1a 5bbe 7fa9 4f3e 060c 613e
00000340: ba8b 623e 8d51 00be 0257 8b3d 338e a73e
00000350: 2dcf 83be 5ba2 923c 2dbf 9ebd 585d 123e
00000360: 6e05 263e d241 50bd d785 ea3d 2d34 ff3d
00000370: d8fd 5bbd 4972 a0bb 7b2c 653d a211 b23e
00000380: 52ea 4e3d 5119 de3d 3fc2 5bbe d628 6e3d
00000390: c7e4 643e 38c9 c03d 81b0 213e 4401 adbb
000003a0: 0cca f43d 4891 f8bd 783d bfbb c664 9c3d
000003b0: 4414 81be 557d 913e 0787 a9bc 393a 10be
000003c0: 1f5c 063e 81d6 eb3d a27a 83bd 8fe4 9b3d
000003d0: 60d8 233e 5e0c b2bd 34ec f1bc dca2 923d
000003e0: e69d bbbc 9fe2 b8bc c32f d7bd 5a38 233e
000003f0: a2f3 ce3d f4e3 fb3d b77f 443d 0abd f53d

attention_mechanism.out_proj.bias f4 [16]
-0.005064306 0.002579984 -0.0059400434 0.0053956406 -0.0044912174 0.0065994193 -0.010088425 0.0022680005
0.0049396707 0.005756466 0.0010410128 -0.001537683 -0.0053691315 -0.007862828 0.0062506744 -0.01723825
00000000: 7af2 a5bb f314 293b b2a4 c2bb eacd b03b
00000010: 102b 93bb f13f d83b ec49 25bc bca2 143b
00000020: f6dc a13b bda0 bc3b 9872 883a 148c c9ba
00000030: 8aef afbb 17d3 00bc 75d2 cc3b 3b37 8dbc

embedding.0.bias f4 [16]
0.5372334 -0.2874229 -0.3316607 -0.57530814 -1.0516955 -0.7281748 -0.78243876 -0.017321074
-0.99574596 -1.0274401 0.41578448 0.21502993 0.23048827 0.911172 0.68347967 0.08809184
00000000: 2188 093f 1829 93be 6ecf a9be 6547 13bf
00000010: f59d 86bf aa69 3abf e84d 48bf ede4 8dbc
00000020: 35e9 7ebf 2883 83bf b4e1 d43e ce30 5c3e
00000030: 1e05 6c3e 9142 693f 86f8 2e3f 7f69 b43d

embedding.0.weight_g f4 [16, 1]
0.9064416 0.11485337 1.0330597 0.22610797 0.53921777 0.30137128 0.005928787 0.3390405
0.093482226 0.72449553 0.863499 0.07340448 0.7097531 0.7468881 0.21784492 0.7963739
00000000: 8f0c 683f 3e38 eb3d 4d3b 843f d988 673e
00000010: 2d0a 0a3f 564d 9a3e 4546 c23b b796 ad3e
00000020: 9c73 bf3d 8a78 393f 450e 5d3f 1755 963d
00000030: 61b2 353f 0f34 3f3f bd12 5f3e 29df 4b3f

embedding.0.weight_v f4 [16, 1]
0.9058952 0.08519938 0.9832567 -0.16127111 -0.53949296 -0.46290565 0.00986064 -0.3620913
-0.12824412 -0.8003743 -0.89110076 0.046301924 0.6931638 -0.8723292 0.43185562 0.84853816
00000000: bfe8 673f 037d ae3d b6b6 7b3f 4124 25be
00000010: 361c 0abf f801 edbe 868e 213c 0864 b9be
00000020: 6d52 03be 55e5 4cbf 2e1f 64bf 16a7 3d3d
00000030: 2f73 313f f750 5fbf 2e1c dd3e cc39 593f

embedding.1.bias f4 [16]
-0.62172216 0.6154323 -1.2194918 0.6028808 0.8229715 -0.2656058 -0.0046936106 0.505651
0.19880466 -1.0068282 0.23140973 -0.31102931 -0.29828948 0.007787975 -0.26914722 0.7641657
00000000: 2f29 1fbf f98c 1d3f 4f18 9cbf 6556 1a3f
00000010: 43ae 523f 7cfd 87be dccc 99bb 5872 013f
00000020: 7393 4b3e bfdf 80bf acf6 6c3e 3c3f 9fbe
00000030: 66b9 98be 4532 ff3b aacd 89be 5da0 433f

embedding.1.weight_g f4 [16, 1]
0.39696828 0.68972474 1.1023753 0.12388533 0.079972096 -0.016330529 0.8156159 0.09390304
0.4558307 0.31768003 0.73986053 0.9763342 0.010668314 0.50791115 0.70647645 0.9328887
00000000: 6d3f cb3e cd91 303f a21a 8d3f 98b7 fd3d
00000010: 69c8 a33d 9ac7 85bc 34cc 503f 3d50 c03d
00000020: a462 e93e f5a6 a23e 8067 3d3f 0af1 793f
00000030: 27ca 2e3c 7706 023f a4db 343f cbd1 6e3f

embedding.1.weight_v f4 [16, 1]
-0.342056 0.8808518 -0.97776496 -0.112264425 0.112099215 0.089068234 0.8094908 -0.16555306
-0.42979628 -0.14058043 0.71353227 -0.9743065 0.013121846 0.5523128 0.682345 0.84297764
00000000: f721 afbe 817f 613f ce4e 7abf e4ea e5bd
00000010: 4694 e53d 6869 b63d ca3a 4f3f be86 29be
00000020: 420e dcbe 51f4 0fbe 0daa 363f 276c 79bf
00000030: 03fd 563c 5f64 0d3f 29ae 2e3f 62cd 573f

embedding.2.bias f4 [16]
0.89813346 -0.9503595 0.22004405 -0.29509744 -0.47023392 -0.46675557 0.22151476 -0.95889515
0.20586957 -0.8951075 0.62784326 -0.3867157 0.14923207 -0.3343761 -0.55932444 0.10534187
00000000: 13ec 653f c34a 73bf 3a53 613e 0317 97be
00000010: 80c2 f0be 96fa eebe c4d4 623e 277a 75bf
00000020: 79cf 523e c425 65bf 56ba 203f 9aff c5be
00000030: 4bd0 183e 5833 abbe e32f 0fbf 7abd d73d

embedding.2.weight_g f4 [16, 1]
0.4164284 0.49183923 0.8191298 0.14626572 0.76060253 0.51215965 0.4019459 0.83881485
0.32668412 0.19256146 0.6248201 0.33375221 0.16201605 0.26195168 0.20798434 0.087122194
00000000: 1a36 d53e 5ad2 fb3e 7eb2 513f aec6 153e
00000010: d9b6 423f e51c 033f dacb cd3e 92bc 563f
00000020: 2443 a73e d52e 453e 36f4 1f3f 92e1 aa3e
00000030: 89e7 253e 881e 863e d9f9 543e 1f6d b23d

embedding.2.weight_v f4 [16, 1]
-0.52088106 -0.5294996 -0.9251838 -0.21493763 -0.8976222 -0.55880404 0.50196874 0.9307967
-0.38116464 0.23806587 0.732371 -0.3952053 -0.16975388 -0.15429035 0.16765685 -0.0433208
00000000: 7658 05bf 498d 07bf d8d8 6cbf 9c18 5cbe
00000010: 92ca 65bf c80d 0fbf 0681 003f b148 6e3f
00000020: 0328 c3be 8ac7 733e aa7c 3b3f 5958 cabe
00000030: f6d3 2dbe 4afe 1dbe 3dae 2b3e 2771 31bd

embedding.3.bias f4 [16]
-0.29175794 0.1146024 -0.87101173 0.86675507 0.9277442 0.91786766 -0.66448635 0.47484988
0.6719997 -0.017873084 0.9052099 0.6813875 -0.13155705 0.6849039 1.1074014 -0.37392238
00000000: 4c61 95be aab4 ea3d a0fa 5ebf a9e3 5d3f
00000010: a580 6d3f 60f9 6a3f c71b 2abf 861f f33e
00000020: 2c08 2c3f 936a 92bc d6bb 673f 696f 2e3f
00000030: e4b6 06be dd55 2f3f 54bf 8d3f c172 bfbe

embedding.3.weight_g f4 [16, 1]
0.83030146 0.83312815 0.73344964 0.7107094 1.0032499 0.7899203 0.75750804 0.36964676
0.4703493 0.595747 0.37438372 0.64492905 0.2230371 0.6009321 0.99280816 0.88828814
00000000: a38e 543f e347 553f 5bc3 3b3f 0df1 353f
00000010: 7e6a 803f 3738 4a3f 0cec 413f 5742 bd3e
00000020: a0d1 f03e e082 183f 39af bf3e 121a 253f
00000030: d663 643e b0d6 193f ad28 7e3f da66 633f

embedding.3.weight_v f4 [16, 1]
-0.6751378 0.7517509 0.7473546 -0.7715632 0.89505523 0.84692043 -0.66443104 0.3779333
0.3787091 0.47264314 0.24869172 -0.76478976 -0.23851313 -0.7344026 -0.84578556 -0.72801614
00000000: d5d5 2cbf bf72 403f a252 3f3f 2a85 45bf
00000010: 5722 653f c7cf 583f 2718 2abf 7980 c13e
00000020: 29e6 c13e 48fe f13e 0ba9 7e3e 43c9 43bf
00000030: c93c 74be cf01 3cbf 6785 58bf 445f 3abf

embedding.4.bias f4 [16]
0.7804413 0.40159452 0.6871839 0.26042366 -0.600784 -0.8344803 -0.18340257 -0.015044643
0.034624897 0.23547481 -0.68673867 0.706218 -0.23373646 0.7780777 -0.20103416 0.0062603434
00000000: 00cb 473f cc9d cd3e 49eb 2f3f 4056 853e
00000010: fbcc 19bf 80a0 55bf e2cd 3bbe ce7d 76bc
00000020: d6d2 0d3d 4f20 713e 1bce 2fbf b4ca 343f
00000030: 9c58 6fbe 1a30 473f e6db 4dbe 9123 cd3b

embedding.4.weight_g f4 [16, 1]
0.61363655 0.5257697 0.95542914 0.030362962 0.3682873 0.7606186 0.6090269 0.36933315
-0.049545437 0.9202147 -0.024015684 0.51524067 0.870652 1.0742289 0.9060306 0.6838477
00000000: 4917 1d3f d898 063f 0197 743f bfbb f83c
00000010: 2790 bc3e e7b7 423f 30e9 1b3f 3c19 bd3e
00000020: 28f0 4abd 3193 6b3f 8abc c4bc d0e6 033f
00000030: 0de3 5e3f 5580 893f 9ff1 673f a510 2f3f

embedding.4.weight_v f4 [16, 1]
0.45195815 -0.6575081 0.9049166 0.2702948 -0.14129768 -0.8594648 -0.6865988 0.4770849
-0.06335488 -0.8519947 -0.016194886 -0.41345102 0.7756823 -0.93584967 0.69242513 -0.309241
00000000: 0f67 e73e 7352 28bf 9da8 673f 1464 8a3e
00000010: 57b0 10be e305 5cbf f0c4 2fbf 7944 f43e
00000020: 34c0 81bd 531c 5abf 23ab 84bc daaf d3be
00000030: 1d93 463f d893 6fbf c642 313f d654 9ebe

embedding.5.bias f4 [16]
0.62746346 0.40989372 0.6214348 -0.17340897 -0.091120675 -0.92379963 -0.33744046 -0.7084831
-0.91659296 -0.82339793 -0.84702146 -0.3715052 -0.36842212 -0.45204553 -0.753987 -0.09766649
00000000: 72a1 203f 97dd d13e 5a16 1f3f 1f92 31be
00000010: 7a9d babd 227e 6cbf ffc4 acbe 265f 35bf
00000020: d6a5 6abf 35ca 52bf 66d6 58bf ee35 bebe
00000030: d3a1 bcbe 8372 e7be 4b05 41bf 5e05 c8bd

embedding.5.weight_g f4 [16, 1]
0.20290093 0.7409514 0.82396364 0.6472269 0.100199 0.19492045 0.64331913 0.42216188
-0.067345634 0.06596685 0.5092611 0.36798444 0.7112365 0.59001356 -0.02727057 0.70763606
00000000: 43c5 4f3e feae 3d3f 48ef 523f aab0 253f
00000010: 2235 cd3d 3a99 473e 90b0 243f 9a25 d83e
00000020: 82ec 89bd a119 873d ef5e 023f 7568 bc3e
00000030: 9813 363f 210b 173f 8866 dfbc a327 353f

embedding.5.weight_v f4 [16, 1]
0.08404203 -0.7886827 -0.79066813 -0.4429252 -0.49089268 -0.2881599 -0.45270783 -0.022641007
-0.11455616 -0.13260698 -0.49222395 -0.24701095 -0.9348381 0.7127371 0.09603313 0.7870245
00000000: 3a1e ac3d 1ce7 49bf 3a69 4abf 18c7 e2be
00000010: 4956 fbbe b289 93be 52c9 e7be a279 b9bc
00000020: 6c9c eabd 20ca 07be c704 fcbe 70f0 7cbe
00000030: 8d51 6fbf f075 363f 05ad c43d 707a 493f

embedding.6.bias f4 [16]
0.89481723 -0.22053587 0.47013074 0.5171689 0.7841356 0.20244275 -0.5497024 -0.050880887
-0.50737 -0.78381765 0.41415364 0.4185124 -0.694987 -0.5125364 -0.56123203 0.2637062
00000000: be12 653f 28d4 61be fab4 f03e 2e65 043f
00000010: 1cbd 483f 274d 4f3e 4cb9 0cbf 7a68 50bd
00000020: 00e3 01bf 46a8 48bf f20b d43e 4247 d63e
00000030: abea 31bf 9635 03bf e7ac 0fbf 8004 873e

embedding.6.weight_g f4 [16, 1]
0.9173744 0.44864672 1.2531008 0.7522285 0.9670024 0.82261354 0.99090713 0.04857568
0.5503326 -0.028026402 0.7152211 0.92930543 0.9454929 0.041728105 0.40788177 0.07899738
00000000: 0cd9 6a3f 06b5 e53e 9b65 a03f 0c92 403f
00000010: 788d 773f cd96 523f 17ac 7d3f 4bf7 463d
00000020: 99e2 0c3f a097 e5bc bb18 373f f6e6 6d3f
00000030: d30b 723f 17eb 2a3d e1d5 d03e 61c9 a13d

embedding.6.weight_v f4 [16, 1]
-0.8339415 0.38189355 0.9027771 0.568327 0.9630458 -0.6553342 -0.78440875 -0.16911991
0.3966663 -0.3579441 0.5398166 0.6668966 -0.92205477 -0.11402955 0.5719755 0.45351598
00000000: 317d 55bf 8d87 c33e 661c 673f e17d 113f
00000010: 2b8a 763f fbc3 27bf 03cf 48bf c52d 2dbe
00000020: d817 cb3e 7344 b7be 6c31 0a3f bcb9 2a3f
00000030: c80b 6cbf 5388 e9bd fd6c 123f 3f33 e83e

embedding.7.bias f4 [16]
0.08810281 -0.8549368 -0.3793238 -0.3069049 -0.4302351 -0.3557547 0.6803634 -1.010809
-0.6738228 -0.8920046 -0.4532855 0.10664767 0.30265024 0.5249657 0.7661386 0.38051188
00000000: 3f6f b43d 23dd 5abf bb36 c2be a422 9dbe
00000010: c647 dcbe 7b25 b6be 4c2c 2e3f 3062 81bf
00000020: a77f 2cbf 6a5a 64bf 0915 e8be 186a da3d
00000030: f9f4 9a3e 2764 063f a921 443f 74d2 c23e

embedding.7.weight_g f4 [16, 1]
0.3336184 0.9322164 0.2964919 0.39784405 0.3930522 0.8495869 0.59173 0.2684298
0.6845964 0.72902304 0.017742926 -0.05323661 0.6659798 0.7134078 0.05531277 0.47767836
00000000: 08d0 aa3e bca5 6e3f c9cd 973e 37b2 cb3e
00000010: 233e c93e 877e 593f 9e7b 173f a16f 893e
00000020: b641 2f3f 41a1 3a3f 9d59 913c a20e 5abd
00000030: a77d 2a3f e5a1 363f a58f 623d 4292 f43e

embedding.7.weight_v f4 [16, 1]
-0.2513368 -0.8762154 -0.2159333 0.41897154 0.42730346 -0.7664658 0.5798034 0.24165216
0.681983 -0.73903185 0.036423784 0.03666379 -0.7112712 -0.6241965 -0.12883772 -0.479759
00000000: 38af 80be a74f 60bf 9e1d 5dbe 7083 d63e
00000010: 85c7 da3e 1a37 44bf ff6d 143f aa73 773e
00000020: 7096 2e3f 3131 3dbf 1b31 153d c52c 163d
00000030: df15 36bf 58cb 1fbf 09ee 03be f9a2 f5be

embedding.8.bias f4 [16]
0.8850273 -0.66835696 0.987362 -0.9427774 -0.3971456 0.8447163 -0.60714656 0.31667042
0.5606645 -0.42284444 0.49049583 0.44323102 -0.6018068 -0.0986362 0.6027923 -0.9908366
00000000: 2691 623f 7119 2bbf c2c3 7c3f dc59 71bf
00000010: ab56 cbbe 543f 583f f56d 1bbf a022 a23e
00000020: b587 0f3f 117f d8be 4522 fb3e 2def e23e
00000030: 0310 1abf c701 cabd 9950 1a3f 78a7 7dbf

embedding.8.weight_g f4 [16, 1]
0.86195654 0.60283875 0.042372636 0.5185711 0.6191077 0.5407183 0.45040578 0.49837735
1.0376899 -0.0068006124 0.3749195 0.663516 1.0027468 0.20595016 0.4303812 0.51691467
00000000: 2fa9 5c3f a453 1a3f ee8e 2d3d 13c1 043f
00000010: d87d 1e3f 846c 0a3f 969b e63e 512b ff3e
00000020: 06d3 843f acd7 debb 73f5 bf3e 2fdc 293f
00000030: 025a 803f 99e4 523e ed5a dc3e 8554 043f

embedding.8.weight_v f4 [16, 1]
0.8288821 0.7712401 0.046956494 -0.51902753 -0.51245576 -0.46360013 -0.42546603 -0.45813152
0.979094 0.05602651 -0.4103215 -0.55023533 0.9831324 0.29876786 0.4241456 0.6235604
00000000: 9e31 543f fe6f 453f 7455 403d fdde 04bf
00000010: 4d30 03bf ff5c edbe afd6 d9be 3790 eabe
00000020: e8a5 7a3f 0e7c 653d a915 d2be 39dc 0cbf
00000030: 91ae 7b3f 1af8 983e 9d29 d93e a8a1 1f3f

embedding.9.bias f4 [16]
0.20358329 -0.97056943 -0.3294757 0.83418095 0.21212564 -0.6389067 0.5256319 0.727472
0.1514703 -0.3661705 0.51026696 -0.9772903 -0.07043935 0.5616634 0.10266866 0.8928159
00000000: 2378 503e 3d77 78bf 0ab1 a8be e28c 553f
00000010: 7737 593e 648f 23bf d08f 063f 9b3b 3a3f
00000020: 081b 1b3e b37a bbbe dba0 023f b22f 7abf
00000030: 8242 90bd 2cc9 0f3f f243 d23d 958f 643f

embedding.9.weight_g f4 [16, 1]
0.62001705 0.5724256 0.40282536 0.86381054 -0.018712817 1.1006237 0.6361453 1.1315589
1.1366155 0.19139716 0.5848412 0.20352298 0.5248223 0.92693037 0.47032893 -0.050564904
00000000: 70b9 1e3f 7c8a 123f 203f ce3e b022 5d3f
00000010: 9f4b 99bc 3de1 8c3f 6bda 223f ecd6 903f
00000020: 9e7c 913f 9efd 433e 27b8 153f 5468 503e
00000030: c15a 063f 4f4b 6d3f f4ce f03e 251d 4fbd

embedding.9.weight_v f4 [16, 1]
-0.5216186 0.5022166 -0.52929336 -0.7229578 -0.046171524 0.95361847 0.41808426 -0.964744
-0.9734297 -0.08799411 -0.5841784 -0.14320357 -0.41712144 0.8083689 0.63750833 -0.1172079
00000000: cc88 05bf 4491 003f c57f 07bf c313 39bf
00000010: 5a1e 3dbd 5720 743f 240f d63e 76f9 76bf
00000020: b032 79bf 4236 b4bd b78c 15bf f5a3 12be
00000030: f190 d5be 44f1 4e3f bf33 233f b20a f0bd

embedding.10.bias f4 [16]
0.68614733 -0.058914945 0.6769129 -0.7058178 0.9584264 0.71596104 -1.1537848 -1.055184
-0.17056946 -0.12635612 0.7588169 -0.29462385 0.15788469 -0.54792935 -0.96316385 -0.08837024
00000000: 5aa7 2f3f cc50 71bd 2a4a 2d3f 7ab0 34bf
00000010: 6f5b 753f 3949 373f 38af 93bf 4510 87bf
00000020: c3a9 2ebe 8063 01be d341 423f f0d8 96be
00000030: 86ac 213e 1945 0cbf e891 76bf 75fb b4bd

embedding.10.weight_g f4 [16, 1]
0.97571415 0.7668257 1.1523652 0.16487077 0.50390285 1.1333759 -0.06719355 0.47530216
0.7748201 0.54135084 -0.2739451 1.3134505 1.3432132 0.57333905 0.272376 0.24359867
00000000: 67c8 793f b04e 443f b480 933f e2d3 283e
00000010: c7ff 003f 7612 913f c69c 89bd ce5a f33e
00000020: 9c5a 463f f895 0a3f 8842 8cbe 251f a83f
00000030: 69ee ab3f 59c6 123f de74 8b3e ee71 793e

embedding.10.weight_v f4 [16, 1]
-0.7182667 -0.28635818 -0.98709875 -0.44947538 0.5285955 -0.9017396 -0.013825201 0.58079135
-0.81787485 -0.4139352 -0.11835346 -0.6463463 -0.99884427 0.1484739 0.4158149 -0.38763523
00000000: 54e0 37bf 8a9d 92be 81b2 7cbf a321 e6be
00000010: 0952 073f 68d8 66bf 1983 62bc beae 143f
00000020: 3f60 51bf 51ef d3be 4d63 f2bd f376 25bf
00000030: 42b4 7fbf 8b09 183e b1e5 d43e 2078 c6be

embedding.11.bias f4 [16]
-1.2165467 -0.8057027 -0.6643285 1.4215152 -0.4251145 -0.85119534 0.22824183 0.6872553
-0.43015438 -0.4627384 1.3170581 0.00200679 -1.0079585 0.8780236 0.62531346 0.57809067
00000000: cdb7 9bbf 8842 4ebf 6f11 2abf 36f4 b53f
00000010: 9ca8 d9be f0e7 59bf 3ab8 693e f7ef 2f3f
00000020: 323d dcbe 0cec ecbe 5c95 a83f 5984 033b
00000030: c904 81bf 28c6 603f 8b14 203f c0fd 133f

embedding.11.weight_g f4 [16, 1]
0.84058076 1.7105161 0.9145666 -0.5676148 -0.57217366 1.231033 -1.2151194 1.0815879
-0.52292436 1.5919906 1.1771017 -0.4002634 0.845182 -1.1637588 -0.2221229 0.2644084
00000000: 4d30 573f 31f2 da3f 0921 6a3f 344f 11bf
00000010: f979 12bf 7d92 9d3f 0889 9bbf 7971 8a3f
00000020: 5fde 05bf 59c6 cb3f 45ab 963f 53ef ccbe
00000030: d95d 583f 0cf6 94bf 2f74 63be 8a60 873e

embedding.11.weight_v f4 [16, 1]
0.4547474 0.70331603 0.31569144 -0.8658509 -0.6018961 -0.29158908 0.3049235 0.36752072
-0.6706493 0.20772716 -0.9012052 -0.75941116 0.535894 0.07882286 0.122500144 0.91092205
00000000: a7d4 e83e 850c 343f 4fa2 a13e 68a8 5dbf
00000010: dd15 1abf 2a4b 95be ef1e 9c3e ad2b bc3e
00000020: acaf 2bbf 6eb6 543e 62b5 66bf c568 42bf
00000030: 5930 093f e16d a13d 5be1 fa3d 3032 693f

embedding.12.bias f4 [16]
-0.5835553 -0.44566393 -0.4155162 0.53487074 1.0734198 -0.22822127 -0.90686005 -0.73125476
0.72926307 -0.28773338 0.2658109 -1.0325056 0.070360295 0.19945899 0.30093467 -0.20737942
00000000: e163 15bf 102e e4be 8abe d4be 4aed 083f
00000010: d265 893f d6b2 69be fb27 68bf 8333 3bbf
00000020: fcb0 3a3f ca51 93be 5e18 883e 2529 84bf
00000030: 0f19 903d fa3e 4c3e 1c14 9a3e 455b 54be

embedding.12.weight_g f4 [16, 1]
-0.017922772 -0.30130368 0.56336397 1.2327472 0.47831354 0.6231889 0.5601727 0.3765961
0.6292257 1.1202631 0.45119274 -0.22069272 0.97988683 0.2668148 1.1230401 0.96940017
00000000: c7d2 92bc 7a44 9abe 9f38 103f a9ca 9d3f
00000010: 83e5 f43e 4f89 1f3f 7a67 0f3f 34d1 c03e
00000020: ef14 213f c864 8f3f bc02 e73e 46fd 61be
00000030: ddd9 7a3f f39b 883e c7bf 8f3f 9c2a 783f

embedding.12.weight_v f4 [16, 1]
0.2804346 -0.07119162 0.3793547 0.8782381 -0.69411325 -0.33146995 -0.2100777 0.26249677
-0.6823959 0.7032949 -0.7483141 -0.07239847 -0.8617308 0.22132583 -0.93557787 -0.8961323
00000000: 2095 8f3e e9cc 91bd c73a c23e 36d4 603f
00000010: 68b1 31bf 6eb6 a9be 9c1e 57be fa65 863e
00000020: 7fb1 2ebf 220b 343f 8391 3fbf a645 94bd
00000030: 649a 5cbf 3da3 623e 0882 6fbf ed68 65bf

embedding.13.bias f4 [16]
0.9980474 -0.7401933 -0.52939516 -0.6399169 -0.4740203 0.015726298 1.099175 -0.20663486
0.32288447 0.87731415 0.37290826 0.5358163 0.47988674 0.48279315 -0.46079177 0.34264925
00000000: 0980 7f3f 4f7d 3dbf 7186 07bf 98d1 23bf
00000010: cab2 f2be 70d4 803c c4b1 8c3f 1798 53be
00000020: 1d51 a53e a997 603f d5ed be3e 422b 093f
00000030: b7b3 f53e aa30 f73e e6ec ebbe b96f af3e

embedding.13.weight_g f4 [16, 1]
0.21566565 0.70627296 0.96701163 0.93796897 0.71324044 0.57581633 0.9856481 0.010610573
0.5465628 1.0881338 0.70268273 0.6820994 0.9114715 1.1665322 0.13437504 -0.24207294
00000000: 75d7 5c3e 4ece 343f 138e 773f bc1e 703f
00000010: ed96 363f b368 133f 6f53 7c3f f8d7 2d3c
00000020: 8aeb 0b3f f847 8b3f 04e3 333f 119e 2e3f
00000030: 3256 693f ed50 953f 9c99 093e f8e1 77be

embedding.13.weight_v f4 [16, 1]
-0.31961256 -0.6811712 -0.98329467 -0.8493828 -0.90735304 -0.6539475 -0.8161331 0.24912155
0.3666744 -0.7989372 -0.60852045 -0.5632309 0.85399926 -0.989179 -0.3151161 -0.12626244
00000000: 42a4 a3be 3c61 2ebf 33b9 7bbf 2771 59bf
00000010: 4a48 68bf 1a69 27bf 19ee 50bf b819 7f3e
00000020: bfbc bb3e 2687 4cbf ffc7 1bbf e62f 10bf
00000030: b29f 5a3f d63a 7dbf e656 a1be f14a 01be

embedding.14.bias f4 [16]
0.0071229525 0.63550884 -0.3143798 -0.31792337 -0.025047781 -0.23293176 -0.1945771 -0.44599485
-0.46670544 -0.60077214 0.07822087 -0.34023547 -0.2080879 -0.5650504 0.44588363 1.2043388
00000000: a867 e93b b5b0 223f 64f6 a0be dac6 a2be
00000010: 0131 cdbc aa85 6ebe 383f 47be 7059 e4be
00000020: 04f4 eebe 34cc 19bf 4332 a03d 5833 aebe
00000030: ff14 55be 25a7 10bf dc4a e43e c627 9a3f

embedding.14.weight_g f4 [16, 1]
0.88758785 0.7241734 1.0828128 0.60040057 1.1689347 0.7327901 1.1502429 0.3920473
1.0163203 0.53840625 0.48481736 0.62076503 0.7767448 -0.06350147 0.16688788 0.6145084
00000000: f538 633f 6e63 393f 9c99 8a3f dab3 193f
00000010: a79f 953f 2298 3b3f 293b 933f 6cba c83e
00000020: c916 823f fed4 093f fb39 f83e 75ea 1e3f
00000030: bfd8 463f 0f0d 82bd a8e4 2a3e 6c50 1d3f

embedding.14.weight_v f4 [16, 1]
-0.8238773 -0.79880255 -0.99820787 0.31604427 0.7422439 -0.6791115 -0.81047994 0.31215024
0.8972536 0.4194587 -0.5272763 -0.74033296 0.7921271 0.02018814 -0.20940444 0.83024335
00000000: 9fe9 52bf 537e 4cbf 8d8a 7fbf 8ed0 a13e
00000010: b203 3e3f 40da 2dbf 9d7b 4fbf 28d2 9f3e
00000020: 69b2 653f 4ac3 d63e 94fb 06bf 7686 3dbf
00000030: d7c8 4a3f 9961 a53c 1e6e 56be d48a 543f

embedding.15.bias f4 [16]
-0.8095949 -0.6199935 -0.43177798 0.43859065 0.5695953 -0.23970117 -1.0620617 0.033636678
0.7542893 0.11567919 -0.7261905 0.39663965 -0.33306664 -0.6085108 0.9268551 -0.097027406
00000000: 9d41 4fbf e5b7 1ebf 0112 ddbe f48e e03e
00000010: ffd0 113f 3974 75be a3f1 87bf 9dc6 093d
00000020: 1b19 413f 36e9 ec3d 9fe7 39bf 5a14 cb3e
00000030: b687 aabe 5dc7 1bbf 6046 6d3f 4eb6 c6bd

embedding.15.weight_g f4 [16, 1]
0.20220366 -0.43315202 -0.05215996 0.40810013 1.1180973 0.6820818 0.33213243 0.12251663
0.1426025 0.26962218 0.67158467 0.5335205 0.84701437 1.2303754 0.20001376 1.1200868
00000000: 7a0e 4f3e 1ac6 ddbe afa5 55bd 80f2 d03e
00000010: d01d 8f3f ea9c 2e3f 430d aa3e 00ea fa3d
00000020: 6406 123e eb0b 8a3e f9ec 2b3f cd94 083f
00000030: efd5 583f f17c 9d3f 68d0 4c3e 015f 8f3f

embedding.15.weight_v f4 [16, 1]
-0.019580163 0.15037847 0.7697381 0.37109795 -0.89315283 -0.5498771 -0.7340665 -0.11914631
0.44327235 0.78342116 0.584276 -0.26727405 -0.8277026 0.7830276 -0.31373242 0.4785571
00000000: 9466 a0bc d0fc 193e 8e0d 453f 8d00 be3e
00000010: aaa5 64bf bfc4 0cbf c8eb 3bbf fb02 f4bd
00000020: 98f4 e23e 4a8e 483f 1d93 153f 25d8 88be
00000030: 51e4 53bf 7f74 483f 89a1 a0be 7005 f53e

embedding.16.bias f4 [16]
0.25987813 0.17825072 -0.9977012 -0.049529012 0.43125173 -0.10374811 0.9332709 0.57848614
0.735331 -0.8911742 0.56888515 0.1737086 -0.6126246 0.9942807 0.27038863 0.53706634
00000000: bf0e 853e 5b87 363e 5969 7fbf efde 4abd
00000010: 07cd dc3e e479 d4bd d7ea 6e3f ab17 143f
00000020: a73e 3c3f fe23 64bf 75a2 113f abe0 313e
00000030: f7d4 1cbf 2e89 7e3f 6170 8a3e 2e7d 093f

embedding.16.weight_g f4 [16, 1]
0.5694088 1.228197 -0.2608992 0.14248374 0.93690825 0.67982835 0.42780122 0.9014218
0.26132718 0.9727261 -0.0021977704 1.2867604 0.6483879 1.1116287 0.9820078 0.84858954
00000000: c6c4 113f 8f35 9d3f 9494 85be 42e7 113e
00000010: 38d9 6f3f 3b09 2e3f c308 db3e 94c3 663f
00000020: adcc 853e 9404 793f 7808 10bb 91b4 a43f
00000030: c0fc 253f d949 8e3f dd64 7b3f 2a3d 593f

embedding.16.weight_v f4 [16, 1]
-0.32968038 -0.8051206 0.32581726 0.18355322 -0.9367442 -0.59275836 -0.7467894 -0.809598
0.41556463 -0.5670506 -0.119846724 -0.9501896 -0.57284987 0.8008599 0.9881131 0.48451006
00000000: decb a8be 621c 4ebf 85d1 a63e 60f5 3b3e
00000010: 78ce 6fbf 03bf 17bf 972d 3fbf d141 4fbf
00000020: e3c4 d43e 3a2a 11bf 3372 f5bd a03f 73bf
00000030: 4aa6 12bf 2805 4d3f fbf4 7c3f b411 f83e

embedding.17.bias f4 [16]
-0.49479094 0.26761627 0.7007111 -0.7296766 0.59710693 -0.083715975 0.13083413 0.04124786
-0.6127748 0.7672109 0.30754343 0.12434456 0.2716137 -0.6125775 -0.82514256 0.49152732
00000000: 3d55 fdbe 0005 893e cd61 333f 16cc 3abf
00000010: 00dc 183f 4873 abbd 62f9 053e 84f3 283d
00000020: cfde 1cbf ef67 443f 5576 9d3e 5ca8 fe3d
00000030: f310 8b3e e1d1 1cbf 8b3c 53bf 78a9 fb3e

embedding.17.weight_g f4 [16, 1]
0.56517446 0.037201356 0.4233386 0.94928795 1.0303562 0.8886557 1.0497783 0.8233828
1.2056879 1.0186067 0.58754236 0.16162497 0.7512234 1.0502615 0.61226916 1.4248728
00000000: 46af 103f 7360 183d d6bf d83e 8904 733f
00000010: b6e2 833f f17e 633f 235f 863f 37c9 523f
00000020: fb53 9a3f b461 823f 2d69 163f 0481 253e
00000030: 2d50 403f f86e 863f acbd 1c3f 3b62 b63f

embedding.17.weight_v f4 [16, 1]
-0.58656704 0.07383431 0.29015452 0.68727416 0.6612746 -0.7130548 -0.52555776 -0.66272414
0.6528466 0.8017285 0.32751063 -0.09165096 -0.64399743 0.9820548 -0.49864304 -0.8377699
00000000: 4229 16bf 7136 973d 228f 943e 33f1 2f3f
00000010: 4b49 293f c28a 36bf f48a 06bf 4aa8 29bf
00000020: f420 273f 143e 4d3f 79af a73e 80b3 bbbd
00000030: 04dd 24bf f267 7b3f 244e ffbe 1778 56bf

embedding.18.bias f4 [16]
-0.10280466 -0.8856715 0.065210626 0.6612908 0.9158018 -0.8695218 -0.26151314 -0.62701106
0.3168183 0.2386998 0.94984657 0.47144 0.19625095 -0.21569678 -0.7444715 -0.8382903
00000000: 408b d2bd 5ebb 62bf 268d 853d 5b4a 293f
00000010: fd71 6a3f fb98 5ebf 0de5 85be cc83 20bf
00000020: 0236 a23e b86d 743e 2529 733f 9560 f13e
00000030: 02f6 483e 9edf 5cbe af95 3ebf 319a 56bf

embedding.18.weight_g f4 [16, 1]
1.1185682 1.1251419 -0.15284966 0.44682956 1.1595073 1.2579944 1.2480382 -0.44895786
0.9622982 0.12473971 0.9352417 0.9646724 0.42335287 0.5383984 0.54256535 -0.26113626
00000000: 3e2d 8f3f a604 903f 9f84 1cbe d8c6 e43e
00000010: bc6a 943f f605 a13f b7bf 9f3f cedd e5be
00000020: 2d59 763f 8877 ff3d 006c 6f3f c5f4 763f
00000030: b5c1 d83e 7ad4 093f 90e5 0a3f a7b3 85be

embedding.18.weight_v f4 [16, 1]
0.72865367 0.48125383 -0.41103634 -0.28312385 0.43652758 0.8885173 -0.5223359 0.03754215
0.6095768 -0.7233316 -0.7099268 0.5458316 -0.8019075 -0.3173734 0.55345404 0.042812686
00000000: 0c89 3a3f e766 f63e 5b73 d2be 9cf5 90be
00000010: 8b80 df3e df75 633f ceb7 05bf ccc5 193d
00000020: 3a0d 1c3f 422c 39bf c3bd 35bf 9fbb 0b3f
00000030: cf49 4dbf c47e a2be 2aaf 0d3f 5b5c 2f3d

representation.0.weight f4 [32, 304]
-0.057457548 -0.039259877 -0.028776513 0.029276159 0.06245771 -0.03864685 0.03924869 -0.052502997
-0.100475 -0.044761777 0.07045843 -0.06260174 -0.040169228 0.03678026 -0.0025183358 0.008306175
0.06159641 0.07527 0.07212753 0.042214304 -0.038826633 -0.052657958 0.048539236 -0.056378193
0.10918838 -0.1580807 -0.03763679 -0.07215621 -0.1970034 -0.057818063 0.14462124 -0.011614428
0.0017048848 -0.042399842 -0.15942284 -0.08188872 0.13506061 -0.06861257 0.11438085 -0.04774991
0.009354231 0.024917636 -0.055687048 0.11166166 -0.08309988 -0.0013767242 0.04429167 0.054341506
0.04476682 0.106920846 -0.028639602 0.028053163 -0.013647866 -0.05156875 0.006285867 -0.071966186
0.010022196 -0.07443985 0.03725396 -0.057568517 -0.105570816 -0.13784875 0.16956332 -0.009716402
0.016070006 -0.03776936 0.09121284 0.099213645 -0.21851575 -0.061995104 0.07592214 -0.10603208
0.109907374 -0.116840266 -0.08920283 -0.1393422 -0.075407594 -0.024567073 -0.00018753805 -0.09140849
0.051607415 0.0917523 -0.011568335 0.10870434 0.054712083 -0.28388494 0.0039704833 -0.08099058
0.013349885 -0.05304979 0.117173836 -0.001944431 -0.07407468 -0.19607398 0.12105215 0.0064908555
0.1264012 0.16639759 0.06469562 0.1393926 -0.025581507 -0.08469603 0.11843314 -0.049340576
0.07267601 -0.19392374 -0.030860148 -0.050206695 -0.14427975 -0.15524556 0.1243091 -0.04323574
-0.19678707 -0.11153834 0.08985631 -0.007719221 -0.07514796 0.039565947 0.04295016 -0.18614471
-0.0839954 -0.0029625846 0.03558387 -0.15989721 0.016399143 0.11177358 -0.029944664 0.010214894
0.019949613 -0.013331473 -0.09856594 -0.016727876 0.15112224 0.018650003 0.00293229 -0.08281537
-0.11017892 0.038444526 -0.012200383 -0.020038845 0.033908304 0.055452816 0.0018049979 0.038562045
0.12711571 0.08602898 -0.07669872 -0.024187468 0.08497622 0.023315076 0.105239585 -0.08416369
-0.11579716 0.036489725 0.10079861 0.060086418 -0.047733452 -0.071703434 0.12738764 0.09731061
0.13024749 0.17456347 0.010185234 0.17218828 0.22894038 -0.113933 -0.14150551 0.15464674
0.23029421 -0.24921446 -0.07062715 0.13954 -0.14686467 -0.15615611 0.10026256 -0.1699362
-0.006417504 -0.15212913 -0.008302756 -0.031982563 -0.096181594 0.015180217 0.06263774 -0.14933477
0.10427201 -0.03861067 -0.110494405 -0.030411936 -0.11386246 0.060595013 0.06202411 0.03780678
-0.049390342 -0.06392891 -0.15901636 -0.18284851 0.147814 -0.11524508 0.072521284 -0.13351639
-0.04405715 -0.017824007 -0.0034148125 -0.009972638 -0.03908877 0.18833558 0.041767728 0.019462151
-0.035907548 0.047901776 0.116897136 0.077334955 -0.14175282 0.010850237 0.048739675 -0.092886366
0.07643796 -0.046483595 -0.051563412 -0.09162346 -0.11431567 0.00791496 0.018734774 -0.037298493
0.053328488 0.096007206 -0.075406894 -0.23655814 0.16268007 -0.09563752 0.052694093 -0.02591588
-0.10305397 0.083228886 0.01882741 0.047000937 -0.10467749 -0.13645843 0.15007846 0.06262518
0.009051564 0.05892785 0.1659268 0.19847798 -0.23724957 0.09602844 0.062912636 -0.055310037
0.1459777 -0.13289694 -0.044936787 -0.14636654 -0.1266313 -0.20034389 0.011954664 -0.054316994
00000000: 9b58 6bbd f7ce 20bd b9bc ebbc 8ed4 ef3c
00000010: a8d3 7f3d 294c 1ebd 3cc3 203d 620d 57bd
00000020: d6c5 cdbd 2058 37bd 824c 903d 5735 80bd
00000030: 7d88 24bd e6a6 163d aa0a 25bb 9f16 083c
00000040: 844c 7c3d 2827 9a3d 99b7 933d e8e8 2c3d
00000050: ad08 1fbd dfaf 57bd 14d1 463d d2ec 66bd
00000060: 289e df3d e8df 21be 0929 1abd a3c6 93bd
00000070: 42bb 49be a2d2 6cbd 9717 143e 714a 3ebc
00000080: 7176 df3a 75ab 2dbd be3f 23be 46b5 a7bd
00000090: 544d 0a3e bf84 8cbd 8240 ea3d 6995 43bd
000000a0: 7d42 193c 1220 cc3c 1a18 64bd deae e43d
000000b0: 4530 aabd 3373 b4ba 2f6b 353d 3395 5e3d
000000c0: 6a5d 373d 51f9 da3d 999d eabc bfcf e53c
000000d0: 4d9b 5fbc c139 53bd adf9 cd3b 0263 93bd
000000e0: 2334 243c ec73 98bd 9c97 183d f7cc 6bbd
000000f0: 8335 d8bd 3928 0dbe 02a2 2d3e 8b31 1fbc
00000100: 3fa5 833c 0bb4 1abd cccd ba3d 8630 cb3d
00000110: 98c2 5fbe 94ee 7dbd 117d 9b3d 5927 d9bd
00000120: 1e17 e13d f349 efbd f9af b6bd b9af 0ebe
00000130: 4c6f 9abd e340 c9bc dda5 44b9 6034 bbbd
00000140: 4c62 533d a1e8 bb3d 1d89 3dbc 62a0 de3d
00000150: c719 603d 5e59 91be d41a 823b 64de a5bd
00000160: 7ab9 5a3c bd4a 59bd d6f8 ef3d 47dc feba
00000170: 77b4 97bd 9ec7 48be 31ea f73d 3eb1 d43b
00000180: 516f 013e 2164 2a3e 237f 843d efbc 0e3e
00000190: 4f90 d1bc 1d75 adbd 138d f23d 5819 4abd
000001a0: 29d7 943d f293 46be 6cce fcbc 89a5 4dbd
000001b0: 12be 13be b1f8 1ebe c595 fe3d f617 31bd
000001c0: 8d82 49be 376e e4bd 9606 b83d 85f1 fcbb
000001d0: 2ce7 99bd e70f 223d 82ec 2f3d b89c 3ebe
000001e0: c805 acbd ec27 42bb 64c0 113d 18bc 23be
000001f0: 7f57 863c 8ce9 e43d 834e f5bc 5f5c 273c
00000200: 5f6d a33c 406c 5abc f1dc c9bd e608 89bc
00000210: cabf 1a3e e4c7 983c aa2b 403b 1b9b a9bd
00000220: 7ca5 e1bd 0278 1d3d 1de4 47bc 8128 a4bc
00000230: 6fe3 0a3d 7e22 633d ae95 ec3a 3cf3 1d3d
00000240: 9f2a 023e f62f b03d 3814 9dbd cc24 c6bc
00000250: 0308 ae3d 42ff be3c da87 d73d 035e acbd
00000260: 1027 edbd 4076 153d 806f ce3d 2d1d 763d
00000270: 2784 43bd 40d9 92bd e871 023e c94a c73d
00000280: 995f 053e c4c0 323e f8df 263c 2052 303e
00000290: 596f 6a3e b455 e9bd d2e6 10be b75b 1e3e
000002a0: 3fd2 6b3e 1332 7fbe f8a4 90bd 93e3 0e3e
000002b0: b163 16be 63e7 1fbe 7556 cd3d c103 2ebe
000002c0: ed49 d2bb bdc7 1bbe 4808 08bc 2600 03bd
000002d0: dbfa c4bd 72b6 783c 3748 803d 37eb 18be
000002e0: 908c d53d 3926 1ebd e44a e2bd 7422 f9bc
000002f0: b930 e9bd 7a32 783d fe0c 7e3d 48db 1a3d
00000300: 874d 4abd 29ed 82bd 2fd5 22be a43c 3bbe
00000310: 8e5c 173e 9d05 ecbd 0a86 943d 85b8 08be
00000320: 4575 34bd a703 92bc 0ccb 5fbb 4764 23bc
00000330: 8c1b 20bd 0bdb 403e a314 2b3d 176f 9f3c
00000340: cb13 13bd a734 443d c467 ef3d ca61 9e3d
00000350: a727 11be 31c5 313c 41a3 473d 353b bebd
00000360: 818b 9c3d 9565 3ebd 2834 53bd 15a5 bbbd
00000370: 561e eabd c0ad 013c ab79 993c 4ec6 18bd
00000380: f96e 5a3d 6d9f c43d ee6e 9abd 4c3c 72be
00000390: 9b95 263e 9bdd c3bd c3d5 573d 8a4d d4bc
000003a0: f60d d3bd e873 aa3d f13b 9a3c 0e84 403d
000003b0: 2761 d6bd c2bb 0bbe 2bae 193e a141 803d
000003c0: 034d 143c 545e 713d b7e8 293e d03d 4b3e
000003d0: 8df1 72be 8faa c43d 57d8 803d c78c 62bd
000003e0: 2e7b 153e 2316 08be a30f 38bd 1ce1 15be
000003f0: a3ab 01be f326 4dbe 7fdd 433c 7f7b 5ebd

representation.0.bias f4 [32]
-0.025674418 -0.0064240806 -0.00081160036 0.03412619 -0.01734766 -0.011334781 0.014878939 -0.009266715
0.036669943 0.028292213 0.027580135 -0.037967198 -0.056763824 -0.013439157 -0.020271512 0.019029163
0.014499452 -0.00048935076 0.048609614 -0.057992533 0.004005481 -0.041972548 -0.007320046 -0.023806602
-0.018766187 0.018624026 -0.055194132 0.0562624 -0.014943841 0.029240431 0.05617617 0.0061680567
00000000: 2853 d2bc 1881 d2bb 94c1 54ba e7c7 0b3d
00000010: ae1c 8ebc 84b5 39bc cbc6 733c 6bd3 17bc
00000020: 3933 163d 12c5 e73c bcef e13c 7e83 1bbd
00000030: 2f81 68bd e92f 5cbc 7110 a6bc 0ce3 9b3c
00000040: 1c8f 6d3c c647 00ba e01a 473d 9489 6dbd
00000050: 6940 833b 68eb 2bbd ffdc efbb 1006 c3bc
00000060: 8cbb 99bc 6a91 983c 3e13 62bd 6773 663d
00000070: 03d7 74bc a189 ef3c fc18 663d 691d ca3b

representation.1.weight f4 [32]
0.7041498 0.90175617 0.93464935 0.86372507 0.87266713 0.7196657 0.722265 0.7011366
0.85079324 0.85588545 0.803803 0.75657946 0.70199007 0.77984196 0.7183494 0.71648103
0.7022474 0.7091142 0.6998272 0.74550664 0.72142327 0.8288986 0.6171613 0.7319691
0.7336997 0.74573016 0.7104308 0.7867765 0.8026487 0.83938843 0.78340685 0.7479478
00000000: 2943 343f 7ed9 663f 2e45 6f3f 161d 5d3f
00000010: 1d67 5f3f 033c 383f 5ce6 383f b07d 333f
00000020: 96cd 593f 4f1b 5b3f 09c6 4d3f 31af 413f
00000030: 9fb5 333f b9a3 473f bfe5 373f 4d6b 373f
00000040: 7cc6 333f 8288 353f e027 333f 86d9 3e3f
00000050: 32af 383f b332 543f 48fe 1d3f 5462 3b3f
00000060: bed3 3b3f 2ce8 3e3f cbde 353f 2f6a 493f
00000070: 637a 4d3f 29e2 563f 5a8d 483f 8279 3f3f

representation.1.bias f4 [32]
-0.39283186 -0.03432469 0.04423186 -0.16208927 -0.13001876 -0.6268803 -0.66089857 0.5928266
0.08195952 -0.30441397 -0.30137214 0.6817498 0.55249184 0.3989689 -0.3657279 -0.5329557
-0.65903825 0.5608671 -0.70507574 -0.35447428 -0.6529882 -0.06443124 0.53312296 -0.6634398
-0.50827223 0.51982385 0.4909984 0.32052258 -0.3466236 0.2068415 -0.5061445 -0.4817748
00000000: 4221 c9be 0c98 0cbd 782c 353d bbfa 25be
00000010: a323 05be 3a7b 20bf a630 29bf 7cc3 173f
00000020: 65da a73d 26dc 9bbe 734d 9abe 2887 2e3f
00000030: 1b70 0d3f a745 cc3e b040 bbbe c96f 08bf
00000040: bbb6 28bf fc94 0f3f d87f 34bf a77d b5be
00000050: 3c2a 27bf 87f4 83bd bf7a 083f 31d7 29bf
00000060: 211e 02bf 2d13 053f 2464 fb3e 891b a43e
00000070: a678 b1be 42ce 533e b092 01bf 30ab f6be

representation.1.running_mean f4 [32]
0.33067006 1.4834377 0.6869922 0.39788157 -2.4305055 1.0361323 4.223794 -0.29583725
-2.2485087 -5.079427 1.0559696 4.1084585 0.81562227 2.3267412 -2.1640031 -0.027006365
-8.911809 -1.7082084 -6.0577703 1.0704606 4.158855 -0.47612295 -3.7899075 0.9146834
-0.18849821 4.632215 -4.970344 2.4023993 -0.59204376 -0.3932171 -0.50240445 -2.996089
00000000: 964d a93e 49e1 bd3f b9de 2f3f 22b7 cb3e
00000010: 678d 1bc0 fc9f 843f 5229 8740 fb77 97be
00000020: 91e7 0fc0 aa8a a2c0 032a 873f 7e78 8340
00000030: 9fcc 503f 54e9 1440 077f 0ac0 743c ddbc
00000040: c596 0ec1 93a6 dabf 41d9 c1c0 da04 893f
00000050: 5715 8540 63c6 f3be d88d 72c0 b128 6a3f
00000060: ad05 41be 1b3b 9440 0f0d 9fc0 e9c0 1940
00000070: 2e90 17bf c053 c9be 949d 00bf ecbf 3fc0

representation.1.running_var f4 [32]
55.638443 112.95755 39.944496 63.28495 35.694717 21.800192 49.789856 45.533813
113.679924 54.224735 95.10883 37.70797 68.25554 56.048973 62.620216 28.174313
61.844692 70.56102 44.62155 103.22239 38.00207 61.59708 95.05497 50.183445
84.681526 44.137054 44.784763 23.51432 48.090015 92.98116 35.368805 46.781055
00000000: c48d 5e42 44ea e142 2ac7 1f42 ca23 7d42
00000010: 64c7 0e42 cb66 ae41 d028 4742 a022 3642
00000020: 1f5c e342 21e6 5842 b937 be42 f6d4 1642
00000030: d682 8842 2632 6042 1a7b 7a42 fe64 e141
00000040: f760 7742 3e1f 8d42 787c 3242 dd71 ce42
00000050: 1f02 1842 6963 7642 251c be42 d9bb 4842
00000060: f15c a942 588c 3042 9923 3342 541d bc41
00000070: 2d5c 4042 5bf6 b942 a879 0d42 cd1f 3b42

model_weighting.0.weight f4 [3, 19]
-0.20133483 0.12277276 0.07464409 -0.04997379 -0.15923357 0.23354506 -0.1092057 -0.22408228
-0.026813813 -0.07951322 0.02452156 -0.1929915 -0.056517925 -0.24560256 0.06203014 -0.15225479
0.21374841 -0.25723687 -0.28800952 -0.19940542 0.021555915 -0.040046692 -0.058410823 0.022610817
-0.19841824 -0.10130681 0.08824989 0.09877126 -0.11435905 -0.3039642 0.06469804 0.21622257
-0.23296313 -0.27236083 0.1116286 0.11445957 -0.18283276 0.09757199 -0.22764358 0.018367492
0.16591918 0.2368984 0.296442 -0.00086527894 -0.16839296 -0.022506056 -0.08945331 -0.19180442
0.034258384 -0.006912989 0.011363337 0.028880896 0.08040556 0.017781008 -0.2525087 0.11502476
0.16080952
00000000: b82a 4ebe 4970 fb3d 00df 983d 51b1 4cbd
00000010: 200e 23be 7026 6f3e 3da7 dfbd d375 65be
00000020: a4a8 dbbc d4d7 a2bd 70e1 c83c 909f 45be
00000030: 577f 67bd 3d7f 7bbe 5113 7e3d aee8 1bbe
00000040: dde0 5a3e 8db4 83be fc75 93be ef30 4cbe
00000050: 0896 b03c 0008 24bd 3040 6fbd 523a b93c
00000060: 272e 4bbe f279 cfbd 5cbc b43d 9648 ca3d
00000070: 1435 eabd 32a1 9bbe 6880 843d 7369 5d3e
00000080: e38d 6ebe e172 8bbe 899d e43d c769 ea3d
00000090: 8338 3bbe d3d3 c73d 661b 69be 6c77 963c
000000a0: b8e6 293e 7f95 723e 3fc7 973e e3d3 62ba
000000b0: 346f 2cbe 9f5e b8bc 4c33 b7bd 6168 44be
000000c0: 8552 0c3d 5b86 e2bb 4a2d 3a3c a197 ec3c
000000d0: acab a43d 7aa9 913c d248 81be 1a92 eb3d
000000e0: 40ab 243e

model_weighting.0.bias f4 [3]
-0.20612468 0.09917569 -0.09977727
00000000: 5912 53be a01c cb3d 0658 ccbd

models.0.weight f4 [1, 32]
0.08662628 0.08803366 -0.054247096 0.0041287257 -0.069818854 0.20482765 0.09118933 -0.07516109
-0.09665595 -0.04858695 0.08953919 -0.13300839 -0.13307881 -0.07072228 0.109749645 0.083148204
0.14872812 -0.089868926 0.19745736 0.1033283 0.08568141 0.070447564 -0.06431683 0.214272
0.11147052 -0.15160978 -0.061114654 -0.120190896 0.08732905 -0.054075893 0.04824637 0.020766033
00000000: 1e69 b13d fe4a b43d 3432 5ebd 434a 873b
00000010: 30fd 8ebd 57be 513e 79c1 ba3d 0fee 99bd
00000020: 8ef3 c5bd 1c03 47bd 5360 b73d 5a33 08be
00000030: d045 08be d8d6 90bd 6cc4 e03d 9b49 aa3d
00000040: 2f4c 183e 330d b8bd 4332 4a3e ca9d d33d
00000050: bc79 af3d d046 903d 8bb8 83bd 1f6a 5b3e
00000060: a84a e43d 983f 1bbe 5c53 7abd a526 f6bd
00000070: 93d9 b23d af7e 5dbd fc9d 453d 871d aa3c

models.1.weight f4 [1, 32]
0.23327515 -0.19432881 0.28261742 0.15835941 0.15294589 0.25978327 0.1548529 0.047612026
-0.11362341 0.122941956 -0.10371277 -0.09585633 -0.23761097 -0.20710474 0.17792359 -0.047017813
-0.27619278 -0.02000442 -0.026106007 -0.033116005 0.35853422 -0.22291324 -0.21242085 0.087973334
0.10097749 0.11708382 -0.36929193 -0.15089546 0.18211922 -0.16769129 0.044947386 0.13076574
00000000: aedf 6e3e 22fe 46be 3bb3 903e f828 223e
00000010: d99d 1c3e 5002 853e c291 1e3e d404 433d
00000020: 64b3 e8bd fec8 fb3d 5c67 d4bd 5350 c4bd
00000030: 4a50 73be 4413 54be 9a31 363e c095 40bd
00000040: 2469 8dbe 4fe0 a3bc 44dc d5bc a6a4 07bd
00000050: cc91 b73e 5e43 64be da84 59be 5d2b b43d
00000060: 49cd ce3d a4c9 ef3d d513 bdbe 5784 1abe
00000070: 767d 3a3e 44b7 2bbe c01a 383d 74e7 053e

models.2.weight f4 [1, 32]
0.01385947 -0.08734682 0.058890045 0.052808408 0.09511185 0.10487926 0.20385699 -0.088709734
0.088309534 0.14598413 -0.0038634047 -0.12876548 -0.1293416 -0.022670342 0.018956097 0.10952283
0.13772154 -0.12782276 0.14594722 0.025661675 0.112130165 -0.05850394 -0.09624005 0.094929405
0.07954003 -0.05594564 -0.11256441 0.0012906007 -0.004123988 0.034262344 0.15118939 0.13388033
00000000: d512 633c e4e2 b2bd b036 713d a14d 583d
00000010: 00ca c23d f0ca d63d e3bf 503e 73ad b5bd
00000020: a1db b43d dd7c 153e 2d31 7dbb 19db 03be
00000030: 2072 04be 27b7 b9bc d149 9b3c 814d e03d
00000040: e006 0d3e f8e3 02be 3073 153e 6f38 d23c
00000050: 80a4 e53d d4a1 6fbd 8119 c5bd 596a c23d
00000060: e2e5 a23d 4127 65bd 2b88 e6bd 6029 a93a
00000070: 8522 87bb ac56 0c3d 64d1 1a3e ed17 093e
