adult/Models/mixture_v1/0.8498_1/params.pt (torch_old, 30111 bytes, 60 tensors)

attention_mechanism.in_proj_weight f4 [24, 8]
0.36171797 0.25983113 0.19914465 -0.46930924 -0.03676154 0.2857629 0.3346373 0.5905719
-0.32116488 -0.3732632 0.13202313 0.2997491 0.35396048 0.011623867 -0.8768392 -0.034914162
0.67424446 0.19234866 0.3862816 -0.46506602 0.14904247 0.38050658 0.1394853 0.4006643
0.016192948 0.30552664 0.444695 -0.011029881 0.04860085 0.26956078 0.46813768 0.0380944
0.39632493 -0.22418901 0.0046223877 0.27547503 0.32898706 0.11709209 -0.18200362 0.7679513
-0.5323133 0.19028935 -0.3701537 0.578423 0.19080217 -0.4038965 -0.091447935 0.14246759
-0.30271375 -0.32417634 -0.27543765 0.5630109 -0.32991415 0.06804653 -0.15886675 -0.61224294
0.49837378 0.1930742 0.28630108 -0.53159416 0.06880985 0.31432402 0.3591573 -0.1345556
0.2388037 0.2639318 0.22305024 0.40789983 0.3920596 0.3864002 0.3311322 0.16815837
-0.569298 0.030967547 -0.32550287 0.43815938 -0.37222123 -0.5402012 0.1521383 0.52502733
0.25480452 0.2174228 0.60524905 0.3724881 0.024831219 0.6173469 0.51843685 0.4782022
0.22091289 0.27677473 0.078437015 -0.2953666 0.46072763 0.3578038 -0.34116033 0.25899872
-0.37243742 0.19296896 0.36300445 0.72425205 0.02591553 0.20227191 -0.5771126 0.32940602
0.028447442 -0.1499706 0.22579232 0.069441706 -0.51158506 -0.6432175 -0.3582557 -0.24239117
-0.20660494 0.07820023 -0.67975897 -0.33971888 -0.44631594 -0.39247435 0.43465635 -0.11351678
-0.02833167 0.16550426 -0.0006334599 -0.44818586 0.47493953 0.7119551 0.48907492 0.07088076
-0.07718874 0.3476833 -0.47296974 0.2666539 -0.10562062 0.28229988 0.4535772 -0.40703744
-0.13238756 0.0727294 0.35157543 -0.5643028 0.3224281 0.09445482 -0.3761261 0.14546353
0.45092627 -0.07677311 -0.001945398 0.021770304 -0.23757698 -0.15822941 -0.45222187 0.036330216
-0.16337116 -0.34066635 -0.5780736 0.09785328 -0.06773141 -0.33509183 0.050436597 0.21781744
-0.22391239 -0.41384485 0.3368325 -0.13196205 -0.16073744 0.00999387 -0.5927284 0.30564955
-0.034014776 -0.5453378 -0.07329319 0.012215968 -0.16555077 0.014816331 0.23996715 0.12820134
-0.23543017 0.27012295 -0.07656789 -0.33924904 -0.002597008 0.1726321 0.67737406 0.22348969
-0.32209367 -0.07346304 -0.50847083 0.47735178 -0.13520564 -0.32792825 -0.28594282 0.20535079
00000000: 1933 b93e 9608 853e 93ec 4b3e 4d49 f0be
00000010: 4593 16bd 844f 923e 9555 ab3e b82f 173f
00000020: b96f a4be 5b1c bfbe 1231 073e b778 993e
00000030: 4f3a b53e 0872 3e3c 8978 60bf 2702 0fbd
00000040: 499b 2c3f 0cf7 443e b4c6 c53e 221d eebe
00000050: 979e 183e c2d1 c23e 3cd5 0e3e df23 cd3e
00000060: 13a7 843c fd6d 9c3e 10af e33e adb6 34bc
00000070: af11 473d df03 8a3e beaf ef3e e008 1c3d
00000080: 1aeb ca3e ce91 65be 6677 973b 100b 8d3e
00000090: fe70 a83e facd ef3d 285f 3abe 7598 443f
000000a0: af45 08bf 36db 423e c984 bdbe 8813 143f
000000b0: a561 433e 86cb cebe 0e49 bbbd 06e3 113e
000000c0: 4cfd 9abe 71fa a5be 2a06 8dbe 7b21 103f
000000d0: 82ea a8be fb5b 8b3d f7ad 22be f4bb 1cbf
000000e0: d92a ff3e 3eb5 453e 0e96 923e 8e16 08bf
000000f0: 2eec 8c3d 14ef a03e 77e3 b73e f1c8 09be
00000100: f588 743e 1222 873e 4867 643e 3fd8 d03e
00000110: 09bc c83e 3fd6 c53e 298a a93e b531 2c3e
00000120: 84bd 11bf a7af fd3c 50a8 a6be 6d56 e03e
00000130: c893 bebe a04a 0abf 24ca 1b3e 3168 063f
00000140: bd75 823e 15a4 5e3e 9af1 1a3f c3b6 be3e
00000150: d76a cb3c 720a 1e3f 47b8 043f ebd6 f43e
00000160: fd36 623e 6bb5 8d3e 96a3 a03d 4a3a 97be
00000170: 7ee4 eb3e 0f32 b73e 91ac aebe 7b9b 843e
00000180: 1eb0 bebe a899 453e b8db b93e 9568 393f
00000190: ce4c d43c 5e20 4f3e a7bd 13bf e8a7 a83e
000001a0: 9c0a e93c e591 19be 1a36 673e 7437 8e3d
000001b0: 3df7 02bf e7a9 24bf 4b6d b7be 6435 78be
000001c0: 3f90 53be 7127 a03d af04 2ebf a2ef adbe
000001d0: 8683 e4be 66f2 c8be 478b de3e 7c7b e8bd
000001e0: d217 e8bc f379 293e c60e 26ba 9e78 e5be
000001f0: 462b f33e b042 363f 0768 fa3e ef29 913d
00000200: 2115 9ebd 8c03 b23e 1729 f2be dc86 883e
00000210: a04f d8bd 9c89 903e 453b e83e 3667 d0be
00000220: 9b90 07be 27f3 943d b201 b43e 2676 10bf
00000230: 4c15 a53e 8771 c13d 9a93 c0be 64f4 143e
00000240: cfdf e63e 383b 9dbd bafc feba a357 b23c
00000250: 6147 73be e406 22be a089 e7be fece 143d
00000260: c54a 27be d26b aebe a2fc 13bf 4d67 c83d
00000270: c4b6 8abd 2891 abbe 9b96 4e3d 890b 5f3e
00000280: 4a49 65be 79e3 d3be 4f75 ac3e 0f21 07be
00000290: 5b98 24be 54bd 233c 0cbd 17bf 197e 9c3e
000002a0: 1453 0bbd 429b 0bbf bd1a 96bd 7c25 483c
000002b0: 2486 29be 32c0 723c f3b9 753e 3647 033e
000002c0: 9b14 71be 8e4d 8a3e a0cf 9cbd 0db2 adbe
000002d0: 9032 2abb 78c6 303e 6368 2d3f 7bda 643e
000002e0: 76e9 a4be ca73 96bd 252b 02bf 7467 f43e
000002f0: 5973 0abe 36e6 a7be 1967 92be 7a47 523e

attention_mechanism.in_proj_bias f4 [24]
-0.18847905 -0.02415981 -0.17464419 -0.22711094 -0.35918343 0.18515643 0.22435223 -0.15260953
-0.024598487 -0.03154552 -0.043912116 -0.028253645 -0.027069034 0.044674806 0.052621253 -0.025668984
1.5051446 0.32104832 1.5783579 0.58004487 -1.3967284 -1.7155248 -0.08768238 -0.7406583
00000000: a700 41be cbea c5bc edd5 32be c58f 68be
00000010: e4e6 b7be a699 3d3e 97bc 653e ac45 1cbe
00000020: c482 c9bc e035 01bd 31dd 33bd 3074 e7bc
00000030: e1bf ddbc eefc 363d 6289 573d c347 d2bc
00000040: 94a8 c03f 7260 a43e a207 ca3f d27d 143f
00000050: ffc7 b2bf 5196 dbbf d292 b3bd c89b 3dbf

attention_mechanism.out_proj.weight f4 [8, 8]
-0.6012318 -0.36871576 -0.077983096 -0.066182904 0.44976923 0.57578397 0.03062196 0.1737177
-0.07767443 -0.1516816 -0.018152537 0.46405375 0.104106896 0.5259041 -0.2218019 0.4224692
0.37511104 0.09447991 -0.17422965 0.3648438 0.22558855 -0.17005768 0.09064615 0.47238457
-0.42320526 0.29212236 -0.26289517 0.15167041 0.14829968 0.25195888 -0.1136989 0.0053516575
-0.5350936 0.46711332 -0.5216529 0.12611909 0.11014532 -0.15985836 0.42410997 0.048201885
-0.36456662 -0.06524966 0.22035378 0.10547734 -0.031619612 -0.40966913 -0.121194854 0.45610303
0.5959959 -0.33943292 -0.3654191 0.15286627 -0.525751 -0.20366144 0.27073032 0.004865983
0.18905985 0.10349391 0.4851323 0.38300413 -0.30812088 -0.345537 -0.14931421 -0.27347007
00000000: 54ea 19bf 50c8 bcbe 9ab5 9fbd e78a 87bd
00000010: 2748 e63e 9466 133f e8da fa3c 0ee3 313e
00000020: c613 9fbd 6c52 1bbe a1b4 94bc 7498 ed3e
00000030: ff35 d53d a7a1 063f 0a20 63be e24d d83e
00000040: 8e0e c03e af7e c13d 4269 32be cecc ba3e
00000050: af00 673e 9a23 2ebe b0a4 b93d 64dc f13e
00000060: 5cae d8be 1091 953e 329a 86be 7d4f 1b3e
00000070: dfdb 173e c100 813e f8da e8bd f55c af3b
00000080: e5fb 08bf 7a29 ef3e 0b8b 05bf 5d25 013e
00000090: df93 e13d e9b1 23be f124 d93e 576f 453d
000000a0: 7aa8 babe 9da1 85bd 6ca4 613e 8104 d83d
000000b0: 9183 01bd 27c0 d1be 0235 f8bd 5686 e93e
000000c0: 3093 183f 27ca adbe 3618 bbbe fa88 1c3e
000000d0: 9e97 06bf a08c 50be 2a9d 8a3e d372 9f3b
000000e0: e898 413e 9df4 d33d 4363 f83e 1e19 c43e
000000f0: 05c2 9dbe 3aea b0be d3e5 18be 4504 8cbe

attention_mechanism.out_proj.bias f4 [8]
0.06751331 0.010680603 -0.019747306 0.013565874 -0.018850913 0.019246468 -0.0071979626 0.02690392
00000000: 6b44 8a3d b2fd 2e3c 1ac5 a1bc 6643 5e3c
00000010: 3b6d 9abc c5aa 9d3c e3dc ebbb 9c65 dc3c

embedding.0.bias f4 [8]
0.68404204 1.5863106 0.45393538 -1.5352821 0.5379618 0.1358174 0.6363074 -1.2019423
00000000: 611d 2f3f 3a0c cb3f 386a e83e 2084 c4bf
00000010: ddb7 093f b713 0b3e 0be5 223f 3fd9 99bf

embedding.0.weight_g f4 [8, 1]
0.28775698 1.096635 1.3971047 0.33250907 0.40119523 0.9611485 0.8686886 0.097254016
00000000: e254 933e 895e 8c3f 54d4 b23f a13e aa3e
00000010: 7669 cd3e d40d 763f 6062 5e3f 1d2d c73d

embedding.0.weight_v f4 [8, 1]
-0.17778401 0.66873693 -0.8987291 0.23310728 0.4070199 0.8959811 0.5424853 0.3624862
00000000: 030d 36be 5832 2b3f 1c13 66bf adb3 6e3e
00000010: ea64 d03e 045f 653f 51e0 0a3f cb97 b93e

embedding.1.bias f4 [8]
-0.78211033 -0.9429623 -0.44543108 -0.011591364 -0.28169185 -1.1485432 0.7308962 -0.3984984
00000000: 6238 48bf fa65 71bf 8b0f e4be b4e9 3dbc
00000010: ea39 90be 7703 93bf 031c 3b3f fb07 ccbe

embedding.1.weight_g f4 [8, 1]
0.6686846 0.70627606 0.071576536 0.5644437 0.32349625 0.41439602 0.18665008 0.7451727
00000000: ea2e 2b3f 82ce 343f b896 923d 627f 103f
00000010: 4da1 a53e b72b d43e 3321 3f3e a3c3 3e3f

embedding.1.weight_v f4 [8, 1]
-0.65039843 0.8653826 0.37607405 0.6283939 -0.4288171 -0.51223296 -0.039450675 0.94316965
00000000: 8380 26bf b789 5d3f c78c c03e 6cde 203f
00000010: ea8d dbbe b321 03bf 0897 21bd 9173 713f

embedding.2.bias f4 [8]
-0.08725347 0.77724296 0.9261356 0.8322005 -0.1412677 0.44951734 -0.034946576 -0.35234797
00000000: f3b1 b2bd 65f9 463f 3917 6d3f 180b 553f
00000010: 7ba8 10be 2327 e63e 2424 0fbd f466 b4be

embedding.2.weight_g f4 [8, 1]
0.85114044 0.6402663 0.38093233 1.4067805 1.316663 0.9512165 0.47220543 -0.17146175
00000000: 57e4 593f 7ee8 233f 9009 c33e 6211 b43f
00000010: 6a88 a83f ed82 733f e9c4 f13e ab93 2fbe

embedding.2.weight_v f4 [8, 1]
-0.16527687 -0.8121802 -0.22389808 0.7676877 -0.6475605 -0.11942472 -0.1808282 0.36598602
00000000: 573e 29be 0beb 4fbf 8a45 65be 2e87 443f
00000010: 86c6 25bf f394 f4bd 072b 39be 8562 bb3e

embedding.3.bias f4 [8]
-0.5945783 0.53065807 0.26019564 1.3561212 -0.8936416 -1.3729103 -0.5217749 -0.97210187
00000000: 4936 18bf 35d9 073f 5d38 853e 6195 ad3f
00000010: b2c5 64bf 86bb afbf 0a93 05bf abdb 78bf

embedding.3.weight_g f4 [8, 1]
0.5011969 0.23536807 0.7027713 0.1809829 0.6264976 0.4805537 0.6898668 0.1502799
00000000: 714e 003f 5404 713e d2e8 333f 9553 393e
00000010: 2662 203f 220b f63e 1c9b 303f f9e2 193e

embedding.3.weight_v f4 [8, 1]
0.45874035 0.40501446 0.84563184 -0.23279458 0.7037253 -0.487167 0.83387196 -0.3919833
00000000: 04e0 ea3e 0e5e cf3e 547b 583f b461 6ebe
00000010: 5727 343f f46d f9be a278 553f 09b2 c8be

embedding.4.bias f4 [8]
0.71629035 0.22965957 -0.10975402 1.0822496 0.78859466 -0.16210434 0.34660685 0.45143774
00000000: ce5e 373f e12b 6b3e b7c6 e0bd 2887 8a3f
00000010: 57e1 493f aefe 25be 7476 b13e d922 e73e

embedding.4.weight_g f4 [8, 1]
1.2176051 -0.10039794 0.36515325 0.004552602 0.25720188 0.5007761 0.46481687 -0.22320025
00000000: 7cda 9b3f 6f9d cdbd 5ef5 ba3e fe2d 953b
00000010: f7af 833e dd32 003f 7afc ed3e 9b8e 64be

embedding.4.weight_v f4 [8, 1]
0.7662525 -0.46046454 0.3449005 0.3069531 0.2517622 0.2168734 0.42654303 0.48920467
00000000: 2029 443f 02c2 ebbe cc96 b03e f528 9d3e
00000010: fae6 803e 1014 5e3e d963 da3e 0979 fa3e

embedding.5.bias f4 [8]
-0.17752355 1.5477722 -0.75066704 -0.51619273 0.0040274407 -0.09081622 0.5640839 -0.9011524
00000000: bcc8 35be 661d c63f b72b 40bf 3525 04bf
00000010: 9ff8 833b dbfd b9bd cd67 103f ecb1 66bf

embedding.5.weight_g f4 [8, 1]
-0.03762881 2.3105187 0.3077574 0.72526973 0.59697884 0.39442855 0.37319288 -0.092377074
00000000: ab20 1abd 8adf 1340 6192 9d3e 47ab 393f
00000010: 9bd3 183f 8af2 c93e 2313 bf3e 3130 bdbd

embedding.5.weight_v f4 [8, 1]
-0.198132 0.90476453 0.1661534 -0.5832979 0.72087675 0.21383911 0.35561916 0.47113082
00000000: 1de3 4abe a69e 673f 1e24 2a3e 0353 15bf
00000010: 618b 383f a4f8 5a3e b713 b63e 0f38 f13e

embedding.6.bias f4 [8]
0.3205551 -0.25589633 -1.2709903 -1.083208 0.05934363 -1.5346596 -0.7635848 -0.7096778
00000000: cc1f a43e d804 83be cfaf a2bf 8fa6 8abf
00000010: 4e12 733d ba6f c4bf 4b7a 43bf 72ad 35bf

embedding.6.weight_g f4 [8, 1]
1.6458305 0.22894634 0.011147656 0.2718696 0.11658979 0.60553586 0.7424678 0.76961666
00000000: 93aa d23f e970 6a3e a8a4 363c 7e32 8b3e
00000010: a1c6 ee3d 6604 1b3f 5f12 3e3f 9905 453f

embedding.6.weight_v f4 [8, 1]
-0.7343773 0.78240865 -0.3160901 0.34098974 -0.29317346 -0.35642675 -0.38266268 0.4146486
00000000: 2700 3cbf ef4b 483f 90d6 a1be 3596 ae3e
00000010: d51a 96be 917d b6be 5dec c3be d24c d43e

embedding.7.bias f4 [8]
0.22321083 0.04884192 1.6222273 -1.428051 1.3932223 1.0006566 0.54691094 0.7347629
00000000: 6191 643e 770e 483d 25a5 cf3f 60ca b6bf
00000010: 1c55 b23f 8415 803f 5b02 0c3f 6c19 3c3f

embedding.7.weight_g f4 [8, 1]
0.071467735 0.00041735725 0.004892133 0.50189966 0.6863643 0.5609231 -0.0117098745 0.61596566
00000000: ad5d 923d bed0 da39 304e a03b 7f7c 003f
00000010: 92b5 2f3f a898 0f3f c6da 3fbc edaf 1d3f

embedding.7.weight_v f4 [8, 1]
0.07965459 -0.10255983 -0.07200001 0.60474855 0.8603251 0.5812717 -0.06945139 0.64180356
00000000: f221 a33d e30a d2bd be74 93bd cdd0 1a3f
00000010: 443e 5c3f 39ce 143f 883c 8ebd 3d4d 243f

embedding.8.bias f4 [8]
-0.5426617 -0.21159004 0.574624 0.23688708 -0.04790153 0.74441135 -0.7374409 -0.35583836
00000000: e1eb 0abf 0fab 58be 8f1a 133f 8792 723e
00000010: 6534 44bd be91 3e3f edc8 3cbf 7230 b6be

embedding.8.weight_g f4 [8, 1]
1.6863918 0.19345081 -0.54405636 1.2170119 0.81681216 0.38230032 1.6886404 1.194098
00000000: b0db d73f f817 463e 4747 0bbf 0cc7 9b3f
00000010: 9a1a 513f debc c33e 5e25 d83f 34d8 983f

embedding.8.weight_v f4 [8, 1]
0.87817264 -0.83082634 -0.21494493 -0.33355013 -0.30401957 -0.85733324 0.9435449 -0.9023112
00000000: eccf 603f 09b1 54bf 861a 5cbe 15c7 aabe
00000010: 74a8 9bbe 317a 5bbf 298c 713f defd 66bf

embedding.9.bias f4 [8]
0.82136136 2.9336212 -0.3328347 -1.040288 1.3788323 2.6598794 2.670608 -1.5429578
00000000: bd44 523f 73c0 3b40 4f69 aabe 2828 85bf
00000010: 947d b03f 773b 2a40 3eeb 2a40 a47f c5bf

embedding.9.weight_g f4 [8, 1]
0.64677143 -0.67255616 -0.60112226 2.6861827 -0.62806296 -0.64241046 -0.4437209 1.8253157
00000000: d092 253f a42c 2cbf 26e3 19bf 6bea 2b40
00000010: bcc8 20bf 0375 24bf 632f e3be f2a3 e93f

embedding.9.weight_v f4 [8, 1]
0.24403495 -0.22567223 -0.621356 -0.7737372 -0.960393 -0.63770014 -0.3657175 -0.8557652
00000000: 4ce4 793e 9f16 67be 3011 1fbf a413 46bf
00000010: 51dc 75bf 5140 23bf 533f bbbe 6e13 5bbf

embedding.10.bias f4 [8]
-0.2441176 -0.08724358 0.082724825 -0.13465944 4.802982e-05 -0.278035 1.188967 -0.47966415
00000000: f7f9 79be c3ac b2bd a26b a93d 2ae4 09be
00000010: a073 4938 9b5a 8ebe 1230 983f 8a96 f5be

embedding.10.weight_g f4 [8, 1]
-0.11498125 0.80342543 0.8646695 0.1871563 1.7304665 0.13539305 1.1966397 0.3759306
00000000: 4a7b ebbd 4aad 4d3f fb5a 5d3f e7a5 3f3e
00000010: ed7f dd3f 7aa4 0a3e 7d2b 993f fa79 c03e

embedding.10.weight_v f4 [8, 1]
-0.16123852 -0.65884393 0.5523502 0.41737762 0.9240013 -0.9320192 -0.50070184 0.30658898
00000000: b61b 25be ffa9 28bf d366 0d3f 85b2 d53e
00000010: 598b 6c3f cf98 6ebf ff2d 00bf 3bf9 9c3e

embedding.11.bias f4 [8]
-0.08283259 -0.25930688 0.07196254 -0.4609914 0.6554971 -0.6448485 0.48165324 -0.24976417
00000000: 22a4 a9bd dfc3 84be 1961 933d 1107 ecbe
00000010: a8ce 273f cb14 25bf 419b f63e 2ec2 7fbe

embedding.11.weight_g f4 [8, 1]
1.8848685 1.0790977 1.4531934 1.5536153 0.932021 1.4221231 1.411229 1.6365901
00000000: 5f43 f13f e01f 8a3f 3e02 ba3f dedc c63f
00000010: ee98 6e3f 2108 b63f 27a3 b43f c97b d13f

embedding.11.weight_v f4 [8, 1]
0.932258 0.6904183 0.5424608 -0.69463015 0.53357875 0.45048007 0.61469483 0.6197758
00000000: 76a8 6e3f 41bf 303f b6de 0a3f 48d3 31bf
00000010: 9e98 083f 53a5 e63e a45c 1d3f a0a9 1e3f

embedding.12.bias f4 [8]
-0.5390781 0.4109673 -1.0465341 0.34050974 0.079153195 -0.04992677 -0.31473592 -0.64420205
00000000: 0601 0abf 4e6a d23e d4f4 85bf 4b57 ae3e
00000010: 121b a23d 0380 4cbd 1125 a1be 6dea 24bf

embedding.12.weight_g f4 [8, 1]
1.2463243 0.10376236 1.3870811 -0.55800855 0.64805037 1.1417942 1.2897542 0.10375288
00000000: 8e87 9f3f 5c81 d43d e08b b13f a6d9 0ebf
00000010: a1e6 253f 5026 923f aa16 a53f 647c d43d

embedding.12.weight_v f4 [8, 1]
0.47624686 0.021741025 0.3316696 0.18933076 -0.25521287 0.18962716 0.5551936 -0.9969807
00000000: a1d6 f33e 3c1a b23c 99d0 a93e ecdf 413e
00000010: 43ab 82be 9f2d 423e 2b21 0e3f 213a 7fbf

embedding.13.bias f4 [8]
0.47833773 0.1662837 -0.38429248 0.9271934 -0.61068547 0.76773924 -0.8557534 0.19033384
00000000: afe8 f43e 4646 2a3e fcc1 c4be 8c5c 6d3f
00000010: e255 1cbf 8f8a 443f a812 5bbf e0e6 423e

embedding.13.weight_g f4 [8, 1]
0.40709075 1.1802878 1.1974884 1.2498507 -0.15718849 0.45662296 1.248221 0.52833754
00000000: 336e d03e ac13 973f 4d47 993f 1cfb 9f3f
00000010: 05f6 20be 7cca e93e b5c5 9f3f 2141 073f

embedding.13.weight_v f4 [8, 1]
-0.7122893 0.6550485 0.91829926 -0.80938596 0.2229309 -0.6385341 0.76406014 0.5328918
00000000: 9758 36bf 42b1 273f a915 6b3f eb33 4fbf
00000010: ff47 643e f976 23bf 7299 433f 996b 083f

representation.0.weight f4 [32, 112]
0.0392879 -0.05835006 -0.098313995 0.017345868 0.123287104 -0.26031044 -0.072528005 -0.005446893
-0.24103972 -0.020105032 -0.026684113 -0.088545255 0.2682246 0.106776506 0.039057303 0.10383859
-0.8973762 -0.45435238 -0.072599575 -0.09645696 0.39172742 -0.057345886 0.17625971 0.32446325
0.10224924 0.13577802 0.017219698 0.23528242 0.007765921 0.105495974 -0.3159989 -0.10279163
-0.21376465 -0.040536486 0.15602674 -0.0544215 -0.14668578 0.048130628 0.2466334 0.13793415
0.049539592 -0.01991582 -0.08007924 -0.11473387 -0.010530145 -0.05213903 -0.017144592 0.031842634
-0.13973852 -0.20363356 -0.015149443 0.054244723 0.31660938 0.12406496 0.15199201 -0.023285434
-0.020342803 -0.11749517 -0.1018959 0.092825875 0.046646427 -0.089703396 -0.2243966 -0.0018624816
0.16415432 0.2422527 0.3325614 -0.17358315 0.39613944 0.22820674 0.3279919 -0.12686093
0.011224311 -0.03565263 0.11096144 -0.06706476 0.075078435 -0.13310102 -0.02353248 0.05028741
-0.75923765 -0.48395452 -0.19562025 -0.18216974 -0.24973048 -0.15190595 0.5735593 0.36767703
-0.30405834 0.42359382 0.0057468954 -1.0068873 -1.159783 0.31964463 0.4411407 0.9942467
0.053509936 0.09603562 0.21001859 0.33015373 0.06976782 0.30322388 -0.7517904 0.34123322
-0.086007535 -0.056770872 0.27333948 -0.006397233 -0.057003763 0.034463517 0.0657261 0.058261674
0.047879376 0.12074722 0.13455658 0.112036735 -0.05490726 -0.100999266 0.102656655 -0.27326325
-0.061108377 -0.05902985 -0.041278094 -0.024267314 -0.14521131 -0.10164431 -0.1045841 0.21558002
-0.3518136 -0.07925708 -0.25950754 -0.02999024 -0.3339915 -0.1834447 0.05290015 0.21474026
0.20063202 0.3168693 0.25114983 0.1822968 0.1421411 0.26583037 -0.06609582 -0.13577166
0.4604141 0.13010363 -0.05074826 0.1758984 0.18490651 -0.1685677 -0.27981213 -0.13551977
-0.1511325 0.019662593 -0.052478712 -0.021841286 -0.06294296 0.11022949 0.19857028 0.1260559
-0.09395951 0.017170234 -0.14773685 -0.0069097336 0.07960059 -0.13933304 0.19579206 0.01972795
0.12200505 0.0418245 0.27600476 0.049149256 0.06108854 0.24869458 -0.054497514 -0.21930635
-0.056037832 -0.08875647 -0.24242555 0.020784887 0.0833601 -0.2936851 0.29900333 0.08499642
-0.049245685 0.099433266 0.07925831 0.08354281 0.06386332 0.18949082 -0.05557815 -0.01537568
-0.2907864 -0.21542819 -0.10512341 -0.122819826 -0.20104341 -0.18240473 0.2452016 0.23545684
-0.381333 0.6317676 -0.056241963 -0.7663296 -1.0285062 0.23907056 0.17113559 0.768933
0.31965914 0.3080314 0.08562594 0.24075477 -0.12244026 0.049077753 -0.42939138 -0.30245656
-0.46149352 -0.10615319 0.06395693 -0.24992716 -0.2005778 0.05502371 0.20593876 0.2264043
-0.050422404 0.04235685 0.1508143 0.004089449 -0.09917263 -0.09398221 -0.053543366 0.00573128
0.08757354 0.10492314 0.12544535 -0.052972697 0.19308577 0.13369147 0.14647785 -0.07201197
-0.47373295 -0.16635595 -0.16779877 -0.043708853 0.043857817 -0.049504984 0.18610744 0.11824362
0.3004165 0.31525722 0.34516197 0.20420058 0.081229664 0.2570022 -0.006350407 -0.07683912
00000000: 59ec 203d 7900 6fbd d958 c9bd ec18 8e3c
00000010: f37d fc3d 6947 85be 9089 94bd da7b b2bb
00000020: 1ed3 76be 4fb3 a4bc a498 dabc 3757 b5bd
00000030: bc54 893e a4ad da3d 8dfa 1f3d 54a9 d43d
00000040: 72ba 65bf e0a0 e8be 16af 94bd 3a8b c5bd
00000050: 7f90 c83e 85e3 6abd 6d7d 343e 0c20 a63e
00000060: 0d68 d13d 6509 0b3e 5310 8d3c e0ed 703e
00000070: 4479 fe3b 460e d83d 9cca a1be 6b84 d2bd
00000080: 1fe5 5abe 9609 26bd 79c5 1f3e 14e9 5ebd
00000090: cc34 16be 9f24 453d 778d 7c3e 9c3e 0d3e
000000a0: 07ea 4a3d 8026 a3bc 9600 a4bd 97f9 eabd
000000b0: a186 2cbc bc8f 55bd d172 8cbc 6c6d 023d
000000c0: 9d17 0fbe 5185 50be 5f35 78bc b72f 5e3d
000000d0: a01a a23e c515 fe3d cba3 1b3e 18c1 bebc
000000e0: f3a5 a6bc 4fa1 f0bd ccae d0bd 7e1b be3d
000000f0: 5310 3f3d 6ab6 b7bd 39c8 65be 831e f4ba
00000100: 1218 283e 1711 783e 7d45 aa3e c8bf 31be
00000110: cad2 ca3e 07af 693e 8eee a73e d5e7 01be
00000120: 2ce6 373c 7e08 12bd c03f e33d 4059 89bd
00000130: b9c2 993d a24b 08be 30c7 c0bc 2cfa 4d3d
00000140: 665d 42bf e3c8 f7be ad50 48be b48a 3abe
00000150: 59b9 7fbe 3c8d 1bbe c8d4 123f 2a40 bc3e
00000160: 89ad 9bbe 4ae1 d83e 7450 bc3b afe1 80bf
00000170: c573 94bf 76a8 a33e 32dd e13e f486 7e3f
00000180: 3c2d 5b3d 53ae c43d 1d0f 573e e909 a93e
00000190: 6ee2 8e3d 2940 9b3e 5675 40bf 1fb6 ae3e
000001a0: b824 b0bd 9388 68bd 27f3 8b3e e19f d1bb
000001b0: c77c 69bd 9e29 0d3d 689b 863d cba3 6e3d
000001c0: 2a1d 443d 524a f73d 33c9 093e 8473 e53d
000001d0: 6fe6 60bd b4d8 cebd a73d d23d 29e9 8bbe
000001e0: c74c 7abd 49c9 71bd 3813 29bd 3fcc c6bc
000001f0: 46b2 14be e42a d0bd 3030 d6bd 02c1 5c3e
00000200: ea20 b4be 8951 a2bd 2cde 84be 17ae f5bc
00000210: ef00 abbe edd8 3bbe d4ad 583d dfe4 5b3e
00000220: 7b72 4d3e b13c a23e b696 803e 03ac 3a3e
00000230: 708d 113e eb1a 883e 3f5d 87bd ba07 0bbe
00000240: 66bb eb3e e339 053e 68dd 4fbd b61e 343e
00000250: 2258 3d3e 039d 2cbe 8943 8fbe b2c5 0abe
00000260: 7ac2 1abe 7213 a13c ebf3 56bd 7fec b2bc
00000270: 3de8 80bd 00c0 e13d 0256 4b3e cc14 013e
00000280: d86d c0bd 97a8 8c3c 5448 17be 0c6b e2bb
00000290: a205 a33d 52ad 0ebe b77d 483e 839c a13c
000002a0: c9dd f93d 2b50 2b3d 7f50 8d3e bb50 493d
000002b0: fa37 7a3d cba9 7e3e c938 5fbd d891 60be
000002c0: ed87 65bd f4c5 b5bd 673e 78be 1145 aa3c
000002d0: b3b8 aa3d e55d 96be f716 993e 9a12 ae3d
000002e0: d8b5 49bd aba3 cb3d 2e52 a23d 7e18 ab3d
000002f0: c6ca 823d e209 423e eaa5 63bd 47ea 7bbc
00000300: f4e1 94be 3599 5cbe f14a d7bd f688 fbbd
00000310: 53de 4dbe 4ec8 3abe 2116 7b3e 991b 713e
00000320: 143e c3be 85bb 213f f95d 66bd 2d2e 44bf
00000330: 17a6 83bf eace 743e 2b3e 2f3e cbd8 443f
00000340: 5daa a33e 4bb6 9d3e a75c af3d 6b88 763e
00000350: f6c1 fabd c105 493d 30d9 dbbe 96db 9abe
00000360: e148 ecbe d866 d9bd dafb 823d e8ec 7fbe
00000370: 4464 4dbe 8b60 613d 9ce1 523e 87d6 673e
00000380: b987 4ebd 607e 2d3d 106f 1a3e c900 863b
00000390: 051b cbbd bf79 c0bd 4a50 5bbd 76cd bb3b
000003a0: c259 b33d f1e1 d63d bf74 003e e6f9 58bd
000003b0: 47b8 453e 6be6 083e 4afe 153e 037b 93bd
000003c0: 208d f2be 3759 2abe 71d3 2bbe 0e08 33bd
000003d0: 41a4 333d bdc5 4abd f392 3e3e b629 f23d
000003e0: 31d0 993e 6569 a13e 12b9 b03e f519 513e
000003f0: bd5b a63d cb95 833e 1317 d0bb d45d 9dbd

representation.0.bias f4 [32]
-0.0036641872 -0.064725816 -0.07631608 -0.048030782 0.07264516 0.048107386 -0.057996854 0.009483266
-0.041070465 -0.054109905 0.03145564 -0.03379638 0.02161663 0.014055603 0.06969211 -0.048635177
0.08803946 0.013491021 0.06266829 0.060697824 -0.0032434282 -0.0563064 0.062393945 -0.03617676
-0.05987978 -0.027713288 0.015133848 -0.073569454 -0.022839287 0.011414483 -0.06402913 0.061559144
00000000: dc22 70bb f88e 84bd 9b4b 9cbd edbb 44bd
00000010: fcc6 943d 400c 453d 1c8e 6dbd b35f 1b3c
00000020: 8139 28bd 59a2 5dbd a1d7 003d 136e 0abd
00000030: 5c15 b13c 7949 663c bdba 8e3d ae35 47bd
00000040: 084e b43d 7109 5d3c 3c58 803d 489e 783d
00000050: b28f 54bb 8aa1 66bd cb90 7f3d 152e 14bd
00000060: 8044 75bd fa06 e3bc f6f3 773c 95ab 96bd
00000070: 7519 bbbc d003 3b3c b421 83bd 7125 7c3d

representation.1.weight f4 [32]
0.85905814 0.5230728 0.63836277 0.8433755 0.5407533 0.86867684 0.75670576 0.65044487
0.7657794 0.7796643 0.716144 0.7052587 0.9189596 0.7201382 0.7016141 0.7920649
0.7429505 0.5746493 0.7054428 0.64154726 0.8759342 0.8492667 0.777817 0.5621995
0.845119 0.76354116 0.8820486 0.7293195 0.713696 0.7111517 0.74742955 0.575716
00000000: 3ceb 5b3f 19e8 053f be6b 233f 75e7 573f
00000010: cf6e 0a3f 9b61 5e3f 78b7 413f 8e83 263f
00000020: 1e0a 443f 1498 473f 3755 373f d68b 343f
00000030: f040 6b3f fa5a 383f fb9c 333f c4c4 4a3f
00000040: 0132 3e3f 371c 133f e697 343f 713c 243f
00000050: 393d 603f 8b69 593f 041f 473f 4eec 0f3f
00000060: b859 583f 6f77 433f f0cd 613f afb4 3a3f
00000070: c8b4 363f 0a0e 363f 8b57 3f3f 2062 133f

representation.1.bias f4 [32]
-0.13578092 0.37281108 0.36130038 0.26869994 0.55953276 -0.2248531 -0.33297792 -0.4816661
-0.39350975 0.30875576 -0.2846662 -0.1871245 -0.46422735 0.18318675 0.4120581 -0.3517702
0.16446656 -0.2210659 0.39473453 -0.5135172 -0.35882124 -0.2564821 0.085287794 0.41165507
-0.34629044 0.37084135 0.008327535 -0.4332576 -0.16788054 0.43563598 -0.40327835 0.3947492
00000000: 270a 0bbe 18e1 be3e 5dfc b83e 0a93 893e
00000010: 8a3d 0f3f e43f 66be 157c aabe f09c f6be
00000020: 1c7a c9be 3c15 9e3e c5bf 91be 919d 3fbe
00000030: 35af edbe 4f95 3b3e 47f9 d23e 391b b4be
00000040: ec69 283e 195f 62be a51a ca3e dd75 03bf
00000050: 6bb7 b7be 9f51 83be 5eab ae3d 74c4 d23e
00000060: fb4c b1be ebde bd3e 3770 083c f1d3 ddbe
00000070: e0e8 2bbe ae0b df3e 807a cebe 911c ca3e

representation.1.running_mean f4 [32]
12.743818 6.2529726 3.846711 8.449455 3.8105395 -7.0742407 -5.99897 -8.298655
-12.141754 1.7730947 -3.6510556 -12.670013 4.2399445 7.450696 5.339668 -5.9390798
-3.6131768 6.3326774 10.062674 -2.9539802 -8.052121 7.4852333 -1.5183994 -8.496001
-7.215968 3.5053246 2.0258608 -12.108289 -6.543909 2.0454233 -2.9643922 5.831435
00000000: aee6 4b41 5a18 c840 8330 7640 f830 0741
00000010: e1df 7340 2e60 e2c0 90f7 bfc0 4ac7 04c1
00000020: a044 42c1 c4f4 e23f e5aa 69c0 60b8 4ac1
00000030: a0ad 8740 1a6c ee40 8fde aa40 f10c bec0
00000040: 4a3e 67c0 4ba5 ca40 b600 2141 030e 3dc0
00000050: 7dd5 00c1 0887 ef40 e95a c2bf 9fef 07c1
00000060: 36e9 e6c0 3d57 6040 b4a7 0140 8dbb 41c1
00000070: b467 d1c0 37e8 0240 9ab8 3dc0 1e9b ba40

representation.1.running_var f4 [32]
80.80915 69.808105 89.18855 187.9753 64.04138 110.062744 78.99227 93.08983
67.39059 71.43955 50.695354 70.07895 70.61624 58.492966 95.246925 54.140343
54.218983 49.177277 118.71334 75.27333 68.64842 77.90675 50.79672 81.354355
80.24297 73.04883 59.413433 131.82695 54.358143 106.931694 118.149864 78.87014
00000000: 499e a142 c09d 8b42 8a60 b242 adf9 3b43
00000010: 3015 8042 2020 dc42 0bfc 9d42 fe2d ba42
00000020: fbc7 8642 0de1 8e42 0bc8 4a42 6c28 8c42
00000030: 843b 8d42 ccf8 6942 6d7e be42 b68f 5842
00000040: 3de0 5842 88b5 4442 3b6d ed42 f28b 9642
00000050: fe4b 8942 42d0 9b42 d72f 4b42 6eb5 a242
00000060: 677c a042 0019 9242 5ba7 6d42 b3d3 0343
00000070: bd6e 5942 07dd d542 bb4c ec42 83bd 9d42

model_weighting.0.weight f4 [4, 14]
0.42116868 0.45433456 -0.38958108 0.08569683 -0.1270673 -0.25234434 0.061820876 0.9776235
0.31914315 0.06579768 -0.07184034 0.09323286 -0.544659 -0.4383569 -0.36604786 -0.1025182
-0.15516987 0.11538849 0.0208444 0.0073739337 0.033209786 -0.24135524 -0.25159258 0.29326177
-0.13916682 0.033944596 0.22849005 -0.14457926 -0.006506049 -0.6428332 0.10119428 0.03603023
0.02922799 0.0026853723 0.08166489 -0.53247106 -0.2583029 0.17884068 0.0979163 -0.023497514
0.26455843 0.7075429 -0.03220221 0.11169748 -0.14983132 0.30537376 0.09085547 -0.032635417
0.00039439267 0.51111543 -0.0930631 0.12813179 -0.27854502 0.22342233 -0.086067125 -0.3942393
00000000: 6ca3 d73e 8a9e e83e 2c77 c7be d281 af3d
00000010: ee1d 02be 4733 81be e337 7d3d 8945 7a3f
00000020: bb66 a33e efc0 863d 0721 93bd dff0 be3d
00000030: c66e 0bbf 5170 e0be a06a bbbe 10f5 d1bd
00000040: dae4 1ebe cd50 ec3d e0c1 aa3c 0aa1 f13b
00000050: fc06 083d d425 77be bed0 80be 6826 963e
00000060: bf81 0ebe 7d09 0b3d 4cf9 693e 960c 14be
00000070: b230 d5bb b790 24bf f23e cf3d 6f94 133d
00000080: 8a6f ef3c 12fd 2f3b ec3f a73d 0650 08bf
00000090: 4740 84be 0322 373e 5788 c83d dc7d c0bc
000000a0: 3474 873e 8821 353f 77e6 03bd a6c1 e43d
000000b0: 626d 19be f359 9c3e 6f12 ba3d b7ac 05bd
000000c0: 7dc6 ce39 76d8 023f de97 bebd fb34 033e
000000d0: 749d 8ebe d3c8 643e f643 b0bd bcd9 c9be

model_weighting.0.bias f4 [4]
-0.26154268 -0.050873697 -0.07608948 -0.1825277
00000000: ece8 85be f060 50bd cdd4 9bbd 8be8 3abe

models.0.weight f4 [1, 32]
0.026929954 -0.15258881 -0.17085172 0.023788456 -0.25891793 0.03964395 0.14023846 0.23466204
0.11273174 -0.08138662 0.2190677 0.2059752 0.06523505 -0.14787446 -0.2214817 -0.02206593
-0.08648099 0.14226326 -0.22065218 0.31523347 0.14759594 0.027530653 -0.053421125 -0.18927908
0.14093487 -0.052351594 -0.2356893 0.16183165 0.16726303 -0.19810875 0.18491773 -0.17146255
00000000: 359c dc3c 3e40 1cbe c1f3 2ebe 02e0 c23c
00000010: e490 84be b261 223d ac9a 0f3e 3f4b 703e
00000020: e6df e63d 07ae a6bd 4853 603e 2aeb 523e
00000030: f499 853d 676c 17be 19cc 62be 9cc3 b4bc
00000040: f21c b1bd 76ad 113e a5f2 61be 4866 a13e
00000050: 6423 173e f787 e13c 1cd0 5abd 60d2 41be
00000060: 3b51 103e a06e 56bd 8958 71be 32b7 253e
00000070: 0047 2b3e 05dd 4abe 135b 3d3e e193 2fbe

models.1.weight f4 [1, 32]
-0.23147811 0.020392576 -0.06424655 -0.16695759 0.02297937 0.14504978 0.097869694 0.05931116
-0.004503301 -0.15317957 -0.028902106 0.09224877 -0.37124157 -0.15020056 -0.13191491 0.09596354
-0.04137688 0.03284101 -0.119880065 0.011390486 -0.19553813 -0.26963007 -0.15042752 -0.038920075
0.06513479 -0.010782438 0.014356086 0.14705431 0.062366303 -0.14693075 0.18507794 0.094222255
00000000: 9908 6dbe 550e a73c b293 83bd eef6 2abe
00000010: 3b3f bc3c ee87 143e e86f c83d 42f0 723d
00000020: 6d90 93bb 1bdb 1cbe 1cc4 ecbc ecec bc3d
00000030: 6013 bebe 2dce 19be b414 07be 8888 c43d
00000040: ce7a 29bd 4b84 063d ae83 f5bd 299f 3a3c
00000050: 263b 48be f40c 8abe ac09 1abe a86a 1fbd
00000060: 6465 853d d3a8 30bc ca35 6b3c 6895 163e
00000070: cf73 7f3d 0475 16be 1285 3d3e 99f7 c03d

models.2.weight f4 [1, 32]
-0.22506416 -0.26471233 -0.2279497 0.2123907 -0.34528133 -0.09510681 -0.15181376 0.18190822
0.133042 -0.06616201 0.17829306 -0.102079615 -0.23440152 -0.11969667 0.067609474 0.100952186
-0.16031261 0.010738344 0.05573588 0.16789109 0.064350955 -0.38008162 -0.19181079 -0.1737354
-0.17875867 0.08700223 0.11470982 0.10831052 0.22732674 -0.23116754 0.12201966 -0.31299132
00000000: 3877 66be 6088 87be a56b 69be f37c 593e
00000010: b7c8 b0be 5cc7 c2bd 1175 1bbe 2646 3a3e
00000020: 293c 083e f37f 87bd 7592 363e 1e0f d1bd
00000030: f406 70be 8723 f5bd d676 8a3d 05c0 ce3d
00000040: fd28 24be e1ef 2f3c 4e4b 643d a4eb 2b3e
00000050: 6fca 833d 0f9a c2be 0c6a 44be b1e7 31be
00000060: 830c 37be 3a2e b23d fbec ea3d e8d1 dd3d
00000070: 57c8 683e 2fb7 6cbe 72e5 f93d 6640 a0be

models.3.weight f4 [1, 32]
-0.18627886 -0.055307213 -0.21761337 -0.23975867 -0.1268161 0.094780274 0.40886992 0.20216022
0.35725495 0.053621028 -0.32715487 -0.034331713 -0.40820748 0.054142136 -0.09974077 0.33279678
0.04223064 -0.28309566 -0.044574134 -0.041830424 0.41399208 -0.17006688 0.14121631 -0.019581748
0.5190846 -0.57714736 -0.35308033 0.10099829 -0.07371682 -0.0031925903 -0.004056257 -0.06532018
00000000: e3bf 3ebe d189 62bd 0ad6 5ebe 4c83 75be
00000010: 14dc 01be 291c c23d 6657 d13e 1703 4f3e
00000020: 1fea b63e b9a1 5b3d d880 a7be 699f 0cbd
00000030: 9200 d1be 25c4 5d3d e444 ccbd 5764 aa3e
00000040: 09fa 2c3d eaf1 90be 5e93 36bd 6156 2bbd
00000050: c5f6 d33e 0326 2ebe 029b 103e e769 a0bc
00000060: bae2 043f eebf 13bf f2c6 b4be 31d8 ce3d
00000070: d8f8 96bd c73a 51bb 5aea 84bb 96c6 85bd

aggregator.weight f4 [14, 14]
-0.15457515 -0.55735624 0.18967986 -0.26735136 -0.44409218 -0.02949081 -0.17081368 -0.32104406
0.2106599 -0.086312585 0.43577498 0.35457784 -0.059675064 0.37573147 0.13613723 -0.09294566
1.1071814 -0.12942985 -0.29710945 -0.08256555 -0.38694307 -0.24753639 -0.74635756 0.24124905
-0.38224438 -0.43257406 -0.83629435 -0.6451432 -0.14923736 -0.26796097 -0.74649227 -0.23835301
-0.009397564 -0.36527774 -0.022733865 0.06549292 0.15829726 -0.5497134 0.33604825 0.46494567
0.47106993 0.35051963 -0.20747283 0.39390197 0.12810905 -0.48122275 -0.055416968 -0.030796062
-0.061442316 -0.026510095 -0.54132956 -0.091123424 -0.551793 -0.15340701 -0.5515065 -0.5006723
-0.05634898 0.21076003 -0.12812795 -0.06572256 0.19738312 -0.13796104 0.47441036 0.26429242
0.32481936 0.0929133 0.16917409 0.1605129 0.5590536 0.5202426 0.27511862 0.4498874
-0.14676635 0.22105658 0.28813365 -0.16829991 -0.18129264 0.04568645 -0.025795978 0.1110456
-0.30555192 -0.3131351 0.121565245 -0.29955405 0.23371358 -0.100520514 0.01603668 0.40155804
-0.18120293 -0.1924672 -0.090070896 -0.06882369 0.03230131 -0.3592878 0.4322288 -0.020900661
0.38342598 0.25975567 -0.23428656 -0.30599105 0.89831764 -0.37024176 -0.17422852 0.10990656
-0.7396591 0.2178362 -0.5295383 -0.20324428 -0.46755156 -0.68120223 -0.9464196 -0.92851174
0.06738495 -0.4993284 0.2366129 0.07261451 -0.020505939 0.112818524 0.0032118768 0.1449357
-0.2308713 -0.0017997134 0.25388244 0.022796562 -0.10724382 -0.07066385 0.14080662 0.07889294
-0.3111386 0.06951338 0.31186438 -0.12820487 -0.27887255 -0.14269553 -0.0065913247 0.14350498
-0.50719243 -0.49779773 -0.122383416 -0.470214 0.17812774 -0.23990199 -0.255071 0.10334665
-0.27066633 0.1013816 0.14987154 0.110474005 0.3920477 -0.15285064 0.58813035 0.26888463
0.66585094 0.5613292 -0.07396199 0.14572507 0.30909964 -0.21880887 0.0718257 -0.25068438
-0.5334588 0.10454624 -0.4910427 0.13684615 -0.7661487 -0.4058404 -0.65844357 -0.42816886
-0.11772845 0.505694 -0.5839083 -0.11003193 -0.07547109 -0.3628477 0.0006876143 -0.3131372
0.097590074 -0.15223101 -0.17309685 0.27155873 -0.033133898 0.3263642 -0.030178357 -0.1937127
-0.9011676 0.4322873 0.11924771 0.08574075 0.62581193 0.13712317 0.7122567 0.11481628
0.7504943 0.68334514 0.70737404 0.90320987
00000000: f348 1ebe e6ae 0ebf 703b 423e 47e2 88be
00000010: 0d60 e3be b696 f1bc c8e9 2ebe e35f a4be
00000020: 3bb7 573e a7c4 b0bd e61d df3e 3a8b b53e
00000030: d76d 74bd e05f c03e 8f67 0b3e 4b5a bebd
00000040: 1fb8 8d3f 4289 04be bb1e 98be 2118 a9bd
00000050: 671d c6be 2e7a 7dbe 4a11 3fbf fe09 773e
00000060: 89b5 c3be 597a ddbe 6317 56bf 1b28 25bf
00000070: aed1 18be 2e32 89be 1e1a 3fbf d012 74be
00000080: 3ef8 19bc af05 bbbe 5f3c babc 2721 863d
00000090: ad18 223e 04ba 0cbf 840e ac3e 5c0d ee3e
000000a0: 1430 f13e 4f77 b33e c273 54be 85ad c93e
000000b0: 052f 033e d462 f6be e7fc 62bd 0648 fcbc
000000c0: f0aa 7bbd b32b d9bc 9394 0abf eb9e babd
000000d0: 4e42 0dbf ba16 1dbe 882f 0dbf 0f2c 00bf
000000e0: 30ce 66bd 7ad1 573e f933 03be 8d99 86bd
000000f0: cd1e 4a3e a945 0dbe eae5 f23e 5651 873e
00000100: b94e a63e 5449 be3d f93b 2d3e 7e5d 243e
00000110: 231e 0f3f 9e2e 053f 59dc 8c3e a457 e63e
00000120: eb49 16be a85c 623e 4186 933e d056 2cbe
00000130: c7a4 39be b721 3b3d 1652 d3bc e06b e33d
00000140: 4d71 9cbe 3e53 a0be 33f7 f83d 265f 99be
00000150: 9d52 6f3e b3dd cdbd 5b5f 833c 0499 cd3e
00000160: 438d 39be 1f16 45be 1777 b8bd 6ff3 8cbd
00000170: 614e 043d 92f4 b7be 184d dd3e dd37 abbc
00000180: 6950 c43e b2fe 843e d1e8 6fbe dcaa 9cbe
00000190: 25f8 653f 5490 bdbe f668 32be b116 e13d
000001a0: 4c5a 3dbf 7410 5f3e d28f 07bf 451f 50be
000001b0: eb62 efbe 4563 2ebf 8e48 72bf f2b2 6dbf
000001c0: 1f01 8a3d f9a7 ffbe a74a 723e ebb6 943d
000001d0: 12fc a7bc 660d e73d 5a7e 523b 066a 143e
000001e0: 8769 6cbe 5ce4 ebba e1fc 813e dbbf ba3c
000001f0: a6a2 dbbd 35b8 90bd 9c2f 103e 9f92 a13d
00000200: 8f4d 9fbe 085d 8e3d b0ac 9f3e 2348 03be
00000210: 62c8 8ebe c71e 12be 0afc d7bb f8f2 123e
00000220: 5dd7 01bf 58df febe 28a4 fabd e4bf f0be
00000230: 1e67 363e dea8 75be ab98 82be 69a7 d33d
00000240: c794 8abe 28a1 cf3d ed77 193e 3240 e23d
00000250: 7aba c83e e184 1cbe b68f 163f 3fab 893e
00000260: 3575 2a3f 45b3 0f3f 6279 97bd f438 153e
00000270: 4f42 9e3e 6f0f 60be 5a19 933d b459 80be
00000280: c290 08bf 571c d63d f369 fbbe 6621 0c3e
00000290: 5222 44bf 50ca cfbe c28f 28bf f338 dbbe
000002a0: 9d1b f1bd 2975 013f 047b 15bf 6c58 e1bd
000002b0: 9690 9abd 2cc7 b9be 0441 343a 8553 a0be
000002c0: 4edd c73d 72e2 1bbe 4d40 31be bf09 8b3e
000002d0: 69b7 07bd 3519 a73e 9a38 f7bc 9f5c 46be
000002e0: ebb2 66bf c354 dd3e 2538 f43d d998 af3d
000002f0: 3635 203f 046a 0c3e 7556 363f cc24 eb3d
00000300: 6520 403f b5ef 2e3f 7716 353f c338 673f

aggregator.bias f4 [14]
0.034794547 0.124892905 0.077668086 0.010843 -0.22404914 -0.07847782 0.027488403 -0.018564522
0.010345423 0.18786316 -0.07298217 0.030762922 0.107020356 -0.14498007
00000000: ba84 0e3d dac7 ff3d 7210 9f3d d7a6 313c
00000010: 236d 65be fbb8 a0bd 5c2f e13c a014 98bc
00000020: d97f 293c 335f 403e ad77 95bd 8602 fc3c
00000030: 7d2d db3d a875 14be
